online/12_D2.pth (torch, 158980 bytes, 8 tensors)

li1.weight f4 [1, 24]
000000 fe c4 9e 3d fd 82 85 3e 85 9d 88 3b 1a a6 1c be
       0.07752417 0.260765 0.0041691684 -0.15297738
000010 dc 3e 09 3e cf 1b af 3c 4d 6e f5 3d 12 46 84 bd
       0.13402885 0.021375565 0.11983929 -0.06458677
000020 34 22 ad bd a3 b9 c7 bc 14 62 a5 3d 13 c7 0c be
       -0.08453789 -0.02438051 0.080753475 -0.13747816
000030 e3 96 6c be 7f b8 1c 3e 01 d7 b4 bc 98 96 92 3d
       -0.23104434 0.15304755 -0.022075178 0.0715763
000040 bb e3 01 3c ed 0b bc bc cf 6a 46 bd c4 be 39 3e
       0.00792783 -0.022954905 -0.048441704 0.18139178
000050 0b ce 68 be c8 59 a0 3c 46 07 c6 3c 1d 09 c3 3d
       -0.22734849 0.019574061 0.02417339 0.095232226

li2.0.weight f4 [512, 70]
000000 c2 07 2f bd 32 5f d2 bd e1 d6 d2 bd ef 70 90 bc
       -0.042732008 -0.10272063 -0.10294891 -0.017631976
000010 c7 d8 91 bd 31 34 59 3d 7f 59 d8 bd 2c a8 d9 bd
       -0.07121425 0.05302829 -0.10563945 -0.10627779
000020 04 3d 93 bd d2 b3 71 bd 3d a8 88 3c 11 5c d2 bd
       -0.07189372 -0.05900938 0.016681785 -0.102714665
000030 be 40 13 3d 23 6a 05 3d fc c0 80 3d 49 e3 83 3d
       0.035950415 0.032571923 0.06286809 0.064398356
000040 db ef 14 bc 97 35 66 3d fc 10 9a 3d 5b 71 2a 3c
       -0.009090389 0.05620345 0.07522771 0.010403003
000050 fe 9b 66 bd 58 f4 64 bd 33 dd 3e bc 88 9a 16 bd
       -0.05630111 -0.055897087 -0.011649418 -0.036768466
000060 b9 d5 d3 3d b4 6a 40 bc 07 6e d9 3d 32 b5 3b bc
       0.10343499 -0.01174419 0.10616689 -0.011456775
000070 12 e3 80 bc ad 1b db bc 4e cd c7 bd 2b 8e c4 3d
       -0.015733276 -0.026746595 -0.09755956 0.09597429
000080 6e 39 8c 3c 41 3a 66 bd 3b 02 6a 3d 74 af d2 3c
       0.017117228 -0.0562079 0.057131033 0.025718428
000090 2d 50 f2 3d a0 bb a0 3d 44 b2 6e bd dd 9f d0 bd
       0.118316986 0.07848287 -0.058275476 -0.101867415
0000a0 13 38 03 3d c9 27 8f 3d a7 6f 80 bc 83 2a 5d bc
       0.0320359 0.0699001 -0.01567824 -0.013498905
0000b0 fe 29 e3 bd cf 21 6b 3d 1b a5 e7 bc 5e 2e 9d 3d
       -0.11091994 0.05740529 -0.02827697 0.076748595
0000c0 ea a4 90 bd a6 7b 0a 3d 8f be e0 3c 75 e8 ef 3d
       -0.07062705 0.033809327 0.027434615 0.117142595
0000d0 0c 0f 8e 3c b1 e6 8c 3d f2 97 c8 3d ff 2c e2 3d
       0.01734116 0.068799384 0.09794606 0.110437386
0000e0 27 ee 56 bc 4e 83 f8 3c fd 37 f0 bd 77 36 d6 3c
       -0.013118303 0.030336048 -0.11729429 0.026149018
0000f0 91 3c d4 bd 54 55 cb bd d6 2e ec 3d 87 54 e9 3d
       -0.103631146 -0.099283844 0.11532371 0.113930754
000100 9e 5a 0a bd 92 2d e2 3d 27 33 81 3d 61 d7 93 bd
       -0.033777826 0.11043848 0.06308585 -0.07218815
000110 7f 5a 2e bc 0d eb 4a bd fa 4c 80 bd 2e 08 35 3d
       -0.010641693 -0.04954057 -0.06264682 0.044197254
000120 51 91 96 bd 5f 84 a2 bc a2 96 3f bd e8 4e 14 3d
       -0.07351936 -0.01983851 -0.046774514 0.036208063
000130 2d 7b 57 bd 4b b9 6d bd f7 0e 1c bd 4c 88 0c bc
       -0.052607704 -0.058038037 -0.03810021 -0.008577418
000140 dc 9b bd bd 5d e7 66 3d be ec c1 bd 3e f9 42 3d
       -0.092582434 0.05637299 -0.09468983 0.047600977
000150 df 28 cc bd 1e 00 18 3d c7 16 1b bd 2c bb 9a 3c
       -0.09968733 0.037109487 -0.03786352 0.018888079
000160 54 0a 9e 3d 06 d1 b5 3d c1 c8 5a 3d 35 e2 de bd
       0.07716814 0.08877759 0.05341411 -0.10882989
000170 6d f9 37 bd 1a 51 cb 3d ac df c5 bc 72 11 3a 3c
       -0.044915605 0.09927578 -0.024154507 0.011356698
000180 90 ef 88 3d 5f 01 7a bd 8b bd b6 bd 1b 0e 1e 3a
       0.06686318 -0.061036464 -0.08922871 0.00060293236
000190 ed 1c aa b9 99 71 89 3c fc 82 e2 3d 76 d2 44 3d
       -0.00032446478 0.0167778 0.110601395 0.048052274
0001a0 46 fb a6 3d d8 2f 33 3d 0d e0 cd bc d5 b1 40 3d
       0.08153395 0.0437468 -0.02513125 0.047044594
0001b0 b3 6e 8f 3d cd a1 4a 3d 7c 4d 2f 3d 37 2c 99 3d
       0.07003536 0.04947071 0.042798504 0.074791364
0001c0 d5 82 e4 bd 05 2e f5 3d d2 e5 ad bd c5 25 b8 b9
       -0.11157767 0.11971668 -0.084911 -0.00035123355
0001d0 66 15 b6 3c 27 1e 8e bd 68 2d 00 3d 99 9e a1 3d
       0.022227 -0.06939345 0.031293303 0.07891578
0001e0 00 d9 ee bd f3 f7 a6 bd 61 c8 e7 3d fe 3d 5f bd
       -0.11662483 -0.08152761 0.11317516 -0.05450248
0001f0 a1 f6 98 3d d6 8e be 3c c7 82 d9 bc 50 73 57 3d
       0.07468916 0.023261469 -0.026551617 0.052600205
000200 c6 f3 ed 3d dd 81 a2 bd 21 72 c4 bd 0e f9 f7 bc
       0.11618762 -0.07934926 -0.09592081 -0.030270126
000210 50 94 16 bd ee bb d2 3d 43 33 2c 3d c1 c8 51 3d
       -0.036762536 0.10289751 0.042041074 0.051216844
000220 cc 4f f0 bd f3 d6 27 3c db 48 e8 3d 26 8f cf 3d
       -0.1173397 0.010244119 0.11342021 0.10134725
000230 16 38 eb bd ed 2d 90 bd 61 d5 1a bd f4 ea bf 3c
       -0.11485307 -0.0704001 -0.03780115 0.023427464
000240 82 7e 90 3d 72 f8 a9 bd 52 31 45 3d c4 19 aa bd
       0.070553795 -0.0829934 0.04814274 -0.08305696
000250 67 31 98 bc 98 19 db 3d e3 a2 da bb 66 52 8a bd
       -0.018578244 0.10698241 -0.0066722496 -0.067539975
000260 a7 77 8d bc 01 9a eb 3c 4e 3b 89 3d 0f 56 3d bc
       -0.017268969 0.028759958 0.067007646 -0.0115561625
000270 00 8f 99 3d 4f dc d2 3c f5 88 dc 3c 50 16 c8 bd
       0.07497978 0.025739817 0.026920775 -0.09769881
000280 00 92 a5 3d 42 82 df 3d 77 0a f0 bd 0b 9d 8c bd
       0.08084488 0.109135166 -0.11720746 -0.06865891
000290 0a c4 c4 bd d4 1e 20 bd 79 45 c8 bd 46 9d 1f 3d
       -0.09607704 -0.0390919 -0.09778876 0.038968347
0002a0 0f 1d 0a 3d fb 8f d3 3d dd 4d 5f 3b 3a 5c 82 3d
       0.03371912 0.103301965 0.003407351 0.06365247
0002b0 f2 39 be bd 13 cf 64 bd 5b 56 4f bb 4a 55 39 3a
       -0.09288396 -0.055861544 -0.0031637165 0.0007069899
0002c0 b9 57 86 bd 97 53 47 3d ed 04 60 3d 9a 90 a3 3d
       -0.065597005 0.0486637 0.054692198 0.07986565
0002d0 58 e3 70 3d 86 36 d8 3b bf 56 d1 3d 74 4c 90 bc
       0.058810562 0.0065982966 0.10221624 -0.01761458
0002e0 39 3e 82 b9 ce 08 a8 3b 80 18 cf 3d e5 18 9c bc
       -0.00024841892 0.0051280027 0.10112095 -0.01905484
0002f0 db de ce 3d b3 3d a9 3d d3 9d 8b 3d 9e 89 57 bd
       0.101011 0.08263721 0.06817212 -0.052621476
000300 1c d8 ba bc 79 c1 30 bd 98 1e a3 bd 4e 0d c7 3d
       -0.022808127 -0.04315326 -0.0796482 0.097193345
000310 13 c7 e7 3c ff 29 e1 bc dd ae a8 3d e5 e8 ac bd
       0.028293168 -0.027485846 0.082364775 -0.084428586
000320 04 25 e5 3c fb c6 c0 bd 60 aa 3a ba ee ad e5 bc
       0.027971752 -0.094129525 -0.0007120725 -0.028037038
000330 ba 2b 03 bd 88 de 16 3d fb a0 3b bd 87 dc a2 3d
       -0.032024123 0.036833316 -0.04580782 0.079522185
000340 bf 01 ee 3d 59 7f 9b 3c e6 83 8e 3d 83 b0 12 3d
       0.11621427 0.018981623 0.069587514 0.035812866
000350 83 1c f6 bd 58 45 8b 3d 6f 70 f0 bd 89 0e a0 bc
       -0.12017157 0.06800336 -0.11740195 -0.01953818
000360 92 09 be bc 51 f7 b1 3d a7 46 9e bd 01 9c 76 3c
       -0.023197923 0.0868975 -0.077283196 0.015051843
000370 32 80 0f bc 91 56 6d bd 93 d2 87 bc a7 95 52 bd
       -0.0087585915 -0.057943884 -0.016579902 -0.05141225
000380 46 48 ae bd c3 92 63 bc d2 3e c0 3b 94 74 28 bd
       -0.08509879 -0.013889971 0.0058668638 -0.041126803
000390 00 31 c3 3b c5 6c 1f 3d 0c f0 91 bd 61 74 18 bc
       0.005956769 0.03892209 -0.071258634 -0.009305091
0003a0 31 d7 ca 3d 46 b0 f0 bd 8c 23 21 bd 6d 88 20 bd
       0.09904326 -0.117523715 -0.03934054 -0.039192606
0003b0 5f 65 c4 bd 59 9c af 3d ef 1d 72 3d d7 06 85 bd
       -0.095896475 0.08574743 0.05911058 -0.06495445
0003c0 93 17 f6 bd 3f 13 2d bd 14 db e5 bd a6 15 ed bc
       -0.12016215 -0.042254683 -0.112234265 -0.028940987
0003d0 b3 c3 bb bd 26 56 ea bc 73 3d c0 bd e6 00 ce 3d
       -0.09168186 -0.028605532 -0.093867205 0.10058765
0003e0 f1 2a b1 3d ed b5 6e bd df e7 c9 bd 08 3e f5 bd
       0.086507685 -0.058278967 -0.09858679 -0.11974722
0003f0 8b 2d f3 bd 57 b5 91 3b 48 b8 8e bc 4c 24 43 bd
       -0.11873921 0.004446666 -0.017421857 -0.047642037

li2.0.bias f4 [512]
000000 93 ed 0d 3c 98 7d 98 bd 8a 61 9b bd cf 48 c2 bc
       0.008662599 -0.0744583 -0.075869635 -0.023716358
000010 6d 5c 33 3d b0 32 bf bd 0f 44 e5 bb 75 b8 1a 3d
       0.043789316 -0.0933584 -0.0069966386 0.03777357
000020 37 2a 20 bd 70 7c bb 3c bc 2d e8 bc a6 8a 9f 3d
       -0.03910276 0.022886485 -0.02834212 0.07790117
000030 62 09 d7 3d 62 75 21 3d 5a 0d 26 bd 1c 42 27 3b
       0.104998365 0.039418586 -0.040540077 0.0025521582
000040 07 e9 6d bb a0 2d a2 3d 7c 72 27 3d f5 ff a0 bd
       -0.0036302225 0.079188585 0.040880665 -0.0786132
000050 7c f6 47 b9 a3 59 e6 3d 43 dd e3 bd 27 37 51 bd
       -0.00019069941 0.112475656 -0.11126187 -0.051077988
000060 08 87 28 bd df 33 ea 3d b2 3e 20 bc 1a 5d db bb
       -0.0411444 0.11435675 -0.009780573 -0.006694448
000070 bc 90 cf 3d d3 c4 ca bd a1 a2 86 bc 38 b5 ac 3d
       0.10135028 -0.099008225 -0.01643497 0.08433002
000080 e7 b7 cb bd 2f 16 c4 3d 14 b7 9b bd bd 52 19 3d
       -0.09947186 0.09574544 -0.07603279 0.03743242
000090 1b 8a b3 3d 46 49 80 bd b5 76 79 bd 8b 77 e5 3c
       0.08766576 -0.06263976 -0.060904223 0.028011104
0000a0 b0 97 8e bd 3b 28 a9 3d d0 95 87 3d 6f 8b 4d 3d
       -0.06962526 0.082596265 0.06620371 0.050181802
0000b0 73 a6 63 bd 8e ed 37 bc 88 d2 a0 bd 8b ed 9d 3d
       -0.05557866 -0.011226071 -0.07852656 0.07711323
0000c0 07 59 b3 3d 4d 80 a5 bd ca b1 ec 3a b4 39 b2 ba
       0.08757215 -0.08081112 0.0018058356 -0.0013597519
0000d0 39 b6 2b 3d 39 34 dd bd 1d 95 12 3d 94 3b 9c bb
       0.041921828 -0.10800976 0.035786737 -0.0047678445
0000e0 db 43 b0 3d 43 25 8a 3c 93 9e ba bc ad df 9d 3d
       0.086066924 0.01686347 -0.022780692 0.077086784
0000f0 11 79 e9 bd ce 51 65 3b 98 01 9c bd 28 00 5b bd
       -0.11400045 0.0034991386 -0.076174915 -0.053466946
000100 e2 67 68 bd 88 49 ed bd 24 ae 26 bc d1 3f 51 bd
       -0.056739695 -0.115862906 -0.010173354 -0.05108625
000110 a4 46 ee 3c d4 0c 7e 3d e5 7e 5b bd 78 bf ef 3a
       0.029086418 0.062023953 -0.053587813 0.0018291315
000120 86 a7 22 3d 91 fd 4e 3c ba 2a 9f 3d 39 0b a4 bc
       0.039710544 0.012633697 0.07771821 -0.020024883
000130 ae 3c 82 bd 0f 58 aa bd 96 3e 1e 3d 8e a3 1f bd
       -0.0635923 -0.08317577 0.038633905 -0.038974337
000140 02 be f1 bd f3 ca 19 bc 15 a2 8a 3d da d3 27 3d
       -0.11803819 -0.009386766 0.06769196 0.04097352
000150 b5 dd 07 bd a9 41 36 3c 24 68 b8 bd 40 4f b4 3d
       -0.03317042 0.011124053 -0.09004238 0.08804178
000160 a5 c4 d9 3d 3f dd 4d 3d ea 8b b1 3b 87 9d 18 3d
       0.1063321 0.050259825 0.0054182904 0.037259605
000170 01 02 b2 3d 5a 74 92 3c 25 cb 00 bd 51 72 b1 bd
       0.086917885 0.017877746 -0.031443734 -0.08664382
000180 5f 1d 71 3c 9f bb 3c 3c 43 14 f8 bc 1e 48 f1 3d
       0.014716475 0.011519342 -0.030283099 0.117813334
000190 9f d0 bc 3d dc c7 99 bd 3b 5d ce bd 62 c1 21 3d
       0.09219479 -0.07508823 -0.10076376 0.039491065
0001a0 53 20 74 3d 40 de e2 bc 62 f2 3d bd 50 63 d5 bd
       0.05960114 -0.027693868 -0.046373732 -0.10419333
0001b0 20 0b 99 3d 2a ec 37 3d 31 4d 2b 3d f9 74 60 3c
       0.07472825 0.044902958 0.041821662 0.013699763
0001c0 d0 71 04 3d de 9a ee bd 87 ab fa 3c fe 5d d7 3d
       0.032335103 -0.11650632 0.030599369 0.105159745
0001d0 3f a5 29 3d e4 f1 f8 bc b5 87 ba 3d 3b 1b 9e 3d
       0.041417357 -0.03038878 0.09107915 0.077200375
0001e0 62 27 bc bc ba 39 93 3d 47 6e 7c 3d 81 24 1f bd
       -0.022967998 0.07188745 0.061628606 -0.038853172
0001f0 5b d8 ab 3d a4 00 76 bd fa d0 ef bc 4b 0b a5 3d
       0.08390876 -0.060059205 -0.029274452 0.080587946
000200 27 e0 eb bd f2 48 d9 bd cf b4 c3 3d 13 c7 ef 3d
       -0.11517363 -0.10609616 0.09555971 0.11707892
000210 25 35 10 bd c8 af db bd 44 05 91 bc 52 b9 76 3c
       -0.035206933 -0.10726887 -0.017702706 0.015058832
000220 cc 61 90 bd 92 96 99 3d 3a e5 31 3d 70 9d 58 3d
       -0.07049903 0.07499422 0.043431498 0.05288452
000230 21 a4 ba 3d 65 38 a4 3d a8 cb 56 bd 60 e1 f2 bc
       0.09113336 0.08018569 -0.052440315 -0.029648483
000240 34 9c 97 3d 4d 17 97 3c b2 7e c1 3c 3a 7d 2b bc
       0.0740284 0.018443728 0.023619983 -0.010466868
000250 5e e7 aa bd e1 bb e4 bd 10 c9 03 bc f1 57 29 bd
       -0.08344911 -0.111686476 -0.0080435425 -0.041343633
000260 92 35 30 3d 97 a7 81 bc 23 66 82 bd c9 b9 8b bc
       0.04301984 -0.015826983 -0.06367137 -0.017056363
000270 2a 3e 9b 3d 2e 24 de 3d a2 2c f4 bd 4b 69 1c 3c
       0.07580216 0.108467445 -0.119225755 0.009546588
000280 e6 1e df bc 73 b1 ae 3d 18 c9 0e bd be 30 8c bd
       -0.027236413 0.085299395 -0.034859747 -0.06845234
000290 13 90 9a bc b9 17 95 3d 8a 45 11 bd 90 e6 2d 3c
       -0.018867528 0.07279915 -0.03546671 0.010614052
0002a0 ea d8 e8 3d 6a 9e 81 bd 75 5a d7 bc 38 88 8d bd
       0.11369498 -0.06329043 -0.02628825 -0.06910747
0002b0 ee 72 d2 bc 9e 0d 1b bd 5a c9 9e 3d c5 32 32 3c
       -0.025689568 -0.037854783 0.077532485 0.010876362
0002c0 8e 74 60 bd df c3 df bc e6 6f 8b 3d 41 98 dd bd
       -0.054798655 -0.027315078 0.06808452 -0.10820056
0002d0 f4 41 a7 bd 18 d3 50 bd fa 68 ee 3d e9 e9 38 3d
       -0.081668764 -0.050982565 0.116411164 0.04514495
0002e0 4b ec 18 bd 23 16 49 bd 4c 41 cd 3d a6 13 5f bd
       -0.03733472 -0.049093377 0.1002222 -0.054462098
0002f0 97 1e 48 3d 83 1c e9 bd f3 12 96 bd e9 5b 53 bd
       0.048857298 -0.11382391 -0.07327833 -0.051601324
000300 3c 79 d7 bc ee cc 9c 3d 3d 92 f2 bd 56 43 de bd
       -0.026302926 0.07656275 -0.11844299 -0.10852687
000310 b2 3c f4 3d 45 9e d3 bd c3 a4 7b 3d 15 5c 1f 3c
       0.11925639 -0.10332922 0.061436426 0.009726544
000320 ee 47 b9 bc e8 10 85 3d 1a e1 b0 bd c5 92 92 3b
       -0.022617307 0.06497365 -0.08636685 0.0044730627
000330 37 d2 29 bd 3a 94 f3 3d 09 13 7c 3d 7c d8 f1 3c
       -0.041460242 0.11893506 0.06154159 0.029522173
000340 5a 74 35 bd ef 92 7f 3d 00 3d 05 3d 6b ba 07 3d
       -0.044300415 0.062395986 0.032528877 0.033136766
000350 79 96 97 3c 0b 76 a2 3d 46 b7 a3 bd 11 07 b1 3c
       0.018504368 0.07932671 -0.07993941 0.021609815
000360 01 85 b1 3d cd f5 9c 3d 1e d6 af bd 0b aa c8 bd
       0.086679466 0.0766407 -0.085857615 -0.09798058
000370 91 ce 72 3d 47 7b c9 3d 35 4d 08 3c 62 6a b4 bb
       0.05927903 0.098379664 0.008319189 -0.005505846
000380 c0 cf ae 3b b3 7e 02 bd fd b9 ba 3d 8f 0c 5c ba
       0.0053348243 -0.03185911 0.09117506 -0.00083942054
000390 2c d9 0a bd 1b ca 8d 3c ae 48 4d 3d ad fa 6a bd
       -0.033898517 0.017308285 0.05011814 -0.05736797
0003a0 2e 2e bb bc 36 7c 2c bd a9 2c ce 3d 15 e1 38 3c
       -0.022849169 -0.042110644 0.10067112 0.0112841325
0003b0 38 cc 13 3d ad 3e ca bc 81 7c 47 bd 5e ac 83 bd
       0.03608343 -0.02468809 -0.04870272 -0.06429361
0003c0 ce d2 ab 3b ec 11 b9 3d ce 85 62 3d cb 01 e0 bd
       0.0052436357 0.090366215 0.055303387 -0.10937842
0003d0 23 6f ba 3d cd c3 34 bd ae 84 ad 3d fd 1e 9f 3d
       0.09103229 -0.044132043 0.08472572 0.077695824
0003e0 e1 5a d6 3d b2 02 cf bd d2 c0 8c bd 35 7e dd 3d
       0.104665525 -0.10107936 -0.06872715 0.10815088
0003f0 16 7a 52 3d 89 ff 88 3c 90 8d 77 bd d7 13 93 bd
       0.05138596 0.016723411 -0.06043774 -0.071815185

li2.1.weight f4 [512]
000000 78 fb 7f 3f b6 f2 7f 3f ee fa 7f 3f dc f5 7f 3f
       0.99993086 0.9997972 0.99992263 0.99984527
000010 f3 ee 7f 3f 18 01 80 3f 6c 00 80 3f 26 fe 7f 3f
       0.9997398 1.0000334 1.0000129 0.99997175
000020 c8 07 80 3f b3 f7 7f 3f 1f f6 7f 3f df 06 80 3f
       1.0002375 0.99987334 0.99984926 1.0002097
000030 ea f9 7f 3f cd f3 7f 3f 8a f6 7f 3f 40 f8 7f 3f
       0.99990714 0.99981385 0.99985564 0.99988174
000040 f4 5b 80 3f 53 fa 7f 3f 70 fa 7f 3f 58 f0 7f 3f
       1.0028062 0.9999134 0.9999151 0.9997611
000050 c6 02 80 3f e9 f3 7f 3f f4 fe 7f 3f 5c e7 7f 3f
       1.0000846 0.9998155 0.999984 0.999624
000060 e6 f5 7f 3f 84 04 80 3f 32 ff 7f 3f 3f f7 7f 3f
       0.99984586 1.0001378 0.9999877 0.9998664
000070 65 03 80 3f f1 00 80 3f d2 c8 7f 3f f0 ff 7f 3f
       1.0001036 1.0000287 0.999158 0.99999905
000080 68 e2 7f 3f a2 eb 7f 3f 74 fc 7f 3f c1 fb 7f 3f
       0.99954844 0.9996892 0.9999459 0.9999352
000090 ce 06 80 3f 7d 00 80 3f 05 e3 7f 3f 24 03 80 3f
       1.0002077 1.0000149 0.9995578 1.0000958
0000a0 ee f7 7f 3f 68 ef 7f 3f c9 d5 7f 3f 3a e9 7f 3f
       0.99987686 0.9997468 0.99935585 0.9996525
0000b0 23 12 80 3f 81 e1 7f 3f e6 f3 7f 3f 22 f8 7f 3f
       1.0005535 0.99953467 0.99981534 0.99987996
0000c0 c0 fe 7f 3f b1 f2 7f 3f 28 fb 7f 3f 25 f9 7f 3f
       0.9999809 0.9997969 0.9999261 0.9998954
0000d0 d7 ed 7f 3f a8 ff 7f 3f 4e c7 7f 3f f5 e6 7f 3f
       0.9997229 0.99999475 0.9991349 0.9996179
0000e0 e5 fc 7f 3f bb fd 7f 3f 6c 04 80 3f 15 f1 7f 3f
       0.9999526 0.99996537 1.000135 0.99977237
0000f0 3e 00 80 3f cc f2 7f 3f ce fd 7f 3f dd fd 7f 3f
       1.0000074 0.99979854 0.9999665 0.9999674
000100 20 e5 7f 3f c5 f6 7f 3f 93 e5 7f 3f c0 eb 7f 3f
       0.9995899 0.99985915 0.9995968 0.999691
000110 5e d4 7f 3f 63 f4 7f 3f 67 03 80 3f 37 06 80 3f
       0.9993342 0.9998228 1.0001038 1.0001897
000120 82 f0 7f 3f c1 02 80 3f d0 f2 7f 3f 31 02 80 3f
       0.9997636 1.000084 0.9997988 1.0000669
000130 21 0f 80 3f 0d fb 7f 3f 17 ee 7f 3f c7 04 80 3f
       1.0004617 0.9999245 0.9997267 1.0001458
000140 e9 ff 7f 3f e6 0b 80 3f 37 db 7f 3f 72 ea 7f 3f
       0.9999986 1.0003631 0.9994387 0.9996711
000150 72 00 80 3f ea ec 7f 3f 93 01 80 3f b5 01 80 3f
       1.0000136 0.9997088 1.000048 1.0000521
000160 19 e1 7f 3f 2c f3 7f 3f c4 f5 7f 3f d0 03 80 3f
       0.99952847 0.99980426 0.99984384 1.0001163
000170 9b ff 7f 3f 13 00 80 3f 89 ec 7f 3f a7 fe 7f 3f
       0.999994 1.0000023 0.999703 0.99997944
000180 85 f9 7f 3f 98 fb 7f 3f a1 f7 7f 3f 67 fb 7f 3f
       0.9999011 0.99993277 0.99987227 0.99992985
000190 1b 04 80 3f e5 01 80 3f ab f1 7f 3f 81 f3 7f 3f
       1.0001253 1.0000578 0.9997813 0.9998093
0001a0 bc ff 7f 3f 41 fd 7f 3f 76 f6 7f 3f fb e5 7f 3f
       0.99999595 0.9999581 0.99985445 0.999603
0001b0 58 de 7f 3f f7 e1 7f 3f df ef 7f 3f 15 00 80 3f
       0.99948645 0.9995417 0.9997539 1.0000025
0001c0 82 e7 7f 3f 97 f3 7f 3f c4 08 80 3f 44 00 80 3f
       0.9996263 0.99981064 1.0002675 1.0000081
0001d0 7c db 7f 3f f5 ff 7f 3f 5b f8 7f 3f a9 ea 7f 3f
       0.9994428 0.99999934 0.99988335 0.9996744
0001e0 86 f9 7f 3f a3 fb 7f 3f 75 ed 7f 3f 72 01 80 3f
       0.9999012 0.9999334 0.99971706 1.0000441
0001f0 18 00 80 3f ef fa 7f 3f 23 e5 7f 3f 7c f2 7f 3f
       1.0000029 0.9999227 0.9995901 0.99979377
000200 0c fd 7f 3f 11 00 80 3f 07 e7 7f 3f 55 00 80 3f
       0.99995494 1.000002 0.99961895 1.0000101
000210 51 04 80 3f 0c ea 7f 3f f5 d5 7f 3f 41 f0 7f 3f
       1.0001317 0.999665 0.9993585 0.99975973
000220 8a 00 80 3f 1f 05 80 3f 4b 10 80 3f dc df 7f 3f
       1.0000165 1.0001563 1.0004972 0.9995096
000230 7b db 7f 3f 37 eb 7f 3f ce e3 7f 3f e5 e3 7f 3f
       0.99944276 0.99968284 0.9995698 0.99957114
000240 14 f6 7f 3f 47 f1 7f 3f 9c ff 7f 3f f7 00 80 3f
       0.9998486 0.99977535 0.99999404 1.0000294
000250 a6 eb 7f 3f 3e 02 80 3f dc e7 7f 3f 94 01 80 3f
       0.99968946 1.0000684 0.99963164 1.0000482
000260 88 cf 7f 3f 71 f8 7f 3f d0 f6 7f 3f 7c f6 7f 3f
       0.9992604 0.99988467 0.9998598 0.9998548
000270 0d 07 80 3f d3 f0 7f 3f 06 f5 7f 3f a8 ed 7f 3f
       1.0002152 0.99976844 0.9998325 0.9997201
000280 6d fc 7f 3f f2 de 7f 3f 7b 01 80 3f 09 fe 7f 3f
       0.99994546 0.9994956 1.0000452 0.99997
000290 17 01 80 3f ce d0 7f 3f 3d f5 7f 3f ef e0 7f 3f
       1.0000333 0.99927986 0.9998358 0.99952596
0002a0 cd f5 7f 3f ba e6 7f 3f 47 e1 7f 3f 15 fd 7f 3f
       0.9998444 0.99961436 0.9995312 0.9999555
0002b0 5f 09 80 3f da 01 80 3f 55 e6 7f 3f f2 e6 7f 3f
       1.000286 1.0000565 0.99960834 0.9996177
0002c0 39 f4 7f 3f 77 e4 7f 3f 5a fc 7f 3f b1 02 80 3f
       0.9998203 0.99957985 0.9999443 1.0000821
0002d0 c6 f8 7f 3f e2 f7 7f 3f e2 11 80 3f 33 db 7f 3f
       0.99988973 0.99987614 1.0005457 0.99943846
0002e0 d5 f3 7f 3f c8 ff 7f 3f 64 e3 7f 3f 40 f0 7f 3f
       0.99981433 0.99999666 0.99956346 0.9997597
0002f0 66 06 80 3f 51 02 80 3f 3f 01 80 3f a2 fd 7f 3f
       1.0001953 1.0000707 1.000038 0.9999639
000300 32 fd 7f 3f 03 0b 80 3f d8 de 7f 3f 2f fc 7f 3f
       0.9999572 1.000336 0.9994941 0.99994177
000310 60 01 80 3f d5 fb 7f 3f 14 f6 7f 3f 3d ce 7f 3f
       1.000042 0.9999364 0.9998486 0.9992407
000320 16 e6 7f 3f 52 4e 80 3f a8 ea 7f 3f 61 f0 7f 3f
       0.9996046 1.0023901 0.9996743 0.99976164
000330 c9 eb 7f 3f d1 e6 7f 3f fa 01 80 3f 3e e8 7f 3f
       0.99969155 0.9996157 1.0000603 0.9996375
000340 b5 f8 7f 3f 0e 05 80 3f f6 de 7f 3f ea fa 7f 3f
       0.9998887 1.0001543 0.99949586 0.9999224
000350 9a 08 80 3f 18 00 80 3f bf e9 7f 3f 10 fc 7f 3f
       1.0002625 1.0000029 0.99966043 0.9999399
000360 7e d2 7f 3f 21 ea 7f 3f 49 0a 80 3f 32 ff 7f 3f
       0.9993056 0.9996663 1.0003139 0.9999877
000370 ed e5 7f 3f 5a f9 7f 3f 33 ef 7f 3f 4f ee 7f 3f
       0.99960214 0.99989855 0.99974364 0.99973005
000380 84 fb 7f 3f 62 f8 7f 3f f4 e0 7f 3f 2c fd 7f 3f
       0.9999316 0.9998838 0.99952626 0.99995685
000390 47 00 80 3f f3 e4 7f 3f 60 fb 7f 3f 43 00 80 3f
       1.0000085 0.99958724 0.9999294 1.000008
0003a0 51 00 80 3f 97 fd 7f 3f 0d 00 80 3f 26 01 80 3f
       1.0000097 0.9999632 1.0000015 1.000035
0003b0 ce fd 7f 3f 4c 06 80 3f a5 ff 7f 3f 1a ef 7f 3f
       0.9999665 1.0001922 0.9999946 0.99974215
0003c0 c0 ef 7f 3f 43 00 80 3f 4c e1 7f 3f fa ca 7f 3f
       0.99975204 1.000008 0.9995315 0.9991909
0003d0 1f eb 7f 3f 32 fd 7f 3f be f7 7f 3f 43 00 80 3f
       0.9996814 0.9999572 0.999874 1.000008
0003e0 f2 ff 7f 3f 6c 0b 80 3f 15 de 7f 3f f2 d3 7f 3f
       0.99999917 1.0003486 0.99948245 0.9993278
0003f0 2e 00 80 3f d5 00 80 3f d3 fe 7f 3f 7f fa 7f 3f
       1.0000055 1.0000254 0.99998206 0.999916

li2.1.bias f4 [512]
000000 e5 31 a3 ba 71 00 c1 3b 6b 03 cd 3a 73 84 f1 b9
       -0.0012450783 0.005889945 0.0015641277 -0.00046065784
000010 da a6 ef 39 6b 26 93 39 56 05 22 ba c4 6b 38 39
       0.00045709946 0.00028066649 -0.00061806047 0.00017587753
000020 ab 2a 05 ba a7 fe 68 3a bf 0f af b9 c2 f3 4f 3b
       -0.00050799054 0.0008888044 -0.00033390333 0.0031730984
000030 b1 03 9f bb 3a 0f 0b 3c ba 4d ac ba 3a 36 4c b9
       -0.004852735 0.008487517 -0.0013145723 -0.00019475157
000040 a4 7a 4d bc db 2f 73 b9 20 7d 9f b9 d4 ba a7 b9
       -0.012541447 -0.00023192113 -0.0003042007 -0.0003199192
000050 8f 72 98 ba a7 f0 70 bb 34 83 1a bb 26 41 ca 3b
       -0.0011630821 -0.0036764534 -0.0023576738 0.006172317
000060 16 50 6e 3a 5e df fb ba f0 e3 d9 ba fe e8 5e 3a
       0.0009090913 -0.0019216349 -0.0016623717 0.00085033465
000070 e0 3e 9e 38 2b 5f 18 39 77 3a a0 39 0e 3b a0 3a
       7.5457385e-05 0.00014531302 0.00030561138 0.0012224631
000080 72 0a f2 39 73 13 03 bb f5 c3 0f 3a 5a fe 96 36
       0.0004616562 -0.0020000606 0.0005484217 4.499959e-06
000090 bc 91 d8 bb d3 fc e6 39 f7 63 af 39 0b 10 0c bb
       -0.0066091698 0.00044057387 0.0003345308 -0.0021371867
0000a0 f8 0f 9c 39 6b c1 89 3a b6 c9 16 3a e9 84 90 39
       0.00029766536 0.0010509914 0.0005752103 0.00027564846
0000b0 06 ed 88 bb 52 76 ea ba b1 68 a2 b9 16 42 c5 b8
       -0.004178646 -0.0017888045 -0.0003097705 -9.4060015e-05
0000c0 a5 da 68 b8 c8 ff 5b 3a 5f c2 08 3b 51 6d 31 35
       -5.551674e-05 0.00083923014 0.0020867807 6.6096715e-07
0000d0 8d c3 c7 3a 92 23 72 36 c4 40 0d bb 93 df 80 3a
       0.0015240774 3.6081515e-06 -0.0021553496 0.0009832255
0000e0 31 c2 96 3a 3d ed a2 b9 3d f2 90 39 91 56 8b ba
       0.0011501965 -0.00031075804 0.00027646302 -0.0010630657
0000f0 18 71 d7 38 b2 13 a8 ba 89 a6 1d b7 0d 42 0d 3b
       0.00010273064 -0.0012823252 -9.396704e-06 0.0021554262
000100 11 04 c7 ba a2 a7 15 bb bb 4d 45 3a ea fd 1e bb
       -0.0015183707 -0.0022835513 0.00075265364 -0.0024260231
000110 a4 b9 16 bb 80 c7 88 b6 25 14 48 ba 05 a2 af ba
       -0.0022998834 -4.0763407e-06 -0.00076323963 -0.0013399726
000120 c9 2a 5f bb 85 a1 df 3a d2 85 01 bb f3 8c 8d bb
       -0.0034052602 0.0017061686 -0.00197636 -0.004319781
000130 04 2d c8 3a fd 1c 07 bb 0a 99 06 ba bd f7 fe ba
       0.0015272205 -0.0020616644 -0.0005134499 -0.0019452494
000140 cc 31 34 bb 00 19 89 ba 6b a0 3d 3a b3 76 db b9
       -0.0027495502 -0.0010459721 0.0007233682 -0.00041859373
000150 fe 7f 85 ba 64 c9 1d 3b ad 01 9d ba 14 e3 bb b8
       -0.0010185239 0.0024076337 -0.0011978649 -8.9591515e-05
000160 96 2f 0f 3b 2d d7 fa ba 04 b1 0a 39 6f d9 e9 b9
       0.0021848432 -0.0019137614 0.00013226649 -0.00044603224
000170 f6 fd 44 b9 1a b4 90 37 29 33 29 3a c5 a9 80 b7
       -0.00018786624 1.7250004e-05 0.0006454462 -1.5337844e-05
000180 72 86 49 b9 76 1b 27 bc 0f 83 f5 3a 90 fd 7c 3b
       -0.00019218939 -0.010199418 0.0018731075 0.0038603283
000190 9e ab 1b b9 20 03 6b 3a 39 cf 2b 39 a7 42 c4 b8
       -0.00014845884 0.0008965004 0.00016385027 -9.358423e-05
0001a0 a2 df 02 b6 c0 19 85 ba e9 3f 43 ba c6 00 a4 bb
       -1.950168e-06 -0.0010154769 -0.0007448183 -0.005004975
0001b0 ed fd 41 3b 28 49 8a 3a 7e 22 85 38 c7 45 73 39
       0.0029600814 0.0010550367 6.348359e-05 0.0002320028
0001c0 a9 32 90 b9 d0 cb 4b b9 ba 30 e0 3a bc ba 0a 3b
       -0.00027503565 -0.00019435515 0.0017104365 0.0021168431
0001d0 fc 7a b4 3a 98 83 db 39 82 61 ca 3a ab e0 5b 38
       0.0013769562 0.0004186898 0.0015440437 5.2422907e-05
0001e0 b4 ae 11 3b 92 85 62 3a 8d 2f 65 ba d1 d0 48 b9
       0.0022229375 0.00086411193 -0.00087427424 -0.00019151277
0001f0 53 ed 85 b9 6e 19 e3 39 72 e6 91 3a ae 94 eb 3a
       -0.00025544557 0.0004331576 0.00111313 0.0017973387
000200 21 a4 16 ba a7 38 85 b8 5d a9 9b ba c7 51 0e b9
       -0.0005746503 -6.3524865e-05 -0.0011876036 -0.0001357264
000210 87 b8 65 bb 53 5b 92 38 61 37 2d 39 91 bd a8 bb
       -0.0035052614 6.978833e-05 0.00016519196 -0.005149551
000220 aa c2 e4 bb 20 6a 13 3b d8 86 3c 3b 59 b9 6b 3c
       -0.0069812136 0.0022493675 0.0028766897 0.014387452
000230 4b 0c 87 b9 96 56 b1 ba 10 0c 13 bb 4d d2 a5 b9
       -0.00025758366 -0.0013529833 -0.002243761 -0.0003162794
000240 4d f2 2a bb 30 77 ea 39 98 79 ee 38 74 1d c5 b8
       -0.0026084364 0.0004472076 0.00011371373 -9.399178e-05
000250 54 4c 62 ba cd c0 8d b9 21 22 56 ba 40 02 87 b8
       -0.00086325896 -0.00027037263 -0.0008168538 -6.437721e-05
000260 24 c1 96 3a c6 94 e6 b9 8e 8a 85 b9 a2 70 24 3a
       0.0011501652 -0.00043979863 -0.00025470968 0.0006272887
000270 b7 a5 0e ba 91 8e c2 3a ec a4 b8 3b 7b 45 1f 3b
       -0.00054415636 0.0014843513 0.0056348946 0.0024302888
000280 30 6d 91 3a 54 5c 69 3a a3 35 57 ba 4e 34 42 b9
       0.0011095162 0.00089020026 -0.00082095916 -0.00018520767
000290 81 22 e9 b9 a3 4d c5 ba 12 99 2f 3a 14 eb cb 3a
       -0.0004446693 -0.0015053045 0.00066985295 0.001555773
0002a0 87 ee 92 37 c9 ae 90 b9 f0 47 78 b9 6c 3b 85 b8
       1.751563e-05 -0.00027596045 -0.00023677922 -6.3530024e-05
0002b0 ab 91 1f 3a af f0 ff b9 ae de 0e bc 48 02 d5 ba
       0.0006087075 -0.00048816713 -0.008720083 -0.001625129
0002c0 96 d1 b3 bb 90 6e 46 3a 3e b7 fa ba d9 30 2b ba
       -0.005487631 0.00075695757 -0.0019128097 -0.0006530411
0002d0 76 2f 4d bb 21 11 28 3a 61 6a 9f ba f7 ac 11 3c
       -0.0031308807 0.0006411244 -0.0012162441 0.008891336
0002e0 51 62 12 3b 58 e3 18 39 4e 5f c9 b9 10 b7 ac ba
       0.0022336433 0.00014580542 -0.00038408715 -0.0013177115
0002f0 56 70 03 3c 4e 51 08 ba e0 e0 ef ba 95 19 92 38
       0.008022388 -0.00052001036 -0.0018301271 6.9665875e-05
000300 2e 00 5a b8 38 5c 20 3c bd d7 85 3a f6 bd c3 b9
       -5.1975418e-05 0.009787612 0.001021139 -0.0003733483
000310 09 49 80 ba ef 56 26 bb 5a 3b dc 39 da 20 8d b8
       -0.0009787391 -0.0025381406 0.0004200589 -6.729523e-05
000320 d1 4d b2 39 9b 3a ed bb fb ee db ba c1 e6 c0 ba
       0.00034008783 -0.0072396523 -0.0016779596 -0.0014717208
000330 8f db ce 3a f5 f1 30 bb bb b7 8c 3a de dc 5a 3a
       0.0015781986 -0.0026999686 0.0010735908 0.0008348952
000340 d2 3d 95 38 4f 65 b0 3a 4b 86 71 3a e1 3a 8e b9
       7.1163886e-05 0.0013457927 0.00092134316 -0.0002712822
000350 03 0b b0 b9 46 64 01 38 55 8f 17 b9 c5 86 0c bb
       -0.0003357754 3.0849384e-05 -0.00014453878 -0.0021442634
000360 a1 ae 1f 39 2a b6 22 39 65 eb b6 bb 0c 7c 04 bb
       0.00015228476 0.00015517385 -0.0055822604 -0.002021554
000370 5f fd 4c b8 4e 03 86 3b 4c 74 3d bb 10 46 d1 39
       -4.887336e-05 0.0040897494 -0.002890843 0.00039915787
000380 f7 39 68 39 ee e8 be bb c8 51 76 3b 16 26 fa ba
       0.00022146838 -0.005826107 0.0037585367 -0.0019084837
000390 e0 80 6c b9 ab 48 e8 39 f8 b7 a8 b9 97 87 0e 3a
       -0.00022554724 0.0004430463 -0.00032180524 0.00054370746
0003a0 86 2e b4 39 ca 90 01 3b 46 43 bc 39 a5 5a aa 3a
       0.00034366938 0.001977014 0.00035908277 0.0012996985
0003b0 e5 5d c6 3a 22 4c 84 3b ee 2d 95 b8 e8 1c 27 b7
       0.0015134184 0.004037396 -7.113429e-05 -9.960706e-06
0003c0 ac 48 cb 39 c2 7a 38 ba 2b 38 8a ba a7 16 5a b8
       0.00038773322 -0.00070373353 -0.0010545304 -5.1996347e-05
0003d0 fe 05 ed 39 aa 03 5b 3b 52 49 41 3a 99 8d 36 ba
       0.00045208627 0.0033418932 0.00073732913 -0.0006963849
0003e0 70 6b 63 b7 b4 bc e6 39 95 7f 7f b9 af 5c e0 ba
       -1.3555269e-05 0.00044009613 -0.00024366223 -0.0017117466
0003f0 67 69 35 bb 0b 60 a8 3a c9 3d f5 ba 70 24 28 b9
       -0.0027681233 0.0012846006 -0.001871043 -0.00016035303

li2.1.running_mean f4 [512]
000000 21 f8 1e be 7d 11 a9 be 69 4d ee be 94 b5 38 3f
       -0.15524341 -0.33021155 -0.46543434 0.72152066
000010 16 28 77 3f 6c 72 2d 3f 1a 3b 4a 3f 10 e8 a7 be
       0.9654554 0.6775272 0.7899643 -0.32794237
000020 7c c8 d4 3e f8 7c 98 be dd 08 33 bf 5b 5c 11 bf
       0.41559207 -0.29782844 -0.699354 -0.5678155
000030 f4 cd a1 3e 02 1f 17 bf 8f 1f 9f 3e a9 9c 69 be
       0.31602442 -0.5903169 0.31078765 -0.22813667
000040 90 05 ab 3f 30 b7 2d be 2d db 50 3d 27 44 d9 3d
       1.3361073 -0.16964412 0.050990272 0.10608702
000050 aa fd 9f bd 3d 19 f7 be d9 d3 fa 3e d0 e1 13 bf
       -0.078120545 -0.48261443 0.48989752 -0.5776644
000060 a1 51 3b 3c 31 34 30 3f 32 df a7 be 02 2d bf bd
       0.011433036 0.6882964 -0.32787472 -0.093347564
000070 d3 7b 53 3f 56 54 d1 be 55 85 9b be 51 87 2d bf
       0.82610816 -0.40884656 -0.30375162 -0.677846
000080 9a af 00 bf cf bd 88 3d 31 6c 3b 3d 0b 28 98 bd
       -0.50267947 0.06676828 0.045757476 -0.074295126
000090 d5 66 1b 3f d8 ed b1 be 5e 40 86 bf 5d bc 45 3f
       0.60703784 -0.34751773 -1.0488393 0.77240545
0000a0 b1 07 8d bf 9c b1 77 3f 7f a2 5e bd 37 b2 aa be
       -1.1017972 0.96755385 -0.054354187 -0.33339092
0000b0 dc 17 a9 3e bd 55 ad be 22 86 3c be 73 81 c8 3d
       0.33026016 -0.33854476 -0.18410543 0.097903155
0000c0 cb 43 62 be a1 ba 10 bf 7b 5b 20 3f e5 a4 bf 3e
       -0.22096173 -0.56534773 0.6263959 0.37430492
0000d0 60 71 b1 3e f0 48 d0 3d 8d ce 02 be 68 b0 2a 3e
       0.3465681 0.10170162 -0.12774105 0.16668856
0000e0 0a d0 fa be 6f 08 cd 3d c3 ff 91 bd 1a 4a 0f be
       -0.48986846 0.10011374 -0.07128861 -0.13993111
0000f0 c0 c9 41 be 5c e1 f2 3e 79 76 b4 be 3a c7 b5 3e
       -0.18924618 0.4743756 -0.35246637 0.3550356
000100 4d 3e 80 3e 0c d8 af 3e e6 82 01 3d ff 8b 24 bf
       0.25047532 0.34344518 0.031618975 -0.6427612
000110 12 7b bb be 3e 33 5c 3f 68 1c bd 3f d5 fd a5 3f
       -0.36617333 0.8601569 1.4774294 1.2968088
000120 76 83 38 3f 2b 1f 17 bf 49 56 01 3f cb 37 78 3e
       0.72075593 -0.59031934 0.50522286 0.24240033
000130 b5 19 b2 bf 1e 97 c8 3e 40 96 c1 3e a3 59 29 be
       -1.3914095 0.39177793 0.37809944 -0.165381
000140 e3 1d b7 3e e6 32 6c bf 32 21 b1 bd e6 65 d7 3d
       0.3576499 -0.92265165 -0.0864891 0.105174825
000150 53 cb 81 3e 68 29 d6 be ae c5 a5 3d 9f 60 71 be
       0.25350437 -0.41828465 0.08094345 -0.23572014
000160 b7 65 56 be 7c dc 2d bf 24 66 4b 3e 6c a3 08 3f
       -0.20937239 -0.6791456 0.19863182 0.5337436
000170 2d cb 19 3f b1 00 df be 06 59 ab 3e fc 27 ed 3e
       0.60075647 -0.43555215 0.33466357 0.46319568
000180 00 8a 03 bf 7d f9 f3 3e ba 5a 51 3f 14 76 b9 3e
       -0.51382446 0.47651282 0.8177906 0.362229
000190 29 fb ce 3e d1 9a 17 bf 30 3a 48 be b6 81 12 be
       0.40425995 -0.59220606 -0.19553447 -0.14307293
0001a0 02 1f 8f 3d a6 1b 0b bd 51 c9 97 be f4 9a 7e be
       0.06988336 -0.033961914 -0.2964578 -0.24863797
0001b0 e2 8e 35 be c2 06 09 3f aa 9e b6 be f4 f8 16 bf
       -0.17730287 0.53525937 -0.35667926 -0.5897362
0001c0 f5 b7 9e 3d 9c 2f ec be 6e 42 7e bf 94 3b 25 bf
       0.07749931 -0.46130073 -0.99320114 -0.64544034
0001d0 f4 78 60 3d 7a f2 08 be 0b 3f 7d be a3 7a f3 3d
       0.05480285 -0.13373747 -0.2473108 0.118886255
0001e0 98 e1 ba be 72 e8 2f 3e 48 97 1c bf f1 e7 e5 3c
       -0.3650024 0.17178515 -0.61168337 0.0280647
0001f0 b6 73 4d be 59 7a 0f 3e 68 35 b5 3e 5f cf 1c bf
       -0.20063671 0.14011516 0.35392308 -0.61253923
000200 df f7 1d bf 85 87 de be 20 ee 31 3e a1 e5 e0 be
       -0.61706346 -0.43462768 0.17375994 -0.43925193
000210 7b 94 ff 3e 57 99 89 3d 43 3b ad bd 30 8d 76 bf
       0.4991797 0.067187004 -0.08458569 -0.96309185
000220 8a b8 dd 3e 7c 01 a4 be 4c ec 65 bf e7 ac c9 3e
       0.43304855 -0.32032382 -0.89813685 0.39389727
000230 4c 24 69 3e b1 c8 f9 3d 38 15 39 bf 47 d8 af be
       0.22767752 0.12196482 -0.72298 -0.34344694
000240 ec 08 46 3e 0f be d8 3d 2a 3d b3 be c5 56 3e 3f
       0.19339341 0.10583126 -0.35007602 0.7435115
000250 ef 80 5a be 83 93 3f 3f c0 fb 6a 3f d4 39 52 3f
       -0.21338247 0.7483446 0.9179039 0.8211949
000260 20 07 c3 3e f5 a4 87 3e 6a 50 9e 3e 7b 1f 0e 3e
       0.38091373 0.2649304 0.30920726 0.13879196
000270 e5 d5 86 bf 99 e3 6f 3f f4 74 f6 be e6 81 14 bf
       -1.0534025 0.9370666 -0.48136103 -0.5801071
000280 ce 7f a5 be a5 3e 9a bd 71 06 be be 3d 7a e5 be
       -0.3232407 -0.0753148 -0.3711429 -0.44819823
000290 37 9d 27 3f f6 5a 8e 3e 8d 4e 31 3f 12 1d 06 3f
       0.65474266 0.27803773 0.69260484 0.5238811
0002a0 cd b3 7e ba 94 38 9a be 31 88 35 bf 28 4c 83 3e
       -0.00097161235 -0.3012129 -0.70910937 0.2564404
0002b0 ec f8 87 3f 7f 74 62 bf 78 f9 13 3f b1 76 84 be
       1.062284 -0.8845901 0.57802534 -0.25871804
0002c0 44 72 0d 3e ee 0e c3 bd 91 54 02 be 61 94 93 3c
       0.1381312 -0.09524332 -0.12727572 0.018015089
0002d0 cd 64 89 3e c3 1d f7 3d 99 c6 9f 3f ba 75 0b 3f
       0.26834717 0.120662235 1.2482482 0.5447651
0002e0 c6 1f 3f bf a4 e9 e3 be 45 1c 18 be ab 59 a9 3e
       -0.7465786 -0.4451419 -0.14854534 0.33076224
0002f0 34 7a dd be 7d 59 66 be 14 c9 a8 3e 0f 91 2c be
       -0.43257296 -0.22495075 0.3296591 -0.1685221
000300 ae 41 9b be 61 28 03 bf c6 27 77 be 14 3c 1e 3e
       -0.30323547 -0.5123349 -0.24136266 0.15452605
000310 ce 79 77 3f 8a cc ad be ef a2 85 3d 9c f9 4d 3f
       0.96670234 -0.33945113 0.06525218 0.80459
000320 96 81 18 3f 28 92 9a 3f 83 b7 5a 3f 6b 9b 83 3e
       0.5957273 1.2075853 0.85436267 0.25704512
000330 b3 d2 07 3f ad 57 71 be 06 5c b8 be fc 95 8d 3e
       0.53055876 -0.23568602 -0.36007708 0.27653491
000340 33 58 ee be 8f dd d8 be ac 28 04 bf 1e 9b 6b be
       -0.46551666 -0.42356536 -0.5162456 -0.23008391
000350 55 45 44 bf 7d 9f 5b be 35 03 c1 be 1c e0 0d bf
       -0.7666829 -0.21447559 -0.3769776 -0.5542009
000360 49 db 79 3d 6e 70 4e 3e a1 dd 07 3f 65 1b 03 3e
       0.061000142 0.20160076 0.53072554 0.12803419
000370 2b c4 1a be d7 bc 0d 3f 71 6b 4b 3f b9 17 96 3e
       -0.15113895 0.5536627 0.7946082 0.29314974
000380 2a 9b a9 be ba 8b ee 3e 1f 4b 08 bf 4c 98 71 be
       -0.33126193 0.46590978 -0.53239626 -0.23593253
000390 c3 49 25 bf a7 63 4e bf 1d ad 1b 3f 61 f9 ce be
       -0.64565676 -0.8062081 0.60811025 -0.40424636
0003a0 26 e6 37 bf 3a 04 72 3f e4 c4 e4 3c b2 b9 80 bf
       -0.71835554 0.945377 0.027925916 -1.005667
0003b0 ff 2b 82 be ae e2 c9 be 0d a0 56 3f ab c8 a0 bd
       -0.2542419 -0.39430755 0.8383797 -0.078507744
0003c0 45 b1 e3 3d 61 c5 9c be c0 6c 58 3f 7b 04 ac bf
       0.11117796 -0.30619338 0.8454094 -1.3438867
0003d0 4e 7f 7c be a3 c8 26 bf 10 67 23 3e 9f 10 39 bf
       -0.24657938 -0.651499 0.15957284 -0.72290987
0003e0 d9 c8 68 bd 65 0d a8 be 5c f8 18 3f 04 b1 79 be
       -0.05683217 -0.3282272 0.59753966 -0.24383932
0003f0 ff 91 de 3e f2 b7 54 bf 15 b8 df be 34 32 e8 3e
       0.4347076 -0.8309318 -0.4369513 0.45350802

li2.1.running_var f4 [512]
000000 bf ef 27 3d 7c a1 65 3d 4b 95 1a 3d cc 65 a5 3d
       0.041000124 0.056062207 0.037740033 0.08076057
000010 1a 5e e8 3d 1c 76 d2 3d 79 1f 03 3e 47 3f 67 3d
       0.113460734 0.10276434 0.12804975 0.05645683
000020 27 01 3a 3d de 49 14 3d 28 28 9d 3d d6 af 6e 3d
       0.045411255 0.036203258 0.07673675 0.05827316
000030 80 dc 57 3d 22 a7 be 3d b8 b9 34 3d 84 cb f2 3c
       0.05270052 0.09309222 0.044122428 0.02963806
000040 1f 50 62 3e 50 3b da 3c 12 b0 f3 3c 13 c3 d8 3c
       0.22100876 0.02663961 0.029747043 0.026460206
000050 a1 67 1d 3d a4 3d a0 3d 8c 7f 94 3d a8 21 a3 3d
       0.038428906 0.07824257 0.0725089 0.07965404
000060 68 dc 14 3d 00 d6 8a 3d 97 a6 78 3d 48 df 03 3d
       0.03634301 0.067790985 0.060705747 0.03219536
000070 19 59 b0 3d 79 87 26 3d b3 fb 34 3d 8f 2b 01 3e
       0.08610744 0.04065654 0.04418535 0.12614273
000080 0e a9 26 3d fc ce f7 3c 46 54 0d 3d 7b 01 e8 3c
       0.040688567 0.030250065 0.034504198 0.028321018
000090 ef 1b 94 3d 28 be 1c 3d c5 3c 19 3e d1 47 ed 3d
       0.072318904 0.038267285 0.14964588 0.115859635
0000a0 59 e3 32 3e 96 e9 e4 3d b1 a1 01 3d fb f8 4b 3d
       0.17469539 0.111773655 0.03164834 0.049797993
0000b0 83 b0 75 3d d4 cd 1f 3d cd 0b 11 3d 08 87 eb 3c
       0.059982788 0.039014652 0.035411645 0.028750911
0000c0 cc b0 fc 3c dc f3 5b 3d 55 7b a7 3d a8 ef 0c 3d
       0.030846022 0.05369936 0.081778206 0.03440824
0000d0 f8 c7 44 3d a5 8b 01 3d 7e 0e 45 3d 24 97 07 3d
       0.048042268 0.031627316 0.048109524 0.033103123
0000e0 2c 5a 85 3d 63 57 27 3d d5 e1 e2 3c fa e9 6f 3d
       0.065113395 0.040854823 0.027695576 0.058572747
0000f0 5e 08 fa 3c 81 38 53 3d f8 81 18 3d 88 57 9d 3d
       0.030521568 0.05156756 0.037233323 0.07682711
000100 b0 c1 31 3d dd 52 46 3d 39 67 31 3d 24 fa 98 3d
       0.043397605 0.04841887 0.04331133 0.074695855
000110 2c 01 39 3d 60 70 00 3e 68 4c b2 3e a1 20 8e 3e
       0.045167133 0.12542868 0.34823918 0.2775927
000120 04 0a c1 3d a9 8f cb 3d 1c 76 35 3d 33 8e 3c 3d
       0.094257385 0.099395104 0.04430209 0.04603405
000130 aa 23 5e 3e e3 c5 8a 3d df 6b 4d 3d 52 c7 f8 3c
       0.21693292 0.06776025 0.050151702 0.03036848
000140 8c 1b a3 3d 06 31 14 3e a6 e7 2c 3d 17 0c d6 3c
       0.079642385 0.14471826 0.042213105 0.026128812
000150 60 1e 2a 3d 77 bb 60 3d 81 68 11 3d 7f 92 2e 3d
       0.041532874 0.05486628 0.035500053 0.04262018
000160 fe 2f 6a 3d 6f 42 b6 3d 8d 4c eb 3c 2a 88 94 3d
       0.057174675 0.0889939 0.028723026 0.07252534
000170 e3 2e 85 3d 01 2b 35 3d 84 5b 88 3d 5c 14 4b 3d
       0.065030836 0.044230465 0.0665808 0.049579963
000180 85 b5 57 3d 1d 2b 92 3d 9a cc 05 3e ce a6 3a 3d
       0.052663345 0.071371295 0.1306633 0.045569234
000190 1e 28 0a 3d ec 84 b8 3d 60 df e8 3c f4 63 03 3d
       0.033729665 0.09009728 0.028426826 0.032077745
0001a0 65 e9 11 3d 04 ae f0 3c bc 24 1c 3d 5d 4a 10 3d
       0.035622973 0.029379852 0.03812097 0.03522717
0001b0 e4 ed 1b 3d 74 d7 6e 3d 85 01 0f 3d 5e 69 8a 3d
       0.038068667 0.05831094 0.03491356 0.067583784
0001c0 79 7d c8 3c 35 0c 0d 3d 80 b1 fa 3d b8 74 0b 3e
       0.024473893 0.03443547 0.12240887 0.13618743
0001d0 1b d0 e4 3c 59 84 ff 3c 50 a6 48 3d e0 c4 ee 3c
       0.027931264 0.031191038 0.048986733 0.029146612
0001e0 0a 98 7d 3d 57 4b 1d 3d ec 2f 99 3d 34 30 02 3d
       0.061912574 0.038401928 0.074798435 0.03178425
0001f0 5c e2 42 3d b6 dd 09 3d 7c 04 2c 3d ce a0 f6 3d
       0.047579154 0.033658706 0.041996464 0.1204239
000200 b3 91 42 3d 81 36 1a 3d 80 eb 02 3d 31 7b 80 3d
       0.04750223 0.037649635 0.03196287 0.06273497
000210 e7 9a 67 3d c9 43 07 3d c1 48 fa 3c 58 07 54 3e
       0.05654421 0.03302363 0.03055227 0.20705926
000220 00 3b aa 3d 91 e8 7c 3d 02 09 e6 3d 8c c5 ab 3d
       0.083120346 0.06174523 0.11232187 0.083872885
000230 51 4c 0b 3d ae d7 e9 3c a1 e4 ac 3d a8 5f 09 3d
       0.034008328 0.028545227 0.08442045 0.03353849
000240 b1 b8 47 3d 1d ce f4 3c 85 ae 2c 3d 2f ec b0 3d
       0.04876012 0.029883439 0.042158622 0.086387984
000250 3c d7 d7 3c f0 a9 f9 3d 2e 6c fd 3d 6b a3 e6 3d
       0.026347749 0.12190616 0.12374149 0.11261638
000260 fe 55 35 3d c8 0a 1f 3d 7a d8 13 3d 92 21 03 3d
       0.04427146 0.03882864 0.03609512 0.032014437
000270 d5 ab 4d 3e 3c 4c 10 3e dd 2a 67 3d dd c0 99 3d
       0.2008508 0.14091581 0.056437362 0.07507489
000280 71 ac 2d 3d d5 19 12 3d da 13 0e 3d 23 3d 44 3d
       0.04240078 0.035669167 0.0346869 0.047909867
000290 c9 9c a6 3d 26 82 fb 3c da f5 ae 3d 6a a3 9a 3d
       0.08135373 0.030701708 0.08542986 0.075507
0002a0 f2 aa ef 3c c8 32 f3 3c 96 45 d5 3d ee 20 32 3d
       0.029256318 0.0296873 0.10413663 0.043488435
0002b0 e2 9e 6c 3e 5e b0 1e 3e f8 19 c6 3d f3 ea 32 3d
       0.23107484 0.15496966 0.09672922 0.043681096
0002c0 85 0c 21 3d 59 18 e0 3c 89 36 2a 3d d9 85 f3 3c
       0.03931858 0.02735536 0.041555915 0.02972691
0002d0 4f b5 4f 3d a5 78 1d 3d 84 b3 7c 3e 02 1c dd 3d
       0.05071002 0.038445134 0.24677855 0.10796358
0002e0 de 0f b8 3d 6e de 4f 3d d0 be 0b 3d 91 62 16 3d
       0.089874014 0.050749235 0.03411752 0.036715094
0002f0 0f 1c 9d 3d ad 62 0b 3d 15 b8 77 3d af d9 09 3d
       0.076713674 0.03402965 0.06047829 0.033654865
000300 29 19 1b 3d 33 73 e5 3d 67 6e f2 3c c3 8a 36 3d
       0.03786579 0.11203613 0.02959366 0.044565927
000310 05 9f 25 3e b4 61 17 3d 20 45 0d 3d ed bb a8 3d
       0.16173942 0.03695841 0.03448975 0.08238969
000320 f3 5d a6 3d f1 d2 3f 3e 0e 26 3d 3e 0f 01 4a 3d
       0.08123388 0.18732812 0.18471548 0.049317416
000330 4f 80 99 3d 79 74 42 3d 66 0a 45 3d 1c ad 1a 3d
       0.07495176 0.04747436 0.04810562 0.037762746
000340 d4 90 5e 3d 38 74 5f 3d 77 f5 43 3d 1f b8 11 3d
       0.054337338 0.054554194 0.047841515 0.035575982
000350 ab 8d c1 3d 31 dc 1f 3d 0f bf 27 3d 3f b1 a3 3d
       0.09450849 0.03902835 0.040953692 0.079927914
000360 f9 76 e0 3c be b3 c9 3c 89 5d a7 3d 94 11 28 3d
       0.02740048 0.02462184 0.08172137 0.04103239
000370 b1 8a f3 3c 6e 1a 95 3d da 58 05 3e 44 9e 2c 3d
       0.02972922 0.07280432 0.13022175 0.04214312
000380 df 7c 0b 3d 73 ae aa 3d d1 56 9b 3d 37 1d 52 3d
       0.034054633 0.08334055 0.07584918 0.051297393
000390 80 4f 9f 3d c7 7c b4 3d 25 2e 85 3d 8f 55 35 3d
       0.07778835 0.08812862 0.06502942 0.04427105
0003a0 cc 07 b2 3d b9 31 38 3e 90 76 18 3d 9f af f7 3d
       0.086928934 0.17987718 0.037222445 0.12094044
0003b0 af e5 5d 3d 29 64 bf 3d 95 d5 e5 3d 90 8d e7 3c
       0.05417412 0.09345276 0.11222378 0.028265744
0003c0 27 c0 04 3d 0b 31 6a 3d 47 23 b9 3d df b5 8d 3e
       0.032409813 0.057175677 0.09039932 0.2767782
0003d0 12 58 3e 3d e3 d1 ba 3d ce 9e 25 3d 19 64 06 3e
       0.04647071 0.09122064 0.04043465 0.13124122
0003e0 d2 29 ee 3c 2d fe bd 3c 4a ab 88 3d 3c d2 23 3d
       0.029072676 0.02319249 0.06673296 0.039995417
0003f0 02 62 8c 3d 79 59 b9 3d 7e 28 4c 3d 9c 15 37 3d
       0.06854631 0.09050269 0.049843304 0.044698343

li2.3.weight f4 [1, 512]
000000 c8 66 24 3c 55 6e ec bc d4 53 94 bc 6c 88 aa 3c
       0.010034271 -0.028861204 -0.018106379 0.020817004
000010 bb 12 a8 3c 9c d1 22 3c 2a 3f f6 bb ba 95 14 ba
       0.020516744 0.00993767 -0.007514854 -0.0005668063
000020 10 52 e9 bc 27 ac 84 bc b6 83 43 bb ef 43 3b bd
       -0.028481513 -0.01619537 -0.0029833145 -0.045719083
000030 e2 bc 17 bd da ce 0c bd 6d f2 d9 bc 7d 09 05 3b
       -0.037045367 -0.034376957 -0.026604855 0.0020299845
000040 9e 49 ac 3d d7 11 31 3a 2d 77 47 3b 75 37 fc 3c
       0.08412479 0.00067546725 0.0030436025 0.030788163
000050 ab 01 17 3d 89 7b f9 3b 4e f5 a7 bc cf 6a 0d bd
       0.036866825 0.0076136035 -0.020502713 -0.03452569
000060 53 37 90 3b 2e a5 98 bc 8a 2e 3f 3c 81 c8 b6 3c
       0.0044011264 -0.018633451 0.011668811 0.022312405
000070 fb 98 7a 3c e4 69 3d bc 02 7a da bb 95 4c 3b bc
       0.015295262 -0.011560891 -0.0066673765 -0.011431833
000080 7f b8 5a bb 44 b2 07 3d e1 76 38 3c 63 89 13 3c
       -0.0033374128 0.03312899 0.011258812 0.0090049235
000090 18 4d 3f bd 59 2e c1 bc b1 e3 04 3d b4 6a c7 bc
       -0.04670438 -0.02358167 0.032443706 -0.024342872
0000a0 82 71 a4 3b e4 5d 03 3d 6d cb ba 3b ee e6 07 bc
       0.005018414 0.032071963 0.00570052 -0.008294804
0000b0 f4 e9 52 bd 69 94 d4 3c fd ea ca 3c c6 05 22 3b
       -0.051492646 0.025949674 0.024770254 0.002472268
0000c0 69 27 9a 3a 6b a1 ca bc 3f 5f ce 3c 8e 66 9b 3a
       0.0011761013 -0.024735173 0.025191901 0.0011856125
0000d0 d6 29 b3 3b b1 04 8c 3b 1e ea 27 3c 5d fc 4e 3c
       0.0054676337 0.00427302 0.010248689 0.01263341
0000e0 cb 61 e6 bc 81 00 80 3b 80 6a 8c 3c 71 31 5e 3b
       -0.028122803 0.00390631 0.017140627 0.003390398
0000f0 11 56 30 bb eb f6 1c bd d1 b8 cf bb cc 73 02 3c
       -0.0026906768 -0.038321417 -0.0063391705 0.007962178
000100 ca c8 a1 bb a6 d5 8d bc 68 d0 11 3c 1b fe 03 3c
       -0.004937266 -0.01731379 0.008899786 0.008056189
000110 f7 5f ab 3c 38 23 19 bc 51 99 73 3c 51 58 c0 3c
       0.020919783 -0.009346776 0.014868096 0.023479613
000120 e9 0c 07 bd 91 1d 5c bc 93 e8 1b bd 44 db 12 bd
       -0.032971296 -0.013434784 -0.038063597 -0.03585364
000130 6e ca fd 3c e7 89 80 bc 79 f8 05 bc b4 8a c9 3c
       0.030980315 -0.015690757 -0.008176916 0.024602272
000140 9c ae 3d bc 4f 25 f0 3c f2 9a 90 bc ab 1a 57 bc
       -0.011577275 0.029314665 -0.017652009 -0.013128917
000150 73 4f dd bb ab ec bb bc 57 38 5a bc c6 fa 4d 3c
       -0.006753856 -0.02294 -0.0133190965 0.012571996
000160 34 e4 36 b9 4f f7 89 3c fe ed a1 3b 23 55 a0 bc
       -0.00017441885 0.016841559 0.004941701 -0.019571846
000170 c1 44 1a bc 3c a5 e8 3a 1e 2d 24 bc 0b 9e ab bb
       -0.009415806 0.0017749439 -0.010020522 -0.005237346
000180 76 8f 4d bb 03 2f 2d bd 35 ce ff 3b 35 0b 81 3c
       -0.0031366027 -0.042281162 0.007806564 0.015752414
000190 9d 98 e0 bc ce d9 45 bc 60 b4 74 bb 54 ad 39 3c
       -0.027416522 -0.012075854 -0.0037338957 0.011332829
0001a0 97 7f d9 3a a9 24 8e bc 50 a3 8e 3b 6f 45 9b 3c
       0.0016593811 -0.017351465 0.0043529645 0.018954007
0001b0 db 54 9c bc 04 22 3a 3c 15 49 77 3b a6 92 97 bb
       -0.019083431 0.011360649 0.003773277 -0.004625636
0001c0 54 b1 b9 3c be 09 fc 3b 54 68 c2 3c 93 dd a1 bc
       0.022667564 0.007691591 0.023731388 -0.019758975
0001d0 19 80 c3 bc a9 6f 65 bc 42 bc e4 bc d4 78 d4 3c
       -0.023864793 -0.014003673 -0.0279218 0.025936522
0001e0 db a8 fe bb 1e 16 88 3a f1 ee 55 3b eb 9c 91 3c
       -0.007771594 0.0010382568 0.003264364 0.01777502
0001f0 14 1a 9c 3b 7c e1 a0 3b d8 02 bc 3b 8c 84 68 bc
       0.004763851 0.0049096923 0.0057376437 -0.014191758
000200 90 14 05 bd 1a 04 c0 bb d7 e6 e3 3c 74 2a 1e ba
       -0.032490313 -0.005859864 0.027820034 -0.00060335477
000210 70 f3 ff bc 92 f5 09 bc 4b 3d aa 3c a5 84 00 3d
       -0.03124401 -0.008420365 0.02078118 0.0313765
000220 1d 90 c8 bc 41 2c 92 bc bc 2f 05 3d 20 c3 06 3d
       -0.024482781 -0.017843368 0.032516226 0.03290093
000230 60 af a6 bc 9b 8f ab 3c 8e 50 be 3c ab 00 70 3c
       -0.020347297 0.0209425 0.02323177 0.014648597
000240 08 d7 f1 bb 06 b8 64 3c 86 7e 5c ba ff d6 1d bc
       -0.00738037 0.01395989 -0.00084111874 -0.009633779
000250 2f 69 a7 3c fb d4 52 3c 4a ec a8 3c ab 05 3c 3c
       0.020435898 0.012868161 0.020620484 0.011475961
000260 35 44 4e 3c a0 ca 6c bb ef c2 05 3c 06 70 a5 3c
       0.012589504 -0.0036131516 0.008164152 0.020195019
000270 34 14 b9 3c 8f 85 5a 3a ba b4 d3 bc da f4 f9 bc
       0.022592641 0.0008335942 -0.025843013 -0.030512262
000280 81 9a 86 bb 0a b3 64 bc ef 78 3c 3c 58 66 b2 ba
       -0.004107774 -0.013958702 0.011503442 -0.0013610823
000290 6d e5 30 bc fa 25 8a bc 21 b4 06 3c 19 e0 85 3b
       -0.010796887 -0.016863812 0.008221657 0.0040855524
0002a0 bd 3e af ba e6 fd 49 3a 5a 1b 9a 3c 7e f7 aa bb
       -0.0013370138 0.00077053753 0.01881187 -0.0052174916
0002b0 1a 59 ec 3c 7a be 3e 3c 0f 0a a8 bc ad 7d a3 3c
       0.02885108 0.011642093 -0.020512609 0.019957388
0002c0 b8 6b 08 bd 33 6d 66 bc a1 11 3a 3c bb c9 93 bc
       -0.033305854 -0.014064121 0.011356742 -0.018040529
0002d0 99 99 5a bc f8 e9 a2 3b a9 99 08 3d a0 2a a1 3c
       -0.013342285 0.004971739 0.033349667 0.019673645
0002e0 32 33 a8 bc bc 8e a3 38 aa f5 a8 3c 36 fd 1a bd
       -0.020532224 7.799032e-05 0.020624954 -0.037839137
0002f0 0a ac 10 bd 81 51 93 3c 71 e9 15 bc e3 2f bf 39
       -0.03532032 0.0179832 -0.009149895 0.00036466037
000300 4f a5 1a 3c 68 69 19 bd 97 42 da 3c 88 39 00 bc
       0.009438827 -0.03745404 0.02664308 -0.0078262165
000310 d9 0e 46 bc 5f d2 98 3c c5 79 6c 39 95 39 3b 39
       -0.012088501 0.018655 0.00022552077 0.0001785516
000320 87 10 31 3c e0 27 90 3d fc 98 d5 39 15 83 2b bc
       0.010807163 0.070388556 0.00040740508 -0.010468264
000330 09 fb e3 3b f4 a6 a4 3c 11 3d 23 bd 7d 94 13 3c
       0.006957416 0.02009914 -0.03985316 0.00900757
000340 c4 dd 45 3b 29 2c 2f bd d7 46 d9 bc 87 1e 8b 3c
       0.0030191997 -0.042766724 -0.026523037 0.01698233
000350 4b 88 0e 3d 72 2a a0 bb 73 f7 04 3b b8 25 f8 3c
       0.034797948 -0.0048878724 0.0020289093 0.030291423
000360 0c 94 13 bc 34 f2 68 3c 84 ad 32 bd d0 f3 52 bc
       -0.009007465 0.014217902 -0.04362251 -0.012875512
000370 c0 02 87 bc a1 bf 5e 3c a7 c2 a5 bc 3b 83 db 3a
       -0.016480803 0.013595493 -0.020234419 0.0016747484
000380 bf 95 62 bc cf 27 b4 bc 91 e0 be bc bd a9 3a 3c
       -0.013829648 -0.021991638 -0.023300441 0.011393008
000390 bd 5c e8 3b 17 79 63 3c 5d be ef bb e0 f3 71 bc
       0.0070911334 0.013883851 -0.0073163942 -0.014767617
0003a0 9b 83 cd bb d2 14 02 3d ab f6 82 ba af 60 90 3c
       -0.006271792 0.031758137 -0.0009991726 0.017624227
0003b0 29 66 74 bc 0a b5 a7 bc 78 f9 55 3b 8d 59 b5 3c
       -0.014916935 -0.020472068 0.0032649916 0.022137428
0003c0 b8 b0 80 3c ae 3c 6b 3b 1e b0 a1 3c 55 b6 31 bc
       0.015709266 0.0035894322 0.0197373 -0.010846694
0003d0 fb 0d a4 bc 34 7c df bc 5d 6e 7d 3c 56 1a ec 3b
       -0.020026198 -0.027280904 0.015468207 0.007205288
0003e0 b0 6e 3e 3b cc 23 fd 3c 88 74 09 3c 8f 1b 78 3c
       0.0029057674 0.030900858 0.0083896 0.015143289
0003f0 ad 40 6c bc 13 30 e2 3c 49 5a 63 3c f7 e2 00 bd
       -0.014419717 0.027610814 0.013876506 -0.03146645
