online/12_D1.pth (torch, 158283 bytes, 7 tensors)

li.0.weight f4 [512, 70]
000000 a9 52 4a 3d af a4 ec 3d 71 4b 6c bd 4f b6 c1 bd
       0.049395237 0.115548484 -0.057689134 -0.09458601
000010 c3 c2 bd 3c 3a 23 67 ba 48 07 79 bd e9 4e 85 3c
       0.023164159 -0.00088172 -0.06079796 0.016272979
000020 9f 68 17 3b c1 2b b8 bd 5b f8 b1 bd 88 0c dd 3d
       0.002310313 -0.089927204 -0.08689948 0.10793406
000030 af 78 94 bd fd bd e3 bd ab b7 1c bd 67 de ba 3d
       -0.07249581 -0.11120222 -0.038261097 0.09124451
000040 69 ce b5 bd 9e dd 5e 3d 6d 64 36 3d fc a7 41 3c
       -0.0887726 0.05441057 0.044529367 0.011819836
000050 0e 9a 8d 3d 93 41 fd ba 1b 4c 58 bc af 49 37 bc
       0.06914149 -0.0019321911 -0.013201739 -0.011187001
000060 3e 83 26 bc 1d 8f 1f bd 63 ec b3 3d 3c 49 92 3d
       -0.0101631265 -0.038954843 0.087853216 0.071428746
000070 26 26 cb 3c c1 11 7c bd 8b c4 a3 3d cb d6 15 bd
       0.024798464 -0.06154037 0.07996472 -0.036581796
000080 d7 ac cb bd 00 6a 10 3c e5 8d 60 bc da 0d 11 bb
       -0.09945076 0.008814335 -0.013705705 -0.00221335
000090 84 71 c0 3b 3e 4f 9b bd 3a 03 9a 3d bc 6c db 3c
       0.005872907 -0.075834736 0.07520147 0.026785247
0000a0 c8 cf de 3d 1e 0a c9 bc 5f 96 48 bd 75 32 83 bd
       0.10879475 -0.024540957 -0.04897153 -0.06406108
0000b0 09 fd 7b bd 99 05 72 bd 85 75 51 bd 2b d3 ae bd
       -0.06152061 -0.05908737 -0.051137466 -0.08536371
0000c0 d4 0a d7 3c e5 63 2e bd 6c 26 9e 3b af d4 d3 3d
       0.02625028 -0.042575736 0.0048263576 0.103433006
0000d0 fa b5 e6 bd 1d 73 6a bd 86 cd ae 3d a8 4d a3 bd
       -0.11265178 -0.057238687 0.08535294 -0.07973796
0000e0 47 de be bc a5 b4 a8 3d 69 16 e3 bd e2 7f e1 3d
       -0.02329935 0.0823758 -0.11088259 0.1101072
0000f0 8e 4f a8 3c cb eb 1b bd 70 c3 7e bd 57 1c d8 bd
       0.020545747 -0.038066667 -0.062198102 -0.105522804
000100 64 92 79 bd a3 5f 84 3c 40 8b 2a bd d6 47 68 bc
       -0.060930625 0.016158884 -0.041636705 -0.014177283
000110 f6 a1 54 3d 01 ac d5 bd c3 d8 e5 3d 6a d1 b7 3d
       0.05191227 -0.10433198 0.11222985 0.089754894
000120 5a c9 4b 3d e0 36 b3 3d a9 8e e2 3d a8 ec cb 3d
       0.04975257 0.08750701 0.110623665 0.09957248
000130 35 7d bc 3d 1c ea 9b bd 0d bd 80 3d 40 1c b4 bd
       0.09203569 -0.07613012 0.062860586 -0.08794451
000140 6d 4e 52 3c 08 ba 8e bd d6 9c b0 bb 0b be c1 bb
       0.012836081 -0.069690764 -0.00538979 -0.0059125475
000150 b3 0e dc bc 7e 92 7e 3d 78 ba e8 bc e3 23 88 3a
       -0.026862478 0.062151425 -0.028409228 0.0010386672
000160 e6 56 68 3d 5d c9 aa bd 5b 8e 1e 3d c5 9e cc 39
       0.056723498 -0.08339188 0.03870998 0.00039028205
000170 82 06 3a bd 22 ab 41 3d 17 3b 31 3d 82 62 7e 3d
       -0.045416363 0.047282346 0.043269243 0.062105663
000180 86 6b a4 bb 00 9f 91 3d f7 f3 38 3d 15 2a 9c bd
       -0.0050177006 0.07110405 0.045154538 -0.07625214
000190 9a d2 22 bb 8f df 3a 3d 5f 1d a4 bd ba 80 29 bd
       -0.0024844767 0.04562336 -0.080134146 -0.04138253
0001a0 63 4c 46 3d d1 0f a5 3d b5 2d 54 3d 5e 90 7e 3d
       0.04841269 0.08059657 0.051801402 0.062149398
0001b0 d1 61 db 3c 99 f9 aa 3d 8a 4f 3e bc c6 5a 35 3d
       0.026780041 0.08348388 -0.011615643 0.04427602
0001c0 56 41 a0 bd 4e d9 15 3c e7 03 27 3d 67 0d e5 3d
       -0.07824962 0.009146048 0.040775206 0.11184197
0001d0 06 d5 3c bd 4c 52 87 3c 29 68 db bd 37 8c 87 3a
       -0.046101592 0.016518734 -0.10713226 0.001034147
0001e0 17 b4 8b 3d df 5d 94 3c e0 ff 6a bd cd eb 9c 3b
       0.06821459 0.018111167 -0.057372928 0.004788852
0001f0 fb 4d c8 3d ad 1a 92 3d b5 34 70 bd 1f ba 1a bd
       0.097804986 0.07133994 -0.058644015 -0.037775155
000200 55 c6 a9 bd 3c 54 e5 3d e4 5f ae 3b 8e d8 54 bd
       -0.08289782 0.11197707 0.0053214896 -0.051964335
000210 c5 64 99 bd 69 3f e3 bd 08 d6 9a bc 0f b8 3d bc
       -0.074899234 -0.11096079 -0.018900886 -0.0115795275
000220 9c f1 82 bd c4 38 86 bd 1a 13 b8 bd d9 0e 89 3d
       -0.063937396 -0.06553796 -0.08988018 0.06692285
000230 6d 74 a6 bd d7 1d bc 3c 9d 07 f2 3d 33 68 98 3d
       -0.08127675 0.022963447 0.11817858 0.074417494
000240 25 83 fe bb 00 17 cb 3d 01 9b 5c 3d 63 a1 cf bd
       -0.0077670985 0.09916496 0.05385876 -0.10138204
000250 b1 9a 47 3d c3 e9 ea bc c1 8a 9f 3d 69 10 d1 3c
       0.04873151 -0.02867592 0.07790137 0.02552052
000260 0b ab 3c 3d 30 81 44 bd 9b 1e 34 ba 2d bd f4 bd
       0.046061557 -0.047974765 -0.00068710156 -0.11950145
000270 4c 95 c3 3d d9 5a 6d 3d 8e 4d 86 3d 45 61 a0 3d
       0.095499605 0.057947967 0.06557761 0.07831053
000280 f5 b9 cd 3d 56 dc 28 bd ac 76 f7 bd 3d 73 54 3d
       0.10045234 -0.041225754 -0.12083182 0.051867712
000290 41 40 cc bd 59 60 aa 3d ec 40 ba bd 70 98 77 bd
       -0.09973193 0.08319158 -0.09094414 -0.06044811
0002a0 9b 0e 2f bd a2 8a d2 bd 57 03 6c 3d f6 a1 c9 3d
       -0.04273854 -0.10280348 0.057620373 0.09845345
0002b0 33 d4 19 bd b5 6a a0 bc 9b 77 72 3d 04 f2 9a 3d
       -0.037555885 -0.019582132 0.059196096 0.07565692
0002c0 78 17 44 3d e5 48 99 bc 49 da 82 bd 84 aa 2b bc
       0.047873944 -0.018711517 -0.06389291 -0.010477666
0002d0 cd ec 2e bd 9a 29 87 bc e6 80 b0 3c f9 ec f3 bd
       -0.0427063 -0.01649933 0.021545839 -0.11910433
0002e0 1c e6 1d 3d 6a 9d da bd cd 0d 5a bd 62 69 e1 3d
       0.038549528 -0.106745556 -0.053235818 0.11006428
0002f0 17 9c 3e bd a8 a4 ad bd bd 80 82 bd 00 00 9c bc
       -0.046535578 -0.08478671 -0.06372211 -0.019042969
000300 4f a1 80 3d 0e 8e 23 bd 92 08 1c 3d b0 e9 e6 bd
       0.06280767 -0.039930396 0.03809411 -0.11275041
000310 0e 44 f5 bd 22 06 bd 3c d5 fa d6 bc 33 67 ae 3d
       -0.11975871 0.023074213 -0.026242653 0.085157774
000320 f4 ac e0 3d b9 44 1e 3b 41 0e e1 3d 0b 0d 95 3c
       0.10970488 0.0024149849 0.10989047 0.018194696
000330 04 c5 7f bd 8c 95 a8 bd 03 d0 b1 3c dd 24 a5 bd
       -0.062443748 -0.08231649 0.021705633 -0.08063672
000340 08 0a b7 bc 60 79 7d bd 96 00 cb 3d 20 20 9b bc
       -0.02234365 -0.06188333 0.09912221 -0.018936217
000350 c6 37 97 3d 1b 69 45 bc 90 4f ca bd ba 15 23 3b
       0.07383685 -0.012048985 -0.098784566 0.0024884776
000360 ae 82 a2 3d d1 b2 de 3d c0 2a d9 bc 48 4d 02 bd
       0.079350814 0.1087395 -0.026509643 -0.031811982
000370 20 93 72 3d 3c e3 eb 3d 43 35 41 bd 93 39 a0 3d
       0.05922234 0.11517951 -0.047169935 0.078234814
000380 b1 8a 24 bd 4a cd bd 3d b6 e5 e7 bd 99 e7 18 bd
       -0.04017133 0.092676714 -0.11323111 -0.037330244
000390 2f e5 a1 3d 62 bd cd 3c 72 9d 82 3c 80 f8 8d bd
       0.079050414 0.025114719 0.015944216 -0.06932163
0003a0 d4 a2 2c b7 6b bd 3c 3d 7a fd 26 bd dd d7 7a 3d
       -1.028991e-05 0.04607908 -0.040769078 0.06124102
0003b0 1d 2b 84 bd 27 e6 4a 3c 82 5b c8 bd 1d 9e 79 bb
       -0.06453536 0.012383974 -0.09783079 -0.0038088628
0003c0 e9 a0 81 3d 5b 83 c4 3d 6e 1a c5 3d 8a c6 83 3c
       0.06329519 0.095953666 0.09624182 0.016085882
0003d0 da be 6d 3d 6b 18 7b bc dc 4d df 3c c8 0c 28 3b
       0.05804334 -0.015325646 0.027258806 0.0025642384
0003e0 3d 03 93 3d 16 60 d4 3d 7f a7 d5 3d e6 82 40 3d
       0.07178352 0.103698894 0.10432338 0.046999834
0003f0 b4 83 01 3d 8b b1 82 bd ca 37 ea bd d2 e8 bf 3d
       0.031619743 -0.0638152 -0.11436422 0.09370579

li.0.bias f4 [512]
000000 54 09 16 3d 3b 9e b8 3a bb 6b 44 bd ca 84 c3 bd
       0.03662999 0.0014085242 -0.047954302 -0.09546812
000010 5b be 80 bd fd 13 f1 bb 53 9e a1 3d 5e 78 12 bd
       -0.062863074 -0.007357119 0.07891526 -0.035759322
000020 10 83 bd 3d 5a 9f dd bd 95 b4 2c bc 12 89 57 bc
       0.09253514 -0.108214095 -0.010541101 -0.013155239
000030 a5 ef ad bc 0a 67 f3 bd 85 e9 d9 bd 7a f3 b7 bd
       -0.021232435 -0.118848875 -0.106402434 -0.08981986
000040 e2 4f e6 bd ac 4c eb 3a 40 83 99 3d ba 79 8c 3d
       -0.11245705 0.0017951927 0.07495737 0.06859155
000050 d4 05 a8 3c 7d 04 a2 3d c7 00 23 bd ca ff 57 3d
       0.020510592 0.07911012 -0.039795663 0.052734174
000060 b1 59 9f bc db 62 d7 3d be d7 9c bd 19 34 0a bd
       -0.019451948 0.10516902 -0.07658337 -0.03374109
000070 5c 1e d2 bd 0d 70 00 ba fb 57 22 bd a4 6c 94 bd
       -0.10259697 -0.00048995094 -0.039634686 -0.07247284
000080 3f b1 8b 3d 01 46 5c bd f7 10 dc bd ae 8f b8 bd
       0.068209164 -0.0537777 -0.10745423 -0.0901178
000090 d7 b4 d5 3b 7c 33 8a 3d fe d7 34 3b 07 da 7c 3d
       0.006521802 0.06748101 0.0027594562 0.061731365
0000a0 b3 cc d7 bd 93 f5 31 bd 5b 7d 84 bd 5c 8a f0 bc
       -0.1053709 -0.04344709 -0.06469222 -0.02936285
0000b0 a8 53 c4 bd 42 11 4b bd e6 36 de 3d 14 e9 b2 bd
       -0.09586269 -0.049577005 0.10850315 -0.087358624
0000c0 b7 6b bc bd 40 2e 3f 3d 03 3d 7a bd cc 9f 92 3c
       -0.092002325 0.046674967 -0.06109334 0.017898463
0000d0 41 cf 4b 3d 26 74 5f bd 8c 60 e8 3d 71 61 bc bc
       0.0497582 -0.054554127 0.1134654 -0.022995682
0000e0 46 c0 ec bd 77 79 d9 3d e2 6f 7f 3d 37 fb e3 3d
       -0.11560111 0.10618871 0.06236256 0.111319
0000f0 06 a9 86 3d 09 a1 ed bd 66 8a 29 bd 1e bb b3 bd
       0.065752074 -0.11602981 -0.041391753 -0.08775924
000100 89 c4 a1 bd ee 0c e5 3c 35 17 9d 3d 99 74 73 bd
       -0.07898814 0.027960267 0.07670442 -0.059437368
000110 9c 31 03 bd 31 a9 4d bd e1 cb 7c 3d 83 17 30 bd
       -0.032029733 -0.05021018 0.06171787 -0.042991173
000120 95 4a 92 3d 73 7f 57 bb 31 79 92 3b 14 28 94 bd
       0.07143132 -0.0032882362 0.0044700135 -0.07234207
000130 e4 58 86 bd 3e e7 49 3c bc 04 8e 3c 71 17 00 3d
       -0.06559923 0.012323199 0.017336242 0.031272355
000140 03 35 93 bd 1b f5 8a 3d fa c8 19 bc 50 97 f0 bd
       -0.071878456 0.067850314 -0.009386295 -0.117476106
000150 18 ec e3 3d cf af a9 bd ba 17 b4 3d 41 72 a9 bc
       0.11129016 -0.08285486 0.08793588 -0.020684363
000160 3f 6f 8a 3d 5b d6 d6 bd 68 08 03 3d 79 be ec bd
       0.067595 -0.10490104 0.03199044 -0.11559767
000170 79 d7 a6 3d 2f 24 e7 3b 33 78 ec bd a1 b3 d9 3d
       0.08146567 0.007053874 -0.11546364 0.106299646
000180 ac 1a d7 3d e4 f5 ed bd e1 19 23 3d 63 b3 45 bd
       0.10503134 -0.116191655 0.039819602 -0.04826678
000190 46 96 ee bd 1f 54 6a bd e7 fa 9a bb 9c 0b ca 3d
       -0.11649756 -0.05720913 -0.004729617 0.098654956
0001a0 82 79 cf ba 33 74 48 3d e9 a5 e9 bd 8c 0a 22 3d
       -0.0015829059 0.04893894 -0.11408598 0.03956084
0001b0 cf 1c e9 bd dd 0f d8 3c e4 a4 7a 3b a5 2e 3b 3d
       -0.11382448 0.026374752 0.0038245255 0.04569878
0001c0 fa be 34 bd dc f1 ee 3d 53 00 88 3c 30 ac be bd
       -0.044127442 0.11667225 0.016601717 -0.09310186
0001d0 9a b3 15 3d 1a c0 85 3d bb 29 b5 3d a2 93 6a bb
       0.036548235 0.06530781 0.0884585 -0.0035793562
0001e0 9c 34 d6 bb 14 de dd bd 8f 0e 34 3d 2d 6a 99 bd
       -0.0065370332 -0.10833374 0.043959197 -0.074909545
0001f0 58 a2 bc bc 6d 2a cb 3d 3b 5f c8 bd e3 19 89 3c
       -0.02302663 0.099202015 -0.09783789 0.016735977
000200 d5 3c 26 bb 94 79 3e 3d 30 89 f3 bc 22 da c2 3d
       -0.0025365849 0.046502665 -0.029728502 0.09514262
000210 d0 38 79 3d 6e 9d 97 bd ef 59 c0 3d d7 7a db 3d
       0.060845196 -0.07403074 0.093921535 0.10716789
000220 1f 66 15 bc 69 2d db 3d 7b d2 d2 3d 6e c7 cc bb
       -0.009118586 0.10702021 0.10294052 -0.00624936
000230 44 6b 26 bc b7 28 c1 3d 83 19 1c 3c ee 05 67 3d
       -0.01015741 0.09431594 0.009527567 0.05640214
000240 ee e6 5d bd 4b 73 c2 bd 70 b2 4c 3d fe 4b c7 3d
       -0.05417531 -0.09494647 0.04997486 0.09731291
000250 ee 0c c5 bd a5 b5 c0 3d 25 6c 02 3d f0 47 84 b8
       -0.09621607 0.09409646 0.031841416 -6.30765e-05
000260 1d 42 92 3d a7 c9 46 3d a4 83 a5 3d e1 e0 a2 3d
       0.07141516 0.048532154 0.08081749 0.079530485
000270 ca d4 1c bd f6 04 54 3d 93 2e 89 3d f3 3d de bd
       -0.03828887 0.051762544 0.066983365 -0.108516596
000280 38 7a 0c bd 39 36 1f 3d d3 cd 73 bc c6 93 a7 3c
       -0.034296244 0.03887007 -0.014880615 0.020456206
000290 2d be 94 bd 0e a2 f0 bd 4f 47 96 bd af be e0 bd
       -0.07262836 -0.117496595 -0.0733782 -0.1097387
0002a0 19 55 e7 3d c1 25 88 bd 2b 94 cb bd 95 fa 23 3d
       0.11295528 -0.06647826 -0.0994037 0.040033896
0002b0 22 74 8b bc df d9 f5 bc 61 c9 a5 bd bd 18 e4 3d
       -0.01702315 -0.030011116 -0.080950506 0.11137531
0002c0 6d 97 a9 bc 61 4d 9a bd 9b 26 8f bd 69 73 49 3d
       -0.020702088 -0.0753429 -0.06989785 0.04918233
0002d0 9d 52 b6 3d 54 22 70 3d a6 1d 6f 3d 33 b4 bc 3d
       0.08902476 0.058626488 0.058377884 0.09214058
0002e0 25 54 19 bc 02 c8 ad bd 17 3b 00 bd 5c 8a c0 ba
       -0.0093584405 -0.08485414 -0.031306352 -0.0014689672
0002f0 22 2a e3 bd ce d4 c3 3d ab 3b 35 bc 79 4b c8 bd
       -0.110920206 0.09562074 -0.011061589 -0.0978002
000300 e6 1e 0b 3d e3 04 14 bd d0 8a d2 bd ea 21 80 3c
       0.033965014 -0.036137473 -0.10280383 0.015641171
000310 75 3f 65 3c ce 14 20 bb 47 dc 36 ba ad 94 82 bd
       0.01399218 -0.0024426463 -0.0006975573 -0.06376014
000320 12 0b e1 3c 91 1f fa bc 36 07 49 3d 60 cc 78 bd
       0.027471099 -0.03053263 0.049079143 -0.060741782
000330 1d fe a0 bb 64 a6 bb bd 32 c9 39 3c 14 d6 4e 3d
       -0.004913105 -0.09162596 0.011339473 0.05049713
000340 f0 49 1d bc 36 17 6a 3d 15 25 d1 bd fe 14 77 3c
       -0.009600148 0.057151042 -0.10212151 0.0150806885
000350 13 d0 23 3d 5b 30 ca 3d 5c 92 d0 bd db db 88 bd
       0.039993357 0.09872504 -0.10184166 -0.06682559
000360 02 24 cb bd 95 69 7b bd 57 03 3e bd 4a 5b cb bc
       -0.09918977 -0.061379988 -0.046389904 -0.024823803
000370 11 47 c8 bc 8d af e8 3d e2 96 a3 bd 2a df 99 3d
       -0.02444795 0.11361609 -0.07987763 0.07513268
000380 65 21 c9 3d 8f 00 07 3d 3e 40 0f bc 81 f0 c3 3d
       0.098208226 0.032959517 -0.008743344 0.09567357
000390 0d ad 2c 3d 07 4d e6 bd 07 e9 bf bd 9c 59 df bd
       0.04215722 -0.112451605 -0.09370618 -0.109057635
0003a0 34 dc 8e bd 60 c9 0d bd f4 60 ce bd 24 0d bc 3d
       -0.06975594 -0.034615874 -0.10077086 0.09182194
0003b0 47 57 17 3c e9 ba 91 3b f0 82 cf 3d 2e 39 ab 3d
       0.009237117 0.0044473303 0.10132396 0.083605155
0003c0 58 0d 0f bd cb 67 4b bd b0 97 e5 3d 84 d0 a0 3d
       -0.034924835 -0.04965953 0.11210573 0.07852271
0003d0 09 c9 e2 ba 9c 3c ff bc e3 71 0e 3c a9 02 2d bd
       -0.0017302345 -0.03115683 0.008694145 -0.042238865
0003e0 eb 24 bb 3c 1e 54 f2 bd dd 04 d1 bc 5c 6e 52 3d
       0.022844752 -0.1183245 -0.025515014 0.05137478
0003f0 dd 20 e4 bd e0 29 30 3d 17 56 95 bd 1c 89 10 3d
       -0.11139081 0.043008685 -0.07291811 0.035287008

li.1.weight f4 [512]
000000 39 00 80 3f 18 09 80 3f 45 c5 7f 3f 54 48 80 3f
       1.0000068 1.0002775 0.99910384 1.0022073
000010 24 e4 7f 3f 93 e3 7f 3f b9 ff 7f 3f aa 00 80 3f
       0.9995749 0.99956626 0.99999577 1.0000203
000020 f8 0a 80 3f 32 d6 7f 3f 78 04 80 3f de 05 80 3f
       1.0003347 0.9993621 1.0001364 1.000179
000030 af ff 7f 3f 0a 03 80 3f a4 05 80 3f c6 a9 7f 3f
       0.9999952 1.0000927 1.0001721 0.9986843
000040 63 33 80 3f d2 ed 7f 3f 8c 01 80 3f 29 d3 7f 3f
       1.0015682 0.9997226 1.0000472 0.9993158
000050 dc ea 7f 3f f5 f8 7f 3f b6 0f 80 3f dd 07 80 3f
       0.9996774 0.99989253 1.0004795 1.00024
000060 0c 03 80 3f eb dc 7f 3f 40 01 80 3f 35 e3 7f 3f
       1.000093 0.9994647 1.0000381 0.99956065
000070 c7 dc 7f 3f c0 ee 7f 3f 78 05 80 3f fb 05 80 3f
       0.99946254 0.9997368 1.0001669 1.0001825
000080 0a e8 7f 3f db f5 7f 3f ef 1f 80 3f fa eb 7f 3f
       0.9996344 0.9998452 1.0009745 0.99969447
000090 36 f9 7f 3f a3 07 80 3f 5d 00 80 3f 26 03 80 3f
       0.9998964 1.000233 1.0000111 1.0000961
0000a0 f0 06 80 3f ff db 7f 3f c3 fc 7f 3f 94 04 80 3f
       1.0002117 0.9994506 0.9999506 1.0001397
0000b0 f3 23 80 3f 29 01 80 3f e3 f0 7f 3f 21 da 7f 3f
       1.0010971 1.0000354 0.9997694 0.99942213
0000c0 81 fd 7f 3f 5e ff 7f 3f 21 df 7f 3f 17 ea 7f 3f
       0.9999619 0.99999034 0.9994984 0.9996657
0000d0 23 94 80 3f d5 05 80 3f 64 00 80 3f 50 0e 80 3f
       1.0045208 1.000178 1.0000119 1.0004368
0000e0 7f 14 80 3f f7 f3 7f 3f 03 06 80 3f 35 fd 7f 3f
       1.0006255 0.99981636 1.0001835 0.9999574
0000f0 c6 f1 7f 3f 0b 01 80 3f 02 d1 7f 3f 8c 1d 80 3f
       0.9997829 1.0000318 0.99928296 1.0009017
000100 86 fe 7f 3f ce 04 80 3f e8 18 80 3f 3c fd 7f 3f
       0.99997747 1.0001466 1.0007601 0.9999578
000110 e2 09 80 3f 0e ff 7f 3f 48 94 7f 3f 61 07 80 3f
       1.0003016 0.9999856 0.99835634 1.0002252
000120 8b ff 7f 3f f6 fa 7f 3f 6f 48 80 3f b5 25 80 3f
       0.999993 0.9999231 1.0022105 1.0011507
000130 c9 f1 7f 3f 21 f0 7f 3f ba 09 80 3f 28 01 80 3f
       0.9997831 0.9997578 1.0002968 1.0000353
000140 1b 00 80 3f 75 ff 7f 3f 4b 00 80 3f 29 d9 7f 3f
       1.0000032 0.9999917 1.000009 0.99940735
000150 82 01 80 3f 8a fd 7f 3f ce 03 80 3f 4a fd 7f 3f
       1.000046 0.99996245 1.0001161 0.99995863
000160 1b eb 7f 3f ce f1 7f 3f 47 1e 80 3f 33 00 80 3f
       0.9996812 0.9997834 1.000924 1.0000061
000170 4f fe 7f 3f a2 f3 7f 3f c9 f6 7f 3f 75 ff 7f 3f
       0.9999742 0.9998113 0.9998594 0.9999917
000180 01 03 80 3f 59 be 7f 3f 82 03 80 3f 4e 15 80 3f
       1.0000917 0.9989982 1.000107 1.0006502
000190 19 08 80 3f 66 02 80 3f 41 06 80 3f 63 07 80 3f
       1.0002471 1.0000732 1.0001909 1.0002254
0001a0 b4 f7 7f 3f c9 15 80 3f 32 07 80 3f 0a 06 80 3f
       0.9998734 1.0006648 1.0002196 1.0001843
0001b0 35 f0 7f 3f f3 13 80 3f 60 f4 7f 3f 11 d5 7f 3f
       0.999759 1.0006088 0.9998226 0.9993449
0001c0 b1 00 80 3f e8 01 80 3f 35 fa 7f 3f 2e 01 80 3f
       1.0000211 1.0000582 0.9999116 1.000036
0001d0 4c dd 7f 3f 88 18 80 3f ab fb 7f 3f 45 0d 80 3f
       0.9994705 1.0007486 0.9999339 1.000405
0001e0 ac 24 80 3f c0 c2 7f 3f 4c f0 7f 3f a0 fd 7f 3f
       1.0011191 0.9990654 0.9997604 0.99996376
0001f0 b4 00 80 3f 6f 02 80 3f 92 e8 7f 3f f1 d1 7f 3f
       1.0000215 1.0000743 0.9996425 0.9992972
000200 c3 fd 7f 3f 2f 28 80 3f 84 fb 7f 3f 98 01 80 3f
       0.99996585 1.0012263 0.9999316 1.0000486
000210 7c 13 80 3f c9 05 80 3f 5b 11 80 3f fa e8 7f 3f
       1.0005946 1.0001765 1.0005296 0.9996487
000220 ca ff 7f 3f ad 07 80 3f 36 d4 7f 3f 75 4d 80 3f
       0.9999968 1.0002342 0.99933183 1.0023638
000230 d3 d4 7f 3f 70 fb 7f 3f 42 ff 7f 3f d1 d6 7f 3f
       0.9993412 0.9999304 0.9999887 0.9993716
000240 78 eb 7f 3f 23 17 80 3f a7 04 80 3f ea fc 7f 3f
       0.9996867 1.0007061 1.000142 0.9999529
000250 d3 de 7f 3f a7 2e 80 3f fc 06 80 3f 5a ff 7f 3f
       0.9994938 1.0014237 1.0002131 0.9999901
000260 63 11 80 3f 8a fb 7f 3f cc fd 7f 3f b9 0a 80 3f
       1.0005306 0.99993193 0.9999664 1.0003272
000270 2a f5 7f 3f 6e 08 80 3f 0f f7 7f 3f 85 fc 7f 3f
       0.99983466 1.0002573 0.99986356 0.9999469
000280 07 04 80 3f fd f4 7f 3f b9 e4 7f 3f c8 06 80 3f
       1.0001229 0.999832 0.9995838 1.000207
000290 db f9 7f 3f 2d 33 80 3f 21 f3 7f 3f 4d ee 7f 3f
       0.99990624 1.0015618 0.9998036 0.99972993
0002a0 87 01 80 3f 98 fd 7f 3f c2 f9 7f 3f 4a 03 80 3f
       1.0000466 0.9999633 0.99990475 1.0001004
0002b0 af 19 80 3f d5 ec 7f 3f 1c e5 7f 3f 75 ff 7f 3f
       1.0007838 0.9997075 0.9995897 0.9999917
0002c0 52 06 80 3f 9c f7 7f 3f 3b fb 7f 3f b2 ed 7f 3f
       1.0001929 0.99987197 0.9999272 0.9997207
0002d0 7d fe 7f 3f 23 fd 7f 3f 1d f5 7f 3f 5b 04 80 3f
       0.99997693 0.9999563 0.9998339 1.0001329
0002e0 dc d1 7f 3f 6c e4 7f 3f 35 0c 80 3f b7 0e 80 3f
       0.99929595 0.9995792 1.0003725 1.0004491
0002f0 71 08 80 3f 0a 71 7f 3f c5 0f 80 3f 97 f7 7f 3f
       1.0002576 0.9978186 1.0004812 0.9998717
000300 7f 1e 80 3f 18 1f 80 3f 0f 18 80 3f c7 d9 7f 3f
       1.0009307 1.0009489 1.0007342 0.99941677
000310 e9 f3 7f 3f ea 06 80 3f bd df 7f 3f 8e fe 7f 3f
       0.9998155 1.000211 0.9995077 0.99997795
000320 20 e7 7e 3f bb fa 7f 3f a5 01 80 3f 94 04 80 3f
       0.9957142 0.9999196 1.0000502 1.0001397
000330 50 00 80 3f 77 ea 7f 3f a2 0d 80 3f 22 04 80 3f
       1.0000095 0.9996714 1.000416 1.0001261
000340 bc 02 80 3f cc d9 7f 3f 51 f6 7f 3f 93 fe 7f 3f
       1.0000834 0.99941707 0.99985224 0.99997824
000350 b9 e8 7f 3f 79 fb 7f 3f 4c f2 7f 3f 95 18 80 3f
       0.9996448 0.9999309 0.9997909 1.0007502
000360 2a 00 80 3f de f5 7f 3f 40 14 80 3f 25 eb 7f 3f
       1.000005 0.9998454 1.000618 0.9996818
000370 35 ca 7f 3f b5 06 80 3f af ce 7f 3f f2 11 80 3f
       0.9991792 1.0002047 0.9992475 1.0005476
000380 c0 25 80 3f 4d 12 80 3f bf 02 80 3f 79 11 80 3f
       1.001152 1.0005585 1.0000838 1.0005332
000390 e2 ed 7f 3f cb f7 7f 3f 9b f6 7f 3f b3 03 80 3f
       0.99972355 0.9998748 0.99985665 1.0001129
0003a0 90 ea 7f 3f a9 ef 7f 3f 00 f4 7f 3f b8 07 80 3f
       0.9996729 0.9997507 0.9998169 1.0002356
0003b0 d5 f0 7f 3f da 03 80 3f bb f3 7f 3f 5d f5 7f 3f
       0.99976856 1.0001175 0.9998128 0.9998377
0003c0 6a f1 7f 3f 08 1c 80 3f 5c fa 7f 3f 48 fd 7f 3f
       0.99977744 1.0008554 0.99991393 0.9999585
0003d0 c3 f6 7f 3f 90 07 80 3f 65 10 80 3f 05 fc 7f 3f
       0.99985904 1.0002308 1.0005003 0.99993926
0003e0 f4 fe 7f 3f a8 06 80 3f e9 da 7f 3f c4 d6 7f 3f
       0.999984 1.0002031 0.99943405 0.9993708
0003f0 a4 16 80 3f ce 08 80 3f 25 07 80 3f cc 08 80 3f
       1.0006909 1.0002687 1.000218 1.0002685

li.1.bias f4 [512]
000000 6d ef 40 3c e8 b5 89 bb 84 9c 2d bb 2d 6c 55 bd
       0.011775834 -0.004202593 -0.0026490996 -0.052105118
000010 f1 f0 2e bc 78 b3 94 bc e2 3d bb bb 5f d3 a8 bb
       -0.010677562 -0.018151984 -0.005714164 -0.0051521505
000020 c0 ab a6 bc 0f 76 a3 3b e5 e1 e3 bb 2f dc 3d bb
       -0.020345569 0.004988439 -0.006954419 -0.002897035
000030 de 8f 9c 3a dd 4c 38 bc 8a c8 64 bc e1 31 b3 3d
       0.0011944731 -0.011248794 -0.013963828 0.08749748
000040 c5 75 a0 3c e5 cf f6 bc 88 59 b7 ba 47 95 9f bc
       0.019587407 -0.030128429 -0.0013988474 -0.01948036
000050 f7 ba ff bb c4 95 f3 3b 8e a4 59 bc 01 d7 d9 bb
       -0.0078042704 0.007433625 -0.013283862 -0.006647945
000060 3d 61 ab 3b d0 1e 26 bc bf a3 5a 3c 07 64 1c bc
       0.0052300976 -0.010139182 0.013344704 -0.009545333
000070 0d 1b 38 3d d0 6e 81 3c d0 6d c4 3c c1 4f fe 3a
       0.044947673 0.01579991 0.023978144 0.0019402431
000080 bb 9d cb bb 1d b4 26 3d 37 70 89 3c a3 e1 01 bc
       -0.0062138713 0.040699113 0.016777141 -0.007927331
000090 24 9e 67 bb 6c 84 c1 bb d5 a5 43 bb de a8 d1 3a
       -0.0035342062 -0.0059056785 -0.0029853482 0.0015995761
0000a0 d1 e1 14 bb ea f7 81 bb db 51 35 3d 30 c0 0d bb
       -0.0022717605 -0.0039663212 0.044267517 -0.0021629445
0000b0 6f 4b 0d 3a 9b d8 29 3b 88 3d 06 3a 3e ad 94 bc
       0.00053899636 0.002591646 0.0005120863 -0.018149015
0000c0 86 ef 9c ba eb 9e 8a bb 0c 7f 24 bb df 5f 87 ba
       -0.0011973239 -0.0042303703 -0.002510014 -0.0010328254
0000d0 bd 36 a9 bb 44 c0 8d ba ed 49 10 3c 08 35 0d 3c
       -0.005163996 -0.0010814746 0.008806688 0.008618601
0000e0 a9 b8 cc 3c 0e 7b 81 bc 3c e2 8d bc 6e 74 af 3b
       0.024990397 -0.015805747 -0.017319791 0.0053544557
0000f0 7a 84 8c bb af 5b 1e 3c 12 68 cc bb d6 6f 57 3c
       -0.0042882534 0.009665414 -0.006237992 0.013149222
000100 cf 67 d3 3b ed 35 2c bc 4e de 92 3c 5f 17 9d bb
       0.006451584 -0.010510904 0.017928269 -0.004794046
000110 b8 c0 dc bb aa 93 66 bb 00 e0 8c 3d 29 e8 da 3a
       -0.006736841 -0.003518323 0.06878662 0.0016701269
000120 9e 4f 50 3c a7 f3 47 bc c4 02 08 bd 1e ea 08 3d
       0.012714295 -0.012204087 -0.033205763 0.033426397
000130 3e ce 4e 3b b0 92 37 3d 07 9a 36 bc 84 10 e5 3b
       0.0031556035 0.044817626 -0.011145121 0.006990494
000140 5e 18 64 39 42 ed 69 3b 8a 17 8d 38 3a f4 8c bc
       0.00021752852 0.0035694395 6.7277884e-05 -0.0172063
000150 19 e0 40 3c de d2 9c bb 18 af b6 3b ac 11 0e 3b
       0.011772179 -0.0047858795 0.005575072 0.0021678014
000160 60 e4 8c ba de 96 47 bb 45 bd 66 3c 8f f3 4d 3b
       -0.0010749213 -0.0030454914 0.014083211 0.003142569
000170 f0 f7 e1 ba 9c b7 8b bc 12 d7 fc 3a 70 01 97 3b
       -0.0017240029 -0.017055325 0.001929017 0.0046083257
000180 22 11 29 bc b2 d5 94 bc cd 90 f4 bb 24 c5 20 3b
       -0.010319026 -0.018168304 -0.0074635507 0.0024531567
000190 4b 2b 8c 3b 46 8c bc 3b b9 3e 39 bb 70 be 69 bb
       0.004277622 0.0057540266 -0.0028266145 -0.0035666488
0001a0 5c e6 2e 3c 2a a1 5d bd d9 6d c2 bb de b1 ff 3a
       0.010675039 -0.054108776 -0.005933505 0.0019507965
0001b0 9f 2f 0d 3c a9 85 c2 bc 30 48 9e ba 5f 5f 92 bc
       0.008617311 -0.023745375 -0.0012075957 -0.017867742
0001c0 3f 12 36 3b ad 7c 4d 3a 3b 74 1e 3c 39 a7 24 bb
       0.0027781872 0.00078387075 0.009671266 -0.0025124087
0001d0 c9 39 b2 3b 5b df bc bc b0 c5 5b bc 67 3b d5 3a
       0.0054390174 -0.023055723 -0.013413832 0.0016268314
0001e0 95 18 0e bd 62 04 28 bc 36 70 f1 b9 38 01 2a 3b
       -0.034691412 -0.010254951 -0.00046050706 0.0025940668
0001f0 f5 f7 9a ba 34 38 bc 3c cf 0c 06 bd e6 01 a1 3c
       -0.0011823165 0.022976018 -0.03272706 0.019654226
000200 25 a3 85 ba da 96 a8 3a e2 21 0f bb 41 f3 78 3c
       -0.0010195716 0.001286234 -0.0021840264 0.015194715
000210 42 40 54 3c 3b 17 bf 3b ee 92 f3 3a 54 0f 60 3c
       0.012954773 0.0058316267 0.0018583217 0.0136755295
000220 0d 47 23 3b 6b b6 1b bb 88 35 57 bc 20 b8 6a 3c
       0.0024914176 -0.0023759853 -0.013135321 0.014326125
000230 15 d1 49 3b 8a a9 ad bc 98 d3 dc 3c 4d 6b 04 bc
       0.0030794789 -0.021199007 0.026956365 -0.008082223
000240 e3 f3 b5 bc d3 fd 00 bd 14 d2 61 bc 4c 6b e2 3b
       -0.02221102 -0.031492066 -0.013782997 0.0069097634
000250 b7 b9 5c bb 2c 99 51 bd 73 b6 19 3c 3f eb ad 3b
       -0.003368003 -0.051171467 0.009381878 0.0053075845
000260 2c 29 0d 3c dc 36 72 bc be d8 af bc f1 72 ba bb
       0.008615773 -0.014783587 -0.021465655 -0.0056899716
000270 b3 a2 3a bb 66 2c 6a 3b 74 e6 cd 3b 93 98 4f bc
       -0.0028478324 0.003573203 0.0062835757 -0.012670654
000280 41 74 93 3b 26 cd 1d bb 8c e2 81 bc 8c 11 59 bc
       0.0044999425 -0.0024078577 -0.015855096 -0.013248812
000290 60 15 0f bc 48 c6 9d bd 20 66 e9 ba 87 1d 07 3b
       -0.008733124 -0.07703835 -0.0017806925 0.0020616965
0002a0 97 30 ba bb 31 fc cb b7 1e 14 31 3d db 07 da bb
       -0.005682062 -2.4316922e-05 0.043232076 -0.0066537685
0002b0 ea 44 50 bb 71 03 95 bc 43 a9 ce bb b8 d4 36 bb
       -0.0031779357 -0.018190118 -0.0063067987 -0.0027897786
0002c0 0a 34 e9 3b 18 b0 13 39 26 64 26 3a 4d ba c0 3c
       0.0071167992 0.00014084612 0.0006347321 0.023526335
0002d0 8e 9c 8c ba 57 e2 23 bb 19 85 8b 3b 30 b9 23 bc
       -0.0010727809 -0.0025006735 0.00425781 -0.009992883
0002e0 0d d4 61 3b 95 bd 07 3c 70 3f 28 3c 9f 79 d6 39
       0.0034458668 0.008284946 0.010269031 0.00040907876
0002f0 fc 1d c4 bc b1 bd b7 3d 04 4c 0a bd 1f c5 92 bb
       -0.023940079 0.08971728 -0.0337639 -0.004479065
000300 b4 fc e4 bc ba 35 75 3b ac bc c8 3b 6b 94 6f 3b
       -0.02795253 0.0037416057 0.006126007 0.003655697
000310 4d 98 d2 39 eb 41 5e 3b 0e f8 06 3c 03 7b 77 bb
       0.00040167794 0.0033913802 0.008237852 -0.003776253
000320 7c db 0e 3e 58 19 9a bb 2f 6e 5d b9 13 4b 5a bc
       0.13950914 -0.0047027282 -0.00021117249 -0.013323563
000330 f3 7d d4 39 9d 03 93 3c 47 fa ac 3b 7b 14 ca 3b
       0.0004052963 0.017946059 0.005278859 0.0061669922
000340 0d ae b3 3b 08 2c 6a bb e1 39 84 3a c9 df 40 bc
       0.005483395 -0.003573181 0.001008805 -0.011772105
000350 cc 45 2e bb 36 82 dc bc 52 3f bc ba 92 79 89 bc
       -0.0026591895 -0.026917558 -0.0014362133 -0.016781602
000360 27 77 d3 b9 d2 26 7f bb 0a 35 d9 3b e6 8e ab bc
       -0.00040333832 -0.003893305 0.006628637 -0.020942163
000370 30 1a df bb 38 28 85 bc 3c a2 23 bb 8e c8 b2 3c
       -0.0068085417 -0.01625453 -0.0024968525 0.021824148
000380 1b dd 1a bd e0 7a bb bb c0 e0 47 3b 9d 4d c1 3b
       -0.03780852 -0.005721435 0.0030498952 0.005899145
000390 32 45 04 3a 25 73 94 3a 2b 78 87 ba b2 08 bd bc
       0.00050457113 0.001132582 -0.0010335495 -0.023075435
0003a0 1f 63 a8 bb c3 12 db bc 84 a7 69 bb 87 6c cb bc
       -0.0051387693 -0.026742345 -0.0035652826 -0.024832023
0003b0 df 08 88 ba 4f 86 fe bb c7 47 8f b8 72 61 f8 bb
       -0.001037862 -0.0077674757 -6.832141e-05 -0.0075799758
0003c0 b2 51 94 3a 84 f1 ef 3b 3d b8 eb 3a b8 68 02 3d
       0.0011315851 0.007322492 0.0017983984 0.03183815
0003d0 b6 e8 e5 bb 40 93 ab bc 2c 46 e7 3b cf f8 84 bb
       -0.0070162667 -0.020944238 0.0070579257 -0.0040579806
0003e0 49 e5 1e bb 6c 18 f7 3a cc a9 6e bb 63 9d db bc
       -0.0024245551 0.0018851883 -0.0036417125 -0.026808446
0003f0 d5 22 26 bc a1 b2 1b bb 06 c0 d0 3b c7 90 c9 ba
       -0.010140141 -0.0023757594 0.006370547 -0.001537823

li.1.running_mean f4 [512]
000000 68 10 ca be 45 be e7 3e fe 70 d2 bd fd 19 0b 3f
       -0.39465642 0.45262352 -0.10275458 0.5433653
000010 2b 9e a6 3e c3 d4 ef 3e 5c 0c 1b 3e ff de 05 3f
       0.32542548 0.46842012 0.15141433 0.5229339
000020 cb 11 56 3f be fe cf be 44 3c ed bc c5 86 7d be
       0.836209 -0.4062404 -0.028959401 -0.24758442
000030 e7 48 1f 3e bd fe b8 3d af d5 b1 3e c6 4b 46 be
       0.15555154 0.090329625 0.3473334 -0.19364843
000040 a0 fd cb bc ff b4 20 be 9d 99 44 3e 25 a4 1e be
       -0.024901211 -0.15694045 0.19199224 -0.15492304
000050 6a 5a 80 be 2f 4f f5 bd 4e 30 79 be c3 65 99 3e
       -0.2506898 -0.11977994 -0.24334833 0.2996045
000060 3d 17 ac bd 5d 09 ae 3e a6 f9 17 3d 36 72 6f 3e
       -0.0840287 0.3399152 0.037103318 0.23383412
000070 57 ca 83 be 7b d7 80 be fa 24 2c be d8 35 70 3e
       -0.2574031 -0.251644 -0.1681098 0.2345804
000080 58 52 3d bd be cd 9a 3e c7 44 39 3e 83 82 30 be
       -0.046221107 0.30235094 0.18092643 -0.17237286
000090 c0 97 1c bf 02 8f 55 3e a6 dc 4a 3d fd 5c 95 3d
       -0.6116905 0.20855334 0.049526833 0.07293127
0000a0 6e 8f 2a be 53 ec 5f 3e 36 95 14 3e 6e b2 f9 bd
       -0.16656277 0.21867494 0.14510044 -0.12192236
0000b0 c2 e1 bf be b6 9c 78 3e aa 12 d4 be 12 42 69 3d
       -0.37476927 0.2427853 -0.4142049 0.056947775
0000c0 77 79 86 3d dc 2c 16 3f d7 a9 35 bf 59 2b 07 bd
       0.06566136 0.586622 -0.7096228 -0.033000324
0000d0 70 cc d6 bd ca ec bd be 73 26 ef bc ea 37 93 3e
       -0.10488212 -0.37094718 -0.029193139 0.28753597
0000e0 b3 38 8c 3d 84 32 00 3f 05 ec 3b 3e f1 d7 75 bc
       0.06846752 0.5007708 0.18351753 -0.015005098
0000f0 32 63 e3 3e 5c 2a 6f be 71 75 4e bf 8c 06 a2 be
       0.44411618 -0.23356003 -0.8064795 -0.3164562
000100 11 cc 2d be 70 fa 10 3d f1 d4 9e 3e fe fe f1 be
       -0.16972376 0.035395086 0.31021836 -0.47264856
000110 7f 38 a1 bd 5b 81 88 bd 79 1f d9 bd be 11 ee bd
       -0.07872104 -0.066652976 -0.10601706 -0.11624478
000120 73 15 4f 3e fc 16 80 3e bd 90 80 3f df d8 46 be
       0.20223026 0.25017536 1.0044171 -0.19418667
000130 f1 7d 26 3f fc 2d e7 bd cb ed 2a 3f e5 5e f9 3b
       0.6503592 -0.11288068 0.66769093 0.0076101893
000140 05 6c c6 bd 38 da a3 be d8 8f c7 be c6 eb 81 3e
       -0.09688572 -0.32002425 -0.38976932 0.25375193
000150 16 99 c3 bd 85 83 9e 3e cb 22 8b be 2c d7 82 bd
       -0.09550683 0.30959716 -0.27174982 -0.06388697
000160 a0 32 06 bf 68 46 5a be fa cb 84 3e b6 c2 23 3d
       -0.52421 -0.2131592 0.25936872 0.039980613
000170 61 e3 a7 3e e9 70 f0 3e 09 94 41 3d e3 b8 67 3d
       0.32790664 0.46961144 0.047260318 0.056572806
000180 e4 19 50 3e e6 7b 74 3e fd e7 43 bd 38 46 2a bf
       0.20322376 0.23875389 -0.047828663 -0.66513395
000190 9a 3e 26 bf e7 7e 38 bf ec 7d fd bd 1e 86 2d be
       -0.6493927 -0.7206864 -0.12377533 -0.16945693
0001a0 0b 33 9e be d3 81 38 be 82 00 53 be 3c 48 11 be
       -0.30898318 -0.18018274 -0.20605662 -0.14187711
0001b0 78 52 16 bf 55 26 32 3f df e7 f5 be f9 1d f5 3c
       -0.5871959 0.6958974 -0.48028466 0.029921519
0001c0 3f 01 22 3e f1 ef 8f 3e 83 9a 62 be fd c4 fc 3d
       0.15820788 0.28112748 -0.22129254 0.1234226
0001d0 62 a7 62 3e 90 aa 24 3e fc 30 af be 70 30 67 bf
       0.22134164 0.1608069 -0.3421706 -0.90308285
0001e0 b1 72 82 3f ea 6c 47 bc 9f b8 c3 3c 01 cf 58 be
       1.0191251 -0.012171963 0.023891745 -0.21172716
0001f0 2e 94 09 bf f4 40 90 be c0 6d 2f 3d cb ea da bd
       -0.5374173 -0.28174555 0.042829275 -0.106893145
000200 18 ca 38 3e 3c 40 60 bc 2a ab 5b bf b6 93 45 3c
       0.18045843 -0.01368719 -0.8580805 0.012059143
000210 d3 92 05 bf 08 e1 94 be 81 91 56 be f7 fe 56 3f
       -0.5217716 -0.29077935 -0.20953943 0.83982795
000220 a7 c5 9d 3e 5f 2d 00 bd 8b e7 03 bf ed e9 e4 3d
       0.3081486 -0.03129327 -0.5152518 0.1117743
000230 55 f9 1e bd d5 ac ca 3e a7 4c d4 3e 85 3e 3b bc
       -0.038812 0.39584985 0.4146473 -0.01142848
000240 41 23 ac 3e 3e 09 0d 3f ff 66 55 3f 01 ba 88 be
       0.33620647 0.5509223 0.83360285 -0.2670441
000250 cf 02 0c bf b8 cc 47 3f 72 b0 02 bd a2 60 a1 3e
       -0.54691786 0.7804675 -0.031906553 0.31519037
000260 86 eb 4f bf 78 8c 06 bf d6 65 99 3e 1e 81 28 3d
       -0.81218755 -0.5255809 0.29960507 0.04113876
000270 3f bb 90 3e dd a1 ab 3e ee df 58 bd 7e 58 07 be
       0.28267857 0.3352193 -0.05294793 -0.13217351
000280 f8 66 4c 3e 28 99 b1 3e 35 a1 6b be 3c 6f 06 bf
       0.19961154 0.3468716 -0.23010714 -0.5251348
000290 57 c6 e1 3e f3 ef bf be ed 0e 78 3f b2 b4 04 bf
       0.44096634 -0.37487754 0.96897775 -0.5183822
0002a0 a6 c6 18 3f 6f be 1f bf a0 0e 55 be 50 ae 18 be
       0.59678113 -0.62399954 -0.2080636 -0.14910245
0002b0 76 17 91 3e 91 59 b7 3e a5 27 28 3e aa 5a 50 3f
       0.28338212 0.3581052 0.16421373 0.8138834
0002c0 d4 06 5a 3e 74 43 b3 be 8c 38 9c be d2 01 33 be
       0.21291667 -0.350124 -0.30511892 -0.17481163
0002d0 23 c0 f5 3b ef a9 44 be 40 92 cb 3d 50 08 eb bd
       0.007499711 -0.1920545 0.09940004 -0.11476195
0002e0 30 3c c4 3c 19 a4 0d 3f ce 07 86 3e 9d c4 65 bc
       0.02395448 0.5532852 0.2617783 -0.014023927
0002f0 f2 7b fb bd c2 2d c1 bd 41 32 91 be c4 df b8 be
       -0.122795 -0.09432556 -0.28358653 -0.3610822
000300 d9 e8 81 be a9 8f 9f 3e 6d 5c 6c bf bc 8b be be
       -0.2537296 0.31164292 -0.9232853 -0.37215984
000310 ed 99 e0 3e 2f 1c 16 bf 1c 76 09 be ba 4b a2 be
       0.43867436 -0.58636755 -0.13423961 -0.316984
000320 7f b3 59 be 7a 97 58 3e 8f d9 e7 3e bb bd 09 3d
       -0.21259879 0.21151534 0.45283172 0.033628207
000330 b9 9a 07 3f c3 58 b3 be 89 15 71 bd d1 5d b3 3d
       0.52970463 -0.35028657 -0.05885843 0.087581284
000340 2d ea ce bd 94 df 5d 3e 21 87 04 bf ae 37 09 3f
       -0.10103259 0.2166732 -0.5176869 0.53600585
000350 0f 14 ce 3e 28 dc 15 be fb f2 0c bf 1c d6 73 3f
       0.40249678 -0.14634764 -0.5505826 0.9524858
000360 a0 16 e8 bd 62 88 87 bb 66 dc 5a be b5 f3 b9 3e
       -0.113324404 -0.004136131 -0.21373138 0.36318746
000370 1b 8c b4 be 63 19 22 be a5 18 9c 3e 43 3c ae be
       -0.35263142 -0.15829997 0.30487552 -0.3403035
000380 a8 c7 2c 3f 4c b9 4c 3d bc f5 b4 be e4 6a be 3e
       0.6749215 0.0499814 -0.3534373 0.37190926
000390 bb 0d db be 7e 70 d3 be fd fd 9e 3e 64 d5 b9 be
       -0.42783913 -0.41296762 0.31053153 -0.36295617
0003a0 09 3f 19 be ea 1c 66 be 01 52 d3 3e 05 14 3d 3f
       -0.14965452 -0.22471967 0.41273502 0.7385867
0003b0 0d 85 3f be 42 ad 8c be 96 36 89 bd 4e ad cd 3e
       -0.18703099 -0.27475935 -0.066998646 0.40171283
0003c0 9b 5d bc 3d ae 58 6c bf b4 62 98 3c d5 a4 cd 3e
       0.09197541 -0.92322814 0.018601753 0.4016482
0003d0 42 9f 10 3f cf d6 a5 be 87 3e 83 be 61 73 c7 be
       0.5649301 -0.32390448 -0.25633642 -0.38955215
0003e0 31 c1 a8 be 20 1e a6 be a6 a8 49 bf b9 a4 4f 3e
       -0.32959893 -0.3244486 -0.7877296 0.2027768
0003f0 0f 6f c8 bd 0e 91 df 3b c2 e9 0a 3e 02 64 5e be
       -0.09786808 0.006822712 0.13565734 -0.21717837

li.1.running_var f4 [512]
000000 9c f7 98 3d 2e a1 39 3d ee 18 06 3c 6a fd 10 3e
       0.07469103 0.04531973 0.008184655 0.1415917
000010 8a 53 70 3d e4 1c ad 3d 53 e5 2e 3c cf 3f ab 3d
       0.05867342 0.08452776 0.010674792 0.0836178
000020 46 13 53 3e 2c da 0a 3d 34 c0 45 3b f2 3c d6 3c
       0.20612821 0.03389947 0.0030174376 0.026152108
000030 98 86 97 3c 16 60 42 3c 17 8d 8c 3d 83 7e 9f 3b
       0.018496796 0.011863729 0.06862848 0.0048673763
000040 c4 3c ab 3b c9 bc ba 3b 25 16 85 3b da 7e 2d 3c
       0.0052257497 0.0056987745 0.0040614777 0.010589326
000050 8e 66 dd 3c 2c aa a2 3c 93 dc 16 3c 61 54 5c 3c
       0.027026441 0.019856535 0.009207862 0.013447852
000060 61 80 a6 3b f7 7c 44 3c 99 34 93 3c 9e 16 be 3c
       0.005081222 0.011992685 0.017969416 0.023204144
000070 7e d4 9e 3b 7a e6 3f 3d 7d d5 c8 3c 9e 9b 02 3d
       0.0048471084 0.04685066 0.024515862 0.03188669
000080 e7 19 f5 3b 09 a4 58 3d f7 91 2d 3d d5 44 0e 3c
       0.0074798944 0.05289081 0.04237553 0.008683403
000090 fe 22 1e 3e 76 19 0b 3c 7a c6 7b 3b bf 0e f3 3a
       0.15443036 0.008489957 0.0038417862 0.0018543823
0000a0 26 fd ee 3b 91 2d 08 3d 40 e2 fb 3c 60 84 d5 3b
       0.0072933612 0.03324658 0.030747533 0.0065160245
0000b0 8e 90 e9 3c 59 12 29 3d e9 9f 9b 3d ea a2 fb 3c
       0.028511312 0.041277263 0.0759886 0.030717332
0000c0 59 2f 2d 3c 15 bc a7 3d ad 1a 08 3e 3a b7 ee 3b
       0.010570371 0.08190171 0.13291426 0.007285026
0000d0 70 0b b5 3b e9 ec 0d 3d 4d 89 c5 3b 2e 41 00 3d
       0.005525045 0.034649763 0.0060283304 0.03131216
0000e0 00 fe e2 3c dc f5 37 3d 5b ed 8f 3c 1a 28 e5 3b
       0.027709007 0.044912204 0.017569235 0.006993306
0000f0 c7 99 4a 3d 5b be e2 3c 39 8b 42 3e 84 a9 6f 3c
       0.04946306 0.02767866 0.18998422 0.014627818
000100 db 9d 83 3b b8 8f f7 3a 0a 5f 3e 3c 38 03 c4 3d
       0.0040166206 0.0018887436 0.011619339 0.095709264
000110 11 12 20 3b 5a c1 c2 3b 15 54 b3 3b be 88 dd 3b
       0.002442483 0.0059434595 0.00547267 0.0067606857
000120 11 87 57 3c ca dd c3 3c 3c d0 87 3e 87 45 d5 3b
       0.013154761 0.023909468 0.26526058 0.0065085324
000130 21 f9 3c 3e 0d 26 b9 3b 43 0e 29 3e ca ac 3e 3b
       0.1845441 0.005650288 0.16509347 0.002909469
000140 b7 5a 7a 3b 8f 07 4a 3d 35 82 26 3d 71 04 81 3d
       0.0038201043 0.049323615 0.04065152 0.06299675
000150 0c 5a 7d 3c b3 9b 2f 3d 3e 4d 21 3d 4d 12 c0 3b
       0.015463363 0.042873096 0.039380305 0.0058615566
000160 a0 cb f4 3d b9 69 fb 3b 57 f1 cc 3c 39 61 12 3c
       0.11952901 0.007672515 0.025017424 0.0089343125
000170 bd 48 7d 3c 58 f1 a0 3d 5d 15 1f 3c 8c 52 16 3c
       0.015459237 0.07858533 0.009709683 0.009174954
000180 10 dc 86 3b af 52 f1 3c fc fe b7 3b c8 10 ee 3d
       0.004115589 0.029458372 0.0056151133 0.116242945
000190 d8 34 02 3e 5b 24 00 3e 06 23 c3 3b ea e3 f4 3c
       0.12715471 0.12513869 0.005955103 0.029893834
0001a0 91 5b 1d 3d 7f 1e 2f 3c 15 5c d1 3b f5 c8 58 3c
       0.038417403 0.010688423 0.006389151 0.013231506
0001b0 2e 45 af 3d 73 c5 25 3e 42 c3 aa 3d af cd 0a 3c
       0.08558117 0.16188602 0.08338024 0.00847189
0001c0 57 16 c1 3c 1c 81 27 3c 63 d9 a6 3c 3d ea 77 3c
       0.023570223 0.010223653 0.02036733 0.01513153
0001d0 97 8e 2d 3c 1b c7 8a 3c 2c 0f 95 3d a9 f1 61 3e
       0.010593078 0.016940644 0.072782844 0.22064842
0001e0 a2 64 b3 3e 31 c2 32 3c 22 d6 23 3b 05 aa a5 3b
       0.35037714 0.010910557 0.002499946 0.0050556683
0001f0 0b 75 cc 3d fe 83 82 3d bf 60 81 3b 37 09 8a 3b
       0.09983262 0.06372832 0.0039483006 0.0042125243
000200 2f cb 6a 3c 24 4f 39 3c 66 3a 69 3e 8f 63 97 3c
       0.014330669 0.0113103725 0.22776183 0.01848009
000210 8a 91 02 3e 34 97 b7 3c 38 73 13 3d 72 67 3c 3e
       0.12750831 0.022410966 0.035998553 0.18398836
000220 52 d4 1e 3d cf b1 64 3c 8d 6d 1d 3e 56 a5 79 3b
       0.038776703 0.0139584085 0.15373822 0.0038092933
000230 3a c4 9a 3b 89 ba dd 3c 08 02 6a 3d f2 a8 b8 3b
       0.004723099 0.027066486 0.057130843 0.005635374
000240 4f 92 b2 3d 18 3e 02 3e f5 a0 40 3e 32 93 4b 3d
       0.087193124 0.12719 0.188114 0.049700923
000250 d7 82 7f 3d a0 b9 43 3e 6c 68 fe 3b d6 b8 14 3d
       0.062380638 0.19113779 0.007763913 0.036309086
000260 04 df 82 3e 81 fd fe 3d a0 09 31 3c 65 c2 83 3b
       0.25560772 0.12450696 0.010805517 0.0040209764
000270 04 90 e6 3c fd 77 ff 3c af 87 c6 3b 2c 1f f5 3a
       0.028144844 0.031185145 0.006058655 0.0018701307
000280 37 7f b6 3c 87 25 d8 3c 47 93 6a 3c d5 ee e7 3d
       0.022277458 0.026385082 0.01431734 0.113248505
000290 7b 30 a6 3d 5d 03 36 3c ab 1e b4 3e 02 ea 53 3d
       0.08114716 0.0111092 0.35179648 0.05173684
0002a0 28 fc bd 3d 95 58 f0 3d da ff 8b 3b e8 ea 3e 3c
       0.092766106 0.11735646 0.0042724432 0.011652686
0002b0 a2 2c 92 3c 74 0a 88 3d 69 a4 85 3c c3 a7 23 3e
       0.017843548 0.06642619 0.016313748 0.15981965
0002c0 7a f0 4d 3c fa 73 b2 3c fb b3 d3 3c 8e 79 93 3c
       0.012569541 0.021783818 0.025842657 0.018002298
0002d0 ec 32 5a 3b 49 ee 05 3d 3f 95 e1 3b c3 a7 24 3c
       0.0033294512 0.03269795 0.0068842466 0.010049763
0002e0 55 a1 99 3b 91 68 fe 3d b9 93 00 3d d7 a4 02 3b
       0.0046884217 0.12422288 0.03139088 0.0019934678
0002f0 ac 21 01 3c 27 69 e1 3b a0 2b 60 3c a5 34 e9 3c
       0.007881563 0.00687899 0.013682276 0.028467486
000300 b7 44 7e 3c 02 73 c3 3c 36 82 7b 3e 4d 1e 57 3d
       0.015519313 0.023858551 0.2456139 0.05251913
000310 55 76 a5 3d 01 85 b6 3d 89 ca 99 3b c0 66 11 3d
       0.08079211 0.08912087 0.0046933335 0.03549838
000320 60 f4 08 3c 4a 35 1f 3c 59 7a 54 3d d3 56 75 3b
       0.008359045 0.009717295 0.051874492 0.0037435784
000330 76 43 cb 3d 12 f8 93 3c c5 a9 2a 3c 90 36 85 3b
       0.099249765 0.018062625 0.010416453 0.0040653422
000340 ad 6b 12 3c 40 7c 8d 3c 99 3e 52 3d 25 bc a1 3d
       0.008936805 0.017271161 0.05132923 0.07897214
000350 1b e3 65 3d 94 89 42 3c e2 52 74 3d 43 24 ca 3e
       0.056124788 0.0118736215 0.059649356 0.3948079
000360 13 fd 0f 3b 61 1a 6d 3b a4 ad 53 3c 59 bd 41 3d
       0.0021970912 0.0036179053 0.012919817 0.047299717
000370 d2 a4 07 3d 18 da 26 3d 27 d5 5e 3d 3d 63 91 3d
       0.03311617 0.040735334 0.054402497 0.07099006
000380 e6 05 df 3d 55 7c 21 3b 83 6d 0e 3d b8 99 80 3c
       0.10889797 0.0024640758 0.034772407 0.015698299
000390 07 10 8a 3d 9d ea 07 3d f6 33 3b 3d 99 a4 07 3d
       0.06741338 0.03318273 0.04570385 0.033115957
0003a0 25 05 06 3c d3 6e 18 3c fe 6c 93 3d 43 75 19 3e
       0.0081799375 0.009303766 0.07198523 0.14986138
0003b0 d7 3f 85 3c 6c ca 23 3d 9d 28 8a 3c bf 9e d1 3c
       0.016265793 0.039987966 0.016865069 0.025588391
0003c0 e7 df ec 3b c7 2d 86 3e 53 87 64 3c 8c 44 32 3d
       0.0072288397 0.262068 0.013948279 0.043522403
0003d0 28 93 9b 3d 78 8b 6c 3c ee 80 d8 3c cb 7d 36 3d
       0.07596427 0.014437549 0.026428666 0.04455356
0003e0 67 8b 4c 3d 98 c2 9f 3c c4 a9 2d 3e 65 fa a4 3b
       0.049937632 0.01950197 0.16959292 0.005034732
0003f0 27 45 e0 3a 5d 14 06 3b b5 97 73 3c 08 cb 62 3c
       0.0017110453 0.0020458915 0.014867713 0.013842352

li.3.weight f4 [1, 512]
000000 8c 68 06 3d 40 8e d1 3c 57 2b 38 bc f5 20 bc 3d
       0.032814547 0.025580525 -0.011240802 0.091859736
000010 4b 0e 86 3c 56 9c de 3c 35 cc d6 3b 40 f5 78 3c
       0.016364237 0.027174156 0.006555105 0.015195191
000020 cc f4 0f 3d 5b 0a 81 3c 19 a4 39 3d a5 2a a9 bc
       0.035145566 0.015752008 0.04532251 -0.020650217
000030 c9 bb 46 bb 11 d9 b4 bc ce 80 c6 3c f4 f3 a8 bd
       -0.003032433 -0.022076162 0.02423134 -0.08249655
000040 cf 50 8e bd 79 c8 3e 3d 11 25 42 bc c2 ac ea 3c
       -0.06949007 0.046577904 -0.011849658 0.02864683
000050 e2 4f 36 bc 9f 22 c9 bc 2d 3e 0b 3d 86 b2 fa 3c
       -0.011127444 -0.024552641 0.033994842 0.030602705
000060 e1 36 87 bc 21 61 2d bc 83 e7 87 bc 7a 14 ae bc
       -0.01650566 -0.010582239 -0.016589886 -0.021249998
000070 ed 55 0f bd 4a 07 1c 3d b6 ec 51 3d f7 83 1d bd
       -0.034994055 0.03809289 0.051251136 -0.03845593
000080 11 e7 67 3c 51 28 5c bd 81 c7 7d bd 8d 1f f8 bc
       0.014154212 -0.053749386 -0.06195784 -0.030288482
000090 91 6c 40 3c 4c e0 bf 3c 36 2e d0 bc c4 1d 74 3c
       0.011744634 0.023422383 -0.02541266 0.014899675
0000a0 83 84 c4 bc 29 43 11 bb a1 3f 70 bd 77 14 c5 3c
       -0.023988968 -0.0022165275 -0.05865443 0.02405761
0000b0 f8 fd 7a bd 1b 35 2d bc e4 5b 82 3b ad cd dc 3c
       -0.06127736 -0.010571743 0.0039782394 0.026953543
0000c0 7c 9f 2b bb d2 a8 c2 3b 10 4f a2 3b 5f a4 22 bb
       -0.002618759 0.005940535 0.0049532726 -0.002481721
0000d0 56 86 c3 3d 11 fe 0f bd d8 ea 80 bc d9 02 00 bd
       0.09547107 -0.035154406 -0.015736982 -0.031252716
0000e0 fa a8 3f bd a6 76 22 3d 0a 4d d8 3c 2c 36 a4 ba
       -0.046792008 0.039663933 0.026403923 -0.0012528352
0000f0 c3 b5 eb 39 36 3f ce 3c c2 7b 76 3c d6 c7 5b bd
       0.00044958116 0.025176626 0.015044155 -0.053657375
000100 61 bd d3 bb 7e 16 d3 3c c2 cd 44 3d ef ad 16 3c
       -0.0064617847 0.025767561 0.04804779 0.009196742
000110 ef 75 f5 3c 58 d7 19 bc e1 7a 5d bd bb 92 29 3d
       0.029963462 -0.009389721 -0.054072265 0.0413997
000120 97 59 9c bc 87 e0 b4 3c 0e 5d b1 3d bb 9b 81 bd
       -0.019085689 0.02207972 0.08660327 -0.06328531
000130 f9 2b 64 39 c1 9c 4f bd da 17 e1 3c ee ef 77 bc
       0.00021760156 -0.0506866 0.027477194 -0.015132887
000140 9f 22 c1 bc df 62 a7 3b 98 12 e6 3b b6 97 e4 3c
       -0.023576079 0.005108222 0.0070212595 0.027904373
000150 c4 c6 86 bc fa 01 a3 3a 43 23 b0 bc 26 eb a2 3b
       -0.0164522 0.0012436502 -0.02150119 0.0049718795
000160 6b 38 52 3c 03 63 a8 3b 19 3f 74 bd 8a 70 ec 3b
       0.012830834 0.0051387562 -0.059630487 0.007215564
000170 b5 c0 66 3b 9f a7 e9 3c aa 6a d7 3b 1a 4f 65 3c
       0.0035210077 0.02852231 0.0065739946 0.01399591
000180 ea a7 bf bc ce 6c 35 bc b9 6b 18 3d fe b6 1b 3d
       -0.023395497 -0.011073304 0.037212107 0.03801631
000190 77 de d1 3c 35 eb bc 3c d6 20 aa 3c 9a 62 ba bc
       0.025618775 0.023061374 0.02076761 -0.022752095
0001a0 e6 ee 15 3d 01 94 95 3d c2 b0 04 3d b7 ba b3 bc
       0.036604784 0.0730362 0.032395132 -0.021939619
0001b0 ba 06 e2 3c a7 c0 38 3d 1c 31 db b9 83 62 ec bc
       0.027591098 0.045105603 -0.00041807524 -0.028855568
0001c0 81 96 23 bc 19 ae b4 3c 40 90 04 bd f2 c1 20 bc
       -0.009984613 0.022055672 -0.03236413 -0.009811865
0001d0 85 c5 32 3c a7 32 6e 3d fb cb df bc 27 9f f6 3c
       0.01091135 0.058153775 -0.027318945 0.030105187
0001e0 03 d4 7a 3d 48 cf ae 3b 49 75 e1 3c d3 de 25 bc
       0.061237346 0.0053347684 0.027521746 -0.010123926
0001f0 1b ea 3c 3c 53 ae 2d 3d df b1 33 bd 3d 07 f0 bc
       0.0115304245 0.042402577 -0.043870803 -0.029300326
000200 ff bd 0b 3b 88 bb 69 3d 88 d0 46 3c f7 ab 1c 3d
       0.0021322963 0.05706361 0.012134679 0.038249936
000210 4b ef 2a 3d 73 cf c6 bc 7d 13 30 bd 3b f6 92 bc
       0.041732114 -0.024268841 -0.042987335 -0.017939677
000220 5a 08 32 bc 8a ca ba bc 95 1a 03 bb 76 1c 94 3d
       -0.010866249 -0.022801656 -0.0020004858 0.07231991
000230 79 9f bc 3c 23 33 40 bd 45 75 40 bd 09 a5 a4 3c
       0.023025261 -0.046923768 -0.046986837 0.020098226
000240 67 0c 12 3d 92 88 87 3d 53 bf ba 3c 55 19 02 3b
       0.03565636 0.066178456 0.022796309 0.0019851525
000250 7e 03 38 bc f3 62 a5 3d 72 4c 3d 3d 1a 1b e9 bb
       -0.011231301 0.08075514 0.046215482 -0.0071138265
000260 42 2e 0b 3d 27 78 05 bd f9 04 bb bc eb e4 f5 3c
       0.03397966 -0.03258529 -0.02282952 0.030016383
000270 63 82 66 bb 48 c6 24 bd fe 5c 25 3b aa 9a bd 3c
       -0.0035172931 -0.04022816 0.002523243 0.023145039
000280 0b 26 8c bc ab 47 7c 3c 41 22 ff 3c 39 93 4d bd
       -0.017107984 0.015397946 0.031144263 -0.05018923
000290 f9 d4 27 3c cf df d5 3d 36 0e 4b 3c 27 8c 4c 3c
       0.010243648 0.10443079 0.012393525 0.012484587
0002a0 3d 81 8c 3c 6d 93 15 3c 26 88 62 bd 10 f8 88 3c
       0.01715147 0.009129387 -0.055305623 0.016719848
0002b0 a2 81 30 3d 41 31 21 3d c8 91 88 3b 5f 44 ee 3b
       0.043092377 0.039353613 0.004167769 0.007271334
0002c0 6d e2 b0 3c 64 37 44 bc ca 39 d9 bc 49 91 33 bd
       0.021592343 -0.011976097 -0.026516814 -0.043839727
0002d0 d5 3f 10 3b 1d 97 0a bc 46 5e 39 3a 0d 63 13 3d
       0.0022010703 -0.00845888 0.0007071238 0.035983134
0002e0 06 7c 3e 3c 13 40 97 bc 65 63 0c bd 70 a0 fa 3c
       0.011626249 -0.01846317 -0.034274478 0.03059408
0002f0 b1 b0 36 bd 76 b0 83 bd 0d 71 64 3d a1 8c a9 bc
       -0.0446021 -0.06430142 0.055771876 -0.02069694
000300 a8 f8 59 3d 5d a8 5d 3d f5 c8 22 3d 1b 65 f8 3b
       0.053215653 0.05411564 0.03974243 0.007580412
000310 f9 8d 25 3c 0f f7 c3 3c d8 51 30 bc e5 75 26 bc
       0.01010465 0.023921518 -0.010761701 -0.010159944
000320 4f 91 e4 bd 63 06 ba 3a 86 6d 59 bc 90 f4 b1 bc
       -0.11160528 0.0014192577 -0.013270741 -0.021723062
000330 55 36 16 bc 3f e4 cb bc f5 62 f3 3c ce 1f 99 bc
       -0.009168227 -0.02488911 0.029710272 -0.018691923
000340 ce 64 a6 3c 10 2c b9 3b 15 03 8f bc 98 20 3f 3c
       0.02031174 0.0056510046 -0.017457524 0.011665486
000350 16 8b 2c 39 b1 7d 20 3d d2 30 97 bb 5a 54 2e 3d
       0.00016455012 0.03918237 -0.004613974 0.042560913
000360 2d e8 13 3c 32 4d 71 bc 70 09 16 bd 2b 0a 1f 3d
       0.009027523 -0.014727877 -0.036630094 0.038828056
000370 44 21 3c 3c 4c 5b 40 bd 12 a8 01 bc 77 ac 4a 3d
       0.0114825405 -0.046962067 -0.007913606 0.04948088
000380 9d ec 8c 3d 35 d7 11 3d 2f 26 67 3c 64 16 3d 3d
       0.06881068 0.035605628 0.014108225 0.04616393
000390 e0 f8 39 3b 5e 50 18 bc e6 5f 79 bc ac bc 54 bd
       0.00283771 -0.009296505 -0.015220618 -0.051937744
0003a0 40 41 be 3c f5 cb 3b 3d e5 34 11 3b 61 a3 37 3d
       0.023224473 0.045848805 0.0022156772 0.044833545
0003b0 ce 56 97 ba 54 42 a4 bc 23 53 fb bc af 77 a9 3b
       -0.0011546256 -0.020051159 -0.030679291 0.005171738
0003c0 ec 4c 20 b9 2a c6 2f 3d 28 f0 ba 3b 7b 1c 38 bd
       -0.00015287445 0.042913593 0.0057048984 -0.044949036
0003d0 13 3c 56 3c b2 53 11 3d e5 0f 06 bd 38 69 21 bd
       0.013075846 0.03548021 -0.032730002 -0.039406985
0003e0 55 38 be 3a f0 9d aa bc fd 38 97 bb b7 3a 0f bd
       0.0014512638 -0.020827264 -0.004614948 -0.034968104
0003f0 78 f3 2d 3d 6e fd d9 3c 65 17 bc bc ca 4f ce 3c
       0.042468518 0.026610103 -0.022960374 0.02518453
