online/12_net.pth (torch, 236820 bytes, 26 tensors)

pos_encoder.pe f4 [70, 24]
00000000: 0000 0000 0000 803f 0000 0000 0000 803f
00000010: 0000 0000 0000 803f 0000 0000 0000 803f
00000020: 0000 0000 0000 803f 0000 0000 0000 803f
00000030: 0000 0000 0000 803f 0000 0000 0000 803f
00000040: 0000 0000 0000 803f 0000 0000 0000 803f
00000050: 0000 0000 0000 803f 0000 0000 0000 803f
00000060: a46a 573f 4151 0a3f 1d35 e53e 30ea 643f
00000070: 52e9 5a3e eb14 7a3f 7675 cc3d 98b8 7e3f
00000080: 1e0d 3e3d 6ab9 7f3f 477a b03c caf0 7f3f
00000090: 57d6 233c b9fc 7f3f 5718 983b 4bff 7f3f
000000a0: 6431 0d3b d9ff 7f3f 6d12 833a f8ff 7f3f
000000b0: 5c5a f339 feff 7f3f abe8 6139 0000 803f
000000c0: b7c7 683f 3311 d5be fbf4 4c3f f863 193f
000000d0: bed9 d53e b999 683f f86f 4b3e a5e5 7a3f
000000e0: b7d8 bd3d d1e5 7e3f cb6f 303d 2cc3 7f3f
000000f0: 3ed4 a33c e5f2 7f3f ec17 183c 2dfd 7f3f
00000100: 4e31 8d3b 64ff 7f3f 6812 033b dfff 7f3f
00000110: 5b5a 733a f9ff 7f3f abe8 e139 ffff 7f3f
00000120: c381 103e 2670 7dbf cef0 7b3f 16a2 353e
00000130: c82d 1a3f 565d 4c3f 6c4e 973e ef90 743f
00000140: 1721 0e3e a885 7d3f bd46 843d 2977 7f3f
00000150: 1fb9 f53c 83e2 7f3f d522 643c a6f9 7f3f
00000160: bfc9 d33b a2fe 7f3f 929b 443b b5ff 7f3f
00000170: c283 b63a f0ff 7f3f 7f6e 293a fdff 7f3f
00000180: cfbd 41bf 3055 27bf e79c 753f 6c5d 90be
00000190: be4d 423f f9ad 263f d761 c73e a7ca 6b3f
000001a0: 7307 3d3e b299 7b3f df45 b03d cc0c 7f3f
000001b0: dbcb 233d 94cb 7f3f 3e16 983c b4f4 7f3f
000001c0: f830 0d3c 91fd 7f3f 5712 833b 7aff 7f3f
000001d0: 545a f33a e3ff 7f3f a9e8 613a faff 7f3f
000001e0: 107c 75bf 2c3c 913e 0a50 3b3f cb7f 2ebf
000001f0: cf71 613f 6393 f23e 4377 f53e 40a9 603f
00000200: 9385 6b3e ff22 793f 0e30 dc3d 2184 7e3f
00000210: f4b6 4c3d 19ae 7f3f 3c1a be3c 5aee 7f3f
00000220: e67c 303c 33fc 7f3f ddd6 a33b 2eff 7f3f
00000230: 7118 183b d3ff 7f3f 6931 8d3a f6ff 7f3f
00000240: 8c0f 8fbe b8cd 753f c6c0 b23e 2de4 6fbf
00000250: 6329 763f 8f93 8c3e 688c 103f 3249 533f
00000260: e9c0 8c3e e922 763f 0900 043e 38dd 7d3f
00000270: d19c 753d 128a 7f3f 2b1d e43c 96e6 7f3f
00000280: 9dc8 533c 86fa 7f3f 589b c43b d2fe 7f3f
00000290: b783 363b bfff 7f3f 7d6e a93a f2ff 7f3f
000002a0: 4630 283f bdff 403f 9fc6 dbbd 8d85 7ebf
000002b0: 417f 7f3f 234f 803d 72eb 243f b3cc 433f
000002c0: 6a71 a33e 189b 723f 5dd8 193e 2518 7d3f
000002d0: 323e 8f3d 815f 7f3f 6e0f 053d 69dd 7f3f
000002e0: 1514 773c 8cf8 7f3f c55f e53b 65fe 7f3f
000002f0: f8ee 543b a8ff 7f3f 91ab c53a edff 7f3f
00000300: 9546 7d3f f6fd 14be e381 0abf 624b 57bf
00000310: e904 7d3f 59cf 1bbe a5a4 373f 5f5b 323f
00000320: cbc7 b93e 808d 6e3f 699e 2f3e ff34 7c3f
00000330: 50aa a33d 652e 7f3f 890f 183d d3d2 7f3f
00000340: a12f 8d3c 44f6 7f3f 1212 033c e7fd 7f3f
00000350: 385a 733b 8cff 7f3f a4e8 e13a e7ff 7f3f
00000360: 3201 d33e d53f 69bf f13b 5cbf 9f82 02bf
00000370: afd7 6e3f 0149 b8be 1c88 483f d521 1f3f
00000380: bab7 cf3e 5cfc 693f 974f 453e e133 7b3f
00000390: 3e12 b83d c2f6 7e3f cd0e 2b3d d3c6 7f3f
000003a0: 0cd5 9e3c aef3 7f3f 3a74 133c 59fd 7f3f
000003b0: bae2 883b 6eff 7f3f b625 fe3a e1ff 7f3f
000003c0: f844 0bbf 64cd 56bf d15b 7fbf 7ee0 90bd
000003d0: 619f 553f 8212 0dbf a46a 573f 4151 0a3f
000003e0: 1e35 e53e 30ea 643f 53e9 5a3e eb14 7a3f
000003f0: 7675 cc3d 98b8 7e3f 210d 3e3d 6ab9 7f3f
0.0 1.0 0.0 1.0 0.0 1.0 0.0 1.0
0.0 1.0 0.0 1.0 0.0 1.0 0.0 1.0
0.0 1.0 0.0 1.0 0.0 1.0 0.0 1.0
0.84147096 0.54030234 0.44767085 0.8941984 0.21378067 0.9768817 0.099833414 0.9950042
0.04639923 0.99892294 0.021542681 0.9997679 0.009999833 0.99995 0.0046415734 0.9999892
0.0021544332 0.9999977 0.0009999998 0.9999995 0.00046415895 0.9999999 0.00021544348 1.0
0.9092974 -0.41614684 0.8006131 0.59918165 0.41767687 0.9085956 0.19866931 0.9800666
0.09269851 0.9956942 0.043075364 0.99907184 0.019998666 0.9998 0.009283047 0.9999569
0.004308856 0.9999907 0.0019999985 0.99999803 0.00092831784 0.9999996 0.00043088695 0.99999994
0.14112 -0.9899925 0.98414314 0.17737612 0.60226107 0.7982992 0.2955202 0.9553365
0.1387981 0.9903207 0.06458805 0.997912 0.0299955 0.99955004 0.01392432 0.9999031
0.006463259 0.99997914 0.0029999954 0.9999955 0.0013924765 0.99999905 0.00064633036 0.9999998
-0.7568025 -0.6536436 0.9594254 -0.28196275 0.75899875 0.6510921 0.38941833 0.921061
0.18459873 0.98281395 0.08607077 0.996289 0.039989334 0.9992001 0.018565293 0.9998276
0.008617632 0.99996287 0.003999989 0.999992 0.0018566349 0.9999983 0.0008617738 0.99999964
-0.9589243 0.2836622 0.73169005 -0.68163747 0.88064283 0.47378072 0.47942552 0.87758255
0.23000173 0.97319025 0.10751353 0.9942036 0.049979165 0.99875027 0.023205869 0.9997307
0.010771966 0.999942 0.004999979 0.9999875 0.0023207928 0.9999973 0.0010772172 0.9999994
-0.2794155 0.96017027 0.349127 -0.93707544 0.961569 0.27456328 0.5646424 0.8253356
0.2749093 0.9614702 0.12890638 0.9916568 0.059964005 0.99820054 0.02784594 0.9996122
0.012926248 0.99991643 0.0059999637 0.999982 0.0027849504 0.9999961 0.0012926605 0.99999917
0.6569866 0.75390226 -0.10731243 -0.9942253 0.9980355 0.06265094 0.6442176 0.7648422
0.31922466 0.94767904 0.15023942 0.98864967 0.06994285 0.997551 0.032485418 0.9994722
0.0150804715 0.9998863 0.006999942 0.9999755 0.003249107 0.99999475 0.0015081038 0.99999887
0.98935825 -0.14550003 -0.5410444 -0.840994 0.9883562 -0.15215816 0.717356 0.6967067
0.36285242 0.9318466 0.17150272 0.98518366 0.07991469 0.9968017 0.03712419 0.9993107
0.017234625 0.99985147 0.007999914 0.999968 0.0037132632 0.9999931 0.001723547 0.9999985
0.4121185 -0.91113025 -0.86028963 -0.5098056 0.9329786 -0.35993198 0.78332686 0.62161
0.4056986 0.91400695 0.19268642 0.98126036 0.089878544 0.9959527 0.041762162 0.99912757
0.019388698 0.999812 0.008999879 0.9999595 0.0041774185 0.9999913 0.0019389901 0.99999815
-0.5440211 -0.8390715 -0.99749476 -0.070740685 0.8344632 -0.55106366 0.84147096 0.54030234
0.44767088 0.8941984 0.21378069 0.9768817 0.099833414 0.9950042 0.04639924 0.99892294

transformer_encoder.layers.0.self_attn.in_proj_weight f4 [72, 24]
00000000: a3e7 53be 655d b8bd 9a6c 23be 5770 7b3e
00000010: 3754 d1bd 252a dcbd 6c53 073e 04f1 dabd
00000020: 7a5f dabd bae3 8abc da57 7cbc 0e7a 40be
00000030: 9922 633e 3abc cbbd a47c c53d b2c2 693e
00000040: d320 043e 6dbc 413d 1905 653e 45f7 393d
00000050: 3a0e d6bd 0dd9 813e 5fd1 863d 02bc 6cbe
00000060: 66da 88bd fc14 23be edb1 663e 6b19 e9bc
00000070: 9553 58be 6607 f0bb 5e06 283e 1b22 b43d
00000080: 3a88 ca3d 36a0 8b3c 6658 ef3d f4ef 3bbd
00000090: c1e6 9ebd 7ae7 54be deca 34be 8185 093e
000000a0: 96f0 0cbe 6347 813d cd81 be3d 1a84 393d
000000b0: ec54 19be 5e08 8c3e 2034 0fbe 87ce 6c3e
000000c0: 1fb8 40be 841f e6bc e8be 283e c291 7bbd
000000d0: 9f48 833e 96fd 1dbe bd10 43be e869 59bd
000000e0: b3ee e63d 5062 4c3e 228d f2bc c19b 123e
000000f0: 9eca 003c 2072 3e3d c2e1 5c3e 1f48 b3bd
00000100: 86c5 583d 4684 b13e b6e4 0a3b 1eac 9a3e
00000110: dea2 3bbd e271 a83e d1ad 6cbe 1cf4 853d
00000120: 8a24 03bd 1f7a db3d 39a4 e73d 64d6 503e
00000130: bc38 bcbb 10a3 1c3a cae5 323e f847 f7bc
00000140: 2410 513e 647c 36be ab83 c9bc ce4b 13bd
00000150: b181 fe3d c208 1d3e d4b5 a5bc 3c28 5bbe
00000160: 7a59 093e e45f 4e3d 12a2 eb3d d0af 24be
00000170: 2725 3b3e ad0a 703e 3671 2e3d 593b 76be
00000180: 96d3 453e 92ce 30be 4008 ab3d 0122 573d
00000190: 8c1a d5bd b494 db3d a9db 65be 53dc a03d
000001a0: 3ea6 00be a181 b6bc b280 723d d5b1 683e
000001b0: 580b b6bd 47a9 3e3e 3216 50bc c70f abbd
000001c0: a717 53be ddbd 50be 1ba2 873e 3226 0ebd
000001d0: 17bd 283d 34e7 ea3d 7c7a 3e3e 4bf8 773e
000001e0: 05da 493e 2d83 47be 6dd3 70bd 4ae5 32be
000001f0: 395a 23be 4d0d 543d 3ad0 5d3e da79 70be
00000200: 0037 fa3d c133 f6bd e494 9fbd aef1 373e
00000210: c650 b9bd 8dea 16bc 3489 3fbe 1f50 3f3e
00000220: d10b 4dbd f58a 62be 53dc 3a3d 3321 55be
00000230: 2aa4 5cbe 899a eebc dde4 483e e1b8 c7bd
00000240: 71cb f83d 4fec 5e3e f7dd 2e3e 88e1 01be
00000250: f4bc cdbc 5579 9bbd 3d38 4dbe 192e c33b
00000260: 5dfb 423e dc5f 5a3e 1568 ba3c 8fdb 5f3d
00000270: d84d d6bd 3916 403e 597a cebd fb01 33be
00000280: c249 1e3d 3991 173e 0861 62be 72cc 663e
00000290: a555 c33d 4209 32be c6ae 4cbd ea4b 5e3e
000002a0: f08b 46be 92ff 9ebd 45bd a33d c2ad 63be
000002b0: f798 083e 1fb3 043e 3628 1b3e 60bd 28be
000002c0: 0cc1 7c3e 255c 15be 8aad 7a3e e4ac 78be
000002d0: b46a 68be 35b3 183e 64e3 cd3c 6798 2e3c
000002e0: 60cd 12be 45d2 e0bd 2ce5 9dbd 9be4 7cbe
000002f0: 9bc6 303c 1015 1d3d 60f0 463a e338 a13d
00000300: 15fa 6d3e e5db 783d 68e2 cabd a7f4 e4bd
00000310: d4a0 2abe e8d0 36be 7240 32bd 32e4 60bd
00000320: a658 c03d f945 debd 7495 3e3e 58ba 3ebe
00000330: ce46 58bc 6814 543e d2e3 763e 01c1 26be
00000340: 385a 283d 14b1 2c3c 1916 01be f18f d8bd
00000350: 28be 703d 10e8 49be ee4e 163d 7d98 b53d
00000360: cba8 cdbd 71c6 553e 1321 a4bc a9a6 e93d
00000370: 21ef 803e 9403 a0bd a0d0 0d3e eb9f 89bd
00000380: 73e7 32bd 49c5 4bbd 55a2 80ba dd86 cabd
00000390: d0fd 6b3d 0a75 de3b 262a 213e 63d1 5abd
000003a0: 945a d33c 25b1 c3bd f3b3 57be 8dcb ca3d
000003b0: f640 f63c a398 d3bd fba8 b0bd 8f9f 7c3d
000003c0: 866e 32bd 0ef9 223e 4b58 813c 6321 b23d
000003d0: 4706 c43d a873 78bd b41c d23d f9f0 2d3e
000003e0: 5548 833c 8eb5 7b3d 99cc 103b 48ca 353e
000003f0: ae6b e4bd c6ee 0abe c4d2 d83d 6a78 61be
-0.20693831 -0.090021886 -0.15959397 0.24554573 -0.10221141 -0.10750226 0.13215417 -0.10690501
-0.10662742 -0.016954292 -0.015401805 -0.1879656 0.22181167 -0.09948011 0.09642914 0.22828177
0.12903146 0.047298837 0.22365226 0.04540183 -0.10451932 0.2536091 0.06582903 -0.23118594
-0.06682281 -0.15925974 0.22528811 -0.028454503 -0.21125634 -0.0073251007 0.16408679 0.087955676
0.098892644 0.017044168 0.116867825 -0.045883134 -0.077588566 -0.20791426 -0.17655513 0.13429834
-0.13763651 0.06312444 0.09302101 0.045291997 -0.14973801 0.27350134 -0.13984728 0.23125659
-0.18820237 -0.0280912 0.16479075 -0.061418302 0.25641343 -0.15428767 -0.19049354 -0.053079516
0.11275997 0.19959378 -0.029608313 0.14317228 0.007860808 0.046495557 0.21570495 -0.087539904
0.052922748 0.3467123 0.0021193451 0.3020944 -0.04580962 0.32899386 -0.2311318 0.06540701
-0.03201727 0.10716652 0.1131062 0.20394284 -0.005744068 0.0005975226 0.1747047 -0.030185685
0.20416313 -0.17820889 -0.024598917 -0.035960965 0.124270804 0.15335372 -0.020228304 -0.21402067
0.13413039 0.050384417 0.11505522 -0.16082692 0.18275891 0.23441572 0.042588435 -0.24046077
0.19318995 -0.172663 0.08351183 0.052522663 -0.10405454 0.10721722 -0.22447075 0.078545235
-0.12563416 -0.022278609 0.059204765 0.22724088 -0.088888824 0.18619262 -0.012700604 -0.08352619
-0.20614491 -0.20384927 0.26490864 -0.034704395 0.041195955 0.1146988 0.18601412 0.2421581
0.19712074 -0.19483633 -0.05879538 -0.1747028 -0.15952386 0.051770497 0.21661463 -0.23483983
0.12217522 -0.1202159 -0.077920705 0.17963287 -0.090486094 -0.009211195 -0.18704683 0.18682908
-0.050060097 -0.2212332 0.045620274 -0.20813446 -0.21546999 -0.029126422 0.19618554 -0.0975206
0.12148178 0.21769832 0.1707686 -0.1268369 -0.025114514 -0.075915016 -0.20040984 0.005956423
0.190412 0.2132563 0.022754708 0.054652747 -0.10464066 0.18758477 -0.1008193 -0.17481224
0.03864456 0.14801492 -0.22107327 0.22538927 0.0953782 -0.17386344 -0.049971364 0.21708646
-0.1938932 -0.0776359 0.07995085 -0.22234252 0.13339601 0.12958954 0.15152058 -0.16478491
0.24683017 -0.14585932 0.24480262 -0.24284703 -0.22696954 0.14912112 0.025132842 0.010656453
-0.14336157 -0.10977606 -0.07709727 -0.24696581 0.010789539 0.038350165 0.0007588919 0.078721784
0.2323993 0.060756583 -0.09906465 -0.11179476 -0.16662914 -0.17853129 -0.04351849 -0.054905124
0.09391908 -0.1085319 0.186117 -0.18625772 -0.013200475 0.2071091 0.24110344 -0.16284563
0.041101664 0.010540266 -0.12606086 -0.1057433 0.058775097 -0.19717431 0.036696367 0.088669755
-0.1004196 0.2087648 -0.020035302 0.11408741 0.2518244 -0.078131825 0.13849115 -0.06719955
-0.04367776 -0.049748693 -0.0009814004 -0.098890044 0.0576151 0.0067888545 0.15738735 -0.053422343
0.025800027 -0.09555272 -0.21064739 0.099021055 0.030060273 -0.103318475 -0.086259805 0.061675604
-0.043562435 0.1591532 0.015789172 0.08697774 0.0957151 -0.060657173 0.10259381 0.16986455
0.016025702 0.06145244 0.0022094606 0.17752945 -0.11153351 -0.13567647 0.10587075 -0.2201859

transformer_encoder.layers.0.self_attn.in_proj_bias f4 [72]
00000000: f646 dd3b ed31 a83c 6726 b93d cbe0 ebbc
00000010: 7162 553c f371 b6bc 6a8b 5ebb 8752 f8ba
00000020: 023b 77bc 8d06 1fbb ebb2 0abb 8241 d53b
00000030: 1e37 873c 4345 b3ba 03cc 8eba 73dc 8c3c
00000040: 9c33 d4bb d316 3b3c 5949 43b9 c325 933b
00000050: d08c 003b abb4 3d3c 8c6d b7b8 95e6 35bb
00000060: ec7d 52ae a748 1d2e a427 baad 6629 a32f
00000070: 1919 572e d007 8caf 0d4d baae 26ca 0d2d
00000080: a93d cbad 078d 342e 8caf 482d 1719 6d2e
00000090: 4c0a 7c2d a690 71ae 768b 1cae 5f79 fdac
000000a0: 00ab 2f2c adfa 0a2e c81c 902d fde6 d7ad
000000b0: e7f6 0dad 1a74 972e 0470 91ad 305d 482e
000000c0: f5ae 18bb b1f7 49bc 951d d139 a4dc 16bc
000000d0: d02b 1cbd f22d f23c 71a2 15bb a21d 733c
000000e0: 33f0 50bc 7640 1fba bd23 b7bc f509 9e3c
000000f0: 851b e8bc a57a 113c 8566 0bbb ff02 8d3c
00000100: c8f9 8b3c b77b 503c 66df c83b 4d7a 1c3c
00000110: 4038 853c c9e6 fdbc ba86 e23c 8f1b ca3b
0.006752844 0.020531619 0.09040528 -0.028793713 0.013023959 -0.022271132 -0.003395761 -0.0018945494
-0.015089752 -0.002426538 -0.0021163772 0.0065080533 0.016505774 -0.0013677258 -0.001089454 0.017194962
-0.006475879 0.011419016 -0.00018623973 0.0044905855 0.001961518 0.011578719 -8.746525e-05 -0.0027755846
-4.7860313e-11 3.5762195e-11 -2.1163356e-11 2.9678943e-10 4.890763e-11 -2.5471403e-10 -8.471988e-11 8.059808e-12
-2.310581e-11 4.105252e-11 1.1407663e-11 5.3909845e-11 1.4326828e-11 -5.492553e-11 -3.559416e-11 -7.2041674e-12
2.496392e-12 3.1600212e-11 1.6383686e-11 -2.454525e-11 -8.069745e-12 6.887309e-11 -1.6534336e-11 4.5557502e-11
-0.0023297642 -0.012327121 0.00039885627 -0.009207878 -0.03812772 0.029562924 -0.0022832418 0.014838608
-0.01275258 -0.0006074974 -0.022355909 0.019291857 -0.028333435 0.008879338 -0.0021270823 0.017213343
0.017086878 0.012724808 0.006130147 0.009550643 0.016262174 -0.030993836 0.027652133 0.006167836

transformer_encoder.layers.0.self_attn.out_proj.weight f4 [24, 24]
00000000: fa3e 44ba d5e0 cc3d a3d3 1ebe 0b59 12be
00000010: cb9f 88bd d129 553d f8fc 42bb 9720 283e
00000020: 0b15 cfbc 3a14 433d f4b0 37bd 28fa ebbc
00000030: b443 4fbe af03 05be 4ad8 b0bd fcdc 1b3c
00000040: ce12 923d 1942 f13d 66b3 16be ec2f d1bd
00000050: d52d 9e3d 24da 283e adc2 33bd 22ba 2c3e
00000060: 2006 f3bc 813c 26bb b2f2 4c3e a48a 36be
00000070: 31eb 24be 2e88 27bd d044 bcbd d77c 3d3e
00000080: fdf2 14be b1e7 92bd cce9 1fbe 6c00 3ebe
00000090: 473a 13be 4064 443e fea8 d63d bf1c de3d
000000a0: e1a5 8d3c b5f1 c1bd 0d86 f83c efdb 4abe
000000b0: 942e 30be 5d94 f0bd 6b41 0c3e d3b0 fd3d
000000c0: 3733 cdbd 64d8 923b 0c87 e23d 4ea3 4f3e
000000d0: 9776 753d c8c8 503d 9674 113e 5506 e7bd
000000e0: b85f 753d c742 27be 5bc2 16be 6b9c febd
000000f0: f767 ce3d 1624 823d 8c92 06be 6006 0e3d
00000100: aa9d e43d 9034 00bd cb7d a63c a4c2 a83d
00000110: 2312 143e 5242 543e 8904 20be 090e 9fbd
00000120: 316e 963d 0604 463e 5cf7 203e 3786 2d3e
00000130: eab9 0d3d 7f3e 25be 4cf1 e73c 1994 04be
00000140: a115 31be 87ad 363e c8b9 1d3e d2a8 71be
00000150: 5b4f 603d b71e 76bd 1297 16bd 1111 e5bd
00000160: 5086 9a3d dc13 f8bd d774 b73d b8d8 193e
00000170: 261b 253e 123e c53d bfd8 52be 6e30 1abe
00000180: 466d d73d 07b1 273d 1bed 31be c9c5 cdbd
00000190: 045a 973d c52b 363e 54af bdbd eb3c 0fbd
000001a0: 3eb2 3dbe 419d e53c 54ab 48be cab2 38be
000001b0: bac4 c0bc d1a3 ee3c 2ce7 3abd d06d eb3d
000001c0: a7e5 d8bd e391 423e 6693 2c3e b1d4 10be
000001d0: 1de2 91bd 5538 803c 03ee 5e3d f8fc ce3c
000001e0: c979 ab3d f519 353c ff21 debd b5e7 eb3d
000001f0: ee14 89be b613 d6bd 92c6 4cbd 0ba9 b6bd
00000200: c1af 89bd be91 20be c2d7 82bd 09d6 453d
00000210: f483 11be 805e c9ba fd52 2e3e 6a95 c3bc
00000220: 1d41 7c3c e5b1 c4bc 3787 6a3d 44f4 f33d
00000230: 5587 393e d3c5 043e d6fd 5a3e b283 b1bc
00000240: 7267 3bbe 34be a4bd 77d7 003e 5842 18bc
00000250: 2d46 04be e5c8 09be 62fd 3bbe cc66 30be
00000260: ea4d 03bd 721d fb3d a395 dd3d a72b 6dbe
00000270: 4c30 053e b919 38be e152 efbc 4553 babd
00000280: 6883 37bd 45ec 0dbd 47de 2cbe 8f9d fcbd
00000290: 076e ecbc 7657 bc3c 39de b6bd 3f81 813d
000002a0: b7d9 37be 8431 16bd d8b7 4b3e f91c bdbd
000002b0: 97dd 4d3e 5441 953d 3c5a 47be e36b 083e
000002c0: 2613 27bd 50bb 9cbd dbdb 243e a18d 40be
000002d0: b0fc 2a3c bc9d 14bd a7b1 0d3e 9c0c 823d
000002e0: c5e6 d33d 3aab bb3d 4fd9 7bbd 9d38 d8bc
000002f0: e872 39be 61ab ca3d d4c7 253e dcac 1d3e
00000300: d969 0ebe 1e70 9a3c 02fa 0fbe 9575 cabd
00000310: 5b07 d4bd 528b 2a3d 6949 ecbd 3127 9bbc
00000320: c962 9e3b f7e1 ef3d b231 0fbe 12ef aebd
00000330: 0a8c ddbd cf7a 1b3e c11a 6ebd c3f6 463e
00000340: a9dc 873d af91 9a3b 540c fabb 7f4f cdbd
00000350: dab3 e43c 6def 3ebd 6c56 a3bb ed3b b83c
00000360: be66 1bbe a74e 3cbe fa3d 733e ac9a 3dbe
00000370: 2aa4 7c3e 0d2d d23d caa3 263d e2aa 59bc
00000380: 4bf5 6dbe cb3d 453d c0d5 9ebd dbba 883c
00000390: 5690 a7bd 0b18 683c 7f8f c6bd db61 5b3e
000003a0: 2fb6 703c abf2 4b3e e7b5 c73c f9be 74be
000003b0: 2a92 db3d ad41 58be 1f2f 1abe 44e7 123e
000003c0: 5991 9a3d 8dfb f73d e052 83bd c71b 333c
000003d0: 40ff c73c 1f04 40be 54f4 fd3d 248c 19be
000003e0: 59cd 13bc c8a9 b93b 9e15 25be 3319 d03c
000003f0: 5aaa 133e 391a eebc 4393 c4bd b49c 88bd
-0.0007486191 0.10003821 -0.1551042 -0.1429178 -0.06671103 0.052041832 -0.0029752832 0.16418682
-0.025278589 0.04762671 -0.04484649 -0.028805807 -0.2024067 -0.12989686 -0.08635004 0.009513136
0.07132493 0.11780185 -0.14716873 -0.102142185 0.077235855 0.16489464 -0.04388683 0.16867879
-0.029666007 -0.0025365653 0.20014456 -0.17826325 -0.16105343 -0.040901355 -0.091928124 0.18504654
-0.14545818 -0.07173098 -0.1561653 -0.18554848 -0.143777 0.19178867 0.104814515 0.10845327
0.017291011 -0.0946993 0.030337358 -0.1981046 -0.17205268 -0.11747048 0.1369683 0.12387242
-0.10019534 0.004481362 0.110609144 0.2027714 0.05992755 0.05097273 0.1420463 -0.112805046
0.059905738 -0.16334067 -0.14722578 -0.12432178 0.100784235 0.06354539 -0.1314184 0.03467405
0.111628845 -0.031300128 0.020323655 0.0824025 0.14460044 0.20728424 -0.1562673 -0.07766349
0.07345236 0.19337472 0.1571936 0.1694573 0.03460113 -0.16137122 0.028313302 -0.1294712
-0.17293407 0.17839633 0.15402901 -0.23599556 0.05476318 -0.060087886 -0.036765166 -0.11184896
0.07545149 -0.12113163 0.08957832 0.15024078 0.16123638 0.096309796 -0.20590495 -0.15057537
0.10518889 0.04094031 -0.17375605 -0.1004749 0.07390216 0.17790134 -0.09261957 -0.034970205
-0.18525025 0.028029086 -0.19596606 -0.18036953 -0.023531307 0.029130848 -0.04563062 0.114955544
-0.10590678 0.19000964 0.16853103 -0.14143635 -0.07123206 0.015651861 0.054426204 0.02526711
0.08372838 0.011053552 -0.10846328 0.11518804 -0.2677378 -0.10452978 -0.04999406 -0.08918961
-0.067229755 -0.15680596 -0.06388809 0.048299823 -0.14210492 -0.0015363246 0.17023845 -0.023874957
0.015396384 -0.024010608 0.057257857 0.11911824 0.18118031 0.12966089 0.21385893 -0.021669243
-0.1830118 -0.08044091 0.12582193 -0.009293161 -0.12917395 -0.13455541 -0.18358377 -0.17226714
-0.032056727 0.122614756 0.108195566 -0.23161183 0.13006705 -0.17978562 -0.029214324 -0.09097914
-0.044803053 -0.034649152 -0.16881667 -0.123347394 -0.028861059 0.022990923 -0.08929104 0.0632348
-0.17954145 -0.036668316 0.1989435 -0.09234042 0.20104061 0.07287851 -0.19468015 0.13322406
-0.040789746 -0.076529145 0.16099493 -0.18804027 0.010436222 -0.03628324 0.138373 0.06350061
0.1034675 0.09163518 -0.06148654 -0.026394183 -0.1811024 0.09895969 0.1618951 0.15397972
-0.13907565 0.01885229 -0.14060214 -0.09885708 -0.103529654 0.041636772 -0.115374394 -0.018939586
0.0048335535 0.11713021 -0.13983801 -0.08541693 -0.10817726 0.15183567 -0.058130983 0.1943007
0.066338845 0.004717074 -0.007630864 -0.10024928 0.027917791 -0.046615053 -0.0049846675 0.022489512
-0.15175912 -0.18389378 0.23754111 -0.18516034 0.24671999 0.10262499 0.040683545 -0.013285371
-0.23238103 0.048154633 -0.07755613 0.016690662 -0.08181827 0.014165889 -0.096953385 0.21424048
0.014691873 0.19916789 0.02437873 -0.23900975 0.10721238 -0.21118803 -0.15057038 0.14346033
0.07547254 0.121085264 -0.064122915 0.010931916 0.024413705 -0.18751572 0.124001175 -0.14994866
-0.009021127 0.0056659915 -0.16121528 0.02540264 0.14420453 -0.029065238 -0.095984004 -0.06670514

transformer_encoder.layers.0.self_attn.out_proj.bias f4 [24]
00000000: 1c83 c73c db3f adba e476 88bc 6874 cebc
00000010: 0404 e9bc c464 813b 82aa 5bbc f4f5 a9bc
00000020: 0dc4 623d 4e21 363d 1448 18bd f26c 433a
00000030: 2a7f b7bc 3cbf b2bc 73d0 69bc 860f 363c
00000040: b4f5 5d3d 2d0e cabc 497a b73c 199c 0cbc
00000050: 9763 e0bb ff25 273d 2de4 053c 87c0 7bbb
0.02435451 -0.0013217883 -0.016658254 -0.025201991 -0.028444298 0.00394878 -0.013407351 -0.020747162
0.05536275 0.044465356 -0.037178114 0.0007454894 -0.022399504 -0.021819703 -0.01427089 0.0111120995
0.0541894 -0.024664963 0.022397177 -0.008582138 -0.0068478095 0.04080772 0.008172077 -0.0038414316

transformer_encoder.layers.0.linear1.weight f4 [512, 24]
00000000: b72d b83b e787 603d 7c0e 643d cbf5 eabd
00000010: cb68 00be 6264 3cbe 9872 bcba d018 873d
00000020: 4807 84bc 31d5 4d3e 9bec 25bd bebd 05be
00000030: 5995 163d ee52 75bd 504b eebc 5fcf 4a3e
00000040: 43b7 3fbc fd78 383e f8c8 fb3c 9821 9fbd
00000050: f617 193e aec4 e8bd 1a83 ab3b 797a 3c3d
00000060: a87d c03d eeb6 3dbe b494 5b3c c050 59bd
00000070: e68d 053e 420d 8f3d 12f7 a33d a461 f53d
00000080: f822 34bd 66d2 31bc 7f82 253e 86ef 29be
00000090: c870 10be 5b1b 5b3c bdae a4bd 6aee 3f3c
000000a0: cc39 393e 2b28 e1bc 3d02 33be a9ba bfbd
000000b0: 5f6e 403e 8018 39bd cd80 b2bd e9fe bb3d
000000c0: 038f c53c 79c1 32be 766f 323e 5ad7 f13d
000000d0: 25b2 353e cb85 ab3d 6627 8fbd f70a 82bd
000000e0: 0ff9 c43d 8c4a 1abd a8d1 233d 67c2 4dbe
000000f0: 8f7f cebd 4c65 993d fbb5 06bc 406b c9bd
00000100: aa74 3cbe df67 043e 00bc 33bd 5bab 4ebe
00000110: 04b0 493e 64a0 ca3d b146 f6bd b21b 15be
00000120: 0884 493e 1f15 073b 7e1c 01be b074 f63d
00000130: a4a6 36bd 339b 0c3c bd84 ddbd e042 33be
00000140: b3f9 0bbe d9d4 c8bc 56a4 13be 2856 503e
00000150: 52ae a93b dbd8 9dbd fd76 a53d 43d8 36be
00000160: 119b dcbd 71e1 a53d 08aa 30be cec5 d03d
00000170: 83e7 7c3c f4f3 2dbe 01ec 50be 0c61 883d
00000180: b4e0 bf3d 1585 22bd 1bae 39be fad3 eebd
00000190: 1d3b b73c 28ea fc3b 524f 573d a7d8 0c3d
000001a0: 85c8 51bc 0d98 d33d 3005 4f3e f90b 333e
000001b0: 2385 3f3e 66cc 88bd ffff 90bd 14c6 dbbc
000001c0: b171 893d fd56 ae3d 4298 8abc b43e 06be
000001d0: 4489 1ebe 3d4f 473e bada 75bd 05d6 f0bc
000001e0: 98e3 00be 0284 d4bd 9f00 453d 4509 b73d
000001f0: 08fd a7bd 4c7e a2bd 54d7 273e 39e6 d3bd
00000200: 3a0e 19be e40d febc 987c 463e 7f6b 383d
00000210: a877 043d 0bf9 edbc a66c 043e e712 d7bd
00000220: f26d 0e3e d943 363d d814 ed3c a459 bd3c
00000230: de45 fcbd 0002 183e 97df da3d 171b 24be
00000240: 2232 41be ae5a 5dbd 65fd 0b3e 5709 d3bd
00000250: e5bf 3d3e 237d d0bd 7f00 44be 7251 ae3d
00000260: 4b8a f8bd ffdb f5bc 809a 81bd 9bb3 91bc
00000270: d8a1 35be d42a 3fbe 044d b83d 7e88 a3bc
00000280: 7d62 00be a253 26bb 157e 40be 2d7d 603d
00000290: 776d c33d 1135 4f3e e7ab 27be ff0d babc
000002a0: 4ad3 dc3d facd 3c3e 88c2 10be 43c7 bc3d
000002b0: 7466 aa3d a988 f53d 9f4d 0dbe cde8 153e
000002c0: 2b42 bcbd c592 05be 0ff5 353d e643 313e
000002d0: 306d 09be 2a12 e33d f5d6 cabc 9002 873d
000002e0: bea6 243e 6417 6e3d 0564 2dbe e236 7fbd
000002f0: 79f2 253d 2e46 30be 8249 013d 3daa e5bd
00000300: 0bba 1cbd 4e5f 8a3d de4c 35be deae 0dbe
00000310: 8aa9 b93d 1277 4cbe ed0f 0d3e 7f1c 24be
00000320: f623 053b 3ab2 613d c7a0 a03d 9ccf efbd
00000330: 3b7c d13c bcb7 bd3d a7cb 313e 01db 1dbe
00000340: 3fda dbbd 3367 853d c9a9 c0bb a11c 0cbe
00000350: 1837 32be 5615 3abe 7596 13be 1100 a5bd
00000360: 70d5 0cbe 4675 31be 463b af3c d8db eb3d
00000370: 8387 c0bd efe4 ac3c 9acf f4bb 795d bf3d
00000380: f1f5 11be d814 d03c 0a4f 3e3e 4b51 133e
00000390: 340a 54be 2024 06bd 1e9f b13b 5445 83bd
000003a0: 5df3 13be cbb0 18be 106b 063e 5f88 89bd
000003b0: 811f 84bc 6304 6a3d 5121 efbd 691b bf3c
000003c0: d0c7 fd3d efa9 f6bd b191 813d 9971 2cbc
000003d0: 1fdd db3d c1c1 0e3e 2843 263d 1552 993b
000003e0: 50a3 30be 5e31 af3d a7de fd3d b25c 96bd
000003f0: 88bb 4dbe b34b 283e 8ae4 3ebd 8e29 3e3d
0.005620684 0.054817107 0.055677876 -0.114726625 -0.12539975 -0.18397668 -0.0014377413 0.065965295
-0.016116753 0.20100857 -0.040508848 -0.13060662 0.036763523 -0.05989354 -0.029088646 0.19805668
-0.011701408 0.18014903 0.030735478 -0.077700794 0.14950547 -0.11365639 0.0052341344 0.046015237
0.09398967 -0.18526813 0.013402153 -0.053055525 0.13042411 0.069849506 0.08006109 0.11981514
-0.04397866 -0.010853386 0.16163062 -0.16595277 -0.14105523 0.013373221 -0.08041141 0.011714557
0.18088454 -0.027484974 -0.17481323 -0.093617745 0.18792103 -0.04518938 -0.08715973 0.0917948
0.024116045 -0.17456616 0.17425331 0.11808653 0.17743738 0.08375128 -0.069899365 -0.06349748
0.09617817 -0.03766875 0.039994866 -0.2009369 -0.100829236 0.07490024 -0.008222098 -0.098349094
-0.18403879 0.12930249 -0.043880463 -0.20182554 0.19696051 0.09893873 -0.12025202 -0.14561346
0.19679272 0.0020611954 -0.12608525 0.12033975 -0.044592515 0.008581924 -0.108163334 -0.1750598
-0.13669471 -0.024515556 -0.14418158 0.20345366 0.0051782513 -0.077073775 0.08079336 -0.17855935
-0.10771764 0.0809964 -0.17252362 0.10193978 0.015436056 -0.16987592 -0.20402528 0.06659135
0.093690306 -0.0396777 -0.18132822 -0.11661525 0.022367055 0.0077183433 0.05256588 0.034386303
-0.012804155 0.10331736 0.20216823 0.17485036 0.18703131 -0.06679611 -0.070800774 -0.02682785
0.06711138 0.085126854 -0.016918305 -0.13109857 -0.1548205 0.19463821 -0.060023047 -0.029398927
-0.1258682 -0.10376741 0.048096295 0.08937315 -0.08202559 -0.079342455 0.16390735 -0.10346646
-0.14946833 -0.031012483 0.19383466 0.04502439 0.032340676 -0.029049417 0.12932071 -0.10501652
0.13909128 0.0444983 0.028940603 0.023114033 -0.123180136 0.14844513 0.10687178 -0.16025959
-0.1886678 -0.054041557 0.13670881 -0.10304516 0.18530233 -0.10180118 -0.19140814 0.08511628
-0.12135752 -0.030012129 -0.06328297 -0.017785838 -0.1773752 -0.18668681 0.089990646 -0.019962545
-0.1253757 -0.002537944 -0.18798096 0.054806877 0.09542363 0.20235087 -0.1637417 -0.022711752
0.10782488 0.18437949 -0.14136708 0.09217694 0.08320323 0.119889565 -0.13799141 0.14639588
-0.09192308 -0.1304427 0.04442316 0.17311057 -0.13420558 0.11087449 -0.024760703 0.06592286
0.16079232 0.058127776 -0.16932686 -0.0623082 0.040514443 -0.17214271 0.031564243 -0.11214111
-0.038263362 0.06756459 -0.17705104 -0.13836238 0.0906554 -0.19967297 0.13775606 -0.16026495
0.0020315624 0.05510161 0.07843166 -0.1170952 0.025571933 0.0926356 0.17362843 -0.15415575
-0.107349865 0.06513824 -0.005879615 -0.13682796 -0.17403829 -0.18172202 -0.14412864 -0.08056653
-0.13753295 -0.17329893 0.021390568 0.11516541 -0.09400847 0.021105258 -0.007471037 0.09344
-0.14253975 0.025400564 0.18584839 0.1438648 -0.20707017 -0.032749295 0.0054205796 -0.06409708
-0.14448304 -0.14911191 0.13126779 -0.06715464 -0.016128303 0.05713309 -0.116762765 0.0233285
0.12391627 -0.12044131 0.063266166 -0.010525131 0.10735535 0.13941099 0.04059139 0.0046789744
-0.17249799 0.08554338 0.12395983 -0.07341899 -0.20091069 0.16435127 -0.04660467 0.04642635

transformer_encoder.layers.0.linear1.bias f4 [512]
00000000: 107d 18bd 457b 0dbe e24f 28be eab4 b7bd
00000010: c9c2 b23d 25f3 3c3d e561 7cbd 33a5 8dbd
00000020: 3e83 3fbd f26e 0ebe 7a19 423e 9f94 38be
00000030: d66e bfbc b1b7 df3c ed10 d63b 4bcd b4bb
00000040: 0bab 22be 8787 b7bd e84f e2bd 6802 3f3e
00000050: d6c0 71bd 8fc4 16be 1dfa 0dbe 9f7a 17be
00000060: c71c 16bd 8625 b1bd 355d 15be dc17 8bbd
00000070: 430b 283e f5c5 39be 8aa8 35bc cbfa 463e
00000080: b0a9 053e 6915 4c3d 4f69 a33d 32ee 91bd
00000090: 75d4 20be efd3 f8bd 90d0 eebd 9a90 183e
000000a0: 33c0 473b 5f5f 29be d6b7 1abe 9086 94bc
000000b0: 7be3 f33d cd3f c23c b03e 173d 9bc0 49bd
000000c0: 3bdc 3fbb 3c38 fa3d f94c 863d bc62 89bd
000000d0: 7a06 513e b1d2 0c3e 2436 8c3d 9303 c73d
000000e0: 78c8 0d3e 5a20 e8bc 695a 283d f55d 87bd
000000f0: 6dcf 81bd 8b79 523c 1a23 0bbe c641 373e
00000100: 3850 0abe 7940 ffbd 36ce e5bc 23f3 0c3e
00000110: 7a86 d2bd 151e 26bc cc7a ec3d 3e35 37be
00000120: 6f09 443e 6f2b f63d 2d91 8e3d cea7 913a
00000130: 2cdd f63d e84a 67bd bf9e 893c c71d 1c3e
00000140: e586 e5bd d5a2 c33c 9262 133e c960 a03c
00000150: 5c05 f7bd 769c 233d 63fc 39bd 4761 34be
00000160: ea0d 9a3b f3f7 163c 4f44 073e 5642 f1bb
00000170: 623f 13be e139 363e c4e1 413d 4dfe 64bd
00000180: 8e76 fe3d a02a 1c3e 611d 163e df9a 283e
00000190: 15d9 9fbd aaaa 3f3e 18d6 083e a0d1 0cbe
000001a0: 5fb5 d23d ff41 f3bd 066a b83d 7089 f1bd
000001b0: 7594 d33d 53be a6bd 092c 3a3d 5f59 25bd
000001c0: 20ff d83d 2def 9cba fa85 c03d 8769 a2bd
000001d0: aed0 c63d bf01 e03d 9081 6e3c 1303 6ebd
000001e0: d931 063d 8558 42be 54ab 24bc 472c 303e
000001f0: 83d6 d73d 4dbb 8cbb 9b37 cbbd b4cd 283d
00000200: 3d8e 383e a520 ce3d de5c 8b3b 6866 7e3d
00000210: d1d7 933c 7695 2dbd 3334 1bbe be7c c6bd
00000220: bf23 b3bd 0b51 fcbd 60e7 483e b90a 31be
00000230: 69e5 523c ccce 5a3c f76d d4bd dcdf c8bc
00000240: 6db5 973d ca75 14be 9b0b 893d e1b1 41bc
00000250: 5376 c1bd 987e 22be 1bc0 97bc f40f bcbd
00000260: 175f 943d 24c3 4fbe 07b2 1f3e 0a02 483e
00000270: fac4 883c e69b 0bbe 1a08 4bbe fe88 c23d
00000280: 9429 943d f63e 2d3e 3c65 dabd 7650 ee3d
00000290: a35b a7bd 6a95 20be f018 993c 029d 72bd
000002a0: b5eb bb3d bbdb ddbd 37df 083e a896 16be
000002b0: 88f9 5b3d 7735 0b3e f0d8 60bd ed58 49be
000002c0: 50b0 9e3d ddf5 37be b99b ddbd 4ef1 bdbd
000002d0: a175 d9bd 5306 423e 4d18 1ebe b119 1d3e
000002e0: 59f8 02be eb91 283e 081b 8cbd ac22 05bd
000002f0: 6ff5 11be ee9a b43c 85c7 a6bd 5a31 42be
00000300: 133c d03d 2c9e 893d 56f0 09be 80db 443e
00000310: 1fb7 afbc ed68 053e c12e 91bd dc21 4cbe
00000320: 8cf4 c4bd aad6 1dbe b1b8 403e bca7 283e
00000330: acbc 01bd dac2 4ebe b055 023e 7cab 843d
00000340: 4edd 033e 14d9 263d c8c1 b73d bebd 85bc
00000350: 6569 4e3e fc17 16bd 0e31 c43d 5ad0 4bbe
00000360: 0585 e7bc 7364 d03c 7554 2d3e 23a2 e83d
00000370: bb25 4c3e 3813 043d 2f91 89bd 8605 1d3c
00000380: 843f 903a 8696 783d d43d 263d 641c bdbd
00000390: 162a b73d 0e6e ea3c fd93 11be 1812 bd3b
000003a0: 3016 13be cb09 2e3b 9757 663d df50 52be
000003b0: 7786 133e b3a8 bebd 0643 0ebd 49ac 46bd
000003c0: e334 223e f654 01be c119 50be bf20 3ebe
000003d0: e896 c63d 5c02 80bd deda f83c e04d cd3d
000003e0: e503 103c dceb 4f3e c379 b73d 8de2 48be
000003f0: 90e8 1ebe 97b3 3abe 7b15 0ebe 4581 4fbd
-0.037228644 -0.13816555 -0.16436723 -0.089700535 0.087285586 0.04613032 -0.061616797 -0.06916275
-0.04675602 -0.1390951 0.18955031 -0.18025444 -0.02336828 0.02730927 0.0065327794 -0.005517637
-0.1588556 -0.08961397 -0.11050397 0.18653262 -0.059021793 -0.14723419 -0.13864942 -0.1479287
-0.036648538 -0.08649735 -0.14586337 -0.0679166 0.16410546 -0.18141921 -0.011087546 0.19431607
0.13053012 0.049825106 0.079790704 -0.0712551 -0.15706046 -0.12149798 -0.11660874 0.14898911
0.003047955 -0.16540287 -0.1510919 -0.01813057 0.11908623 0.023712063 0.036925018 -0.04925595
-0.0029275555 0.12217757 0.0655765 -0.06708285 0.20412627 0.13752247 0.06846264 0.097174786
0.13846004 -0.028335739 0.041101847 -0.06609718 -0.063383915 0.012846361 -0.13587609 0.17896184
-0.13507164 -0.12463469 -0.02805243 0.13764624 -0.102795556 -0.010139008 0.11546859 -0.17891404
0.19144224 0.12020003 0.06961284 0.0011112632 0.12053904 -0.05646792 0.016799329 0.15245734
-0.1120737 0.023881355 0.1439307 0.0195774 -0.12061569 0.039944135 -0.04540671 -0.17615233
0.0047013657 0.009214389 0.13209651 -0.007362644 -0.14379647 0.17795517 0.047334448 -0.055906583
0.12424956 0.15250635 0.14659645 0.16465329 -0.07805077 0.18717447 0.1336292 -0.1375184
0.102885 -0.11877822 0.09004597 -0.11793792 0.1033105 -0.0814177 0.04545215 -0.040368434
0.10595536 -0.0011973135 0.09400554 -0.07930284 0.09707771 0.10937833 0.014557257 -0.0581084
0.032762382 -0.1897908 -0.010050613 0.1720439 0.10538962 -0.004294789 -0.09922715 0.0412118
0.1802301 0.1006482 0.004253014 0.06210938 0.018047245 -0.042378865 -0.15156631 -0.096917614
-0.087470524 -0.12320145 0.19619513 -0.17289247 0.012872078 0.013354968 -0.10372537 -0.024520807
0.07407651 -0.14498058 0.06691667 -0.011822195 -0.09446397 -0.15868604 -0.01852422 -0.0918273
0.072446994 -0.20289284 0.15595256 0.19532028 0.016695488 -0.1363369 -0.19827309 0.094987854
0.07234493 0.16918549 -0.1066384 0.116364405 -0.08171775 -0.15681997 0.018688649 -0.059231766
0.09175817 -0.10832926 0.133664 -0.14705908 0.05370477 0.13594614 -0.054894388 -0.19662829
0.07748473 -0.17964883 -0.10820717 -0.09274541 -0.10618139 0.18947725 -0.15438958 0.15341832
-0.1279005 0.16461913 -0.06841093 -0.03250377 -0.14253782 0.022046532 -0.08143524 -0.18964139
0.10167708 0.06719622 -0.13470587 0.19224358 -0.021449624 0.13028307 -0.07088996 -0.19934791
-0.09616956 -0.15413919 0.18820454 0.16470236 -0.031674072 -0.20191517 0.12728 0.064780205
0.1287739 0.040734366 0.08972508 -0.016325828 0.20157392 -0.036643967 0.09579669 -0.19903699
-0.02826167 0.025438523 0.16926749 0.1135905 0.19936268 0.03224489 -0.06717145 0.009583836
0.0011005257 0.060690425 0.040586308 -0.09233931 0.08943574 0.028616931 -0.1421661 0.005769979
-0.14363933 0.002655613 0.056235876 -0.20538662 0.14406763 -0.093095206 -0.034731887 -0.048504148
0.15840487 -0.12630066 -0.20322324 -0.18567179 0.09696752 -0.0625045 0.030377802 0.10024619
0.008789991 0.20304817 0.08958771 -0.19617672 -0.15518403 -0.1823257 -0.13875382 -0.05066039

transformer_encoder.layers.0.linear2.weight f4 [24, 512]
00000000: 3fd1 113c f729 3d3c 8d43 2bbd c7a7 e13b
00000010: cfe3 e0bc b26c 973b dc72 c73b ca0b 1e3c
00000020: 01ae 083d 9c47 02bd 801d 293a 7afa 29bd
00000030: c150 ad3c 1c08 a8bb 735c 293b 768a 37bd
00000040: a8ae 013d 72ae 41bc 944e af3a db5f e0bc
00000050: 705c e33c 718f db3b 08f8 243b f3f4 023d
00000060: 6e35 d7ba e7a4 c13c db46 10bd 7e17 f0bb
00000070: da49 a3bc 4376 483c c5c3 14bd e4b7 4cbc
00000080: e803 d13a a8ed 233d 5669 51bc f614 3ebc
00000090: 247d e1bc 6ed9 6dbc 3d1f 61bc 4e77 073c
000000a0: 7a29 33bb 5fee e0bc 6b81 b1bb 2ae7 19bd
000000b0: 0a20 eebb 0d3f 03bd 1b65 2b3d 002c 123d
000000c0: e837 42bd d1c8 9c3c e192 07bb de58 f4bc
000000d0: a993 8c3c 37f7 833d 3be4 053d 3c41 34bd
000000e0: 7d71 293c d8a9 2f3c 96b2 4e3c 93b2 b4bc
000000f0: 56da 383c c2de 99bc 7aaf 95ba 515d e7b9
00000100: 1972 67bb 4254 e2bc cedf dc3b b867 cdbc
00000110: f89f 37bc 9671 583c 5788 733c 4d8c 993c
00000120: 7ceb 3c3c 799d 92bb a77b c9bc ede2 363d
00000130: 39db 56bd f04b 6b3c 0673 943c 0b82 573b
00000140: b661 fe3c 243e 653d f869 2a3c 8a0d cdbc
00000150: dbe6 a2bc 8c3a 733c 40db cabc 3668 66bb
00000160: 392c e2bc 6674 13bd feec d43b 933b a8bc
00000170: 1c5c 403b 6187 063d b4d8 23bc 79e8 c5bc
00000180: b15f 80bc 7a47 06bc 7d6a ce3b c7b2 9e3c
00000190: d127 2abd 97a5 153d a5b0 433d 5d99 07bd
000001a0: a229 073d 5f78 0d3c 4130 34bd 769f d939
000001b0: 208f 4cbc bce6 113d c70a a3bc ed10 55bc
000001c0: 43df 503d 3bec d63a facf 4cbd 0f36 0f3d
000001d0: a642 093c 9cca bf3c 6989 fb3b c53c d3bc
000001e0: 6f22 303c ffdb 203c 0bd9 f33c 2415 c53c
000001f0: f396 1cbd 1031 f53c 9e3c 4b3d 8cbc 29bc
00000200: 7273 163d 1674 8fba cea1 91bc 368f e83b
00000210: 5782 363c 297e 963c 1e22 1dbd e448 593c
00000220: 6a97 1a3c 8f19 9dbc 77c5 343c 3bab 8e3b
00000230: 6857 d9b7 cb55 81bc d71b cc3c cca2 cfbc
00000240: 4ab7 223b 8e0b 3e3c 4a23 60bc 099e 91bb
00000250: 83a9 24bd a92d 96bb 86e4 7dbc 7b50 80bc
00000260: 839f 46bd a306 8e3c 7aaf cfbc d557 343d
00000270: 7b8f 143d 03a1 b63c 5667 0a3d 78ea 253d
00000280: 416f 0dbc b3e7 5e3c bc4b ccbb da6d 84bc
00000290: e08a e2bc 1bcd c5bc ecb5 703b 89f0 3cbc
000002a0: bb8a 33bd 6e79 243b 9f0e e4bc 42c0 d2bc
000002b0: d8b6 7abc e5aa 34bc 64c6 293c 89f9 9eba
000002c0: d254 ae3a cab9 a5bc 673f 27bc de52 02bd
000002d0: 9301 693d 6f87 c6bc e732 6a3c 6e4a 1dbd
000002e0: 24fe 0bbd f4f4 30bd 6f7a c7bc 8929 0fbd
000002f0: bf2f e1bc ba07 65bc ec8e 493c b7bc 91bc
00000300: 22a3 ba3c b98e 1cbd 355d 25bd 7cd9 a5bc
00000310: b441 20bd 1290 d23c 27cc dd3c ae75 723c
00000320: 2ea4 293c 0f32 1f3d 16fb 8cbc 13d1 cb3b
00000330: 1569 e4bc fad3 0f3c bd87 c03c ed4d e83c
00000340: 9638 c2bb 1f01 cc3c 00eb 9cbb 19fc 3fbc
00000350: f41e 73bc 8423 30bd 1d6e 693c 4ef0 9d3c
00000360: cd3c 15bd 9191 f6bc 6034 d13c 68c8 e03c
00000370: ac30 8b3c 4516 1f3d 92b1 c339 888b 5d3d
00000380: cea1 65bd 8d2e 72bc fbbb a23c 4772 993c
00000390: c890 15bc c511 d3bc 66ca b33b 6d0b ca3c
000003a0: cdd7 3a3b 85f6 713c cc3f ce3b 8a4e 25bd
000003b0: 828d 91bc eecc 21bd bf15 0d3d 7d5e 3ebc
000003c0: 0bb0 333c af69 883c 2883 64bc d953 a93c
000003d0: 02cb 253d 6a83 313c 95f0 173d 62cc 0a3d
000003e0: ba31 e9bc b6fc 25bd 3e6b 8ebc 4cc1 01bd
000003f0: f170 8e3c 4d5f 233d 6f7e d73c 999b 013d
0.008899986 0.01154565 -0.04181247 0.0068864557 -0.027452378 0.004621112 0.0060866904 0.009646365
0.033369068 -0.031806573 0.0006451234 -0.04149864 0.02115667 -0.00512792 0.0025842458 -0.04480978
0.031660706 -0.011821376 0.0013374859 -0.027389457 0.027754039 0.006700449 0.0025172252 0.031971883
-0.0016419122 0.023638202 -0.035223823 -0.0073270192 -0.019932676 0.012235227 -0.036319513 -0.012495015
0.0015946599 0.04002157 -0.012781462 -0.011601677 -0.027525492 -0.014517171 -0.013740358 0.008268191
-0.0027337954 -0.027457414 -0.005417039 -0.03757397 -0.007267003 -0.03204255 0.04184447 0.035686493
-0.047416598 0.019138725 -0.0020686912 -0.029827531 0.017160254 0.06443637 0.03268836 -0.044007525
0.010341999 0.010721646 0.01261582 -0.022057807 0.011282524 -0.018782977 -0.0011420094 -0.0004412928
-0.003531581 -0.027628068 0.006740547 -0.025073871 -0.011207573 0.013210675 0.014864049 0.018743658
0.011530753 -0.0044743386 -0.024595095 0.044650007 -0.05245516 0.014361367 0.018121254 0.0032883908
0.031052452 0.055967465 0.0104012415 -0.02503087 -0.019885471 0.014845502 -0.02476275 -0.003515733
-0.027608978 -0.035999678 0.006497978 -0.02053622 0.0029351776 0.03284395 -0.0100003965 -0.024158703
-0.01567063 -0.008195752 0.0062993155 0.019372357 -0.041541878 0.036534872 0.047775883 -0.033105243
0.03299869 0.008634656 -0.04399133 0.00041508273 -0.0124852955 0.035620436 -0.0199026 -0.013004524
0.05099417 0.0016397306 -0.05000303 0.034963664 0.008377707 0.023412041 0.0076762927 -0.025785813
0.010750397 0.009818076 0.02976658 0.024057932 -0.038229894 0.029930621 0.049618356 -0.0103598945
0.03673119 -0.001094463 -0.01777735 0.00709715 0.011139474 0.018370705 -0.038362615 0.013262007
0.009435514 -0.019177226 0.011033407 0.0043539084 -2.5909118e-05 -0.01578798 0.024915619 -0.025346182
0.0024828487 0.011599435 -0.013680289 -0.004443888 -0.04020072 -0.00458308 -0.015496379 -0.015663376
-0.048491966 0.017337149 -0.025352228 0.044029076 0.036269646 0.022293573 0.033789955 0.04050681
-0.008632482 0.013605046 -0.006234614 -0.016165663 -0.027654111 -0.024145653 0.0036729528 -0.011531957
-0.043833476 0.0025096792 -0.027839003 -0.025726441 -0.015302382 -0.011027073 0.010362241 -0.0012128811
0.0013300425 -0.020230193 -0.010207987 -0.03181731 0.056886267 -0.024234502 0.014294363 -0.03840106
-0.034177914 -0.043202356 -0.024350373 -0.03495172 -0.027488587 -0.013978893 0.012302142 -0.017790182
0.022782866 -0.03822205 -0.040372092 -0.020245306 -0.03912516 0.025703464 0.027074886 0.014798565
0.010354085 0.0388661 -0.01720957 0.006219992 -0.027882138 0.0087785665 0.023502225 0.02835747
-0.0059271557 0.024902878 -0.0047887564 -0.01171782 -0.014838923 -0.04300262 0.014247444 0.019279625
-0.036434937 -0.030098708 0.02553767 0.027439311 0.016990982 0.038839597 0.00037325599 0.054088145
-0.056062512 -0.014781606 0.019865027 0.01873125 -0.009128757 -0.02576531 0.0054867743 0.024663651
0.0028509975 0.0147682475 0.0062942263 -0.040358104 -0.017767671 -0.039502077 0.034444567 -0.011619207
0.010967265 0.016651956 -0.013947286 0.020669864 0.040476806 0.010834554 0.03709467 0.03388632
-0.028466094 -0.040524207 -0.017385121 -0.031678483 0.017387839 0.039885808 0.026305405 0.03164253

transformer_encoder.layers.0.linear2.bias f4 [24]
00000000: 9b61 60bb ab9f 39bd 5fb2 2bbd 06ef 11bd
00000010: d6b0 31bd 5509 083d ad08 37bd b07c 33bd
00000020: af59 213b 5e35 3a3d e60e 0dbd 6757 f33b
00000030: 8c35 873c 7dc0 9a3c 29ab 49bc 0699 84bb
00000040: e2d8 383c 5836 ba3b d118 843d 73a9 09bc
00000050: 507d 53bc 361c 6b3d 378d ebbc 72bb aeba
-0.0034237865 -0.045318287 -0.041918155 -0.03562834 -0.043381535 0.033212025 -0.04468601 -0.043820083
0.0024620106 0.04546105 -0.034438036 0.0074261907 0.016505025 0.018890614 -0.012308874 -0.004046562
0.011282178 0.005682748 0.06450046 -0.008402216 -0.012908295 0.05739995 -0.02875386 -0.001333101

transformer_encoder.layers.0.norm1.weight f4 [24]
00000000: 3259 623f b0f7 693f 2893 6d3f 47db 773f
00000010: 6816 7a3f d64c 723f 93a7 853f c26f 783f
00000020: 43c7 793f 209d 943f 4615 833f 0b56 7d3f
00000030: dadb 843f 5d72 7b3f 9d91 833f 2000 7a3f
00000040: f2a0 903f 1d3d 703f 0c5e 853f 2128 7c3f
00000050: f456 853f fdeb 7f3f e260 803f 05be 7e3f
0.8841735 0.91393566 0.9280267 0.96818966 0.9769044 0.9464849 1.0441765 0.9704553
0.97569674 1.1610451 1.0240867 0.98959416 1.0379593 0.9822138 1.0278813 0.9765644
1.1299117 0.9384325 1.0419326 0.9849873 1.0417161 0.99969465 1.0029566 0.99508697

transformer_encoder.layers.0.norm1.bias f4 [24]
00000000: b64d 6f3c f070 96bc 7b9a 95ba 77ea 12ba
00000010: e34a 4abd 9ab2 b2bb 287f f8bc 89a5 9cbc
00000020: 5d7b 983c 96de 733d ec84 86bc 50e2 a33b
00000030: 0a86 533c e7a2 89bc 1497 a23c a877 baba
00000040: ad85 193c f101 b7bb 6824 503d 728a 97bc
00000050: ba96 fdba b7a0 043d 45ae 263c 8885 19bc
0.01460593 -0.0183644 -0.0011413837 -0.0005604396 -0.049387824 -0.00545342 -0.03033407 -0.019121902
0.018613512 0.059538446 -0.016420804 0.005001344 0.012910375 -0.01680131 0.01984743 -0.0014226334
0.00937025 -0.005584948 0.05081597 -0.018498633 -0.0019347288 0.032379832 0.010173385 -0.009370215

transformer_encoder.layers.0.norm2.weight f4 [24]
00000000: d779 6e3f 8369 7a3f 4ca8 6f3f ef55 723f
00000010: c22c 863f 3c30 743f a430 833f 4feb 7b3f
00000020: e357 783f fc1b b83f 363c 843f 8bc7 893f
00000030: e40c 863f 51ed 783f d822 823f dc06 763f
00000040: 84cc 813f 3697 7d3f c150 8a3f 7e66 883f
00000050: 1c25 883f fb5c 803f 5f65 823f 85b3 7d3f
0.9315466 0.9781725 0.93616176 0.94662374 1.0482409 0.953861 1.0249219 0.9840593
0.97009104 1.438354 1.0330875 1.0764021 1.0472684 0.97237116 1.0166883 0.96104217
1.0140538 0.99058855 1.0805894 1.0656278 1.0636325 1.0028375 1.0187186 0.9910205

transformer_encoder.layers.0.norm2.bias f4 [24]
00000000: 5189 98bc 27a4 2ebd f510 e43c a349 8a3c
00000010: 37eb 3bbd 3b72 72bc f447 acbb 7c4c e03b
00000020: b97e 0abd a26a 373c 945e 12bd 84b9 aa3c
00000030: 800f ce3c 81d2 babc 2b62 fcbb 796c 023b
00000040: cd74 9d3c 8c01 a73b 4b94 8c3d b2a4 26bc
00000050: 6ed3 fdbc b3cc 493d 0e21 92bc 672e f8bb
-0.018620165 -0.042637017 0.027840117 0.016880816 -0.045878615 -0.0147977425 -0.005257601 0.006845055
-0.03381226 0.011194857 -0.035734728 0.020840414 0.025153875 -0.022805454 -0.007702132 0.001990108
0.019220734 0.00509662 0.06864222 -0.010171102 -0.030984607 0.049267482 -0.017838027 -0.007573891

transformer_encoder.layers.1.self_attn.in_proj_weight f4 [72, 24]
00000000: 0ed6 6fbe 82ec 2abe 4c17 34be 95b2 783e
00000010: 7020 39be a3a7 f4bd 6e84 653d 7e10 05be
00000020: aa86 f2bd b051 cdbc acc0 91bb b85f 07be
00000030: fad7 843e 0d4d c8bd 8cd6 d23d 0ff4 783e
00000040: 4bc4 bc3d c566 723d 0ea2 8d3e 6c2f 393c
00000050: 7267 13be 70e8 943e 8cce 263d ad3f 54be
00000060: 720e b7bd 4507 5bbe 8ba2 383e 1e90 e9bc
00000070: 89a0 8bbe b8a2 9dbc 017e d23d e232 8c3d
00000080: 3873 823d 7ec0 583d 2bf9 d63d 4dbc ec3c
00000090: 257c 6dbd 336a 5ebe ebbc 38be fc93 0d3e
000000a0: 12e2 3cbe efb8 5f3d a239 093e 8313 a1bc
000000b0: 73b5 51be 6aa5 883e 1f01 30be 8266 6b3e
000000c0: 9033 50be af4f dbbd 59f0 d23d da72 b5bd
000000d0: fb8c 213e 888f 3fbe f693 84be 4bfa d2bd
000000e0: 29c5 d63c d333 3a3e c372 9dbd e58e 183e
000000f0: 52cd e3bb c270 27bd 62a9 383e 2109 24be
00000100: 8e07 07bc f046 8b3e 0294 a83c 1a2f 2b3e
00000110: 326d d2bd 4c4e 743e 600a 8fbe 9076 55bc
00000120: 6095 0cbd 136a c13d 955f b33d 5e57 4f3e
00000130: ca7b e3bc f30f 4fbc 7a18 483e ebc4 28bd
00000140: 65d8 513e f130 efbd c8fc 3cbd b124 803c
00000150: 4d3f e83d 0143 1b3e 2f4d 27bd e4b1 5ebe
00000160: c1e4 e13d a663 8d3d 1324 cf3d 13b3 41be
00000170: 11aa 1f3e 2096 5f3e 2635 bb3c c43c 79be
00000180: 2e1d 093e 1a57 96be 8891 983d 7bec 8d3d
00000190: 7bbd 5fbe b68c 3f3d 9b4c 8ebe 2513 0b3d
000001a0: 92c5 14be 6cb9 a0bd 1c21 4c3d 16bd 8b3e
000001b0: f9d7 00bd df97 293e 7bdb 08bd 36a7 c9bd
000001c0: 5ecf 7ebe f196 34be d7d5 a73e 30d0 adbd
000001d0: 4cdb 4b3c 8588 1c3e ba8c 0e3e 4056 743e
000001e0: 22b0 413e 86e9 5dbe 2b67 05bd 24b8 19be
000001f0: e63d 2ebe 1664 5b3d f1a7 5a3e faf8 67be
00000200: e7ba 253e 05c3 2fbe ce24 0ebd 4713 463e
00000210: 80e3 1dbd c2c1 253d 2834 38be 7765 683e
00000220: 5d3f 01bd 9155 24be 9a74 b93d bcf9 1fbe
00000230: 973b 4bbe 2879 463d 3469 3d3e 233d 7ebd
00000240: 532b fe3d 151b 6f3e 8aad 263e 5ad2 02be
00000250: a9da 13bc 0440 9ebd ec3a 3bbe 658b 5c3c
00000260: 0ebb 383e 6b16 6d3e 3c8f 573c 77d7 6e3d
00000270: f8ba efbd 51a4 373e 4a45 d7bd c585 3abe
00000280: d0ea 263d e2df 0f3e 9449 72be 94ef 5b3e
00000290: 6dd2 bd3d cf8d 46be 05e1 49bd 3133 553e
000002a0: 2bfe 42be 4df0 86bd f532 b93d 624e 69be
000002b0: b56b 173e 3681 113e 9163 113e 864b 37be
000002c0: 1e13 863e ac56 4cbe 575c 8b3e c9c4 91be
000002d0: 4e30 72be 5aac 293e bec2 fb3c bc33 923c
000002e0: be3d f8bd 2636 e9bd f9e0 b5bd 1c4d 59be
000002f0: 206c d63c 376d 253d 2d94 c53b 6d7d ac3d
00000300: 960a 823e a14a e83d 2b12 bfbd 57a7 f7bd
00000310: dd0d febd b0a1 1fbe 7dbb efbc 6b09 51bd
00000320: 4cec e73d a28e ffbd 0720 543e 8ca9 64be
00000330: 4371 1bbd b8e0 6b3e c31b 803e c30a 19be
00000340: 9ba0 8e3d b647 363c f70b 1ebe 54b3 6cbd
00000350: 322a 953d d040 4cbe 76bc 583d 48d6 d03d
00000360: 26c7 babd 466e 6b3e ece9 a2bc d54c e63d
00000370: baa2 8a3e 71d4 90bd 82e5 1d3e 4860 7abd
00000380: a736 2cbd eef7 cabc 8dbf 12bc 18c4 cebd
00000390: 6ec4 2c3d a157 a53b 4529 213e a244 6ebd
000003a0: 3f81 ec3c c3c4 d4bd 7ca6 69be 0c03 cc3d
000003b0: a596 0a3d 6afc f7bd 07ca 9fbd 4ef0 673d
000003c0: 2cf3 3cbd f541 293e bcb3 543c e896 bf3d
000003d0: a51e dd3d d802 75bd 3adc d33d 6b40 3b3e
000003e0: 6bf2 2e3c 7505 3a3d 9167 773c d7a1 303e
000003f0: 75a6 d9bd 7478 07be 6a65 e73d 83fc 5cbe
-0.23421499 -0.16691783 -0.17587012 0.24286874 -0.1807878 -0.11946037 0.056034498 -0.12994573
-0.118420914 -0.025063366 -0.004448017 -0.13220108 0.25946027 -0.09780321 0.10294828 0.24311851
0.092171274 0.05918004 0.276627 0.01130281 -0.1439493 0.29083586 0.040724322 -0.20727415
-0.08938302 -0.21389492 0.18030755 -0.028511103 -0.27270916 -0.01924263 0.102779396 0.068456426
0.063696325 0.05291795 0.10496744 0.028898383 -0.05797972 -0.217202 -0.18040816 0.13825983
-0.18445614 0.054619726 0.13400891 -0.019662624 -0.20479374 0.266887 -0.17187928 0.22988322
-0.2033217 -0.10708558 0.10299749 -0.08859797 0.15776436 -0.18707097 -0.25894135 -0.10301646
0.02621706 0.18183832 -0.07687905 0.1489826 -0.0069519663 -0.04087902 0.18033364 -0.16019107
-0.008241547 0.2720256 0.020578388 0.16717187 -0.102747336 0.23857993 -0.27937603 -0.013028756
-0.034322143 0.0944406 0.08758465 0.20248172 -0.027768988 -0.01263808 0.19540587 -0.04120342
0.20492704 -0.11679257 -0.04613951 0.015642496 0.11340199 0.15162279 -0.040845092 -0.21747547
0.110299595 0.06903772 0.101143025 -0.18915968 0.15592219 0.21834612 0.022852492 -0.24339586
0.13390037 -0.29363328 0.07449633 0.06929871 -0.21849625 0.04676505 -0.2779282 0.033953805
-0.14528492 -0.078478664 0.049836263 0.272927 -0.031455968 0.1656184 -0.033412438 -0.09846346
-0.24883792 -0.17635705 0.32780334 -0.08486974 0.012442421 0.15286453 0.1392087 0.23861027
0.18914846 -0.21671113 -0.03256909 -0.1501165 -0.170158 0.053562246 0.21353127 -0.22653571
0.16184579 -0.17164238 -0.03470307 0.19343291 -0.03854704 0.040467985 -0.17988646 0.22694956
-0.03155457 -0.16048266 0.09055443 -0.1562261 -0.1984695 0.048455387 0.18497163 -0.062070023
0.12410607 0.23350175 0.16277137 -0.12775555 -0.009024301 -0.07727054 -0.18284196 0.013460969
0.18040106 0.23153083 0.013156708 0.058310952 -0.11705583 0.17933775 -0.10511263 -0.18215092
0.04075128 0.14050248 -0.2366088 0.2147811 0.09268651 -0.19390033 -0.04928686 0.20820309
-0.1904227 -0.065888025 0.090429224 -0.22783807 0.1478718 0.14209446 0.14198138 -0.17899904
0.2618646 -0.19954938 0.27218887 -0.28470448 -0.2365124 0.16569653 0.030732509 0.017846934
-0.121211514 -0.11387281 -0.08880801 -0.21220821 0.026174605 0.04038736 0.006029627 0.084223606
0.253987 0.11342359 -0.09329637 -0.120924644 -0.12404988 -0.15589023 -0.029264206 -0.051034372
0.11324367 -0.12478377 0.20715342 -0.22330302 -0.03794981 0.23034942 0.2502118 -0.14945512
0.06964227 0.011125496 -0.15434252 -0.057788208 0.07283439 -0.19946599 0.052914105 0.10197121
-0.09120016 0.22991285 -0.019886933 0.11245123 0.27077276 -0.0707177 0.15419582 -0.061126977
-0.042044308 -0.024776425 -0.008956802 -0.10095996 0.042179517 0.0050458466 0.157384 -0.058170922
0.028870223 -0.10389092 -0.22817415 0.09961519 0.033835072 -0.12108691 -0.078022055 0.056625657
-0.046130344 0.16529067 0.012982305 0.09354955 0.107968606 -0.059817165 0.10344739 0.18286292
0.010677914 0.04541536 0.015100376 0.17249237 -0.10627452 -0.13229543 0.1129864 -0.215807
