online/32_D2.pth (torch, 158980 bytes, 8 tensors)

li1.weight f4 [1, 24]
000000 28 94 ad 3d c0 17 53 3e ae b2 73 bc ea 6f fd bd
       0.08475524 0.20614529 -0.0148741435 -0.123748615
000010 ec 0f c8 3d 20 18 15 3d 22 19 4a 3e 8c e4 a6 3d
       0.09768662 0.03639996 0.1973615 0.081490606
000020 a4 39 00 be c5 61 2f bd 4f a7 1e be 26 ba 5c 3c
       -0.12521988 -0.04281785 -0.1549351 0.013472116
000030 c5 96 fa bd 29 8b fa 3d 54 b1 0d be e1 8c b7 3d
       -0.12235788 0.12233574 -0.13837177 0.089624174
000040 67 ee c5 bd 62 05 b7 bd 38 6b 4c 3d a6 5a 5f 3e
       -0.09664612 -0.089365736 0.04990694 0.21811923
000050 05 06 19 be ca 69 4b 3d 86 a3 3f bd 5a ae 38 3e
       -0.14943703 0.049661435 -0.046786807 0.1803526

li2.0.weight f4 [512, 70]
000000 e6 71 2c bd b0 2d d1 bd 99 17 d2 bd 9d 00 8c bc
       -0.04210081 -0.10213792 -0.10258407 -0.017090136
000010 c6 61 90 bd cd 8a 5b 3d 82 fd d6 bd 95 a8 d8 bd
       -0.07049899 0.053599168 -0.104975715 -0.105790295
000020 6f 0f 92 bd f3 a7 6f bd 4e 45 8d 3c ae d1 d0 bd
       -0.0713185 -0.05850978 0.017244961 -0.10196243
000030 b0 f5 15 3d 06 ff 07 3d ea d8 81 3d dc e5 84 3d
       0.03661126 0.033202194 0.06340201 0.06489155
000040 c0 b8 0b bc d1 0e 69 3d 76 73 9b 3d 46 28 34 3c
       -0.008527935 0.056898896 0.07590382 0.01099593
000050 1b 04 64 bd c7 8a 62 bd 0b e9 36 bc 13 e5 14 bd
       -0.055667978 -0.05530813 -0.01116396 -0.036351275
000060 b8 2e d5 3d 86 44 36 bc e2 85 da 3d cf b9 33 bc
       0.104093015 -0.011124736 0.10670067 -0.010969593
000070 9f 45 7b bc d0 dd d6 bc 42 ad c6 bd db f4 c5 3d
       -0.015336423 -0.026228815 -0.09701015 0.09665843
000080 d9 d8 91 3c 67 b1 63 bd 92 a3 6c 3d 30 44 d8 3c
       0.017803596 -0.055589106 0.05777318 0.026399702
000090 44 81 f3 3d a7 df a1 3d e3 27 6c bd 7c 73 cf bd
       0.1188989 0.079039864 -0.057655226 -0.10129449
0000a0 28 bf 05 3d 7d f8 8f 3d fa 68 7a bc 0e ea 56 bc
       0.032653004 0.07029817 -0.015283817 -0.013117326
0000b0 4a 46 e2 bd e9 0c 6d 3d 53 6d e3 bc 53 48 9e 3d
       -0.11048563 0.05787364 -0.02776209 0.077286385
0000c0 f7 bf 8f bd 60 52 0c 3d b7 08 e5 3c 8a 9d f0 3d
       -0.07019036 0.034258246 0.027958257 0.11748798
0000d0 ed 66 91 3c 2d ba 8d 3d 85 2d c9 3d f3 cc e2 3d
       0.017749274 0.06920276 0.09823135 0.11074247
0000e0 0f 98 50 bc 40 61 fb 3c a8 b7 ef bd d3 9b d7 3c
       -0.012731566 0.03068602 -0.117049515 0.02631942
0000f0 ee c8 d3 bd 48 dd ca bd 85 7f ec 3d af 79 e9 3d
       -0.10341059 -0.09905487 0.1154776 0.114001624
000100 52 02 0a bd 05 7f e2 3d bc 51 81 3d c4 c0 93 bd
       -0.03369362 0.11059383 0.06314418 -0.072145015
000110 60 92 2b bc 42 1f 4a bd cd 94 85 bd 13 8b 2c 3d
       -0.01047191 -0.049346216 -0.06522522 0.04212482
000120 42 81 9a bd f3 83 b5 bc 43 6d 4a bd 3f e8 09 3d
       -0.07544185 -0.022157645 -0.049420606 0.033668753
000130 85 f1 65 bd 78 82 7b bd f5 f3 28 bd 9d 33 39 bc
       -0.056138534 -0.06140372 -0.04124828 -0.0113038095
000140 79 11 c3 bd 2d 72 5a 3d 2d 8c c9 bd ee b1 35 3d
       -0.09524817 0.053331543 -0.098411895 0.04435914
000150 3a de d1 bd 2d b5 0d 3d e2 44 26 bd f4 6d 82 3c
       -0.102474645 0.03459661 -0.040593036 0.01592157
000160 55 01 98 3d 23 9d b0 3d 7d 45 50 3d dc 60 e5 bd
       0.07422129 0.086237215 0.05084752 -0.11200115
000170 d1 8b 41 bd 13 2f c7 3d 1c 3e e2 bc 34 0e 0c 3c
       -0.04725248 0.097257756 -0.027617507 0.008548308
000180 1e d4 83 3d 37 70 82 bd 16 b5 bb bd 07 3e 13 bb
       0.064369425 -0.063690595 -0.09165399 -0.002246739
000190 1d cf 37 bb 7e 9f 5e 3c 7c 8c dc 3d 8d e6 39 3d
       -0.0028047033 0.013587831 0.10768983 0.045385886
0001a0 57 b3 a1 3d 8a 6b 27 3d 43 dd e4 bc 03 de 34 3d
       0.078955345 0.04087404 -0.027937537 0.04415704
0001b0 2e 93 8a 3d 72 6a 40 3d 87 cb 22 3d 50 b7 94 3d
       0.067663535 0.046976514 0.03974488 0.072615266
0001c0 0b b6 e8 bd b8 38 f2 3d 1f e1 b1 bd 45 90 1b bb
       -0.11362847 0.118272245 -0.086855166 -0.0023737114
0001d0 35 39 a5 3c 9c f2 93 bd a2 5a f1 3c 93 cd 9d 3d
       0.02016888 -0.072240084 0.029462162 0.07705226
0001e0 fe 8a f3 bd 91 b7 ab bd ce ed e4 3d 0d 22 69 bd
       -0.11891745 -0.08384622 0.1117817 -0.05691724
0001f0 43 ed 95 3d 9a 5d b0 3c 3c a4 e6 bc 7c f1 4f 3d
       0.07320645 0.021529008 -0.028154485 0.050767407
000200 72 42 eb 3d ab 97 a4 bd cc 31 c7 bd 3a b0 01 bd
       0.11487283 -0.08036741 -0.09726295 -0.031662203
000210 7f e4 1c bd b6 ad cf 3d c4 85 27 3d 98 c5 4d 3d
       -0.03830385 0.101405546 0.040899053 0.05023727
000220 d7 79 f2 bd f4 2f 1d 3c 7e 22 e5 3d 5c 84 cb 3d
       -0.11839645 0.009593952 0.111882195 0.09937355
000230 97 1a ee bd f1 c6 92 bd 86 68 1e bd 4f 88 b8 3c
       -0.11626165 -0.07166851 -0.0386739 0.022525935
000240 d6 2e 8e 3d fe 6d ac bd 81 79 41 3d e6 a8 ac bd
       0.06942527 -0.08419417 0.047235016 -0.08430652
000250 ee df a0 bc d9 2c d9 3d b8 2a f8 bb 65 4e 8d bd
       -0.019638028 0.10604257 -0.007573452 -0.06899718
000260 9a 8b 97 bc 98 4a e1 3c 47 b7 87 3d 5f 31 51 bc
       -0.018499184 0.02750139 0.06626754 -0.012768119
000270 15 69 97 3d 69 f8 c6 3c 12 48 d2 3c 25 9e ca bd
       0.0739309 0.024288373 0.025669131 -0.09893445
000280 1f a8 a3 3d eb af dc 3d 2f a8 f2 bd e5 cb 8e bd
       0.07991051 0.10775741 -0.11848485 -0.069724835
000290 62 f0 c7 bd b1 bf 24 bd 1d e3 ca bd db 14 1b 3d
       -0.09762646 -0.040221874 -0.099066 0.037861686
0002a0 40 aa 05 3d ed c7 d0 3d c2 a2 2a 3b 7d be 7f 3d
       0.032633066 0.10194383 0.0026036953 0.062437523
0002b0 be 2b c1 bd f6 a4 6a bd 59 13 93 bb f1 bd 29 ba
       -0.09432171 -0.057286225 -0.0044883904 -0.0006475142
0002c0 87 12 89 bd d6 4c 42 3d a2 55 5c 3d 29 9f a0 3d
       -0.06692987 0.047436558 0.053792603 0.078428574
0002d0 70 ad 69 3d 53 41 a5 3b 3e 3e cf 3d a9 3c 9b bc
       0.05705017 0.0050431876 0.10119294 -0.018949823
0002e0 c3 ea b3 ba e8 5e 72 3b fd 8a cc 3d c2 b9 aa bc
       -0.0013726581 0.0036982838 0.099874474 -0.02084053
0002f0 5f 5d cc 3d 66 85 a6 3d e0 37 89 3d 8c 18 5e bd
       0.099787466 0.081309125 0.067001104 -0.05422263
000300 3d 97 c5 bc 9d 62 37 bd 4e e0 a5 bd 0c 34 c5 3d
       -0.024119968 -0.04477178 -0.08099423 0.09629068
000310 50 69 e0 3c d1 6a ee bc 91 21 a7 3d 33 d3 ae bd
       0.027393967 -0.029103668 0.08160699 -0.08536377
000320 8d 63 df 3c 98 87 c2 bd b9 86 af ba 8c 14 ea bc
       0.02726915 -0.09498519 -0.0013391591 -0.02857425
000330 1d fc 03 bd 4c 06 15 3d 8b 6a 3e bd 01 ae a1 3d
       -0.032222856 0.03638296 -0.046488326 0.07894517
000340 56 5b ec 3d 28 16 93 3c 93 58 92 3d 94 cf 1a 3d
       0.115408584 0.0179549 0.071458004 0.03779562
000350 69 41 f2 bd d8 49 8e 3d 63 57 ec bd 92 91 8c bc
       -0.11828882 0.06947678 -0.11540105 -0.017159257
000360 ec 21 b0 bc bb 88 b5 3d 3b 63 99 bd 69 d2 8e 3c
       -0.02150055 0.0886397 -0.0748963 0.017434316
000370 71 fb dc bb f7 fd 66 bd 66 28 73 bc f6 89 4c bd
       -0.0067438413 -0.056394543 -0.014841175 -0.049936257
000380 38 fc aa bd a3 62 4b bc 13 8e e9 3b d6 1f 21 bd
       -0.08348888 -0.012413654 0.0071275323 -0.039337
000390 67 38 fe 3b 28 ce 26 3d 46 bd 8d bd 5f 3c ec bb
       0.0077581885 0.04072395 -0.06920867 -0.007209345
0003a0 ac 75 cf 3d e6 a9 ec bd a2 7b 1b bd b7 90 18 bd
       0.10129866 -0.11555843 -0.037959702 -0.037247386
0003b0 16 0f c1 bd fc 96 b3 3d 5a 63 78 3d 05 54 81 bd
       -0.094267055 0.08769032 0.060641624 -0.063148536
0003c0 3a 27 f3 bd b6 f6 26 bd 51 fe e2 bd 27 9d dc bc
       -0.11872716 -0.040762626 -0.11083663 -0.026930405
0003d0 4e 7a b8 bd 7d d5 d9 bc 73 30 bc bd c4 84 d3 3d
       -0.09007703 -0.026591057 -0.091889285 0.103280574
0003e0 34 4b b6 3d 42 d2 68 bd ce 2e c8 bd 67 0a f2 bd
       0.089010626 -0.056841142 -0.09774552 -0.1181839
0003f0 41 78 f0 bd 8e be c6 3b 13 cd 80 bc a8 5e 3d bd
       -0.117416866 0.0060651964 -0.015722787 -0.04623285

li2.0.bias f4 [512]
000000 93 ed 0d 3c 98 7d 98 bd 8a 61 9b bd cf 48 c2 bc
       0.008662599 -0.0744583 -0.075869635 -0.023716358
000010 6d 5c 33 3d b0 32 bf bd 0f 44 e5 bb 75 b8 1a 3d
       0.043789316 -0.0933584 -0.0069966386 0.03777357
000020 37 2a 20 bd 70 7c bb 3c bc 2d e8 bc a6 8a 9f 3d
       -0.03910276 0.022886485 -0.02834212 0.07790117
000030 62 09 d7 3d 62 75 21 3d 5a 0d 26 bd 1c 42 27 3b
       0.104998365 0.039418586 -0.040540077 0.0025521582
000040 07 e9 6d bb a0 2d a2 3d 7c 72 27 3d f5 ff a0 bd
       -0.0036302225 0.079188585 0.040880665 -0.0786132
000050 3b f6 47 b9 a3 59 e6 3d 43 dd e3 bd 27 37 51 bd
       -0.00019069847 0.112475656 -0.11126187 -0.051077988
000060 08 87 28 bd df 33 ea 3d b2 3e 20 bc 1a 5d db bb
       -0.0411444 0.11435675 -0.009780573 -0.006694448
000070 bc 90 cf 3d d3 c4 ca bd a1 a2 86 bc 38 b5 ac 3d
       0.10135028 -0.099008225 -0.01643497 0.08433002
000080 e7 b7 cb bd 2f 16 c4 3d 14 b7 9b bd bd 52 19 3d
       -0.09947186 0.09574544 -0.07603279 0.03743242
000090 1b 8a b3 3d 46 49 80 bd b5 76 79 bd 8b 77 e5 3c
       0.08766576 -0.06263976 -0.060904223 0.028011104
0000a0 b0 97 8e bd 3b 28 a9 3d d0 95 87 3d 6f 8b 4d 3d
       -0.06962526 0.082596265 0.06620371 0.050181802
0000b0 73 a6 63 bd 8e ed 37 bc 88 d2 a0 bd 8b ed 9d 3d
       -0.05557866 -0.011226071 -0.07852656 0.07711323
0000c0 07 59 b3 3d 4d 80 a5 bd ca b1 ec 3a b4 39 b2 ba
       0.08757215 -0.08081112 0.0018058356 -0.0013597519
0000d0 39 b6 2b 3d 39 34 dd bd 1d 95 12 3d 94 3b 9c bb
       0.041921828 -0.10800976 0.035786737 -0.0047678445
0000e0 db 43 b0 3d 43 25 8a 3c 93 9e ba bc ad df 9d 3d
       0.086066924 0.01686347 -0.022780692 0.077086784
0000f0 11 79 e9 bd ce 51 65 3b 98 01 9c bd 28 00 5b bd
       -0.11400045 0.0034991386 -0.076174915 -0.053466946
000100 e2 67 68 bd 88 49 ed bd 24 ae 26 bc d1 3f 51 bd
       -0.056739695 -0.115862906 -0.010173354 -0.05108625
000110 a4 46 ee 3c d4 0c 7e 3d e5 7e 5b bd 78 bf ef 3a
       0.029086418 0.062023953 -0.053587813 0.0018291315
000120 86 a7 22 3d 91 fd 4e 3c ba 2a 9f 3d 39 0b a4 bc
       0.039710544 0.012633697 0.07771821 -0.020024883
000130 ae 3c 82 bd 0f 58 aa bd 96 3e 1e 3d 8e a3 1f bd
       -0.0635923 -0.08317577 0.038633905 -0.038974337
000140 02 be f1 bd f3 ca 19 bc 15 a2 8a 3d da d3 27 3d
       -0.11803819 -0.009386766 0.06769196 0.04097352
000150 b5 dd 07 bd a9 41 36 3c 24 68 b8 bd 40 4f b4 3d
       -0.03317042 0.011124053 -0.09004238 0.08804178
000160 a5 c4 d9 3d 3f dd 4d 3d ea 8b b1 3b 87 9d 18 3d
       0.1063321 0.050259825 0.0054182904 0.037259605
000170 01 02 b2 3d 5a 74 92 3c 25 cb 00 bd 51 72 b1 bd
       0.086917885 0.017877746 -0.031443734 -0.08664382
000180 5f 1d 71 3c 9f bb 3c 3c 43 14 f8 bc 1e 48 f1 3d
       0.014716475 0.011519342 -0.030283099 0.117813334
000190 9f d0 bc 3d dc c7 99 bd 3b 5d ce bd 62 c1 21 3d
       0.09219479 -0.07508823 -0.10076376 0.039491065
0001a0 53 20 74 3d 40 de e2 bc 62 f2 3d bd 50 63 d5 bd
       0.05960114 -0.027693868 -0.046373732 -0.10419333
0001b0 20 0b 99 3d 2a ec 37 3d 31 4d 2b 3d f9 74 60 3c
       0.07472825 0.044902958 0.041821662 0.013699763
0001c0 d0 71 04 3d de 9a ee bd 87 ab fa 3c fe 5d d7 3d
       0.032335103 -0.11650632 0.030599369 0.105159745
0001d0 3f a5 29 3d e4 f1 f8 bc b5 87 ba 3d 3b 1b 9e 3d
       0.041417357 -0.03038878 0.09107915 0.077200375
0001e0 62 27 bc bc ba 39 93 3d 47 6e 7c 3d 81 24 1f bd
       -0.022967998 0.07188745 0.061628606 -0.038853172
0001f0 5b d8 ab 3d a4 00 76 bd fa d0 ef bc 4b 0b a5 3d
       0.08390876 -0.060059205 -0.029274452 0.080587946
000200 27 e0 eb bd f2 48 d9 bd cf b4 c3 3d 13 c7 ef 3d
       -0.11517363 -0.10609616 0.09555971 0.11707892
000210 25 35 10 bd c8 af db bd 44 05 91 bc 52 b9 76 3c
       -0.035206933 -0.10726887 -0.017702706 0.015058832
000220 cc 61 90 bd 92 96 99 3d 3a e5 31 3d 70 9d 58 3d
       -0.07049903 0.07499422 0.043431498 0.05288452
000230 21 a4 ba 3d 65 38 a4 3d a8 cb 56 bd 60 e1 f2 bc
       0.09113336 0.08018569 -0.052440315 -0.029648483
000240 34 9c 97 3d 4d 17 97 3c b2 7e c1 3c 3a 7d 2b bc
       0.0740284 0.018443728 0.023619983 -0.010466868
000250 5e e7 aa bd e1 bb e4 bd 10 c9 03 bc f1 57 29 bd
       -0.08344911 -0.111686476 -0.0080435425 -0.041343633
000260 92 35 30 3d 97 a7 81 bc 23 66 82 bd c9 b9 8b bc
       0.04301984 -0.015826983 -0.06367137 -0.017056363
000270 2a 3e 9b 3d 2e 24 de 3d a2 2c f4 bd 4b 69 1c 3c
       0.07580216 0.108467445 -0.119225755 0.009546588
000280 e6 1e df bc 73 b1 ae 3d 18 c9 0e bd be 30 8c bd
       -0.027236413 0.085299395 -0.034859747 -0.06845234
000290 13 90 9a bc b9 17 95 3d 8a 45 11 bd 90 e6 2d 3c
       -0.018867528 0.07279915 -0.03546671 0.010614052
0002a0 ea d8 e8 3d 6a 9e 81 bd 75 5a d7 bc 38 88 8d bd
       0.11369498 -0.06329043 -0.02628825 -0.06910747
0002b0 ee 72 d2 bc 9e 0d 1b bd 5a c9 9e 3d c5 32 32 3c
       -0.025689568 -0.037854783 0.077532485 0.010876362
0002c0 8e 74 60 bd df c3 df bc e6 6f 8b 3d 41 98 dd bd
       -0.054798655 -0.027315078 0.06808452 -0.10820056
0002d0 f4 41 a7 bd 18 d3 50 bd fa 68 ee 3d e9 e9 38 3d
       -0.081668764 -0.050982565 0.116411164 0.04514495
0002e0 4b ec 18 bd 23 16 49 bd 4c 41 cd 3d a6 13 5f bd
       -0.03733472 -0.049093377 0.1002222 -0.054462098
0002f0 97 1e 48 3d 83 1c e9 bd f3 12 96 bd e9 5b 53 bd
       0.048857298 -0.11382391 -0.07327833 -0.051601324
000300 3c 79 d7 bc ee cc 9c 3d 3d 92 f2 bd 56 43 de bd
       -0.026302926 0.07656275 -0.11844299 -0.10852687
000310 b2 3c f4 3d 45 9e d3 bd c3 a4 7b 3d 15 5c 1f 3c
       0.11925639 -0.10332922 0.061436426 0.009726544
000320 ee 47 b9 bc e8 10 85 3d 1a e1 b0 bd c5 92 92 3b
       -0.022617307 0.06497365 -0.08636685 0.0044730627
000330 37 d2 29 bd 3a 94 f3 3d 09 13 7c 3d 7c d8 f1 3c
       -0.041460242 0.11893506 0.06154159 0.029522173
000340 5a 74 35 bd ef 92 7f 3d 00 3d 05 3d 6b ba 07 3d
       -0.044300415 0.062395986 0.032528877 0.033136766
000350 79 96 97 3c 0b 76 a2 3d 46 b7 a3 bd 11 07 b1 3c
       0.018504368 0.07932671 -0.07993941 0.021609815
000360 01 85 b1 3d cd f5 9c 3d 1e d6 af bd 0b aa c8 bd
       0.086679466 0.0766407 -0.085857615 -0.09798058
000370 91 ce 72 3d 47 7b c9 3d 35 4d 08 3c 62 6a b4 bb
       0.05927903 0.098379664 0.008319189 -0.005505846
000380 c0 cf ae 3b b3 7e 02 bd fd b9 ba 3d 8f 0c 5c ba
       0.0053348243 -0.03185911 0.09117506 -0.00083942054
000390 2c d9 0a bd 1b ca 8d 3c ae 48 4d 3d ad fa 6a bd
       -0.033898517 0.017308285 0.05011814 -0.05736797
0003a0 2e 2e bb bc 36 7c 2c bd a9 2c ce 3d 15 e1 38 3c
       -0.022849169 -0.042110644 0.10067112 0.0112841325
0003b0 38 cc 13 3d ad 3e ca bc 81 7c 47 bd 5e ac 83 bd
       0.03608343 -0.02468809 -0.04870272 -0.06429361
0003c0 ce d2 ab 3b ec 11 b9 3d ce 85 62 3d cb 01 e0 bd
       0.0052436357 0.090366215 0.055303387 -0.10937842
0003d0 23 6f ba 3d cd c3 34 bd ae 84 ad 3d fd 1e 9f 3d
       0.09103229 -0.044132043 0.08472572 0.077695824
0003e0 e1 5a d6 3d b2 02 cf bd d2 c0 8c bd 35 7e dd 3d
       0.104665525 -0.10107936 -0.06872715 0.10815088
0003f0 16 7a 52 3d 89 ff 88 3c 90 8d 77 bd d7 13 93 bd
       0.05138596 0.016723411 -0.06043774 -0.071815185

li2.1.weight f4 [512]
000000 d5 f9 7f 3f 63 e7 7f 3f 49 fb 7f 3f e0 f6 7f 3f
       0.9999059 0.99962443 0.99992806 0.99986076
000010 0c e2 7f 3f 0b 00 80 3f 35 00 80 3f 27 fe 7f 3f
       0.99954295 1.0000013 1.0000063 0.9999718
000020 81 00 80 3f fe f4 7f 3f 60 f6 7f 3f b0 e9 7f 3f
       1.0000154 0.99983203 0.99985313 0.99965954
000030 cc ea 7f 3f 10 ee 7f 3f d0 eb 7f 3f 36 f8 7f 3f
       0.99967647 0.9997263 0.99969196 0.99988115
000040 61 fa 7f 3f 7c fd 7f 3f a1 fc 7f 3f 85 f4 7f 3f
       0.9999142 0.9999616 0.99994856 0.9998248
000050 9d 02 80 3f 5c fa 7f 3f 98 f6 7f 3f 0a dc 7f 3f
       1.0000798 0.99991393 0.9998565 0.9994513
000060 34 fa 7f 3f 28 01 80 3f a5 fc 7f 3f 68 f2 7f 3f
       0.99991155 1.0000353 0.9999488 0.9997926
000070 33 00 80 3f bc fd 7f 3f 18 d1 7f 3f e4 fb 7f 3f
       1.0000061 0.9999654 0.99928427 0.9999373
000080 80 e3 7f 3f 2d de 7f 3f 94 f9 7f 3f df f9 7f 3f
       0.9995651 0.9994839 0.999902 0.9999065
000090 a1 f5 7f 3f 3a 02 80 3f ac da 7f 3f 0d f9 7f 3f
       0.99984175 1.000068 0.9994304 0.99989396
0000a0 55 f8 7f 3f f6 e0 7f 3f 77 d8 7f 3f 6b e7 7f 3f
       0.999883 0.9995264 0.99939674 0.9996249
0000b0 d8 03 80 3f 43 f3 7f 3f 86 f3 7f 3f 7d f8 7f 3f
       1.0001173 0.9998056 0.9998096 0.9998854
0000c0 4d 01 80 3f 41 ec 7f 3f 4a 01 80 3f 61 fd 7f 3f
       1.0000397 0.9996987 1.0000393 0.99996
0000d0 95 f4 7f 3f 60 ff 7f 3f 53 d9 7f 3f b8 f1 7f 3f
       0.9998258 0.99999046 0.99940985 0.9997821
0000e0 ba f4 7f 3f b7 fd 7f 3f 34 00 80 3f 33 f1 7f 3f
       0.999828 0.99996513 1.0000062 0.99977416
0000f0 88 00 80 3f 9c f6 7f 3f d9 fc 7f 3f 77 fe 7f 3f
       1.0000162 0.9998567 0.9999519 0.9999766
000100 eb ed 7f 3f e1 f3 7f 3f 8c eb 7f 3f 03 fa 7f 3f
       0.9997241 0.99981505 0.9996879 0.9999086
000110 43 e0 7f 3f 79 f8 7f 3f 3a 00 80 3f c0 06 80 3f
       0.9995157 0.99988514 1.0000069 1.000206
000120 93 e1 7f 3f 10 00 80 3f 22 e2 7f 3f c1 f3 7f 3f
       0.99953574 1.0000019 0.99954426 0.99981314
000130 20 00 80 3f 3a f7 7f 3f fb f1 7f 3f 32 05 80 3f
       1.0000038 0.9998661 0.9997861 1.0001585
000140 95 ff 7f 3f bc 04 80 3f 99 e3 7f 3f 00 f7 7f 3f
       0.9999936 1.0001445 0.9995666 0.9998627
000150 30 01 80 3f 9b ea 7f 3f ec fe 7f 3f 0e 00 80 3f
       1.0000362 0.99967355 0.99998355 1.0000017
000160 ee e6 7f 3f 14 00 80 3f 0a f7 7f 3f 45 fb 7f 3f
       0.99961746 1.0000024 0.99986327 0.9999278
000170 11 ff 7f 3f 1b 00 80 3f b8 e9 7f 3f e2 fd 7f 3f
       0.99998575 1.0000032 0.99966 0.9999677
000180 68 fa 7f 3f 57 00 80 3f c4 00 80 3f 40 f6 7f 3f
       0.99991465 1.0000104 1.0000234 0.9998512
000190 d3 07 80 3f 0d 00 80 3f 9e f7 7f 3f ec f3 7f 3f
       1.0002388 1.0000015 0.9998721 0.9998157
0001a0 bf ff 7f 3f 1c 01 80 3f de f6 7f 3f 25 e5 7f 3f
       0.9999961 1.0000339 0.99986064 0.9995902
0001b0 36 ee 7f 3f dc ee 7f 3f 73 f1 7f 3f e9 ff 7f 3f
       0.99972856 0.99973845 0.999778 0.9999986
0001c0 7b e1 7f 3f a7 fa 7f 3f 49 01 80 3f 8c fd 7f 3f
       0.9995343 0.9999184 1.0000392 0.99996257
0001d0 9d f7 7f 3f e3 00 80 3f 90 e7 7f 3f 55 ef 7f 3f
       0.999872 1.0000271 0.9996271 0.99974567
0001e0 07 fa 7f 3f d3 02 80 3f ea f6 7f 3f e8 01 80 3f
       0.99990886 1.0000862 0.99986136 1.0000582
0001f0 66 01 80 3f 86 fb 7f 3f 56 ed 7f 3f 6e f9 7f 3f
       1.0000427 0.9999317 0.9997152 0.99989974
000200 48 f5 7f 3f 26 ff 7f 3f bb dd 7f 3f 90 00 80 3f
       0.99983644 0.999987 0.9994771 1.0000172
000210 7c f9 7f 3f 7d f7 7f 3f 81 d9 7f 3f 3a f3 7f 3f
       0.9999006 0.9998701 0.9994126 0.9998051
000220 d7 00 80 3f 6c 01 80 3f a6 02 80 3f a4 eb 7f 3f
       1.0000256 1.0000434 1.0000808 0.99968934
000230 4b ed 7f 3f 94 ed 7f 3f 5d ee 7f 3f a4 ec 7f 3f
       0.99971455 0.9997189 0.9997309 0.9997046
000240 bc 04 80 3f d7 ed 7f 3f eb ff 7f 3f 86 00 80 3f
       1.0001445 0.9997229 0.99999875 1.000016
000250 64 ec 7f 3f e0 ff 7f 3f 1b da 7f 3f a2 00 80 3f
       0.9997008 0.9999981 0.9994218 1.0000193
000260 65 d6 7f 3f bf fa 7f 3f 3f f9 7f 3f 0f f5 7f 3f
       0.99936515 0.99991983 0.99989694 0.99983305
000270 9a 01 80 3f de f0 7f 3f 22 fb 7f 3f e3 e9 7f 3f
       1.0000489 0.9997691 0.99992573 0.9996626
000280 56 00 80 3f 00 ea 7f 3f 43 03 80 3f 23 fe 7f 3f
       1.0000103 0.9996643 1.0000995 0.99997157
000290 f9 00 80 3f 57 d5 7f 3f 3d f9 7f 3f 4f e8 7f 3f
       1.0000297 0.99934906 0.9998968 0.9996385
0002a0 07 fa 7f 3f fd e8 7f 3f b0 ec 7f 3f c3 fc 7f 3f
       0.99990886 0.99964887 0.9997053 0.9999506
0002b0 88 fe 7f 3f 96 02 80 3f 1c f1 7f 3f f3 fd 7f 3f
       0.9999776 1.0000789 0.9997728 0.9999687
0002c0 c0 e6 7f 3f 52 ea 7f 3f 38 fc 7f 3f 24 04 80 3f
       0.9996147 0.9996692 0.9999423 1.0001264
0002d0 d1 f8 7f 3f 8b fb 7f 3f 00 03 80 3f 0e eb 7f 3f
       0.9998904 0.999932 1.0000916 0.9996804
0002e0 12 ed 7f 3f b0 ff 7f 3f 3f df 7f 3f e0 ef 7f 3f
       0.99971116 0.99999523 0.9995002 0.99975395
0002f0 eb fc 7f 3f bb 01 80 3f 6d 01 80 3f a6 fe 7f 3f
       0.999953 1.0000528 1.0000435 0.9999794
000300 0a fd 7f 3f a9 f8 7f 3f b0 e2 7f 3f f7 fa 7f 3f
       0.9999548 0.999888 0.9995527 0.99992317
000310 93 00 80 3f 64 fc 7f 3f 3f f6 7f 3f 88 d3 7f 3f
       1.0000175 0.9999449 0.99985117 0.99932146
000320 af e4 7f 3f 00 06 80 3f b5 ee 7f 3f 9e f1 7f 3f
       0.9995832 1.0001831 0.99973613 0.99978054
000330 5b ef 7f 3f b7 ef 7f 3f 28 f6 7f 3f 00 f4 7f 3f
       0.999746 0.9997515 0.9998498 0.9998169
000340 e8 f8 7f 3f fc ec 7f 3f 3d da 7f 3f 8c f8 7f 3f
       0.99989176 0.99970984 0.9994238 0.9998863
000350 81 04 80 3f 05 00 80 3f 99 f3 7f 3f d8 00 80 3f
       1.0001374 1.0000006 0.99981076 1.0000257
000360 7b e3 7f 3f 5d f0 7f 3f 05 fa 7f 3f e6 00 80 3f
       0.9995648 0.9997614 0.99990875 1.0000274
000370 7a ed 7f 3f 0d fd 7f 3f d5 eb 7f 3f 3c f3 7f 3f
       0.99971735 0.999955 0.99969226 0.9998052
000380 8c fa 7f 3f bd fb 7f 3f 07 eb 7f 3f f1 ff 7f 3f
       0.9999168 0.999935 0.99968 0.9999991
000390 21 00 80 3f 45 eb 7f 3f cb f9 7f 3f a4 f9 7f 3f
       1.0000039 0.9996837 0.9999053 0.99990296
0003a0 c7 ff 7f 3f 06 f4 7f 3f f7 ff 7f 3f 27 fa 7f 3f
       0.9999966 0.99981725 0.99999946 0.9999108
0003b0 0c 00 80 3f 98 01 80 3f 1e 00 80 3f 73 ec 7f 3f
       1.0000014 1.0000486 1.0000036 0.9997017
0003c0 b6 ef 7f 3f 8b 00 80 3f 34 dd 7f 3f 04 cc 7f 3f
       0.99975145 1.0000166 0.99946904 0.9992068
0003d0 88 e9 7f 3f fb f5 7f 3f 89 f1 7f 3f c2 00 80 3f
       0.99965715 0.9998471 0.9997793 1.0000231
0003e0 d6 ff 7f 3f 03 04 80 3f e1 e8 7f 3f 32 dc 7f 3f
       0.9999975 1.0001224 0.9996472 0.99945366
0003f0 2f fb 7f 3f 46 f7 7f 3f df fd 7f 3f 92 e9 7f 3f
       0.9999265 0.99986684 0.9999675 0.99965775

li2.1.bias f4 [512]
000000 df 4d 27 b9 ee 23 47 39 ea c5 e5 38 a6 70 66 38
       -0.0001595537 0.00018991504 0.00010956435 5.4941185e-05
000010 6b 45 47 39 5b 2b e2 b5 1a e7 82 b9 47 35 ae b7
       0.00019003979 -1.685093e-06 -0.00024967716 -2.0767226e-05
000020 19 7c 06 39 a9 2a 75 39 e1 48 78 b9 b5 1e 00 3a
       0.00012825466 0.00023380913 -0.00023678273 0.0004887388
000030 8a cd 2e ba a8 a5 a1 3a 97 46 1a b9 61 98 a9 b8
       -0.0006668201 0.0012332695 -0.00014712881 -8.086931e-05
000040 a9 0b 34 3a 8d 49 81 b8 50 b4 ca b8 f8 05 10 b9
       0.00068681926 -6.164899e-05 -9.6656964e-05 -0.00013735134
000050 16 4f be 39 3e e0 4d ba aa 6a 07 ba cd 65 76 3a
       0.00036298548 -0.0007853544 -0.00051657355 0.0009399325
000060 00 b4 a2 38 11 44 68 b9 2b 0f 17 b9 17 01 8f b7
       7.7582896e-05 -0.00022150601 -0.00014406133 -1.7047436e-05
000070 ba 89 d6 b8 45 47 e5 b6 e9 57 06 ba dd 2b c5 38
       -0.00010229969 -6.8330287e-06 -0.0005124794 9.401862e-05
000080 20 f9 b8 b8 1e ad af b9 e8 1d ec b7 c5 a4 c4 b8
       -8.820207e-05 -0.00033507583 -2.8147319e-05 -9.376699e-05
000090 f3 17 71 b9 c9 ec 1f b8 41 67 a6 ba 75 b1 23 ba
       -0.00022992473 -3.8129077e-05 -0.0012695567 -0.00062443997
0000a0 66 d3 26 39 97 64 0c 3a f1 e2 61 b9 39 39 74 b9
       0.00015909746 0.0005355565 -0.00021542214 -0.0002329097
0000b0 04 67 28 3a 05 5b 0b 39 06 2b 18 b9 87 3c b5 b8
       0.0006424042 0.0001328998 -0.00014511877 -8.642027e-05
0000c0 62 ca cd 38 91 22 e2 b7 c0 24 e7 39 10 95 8f b8
       9.8128585e-05 -2.6957396e-05 0.00044087134 -6.8465364e-05
0000d0 33 0d a4 39 cf 1b 2a b7 1a aa 84 ba 7b 53 e3 38
       0.00031290352 -1.0139264e-05 -0.0010121495 0.00010839753
0000e0 a4 d2 62 3a d5 c3 06 b8 3e 47 23 37 87 c2 8a b9
       0.0008652604 -3.2130472e-05 9.7321445e-06 -0.00026466345
0000f0 a5 6d 72 38 bf f5 2e 3a 7e b1 b7 b7 fd a8 9b 39
       5.779941e-05 0.0006674192 -2.1897951e-05 0.0002968981
000100 a5 31 c6 b8 6b 64 2d b9 31 c0 3c 39 3f dc 1b ba
       -9.450623e-05 -0.00016535974 0.00018000674 -0.00059456
000110 4c fc 10 ba a5 bd 20 ba 36 63 fb b9 15 aa c1 3a
       -0.0005530759 -0.0006131775 -0.0004794837 0.001477542
000120 57 04 90 ba b7 46 6a 39 a8 c4 41 b7 04 a9 4c ba
       -0.0010987621 0.00022342322 -1.1549484e-05 -0.0007807168
000130 b2 f4 ba 38 21 71 61 b9 d5 76 e3 37 46 ff 8a 38
       8.914749e-05 -0.00021499816 2.7115844e-05 6.627901e-05
000140 60 2c 95 b9 6e fb 80 ba cd 15 33 b8 c0 e8 d8 34
       -0.00028452557 -0.0009840557 -4.269723e-05 4.0402483e-07
000150 34 86 0b 39 0a b6 21 39 0f 85 72 b8 c9 47 2d b8
       0.00013306068 0.00015421971 -5.7821217e-05 -4.131327e-05
000160 5a b8 66 b8 3c 58 27 ba 2c 40 33 b8 53 ac 26 39
       -5.5007964e-05 -0.00063836924 -4.273669e-05 0.0001589519
000170 9a 10 a6 b8 5d 03 e5 36 b1 f5 76 38 3e 95 93 b7
       -7.918589e-05 6.8251234e-06 5.887979e-05 -1.7593262e-05
000180 30 7a ea b8 93 99 aa 38 70 fd 72 3a d1 f6 e6 38
       -0.00011180749 8.134837e-05 0.00092693325 0.00011013228
000190 62 69 48 3a 5e 92 98 b8 4c cd 21 38 c5 bc e0 b7
       0.0007645098 -7.275188e-05 3.857659e-05 -2.6790784e-05
0001a0 56 61 8f b6 9e 48 ca 38 84 14 01 b9 3a d1 77 ba
       -4.2730635e-06 9.6456366e-05 -0.00012310041 -0.00094534794
0001b0 73 84 2b 39 5c 9b 96 39 85 b5 5c b8 90 09 38 38
       0.00016357172 0.0002872598 -5.262114e-05 4.3877924e-05
0001c0 1b df b2 b9 f8 49 18 b9 59 5a 11 b9 6b ae 8a 3a
       -0.00034117032 -0.00014523405 -0.00013861935 0.0010580545
0001d0 c0 6a 01 3a 1b 55 17 37 93 2e ff b8 cb 42 d6 b8
       0.00049368665 9.0201165e-06 -0.00012168023 -0.00010216756
0001e0 4d 73 de 38 ee e2 ab 39 a8 bf 31 ba 72 59 f1 b6
       0.00010607261 0.00032784737 -0.0006780573 -7.1927725e-06
0001f0 14 80 8c 38 4e cc 8a 38 81 0f ad 38 00 50 91 3a
       6.6995766e-05 6.6184075e-05 8.252171e-05 0.0011086464
000200 5e d2 a3 b8 22 ed 20 b8 9a f5 e8 b9 8c 47 49 b6
       -7.8116296e-05 -3.836782e-05 -0.00044433476 -2.999298e-06
000210 36 21 d2 b8 82 52 01 39 8d 5f 3f b9 5c 9f 35 bb
       -0.00010019766 0.00012333135 -0.00018250775 -0.0027713394
000220 05 9b c5 b9 a4 1e 4e 39 81 99 2b ba 59 b3 28 3b
       -0.00037690267 0.00019657105 -0.0006546006 0.0025741665
000230 4b 34 e5 b8 31 22 69 b9 54 f1 28 ba d0 17 1d b9
       -0.00010929311 -0.00022233349 -0.0006444652 -0.00014981558
000240 c9 c6 1b b8 85 d4 67 b9 bd fa b7 b5 2f 06 e0 b8
       -3.7140013e-05 -0.00022109046 -1.3707537e-06 -0.00010682304
000250 bd 4b 8b b9 d9 74 a8 b7 16 df 5b ba 97 15 5f b8
       -0.00026568575 -2.0081572e-05 -0.00083874294 -5.318745e-05
000260 ac 73 9b b9 3d 52 7b 37 57 0a 79 b9 e6 c4 d7 36
       -0.00029650086 1.4979913e-05 -0.00023750342 6.4304213e-06
000270 bd 10 f1 b9 4c 1b 40 39 88 46 de 39 eb 82 62 39
       -0.00045979573 0.00018320716 0.0004239569 0.0002160181
000280 e0 4b 16 39 a4 a9 ea b8 38 0f 29 37 80 f8 6b b8
       0.0001433338 -0.000111895875 1.0076728e-05 -5.62598e-05
000290 58 94 16 b9 0c d0 fc b9 41 e4 b7 39 8d 3d d6 b8
       -0.00014360377 -0.00048220193 0.00035074542 -0.0001021578
0002a0 5b 00 e5 b8 97 e5 bf b9 30 19 55 ba 08 b2 90 b8
       -0.00010919637 -0.00036601417 -0.00081290584 -6.899616e-05
0002b0 7a a0 35 3a cf 9f 89 ba 62 b4 9b ba eb 20 5c 39
       0.0006928515 -0.0010499897 -0.001187932 0.00020993098
0002c0 34 3e 5a ba 04 90 2f b8 1e 55 5b b9 80 df db 38
       -0.0008325309 -4.1857376e-05 -0.00020917176 0.00010484364
0002d0 5c 8f 3d b9 cb 8b 99 b8 11 59 a9 39 af 72 d7 3a
       -0.0001807785 -7.321647e-05 0.00032300552 0.0016437377
0002e0 65 17 03 3a f0 9b b6 b7 3e 1d 4b b9 7d 19 34 39
       0.00050007395 -2.1768705e-05 -0.00019370482 0.00017175633
0002f0 4c b5 2b 3a dd 33 a3 38 cb 14 26 b8 24 41 b8 b6
       0.00065501477 7.782106e-05 -3.959685e-05 -5.4912107e-06
000300 44 d4 e2 36 6c c0 b8 3a 9a f2 35 b9 11 b0 18 b8
       6.760036e-06 0.0014095432 -0.00017351881 -3.64036e-05
000310 31 f0 08 ba fc 0b 34 b8 5b 08 c4 b6 88 81 72 ba
       -0.00052237796 -4.2926506e-05 -5.842228e-06 -0.0009250869
000320 8a 2d d7 b8 be 9d da 39 9f 3c e5 ba fa 8f 2d b9
       -0.00010260481 0.00041697727 -0.001748938 -0.00016552201
000330 36 21 81 39 00 90 bd b9 b4 22 e2 39 83 20 43 b9
       0.0002462954 -0.00036156178 0.00043131935 -0.00018608761
000340 9d f8 0a 38 21 16 ab 39 57 10 9a 38 60 c1 01 b9
       3.3133303e-05 0.0003263215 7.346336e-05 -0.00012374436
000350 90 56 92 b9 fc 0a 06 b7 9b 86 06 38 af 9a bc 38
       -0.00027911784 -7.98958e-06 3.207345e-05 8.993351e-05
000360 15 0c 0f b9 9b 47 6d b9 d9 b6 44 ba 9c 58 0d b8
       -0.00013642044 -0.00022628756 -0.0007504053 -3.3699544e-05
000370 ff 74 7f b9 d2 de fe 39 46 5f 01 bb 6a 43 1c b9
       -0.0002436228 0.0004861267 -0.0019740625 -0.00014902433
000380 81 b3 6f b8 eb 55 10 ba 69 df fb 3a ee 95 a7 b9
       -5.7149216e-05 -0.0005505967 0.0019216362 -0.00031964428
000390 3f 62 55 b8 d0 83 a5 b9 1c ca 11 b8 86 97 af b8
       -5.0874656e-05 -0.0003156946 -3.4758923e-05 -8.372874e-05
0003a0 39 e4 ca b5 64 c7 f8 3a dc 8f 91 37 1f 5b 60 b9
       -1.5116594e-06 0.0018980321 1.7352337e-05 -0.0002139625
0003b0 cd 35 2f 39 a6 b9 bd 39 9b 82 ff b8 a8 f8 9a b8
       0.00016709343 0.00036187208 -0.00012183675 -7.389608e-05
0003c0 c3 d9 ad 38 db 87 1c b9 91 a0 ae b9 61 79 ee 3a
       8.289844e-05 -0.0001492793 -0.00033307498 0.0018194133
0003d0 85 d9 30 37 47 c6 66 3a 20 52 8f b9 bb c3 6c b9
       1.0541063e-05 0.00088033493 -0.00027336273 -0.00022579629
0003e0 92 29 18 b7 9c a5 60 39 67 4c 1d b9 8d 9b 9c b9
       -9.069585e-06 0.00021423999 -0.00015001149 -0.00029870533
0003f0 35 e1 e6 b9 96 90 d5 b9 b0 40 94 b9 d5 58 b4 b9
       -0.0004403681 -0.0004073425 -0.00028276956 -0.0003439846

li2.1.running_mean f4 [512]
000000 9f 32 9a be fd d9 fa bd 6a 72 ad be 9a e1 8b 3e
       -0.30116746 -0.12248609 -0.33876354 0.27320558
000010 83 fc 10 3f 3b 8e a5 3e 44 aa d2 3e 28 fa 34 be
       0.566353 0.32335076 0.41145527 -0.17673552
000020 09 b1 0b 3e 74 66 1a bd 8e 9e 88 be 19 e7 6d be
       0.13641752 -0.037695363 -0.26683468 -0.23232688
000030 c8 8f 16 be 93 3f 4a be b1 37 88 3c 57 32 f8 bd
       -0.14703286 -0.19750814 0.016628118 -0.121189766
000040 d8 e6 d5 3e 3e 8e ba bd 31 c0 5d 3e 92 8c 92 bc
       0.41777682 -0.09109162 0.21655346 -0.017889295
000050 39 fb 6f bd 7d 54 0b be ae 83 b2 3d b1 22 47 be
       -0.058589194 -0.13606448 0.08716522 -0.19446827
000060 a7 04 08 be 55 b0 d4 3e 99 c8 86 bd 23 64 2e ba
       -0.13283025 0.4154078 -0.0658123 -0.0006652495
000070 12 27 ba 3e c0 c2 03 be 76 91 91 bd ea 0a b9 be
       0.36357933 -0.1286726 -0.071078226 -0.3614114
000080 b0 79 7f be fd 14 f1 bd 63 91 8b bd de 44 8c 3a
       -0.24948764 -0.11771581 -0.0681484 0.0010701676
000090 83 57 45 3e 86 95 87 be 0e 8d bf be 31 27 b4 3e
       0.19271664 -0.26481265 -0.37412304 0.3518615
0000a0 e8 e4 b3 be df b2 04 3f b7 f5 bd 3b 71 2a 8b bc
       -0.3513558 0.51835436 0.0057971138 -0.016988011
0000b0 cc f8 fb 3d 35 94 30 be 45 65 09 be cb 2a 05 3e
       0.123033136 -0.17244036 -0.13417538 0.13004605
0000c0 ec d0 8a bd b0 7f 7b be 5e d5 57 3e ce d6 29 3e
       -0.0677813 -0.24560428 0.21077487 0.16585848
0000d0 0a 8c 1b bd 53 bf ce 3d e8 b6 93 3e e6 73 14 bb
       -0.03797535 0.10095086 0.28850484 -0.0022652089
0000e0 16 45 58 bd 33 0a 99 3d 8a 9f eb bc 21 97 b7 3d
       -0.05280026 0.074726485 -0.028762598 0.089643724
0000f0 5b 2a 5d be 02 2c a8 3e b9 6b 3f be 70 18 02 3d
       -0.21598189 0.32846075 -0.18693437 0.031761587
000100 22 6f 2f 3d a1 c1 8d 3e 92 8b 70 3d e1 ad a7 be
       0.042830594 0.2768679 0.058726855 -0.32749847
000110 79 57 0d be 68 06 aa 3e 0b 68 18 3f b3 ac 04 3f
       -0.138029 0.33208013 0.59533757 0.5182602
000120 ad f3 2a 3e cf 6f 70 be 39 c2 28 3e 3b 4f e8 bd
       0.16694517 -0.23480152 0.1648034 -0.11343237
000130 c9 60 16 bf aa a5 4b 3d 8c d3 e6 3d 27 b8 27 be
       -0.5874143 0.049718536 0.11270818 -0.16378842
000140 30 0c 12 3e a8 3c b3 be 75 a7 88 3e 2e 6c 56 ba
       0.14262462 -0.35007215 0.2669026 -0.0008179572
000150 24 b1 c7 3d e2 e2 5b be 60 38 ea 3c 25 d8 d2 3d
       0.09750584 -0.21473268 0.028591335 0.102951325
000160 4a 8c a5 bd 07 c1 84 be b6 e5 57 3e 9a 85 0a 3d
       -0.08083399 -0.25928518 0.21083722 0.03381882
000170 e8 08 89 3e 3e ee 73 be aa 79 bd 3d 4a 41 83 3e
       0.26764607 -0.23821351 0.09251721 0.2563575
000180 c7 1d 49 be 98 72 a6 3e 27 bb 5a 3e f2 90 99 3e
       -0.19640265 0.32509303 0.21360455 0.29993397
000190 dc f5 29 3e aa 45 94 be e5 fb 7e bd 73 54 2e 3c
       0.16597694 -0.289594 -0.062251944 0.010640251
0001a0 51 f2 4d 3e 5d e1 42 bd 2c 2a 97 be db 91 83 be
       0.20111968 -0.047578204 -0.29524362 -0.25697216
0001b0 f2 67 15 3c 09 f4 90 3e 66 d5 8b be bc 47 ac be
       0.009119021 0.28311184 -0.27311248 -0.3364848
0001c0 9f 0e b2 3d 16 8f 2b be bf b1 cf be 80 67 1c be
       0.08694195 -0.16753802 -0.40565297 -0.15273857
0001d0 16 c3 04 3d 1d d4 9b bd 59 93 28 3d 57 60 82 3d
       0.03241261 -0.07608817 0.041156147 0.063660316
0001e0 fc 64 b3 be 5c 23 80 3d 8f 2d b0 bc ad 86 f4 3d
       -0.35037982 0.06256744 -0.021506099 0.1193975
0001f0 02 4c b9 bd 38 b4 02 be 11 95 81 3c 8e 8f 30 bd
       -0.090477005 -0.1276406 0.01581815 -0.043105654
000200 fe ed ba be 4f 7d d8 bd 6a 45 a2 3c 51 d6 3c be
       -0.365097 -0.10570776 0.01980849 -0.1844113
000210 ea 20 b0 3e 30 14 de 3c 65 e3 8a bd 1c 94 a9 be
       0.3440011 0.027109236 -0.06781653 -0.3312081
000220 49 13 32 3e 02 8d 26 3d 5f 37 0b be b2 ed 6d 3d
       0.17390169 0.04066182 -0.13595341 0.058088012
000230 61 38 e3 3d e8 2e 91 3d 1a 58 39 be 15 ce 70 be
       0.11094738 0.07089025 -0.18100014 -0.23516114
000240 c9 ed 85 3e 41 8e 09 3e 9c 04 01 be b5 0f de 3e
       0.26157978 0.13433172 -0.12599415 0.4337136
000250 cf d0 70 be 8b 17 ef 3d 20 8b be 3e 0a b1 a9 3e
       -0.23517154 0.11674412 0.3721552 0.33142883
000260 d8 f0 83 3e 85 64 21 3e c1 2e 20 3e 71 fb 97 3d
       0.25769687 0.15761001 0.15642835 0.074210055
000270 77 24 06 bf 6c 03 fe 3e f1 ea 60 be e1 b3 52 be
       -0.5239939 0.49611986 -0.21964623 -0.20576431
000280 2c de 6a be 4e e2 a0 3d 59 c5 ad be 45 0c b9 bd
       -0.22936314 0.07855664 -0.33939627 -0.09035543
000290 e8 db 7d 3e 6c 18 0c bd 80 cb 70 3e c8 b5 06 3e
       0.24790919 -0.034202978 0.23515129 0.13155282
0002a0 89 cd e7 bc 23 c8 0e be 4d c7 ed bb 5b 87 b8 3d
       -0.028296249 -0.13943534 -0.0072564245 0.09010192
0002b0 18 0d b3 3e ab 43 a1 be 3e 10 e1 3e 5c da 95 bd
       0.34970927 -0.3149694 0.43957704 -0.07317039
0002c0 ed 8b 81 bd e5 8d f3 bb 00 f5 04 bd fa e5 42 bd
       -0.06325517 -0.0074326866 -0.032460213 -0.047582604
0002d0 f2 ef 57 3d 62 1e aa ba 3f bf e5 3e 94 9b 65 3e
       0.052719064 -0.0012979025 0.44872472 0.2242263
0002e0 43 4b 63 be 20 17 5e be 69 12 8d bd d8 84 68 3d
       -0.22196679 -0.21688509 -0.06888277 0.056767315
0002f0 ab 64 81 bd 18 77 46 be aa 73 d9 3d 8f 8f fb bc
       -0.06318029 -0.19381368 0.10617764 -0.030708103
000300 62 70 b4 be c2 b2 1d be ca b2 5a be 03 09 8f 3d
       -0.3524199 -0.15400222 -0.21357265 0.06984141
000310 b5 c8 b2 3e 17 96 b4 be bf c5 dd ba f1 1f 21 3e
       0.34918752 -0.3527076 -0.0016919895 0.15734841
000320 b7 e5 1b 3e af e6 fb 3e 62 a9 82 3e 1d a4 91 3d
       0.15224348 0.49199435 0.25519854 0.0711138
000330 c6 fa 90 3d 71 83 9e bd 7f f0 f6 bd 6c 36 89 3e
       0.07079081 -0.07739914 -0.1205759 0.26799333
000340 0f 08 85 be 3b de 05 3d d9 e3 60 be 5a 64 99 bc
       -0.2598271 0.03268264 -0.21961917 -0.01872461
000350 c7 4d 8a be 5b 14 06 3e 0c 2f 77 be 3d e9 97 be
       -0.27012464 0.13093702 -0.2413904 -0.29670134
000360 d5 f2 08 3e 21 3f 1d 3e 2a b7 8b 3e 41 46 b9 bd
       0.13373883 0.15356113 0.2728818 -0.09046603
000370 a4 39 58 3d 8b 3c 3a 3e 75 06 4b 3e 2d 6b 1f 3e
       0.052789345 0.18187158 0.19826682 0.15568228
000380 af c2 1c bd a9 5f 0a 3e d5 18 18 be a3 e8 30 3d
       -0.038271602 0.13513054 -0.14853223 0.04319061
000390 e2 b0 9e be 09 fe 7b be f8 3c be 3e 76 da 91 be
       -0.30994326 -0.24608625 0.3715589 -0.28486985
0003a0 3c 9b eb be d4 0a 8c 3e 44 d7 25 3e 3b 55 f5 be
       -0.46016872 0.2735201 0.16195399 -0.47916588
0003b0 83 a0 6a 3c 29 72 53 bc fa f3 6d 3e 9d 46 10 be
       0.014320496 -0.012905636 0.23237601 -0.14089437
0003c0 28 ec 59 bc 1f 61 cb 3d 3b 0e dc 3e 6f f1 3f bf
       -0.013300933 0.09930634 0.42979607 -0.74977773
0003d0 95 1b 97 3c f2 f4 5b be f4 92 77 3d b6 4a 93 be
       0.01844577 -0.21480158 0.06044288 -0.28767937
0003e0 82 08 d5 3d 39 46 5f be 0f 50 04 3e 7e c5 9f bd
       0.10402013 -0.21804132 0.12921165 -0.078013405
0003f0 91 4b 4b 3e ad dc cc be 32 33 50 be 12 b4 39 3e
       0.19853045 -0.40012112 -0.2033203 0.18135098

li2.1.running_var f4 [512]
000000 f2 71 1d 3d fb 11 0a 3d 6d 65 02 3d d8 6b 38 3d
       0.038438745 0.033708554 0.03183501 0.045024723
000010 d2 c9 23 3d 4d 4c 2e 3d 9b b3 60 3d 78 b0 21 3d
       0.039987393 0.042553235 0.054858785 0.039474934
000020 0a d2 12 3d ea dc 09 3d fc ab 2d 3d 49 db e1 3c
       0.03584484 0.033657946 0.042400345 0.027570384
000030 43 b3 13 3d 47 22 27 3d b7 cd 0b 3d b6 e5 08 3d
       0.03605963 0.040804174 0.03413173 0.033422194
000040 4a fb 56 3d 7d 25 f3 3c 37 d6 0f 3d b1 9b 02 3d
       0.05248574 0.029680962 0.0351164 0.03188676
000050 33 8f 25 3d b6 37 15 3d 2b df 0b 3d f1 55 12 3d
       0.04041977 0.036430083 0.034148376 0.03572649
000060 b9 af 1e 3d 86 f7 0f 3d c6 ad 22 3d 8d 6a 0f 3d
       0.0387418 0.035148166 0.039716505 0.035013724
000070 22 f0 1d 3d 16 02 0c 3d 28 15 22 3d df f6 32 3d
       0.038559087 0.034181677 0.039570957 0.043692466
000080 b0 2c 19 3d 82 3a 0e 3d e2 76 10 3d 6c 20 fe 3c
       0.037396133 0.034723766 0.035269625 0.03102132
000090 81 48 1f 3d 7d 0c 25 3d 5f dd 3e 3d 47 61 1f 3d
       0.038887504 0.040295113 0.046597835 0.03891113
0000a0 18 d2 4f 3d 7e 95 2d 3d d4 6f f1 3c 82 d2 0f 3d
       0.05073747 0.042378895 0.02947227 0.035112865
0000b0 e1 70 1f 3d 3e 5f 00 3d f1 d9 25 3d 14 33 0d 3d
       0.03892601 0.03134083 0.04049105 0.03447254
0000c0 f8 c8 e4 3c f8 1e 25 3d e8 c4 15 3d ea 75 0b 3d
       0.02792786 0.040312737 0.036564738 0.034048
0000d0 43 7e 05 3d ab b6 1d 3d 91 c0 37 3d eb 77 19 3d
       0.032591116 0.038504284 0.04486138 0.03746788
0000e0 d9 cf 0d 3d 4b 14 1e 3d 6e de 03 3d dd cb 21 3d
       0.034622047 0.03859357 0.032194547 0.03950106
0000f0 98 df 0f 3d c8 c8 28 3d a3 5b 15 3d 81 55 2b 3d
       0.035125345 0.041207105 0.036464345 0.04182959
000100 4d 49 07 3d b2 3c 1a 3d 1d 83 2a 3d f8 f5 0b 3d
       0.03302889 0.03765554 0.041628946 0.03417012
000110 8f 87 14 3d b5 88 4b 3d 39 b9 8c 3d 62 42 50 3d
       0.03626209 0.04969092 0.06871266 0.050844558
000120 aa 62 1a 3d a5 41 0f 3d 86 22 ef 3c 31 cb 0b 3d
       0.03769175 0.034974713 0.029191267 0.034129325
000130 ba 70 65 3d 20 a2 33 3d 52 e1 2d 3d 6b 41 03 3d
       0.056015708 0.043855786 0.04245121 0.03204481
000140 c8 b1 0f 3d 90 42 20 3d fc e6 25 3d 5a 0b f0 3c
       0.035081655 0.03912598 0.040503487 0.029302288
000150 50 e4 f8 3c a9 57 23 3d f0 6e e7 3c 79 ab 22 3d
       0.030382305 0.03987852 0.028251141 0.03971431
000160 de b3 15 3d 68 71 1d 3d 74 57 00 3d da 30 13 3d
       0.036548488 0.03843823 0.0313334 0.03593526
000170 ac 0b 26 3d d0 7f 1f 3d 4e 50 1a 3d 76 ab 1b 3d
       0.040538475 0.03894025 0.03767424 0.038005315
000180 69 04 09 3d 5d 8d 21 3d 9a f0 2d 3d 6c 77 0c 3d
       0.03345147 0.039441455 0.042465784 0.034293577
000190 b7 21 05 3d 32 38 1d 3d f8 98 fe 3c 79 cb 11 3d
       0.032502856 0.03838367 0.0310788 0.035594437
0001a0 74 64 25 3d 1a 7d fd 3c 55 e0 18 3d f0 d8 fd 3c
       0.040379003 0.030943442 0.037323315 0.030987233
0001b0 b8 20 0c 3d f2 7c 3b 3d 4b 62 25 3d a8 b7 14 3d
       0.03421089 0.045773454 0.040376943 0.03630796
0001c0 46 3e ee 3c a7 cf f6 3c 92 19 23 3d f2 d9 37 3d
       0.029082429 0.030128313 0.039819308 0.044885583
0001d0 ca 0a fc 3c fc 04 09 3d 99 d2 0c 3d 80 82 12 3d
       0.030766863 0.03345202 0.03438053 0.035768986
0001e0 e2 7a 2e 3d d3 1b 1b 3d 35 02 06 3d e9 f7 10 3d
       0.04259766 0.037868332 0.03271695 0.035392676
0001f0 e7 e5 31 3d d9 14 13 3d 7a f3 01 3d b6 8b 26 3d
       0.043432143 0.035908554 0.031726338 0.040660582
000200 2e bc 20 3d f5 64 00 3d 52 72 0c 3d b3 10 28 3d
       0.039241962 0.03134628 0.03428871 0.04103155
000210 fe 30 29 3d 6e 45 17 3d 08 8b 09 3d 8f 81 58 3d
       0.04130649 0.036931448 0.033579856 0.05285793
000220 3e 24 22 3d 45 6a 0f 3d 06 91 46 3d e7 eb 1c 3d
       0.039585344 0.035013456 0.04847815 0.03831091
000230 44 f3 25 3d 93 e4 09 3d a8 92 0c 3d d5 c4 10 3d
       0.0405152 0.03366525 0.03431955 0.035343964
000240 cd 42 21 3d 2d 62 05 3d cd 84 02 3d e8 9b 44 3d
       0.039370347 0.03256433 0.03186493 0.048000246
000250 19 2b fc 3c 35 6a 36 3d 36 11 3e 3d af ca 2f 3d
       0.03078227 0.04453488 0.046403132 0.042917904
000260 d2 94 23 3d dd 6b 27 3d a1 0d 20 3d 2e b1 0e 3d
       0.039936848 0.04087435 0.039075498 0.03483694
000270 15 ae 7c 3d 30 b7 66 3d 10 76 0c 3d f4 e4 3c 3d
       0.061689455 0.056327045 0.03429228 0.046116784
000280 7b 22 17 3d c3 1a 09 3d ee 6d 04 3d c9 88 04 3d
       0.036898118 0.033472788 0.0323314 0.03235701
000290 08 23 26 3d ae 7b fa 3c 7c a8 2e 3d d9 05 25 3d
       0.040560752 0.030576553 0.042641148 0.04028878
0002a0 4e 90 04 3d 32 cc 04 3d c6 8d 42 3d 79 e2 09 3d
       0.032364182 0.0324213 0.047498487 0.033663247
0002b0 be 0d 52 3d 9d fa 49 3d fb fd 2c 3d b3 11 1f 3d
       0.051282637 0.04931127 0.042234402 0.03883524
0002c0 90 8b dc 3c 69 16 e5 3c 59 47 14 3d 8a ee ff 3c
       0.026922017 0.027964788 0.036200855 0.031241674
0002d0 97 a6 06 3d a8 3d 21 3d 31 6a 67 3d 42 78 1d 3d
       0.032873716 0.03936544 0.056497756 0.038444765
0002e0 4a 99 23 3d 0b be 0d 3d 9a 7e 0d 3d 47 a5 ee 3c
       0.03994111 0.034605067 0.034544565 0.029131545
0002f0 b5 34 18 3d 84 87 17 3d 06 24 11 3d 42 68 26 3d
       0.03715964 0.036994472 0.035434745 0.04062677
000300 ac f6 2e 3d 33 3b 16 3d 34 3f 07 3d 9a ae 22 3d
       0.042715713 0.03667755 0.03301926 0.039717294
000310 65 56 3c 3d 46 7b 0c 3d 6c f4 f5 3c 72 3a 3a 3d
       0.04598083 0.03429725 0.030023776 0.045465894
000320 fa 2f 08 3d cc a1 3f 3d f2 5b 36 3d f3 89 2a 3d
       0.03324888 0.04678516 0.04452128 0.041635465
000330 39 7b f9 3c ef 31 17 3d 3e 17 16 3d c5 6b 1d 3d
       0.030454265 0.036912855 0.03664326 0.038432855
000340 c1 a2 2a 3d ea ca 11 3d 78 93 07 3d 99 03 10 3d
       0.04165912 0.035593905 0.03309962 0.03515968
000350 6f 16 26 3d 84 c2 0f 3d b1 0b 1d 3d 61 39 2d 3d
       0.040548738 0.035097614 0.038341228 0.04229105
000360 51 20 fb 3c 19 30 f3 3c 9f 15 2f 3d a2 5b 17 3d
       0.030655058 0.02968602 0.04274523 0.036952622
000370 81 9a df 3c 8a 5c 01 3d 5d 6b 14 3d 21 bd 23 3d
       0.027295353 0.031582393 0.036235202 0.03997529
000380 fb e0 05 3d 25 9f 44 3d c7 69 ee 3c 50 1c 1f 3d
       0.03268526 0.048003335 0.029103173 0.03884536
000390 90 53 29 3d ed ff 1f 3d 63 6b 36 3d fe bc 12 3d
       0.041339457 0.03906243 0.044536006 0.03582477
0003a0 45 3b 3b 3d 4b 46 3d 3d 93 e4 0f 3d 2f ba 56 3d
       0.04571082 0.046209615 0.035130095 0.052423652
0003b0 a5 01 22 3d d9 1b 13 3d cc 31 2c 3d 2f a1 06 3d
       0.03955235 0.03591523 0.042039678 0.03286856
0003c0 45 2a 13 3d 25 97 22 3d cc 43 35 3d 9b 47 80 3d
       0.035928983 0.039694924 0.04425411 0.06263658
0003d0 07 1a 29 3d 18 c0 29 3d 1f f9 0f 3d b6 b8 32 3d
       0.041284587 0.04144296 0.03514969 0.043633185
0003e0 ff db 0a 3d 1a 8b d7 3c 02 ef 2c 3d 51 ff 14 3d
       0.03390121 0.026311446 0.042220123 0.0363763
0003f0 41 2a 08 3d 36 68 37 3d 3f 3f 0b 3d 63 20 1a 3d
       0.03324342 0.044777118 0.033995863 0.037628543

li2.3.weight f4 [1, 512]
000000 c4 62 d5 3b fc b5 ae bc 78 2d 97 bc 7d 2b ae 3c
       0.006512018 -0.021327011 -0.018454298 0.021260971
000010 47 f4 9c 3b ce 30 5f 3b 70 54 c9 bb 9e a5 7f 3a
       0.0047898623 0.003405619 -0.006144099 0.0009752157
000020 5f e3 9d bc 79 a0 5a bc 95 36 7f 3b 79 6a 00 bd
       -0.019273458 -0.013343924 0.0038942446 -0.03135154
000030 e0 e8 f3 bc 6e 0c fa bc 77 f7 9e bc 5f c5 db 3a
       -0.02977413 -0.030523505 -0.01940511 0.0016767195
000040 a4 b6 09 3d 26 aa 23 bc b1 b1 16 3c ef 54 06 3d
       0.033621445 -0.009989297 0.009197638 0.032795843
000050 6e ac 16 3d 48 8d 80 3c e5 f2 4a bc 0c 95 e9 bc
       0.036785536 0.015692368 -0.012387012 -0.028513454
000060 8d c2 4c 3c 90 84 4c bc 26 d0 f8 3b 84 82 99 3c
       0.012497556 -0.012482777 0.0075931726 0.018738993
000070 7d 2a 4c 39 63 16 45 3b 74 82 8c bc 97 71 3c bb
       0.00019470784 0.0030073158 -0.017152049 -0.0028754228
000080 db 38 da bb c9 87 d6 3c 18 26 cd 3b 13 96 89 3b
       -0.0066596097 0.026187794 0.0062606446 0.0041987984
000090 62 95 19 bd 77 82 d3 bc f4 4a e7 3c 97 7c 60 bc
       -0.03749598 -0.025819046 0.028233983 -0.0137015795
0000a0 76 b7 d1 3b 54 45 c6 3c eb c1 2f bc dd d0 86 bb
       0.006400044 0.02420298 -0.010727386 -0.004114254
0000b0 a3 4a 2c bd eb 82 0e 3d 22 5a c9 3c 36 67 9a bb
       -0.042063367 0.03479282 0.024579111 -0.0047120107
0000c0 44 b2 32 3c a9 f5 a5 bc a3 d9 f0 3c c8 fe 3d 3c
       0.01090676 -0.020258741 0.029400652 0.011596389
0000d0 73 1a 77 3c 9b 60 b9 ba 59 45 d0 3c a0 b1 b5 3c
       0.01508199 -0.001414317 0.025423693 0.022179425
0000e0 4b e3 be bc 21 e2 59 bb 4b f3 bc 3b 4a 9d 36 3b
       -0.023301741 -0.0033246356 0.0057663075 0.0027864748
0000f0 8b 48 e7 bb 2d 9b 22 bd 44 a2 60 b9 22 04 11 3c
       -0.0070582083 -0.03969877 -0.00021422753 0.008851083
000100 e0 2d 8c bc 2a eb 6a bc 4c d0 84 bc 8e 57 b5 3c
       -0.017111719 -0.014338294 -0.016212605 0.022136476
000110 f6 03 e7 3c 08 fd 71 bc c2 a0 f9 3a a5 77 c3 3c
       0.02820013 -0.0147698 0.0019045102 0.023860762
000120 34 02 cc bc 46 df 44 bb 25 a8 f9 bc e0 47 e2 bc
       -0.024903394 -0.0030040308 -0.030475685 -0.027622163
000130 22 2a a8 3b e3 36 34 bc b0 91 5c bc 6a 94 cd 3c
       0.0051319757 -0.010999414 -0.013462469 0.025095183
000140 c0 b2 2d bc cc 45 a7 3c cc 86 c2 bc 3e 50 c0 bc
       -0.010601699 0.020419024 -0.023745917 -0.023475762
000150 89 f6 14 bc a4 6d ad bc f9 4f cb bb 9e 76 00 3c
       -0.009091982 -0.021170445 -0.006204602 0.007840781
000160 ff 79 58 bc b9 ad d5 3c 83 b6 06 3c ee 0b 69 3a
       -0.01321268 0.026083814 0.008222225 0.0008890022
000170 5c 4e 0c bc 24 0c 9a 3b e3 8d 62 3b 08 92 86 ba
       -0.008563604 0.0047011543 0.0034569434 -0.0010266909
000180 d2 30 c9 3b f4 6a 30 bd 81 fc 9c 3c 85 80 0b 3c
       0.006139853 -0.04307075 0.019163372 0.008514528
000190 c0 92 00 bd 41 3c 96 3b 2a 93 68 bc 1d df 43 3c
       -0.03138995 0.0045848195 -0.014195243 0.01195505
0001a0 60 82 d2 ba c1 d8 ac bc 80 98 a9 3b ac 5c 8f 3c
       -0.0016060583 -0.02109945 0.00517565 0.017500244
0001b0 36 a6 ed bc e6 71 ba 3c 12 68 03 3c 4e e5 c2 b9
       -0.02900992 0.02275939 0.008020418 -0.0003717341
0001c0 1f 15 96 3c c2 58 86 3c 05 a5 27 3c d2 e8 8e bc
       0.018320618 0.016399745 0.010232215 -0.017445002
0001d0 00 2e 1a bd 1c ad 82 bc 79 8a 85 bc 23 82 ea 3c
       -0.037641525 -0.015951686 -0.01630138 0.028626507
0001e0 32 73 00 bc c7 ed 91 bc c6 db 8b 3c 8c 56 94 3c
       -0.007839965 -0.017813576 0.01707257 0.018107675
0001f0 77 c2 28 3c bc a8 ce 3b 95 dc 86 3c 33 39 a6 bc
       0.01030027 0.006306736 0.016462604 -0.020290947
000200 cd 4f eb bc 60 9c 67 ba 01 d9 b4 3c 81 31 dc 3b
       -0.028724575 -0.00088352524 0.022076132 0.0067197685
000210 f2 24 b8 bc 1a 07 b3 bc 56 cd be 3c fb ef 04 3d
       -0.022478554 -0.021853972 0.023291271 0.032455426
000220 8b c2 c5 bc bd 5e 24 bc 69 32 70 3c ae c1 10 3d
       -0.024140617 -0.010032353 0.014660456 0.035340957
000230 12 15 fe bc 46 05 b9 3c 04 a3 ee 3c 21 ec b2 3c
       -0.031015906 0.022585522 0.029130466 0.02184111
000240 c2 5b cf bc a9 65 1e 3c ce 34 09 bb c9 85 f5 bb
       -0.025312308 0.009667792 -0.0020936015 -0.007492755
000250 e0 dd ac 3c fd 07 95 3a 19 c8 fd 39 5a 65 d9 bb
       0.021101892 0.0011370179 0.00048405005 -0.0066343965
000260 71 5c 9b 3c 57 bd 18 bc 01 ef 3c 3c b2 ae 9b 3c
       0.018964978 -0.009322486 0.011531592 0.0190042
000270 bb 1a 5e 3c 46 a7 ae 39 cf d6 ea bc da 89 e8 bc
       0.013556178 0.00033312495 -0.028666882 -0.028386045
000280 74 4f 46 bc a3 ad bc bc 5f 78 79 3c 69 34 43 3b
       -0.012103904 -0.023032015 0.015226453 0.0029785878
000290 91 5d 32 bc e3 1f a8 bc 44 fd 62 3c 3d 51 79 3c
       -0.010886566 -0.020523017 0.013854329 0.015217123
0002a0 17 d5 3c bc 99 ba 0c bc 0a 2e da 3c de 2f 66 3b
       -0.011525414 -0.00858941 0.026633281 0.0035123746
0002b0 02 9a 73 3c 33 d1 5f 3c 4b 81 d5 bc 20 b2 07 3d
       0.014868261 0.013660717 -0.026062628 0.033128858
0002c0 df 99 d3 bc 72 0d 9f bc e5 59 34 3c 29 a0 a5 bc
       -0.025830207 -0.01941559 0.011007761 -0.020217972
0002d0 8c eb 50 bc 10 0d 43 3c 1c 1a 72 3c dd 49 e7 3c
       -0.012751471 0.01190497 0.014776733 0.028233463
0002e0 41 6f 70 bc b1 4a 86 3a 38 60 8e 3c 53 4c 1a bd
       -0.0146749625 0.0010245648 0.017379865 -0.037670445
0002f0 d7 38 d7 bc 2a 1e 89 3c 84 0d 28 bc f7 29 b8 bb
       -0.02627222 0.016738016 -0.010257129 -0.005620237
000300 c0 25 14 3c 96 39 a6 bc 42 d8 e9 3c 5d d4 bb bb
       0.009042203 -0.020291131 0.028545503 -0.005732103
000310 36 08 22 bc 55 a8 9a 3c 11 cb 12 3b 33 01 54 bc
       -0.009889653 0.018879095 0.002239887 -0.012939739
000320 ad b1 13 3c 7b 5d b2 3c e9 13 3e bc 63 03 42 bc
       0.009014529 0.02177309 -0.011601427 -0.011841628
000330 c1 03 50 3c 33 3c d3 3c 13 aa 0b bd 71 fb aa 3c
       0.0126962075 0.025785541 -0.034097742 0.02087185
000340 71 de 85 3b f0 8b fa bc 83 54 c1 bc 65 3e 75 3c
       0.004085355 -0.030584306 -0.023599869 0.014968489
000350 d1 a5 fd 3c b0 17 4c bb 7e 0b 90 3c 2b 7c 06 3d
       0.030962856 -0.0031142049 0.017583605 0.03283326
000360 62 64 c8 bc ab fa a0 3c 69 31 05 bd 7c 6c 7b bc
       -0.024461929 0.019650778 -0.032517824 -0.015345689
000370 13 09 b8 bc a4 b4 87 3c 8d a3 8d bc fd 00 4e 3c
       -0.022465264 0.016565628 -0.017289901 0.012573478
000380 c9 63 4f bc c5 9a c0 bc d0 94 ec bc 90 39 6b 3c
       -0.012658068 -0.0235113 -0.028879553 0.014356986
000390 c7 8e a9 3b 2f 52 a1 3c 11 23 91 3a 62 13 35 bb
       0.005174491 0.019692509 0.0011073073 -0.0027629961
0003a0 bd e8 9f 3a c2 b5 da 3c 67 0d a6 ba 1c d5 07 3c
       0.0012200099 0.026697997 -0.0012668789 0.008290555
0003b0 90 70 88 bc 86 59 31 bc 60 76 b2 bb 3c 55 a4 3c
       -0.016655236 -0.010824567 -0.0054462403 0.020060174
0003c0 8a 31 7f 3c 36 94 d9 3b 36 85 82 3c 07 2f 43 bc
       0.015575776 0.0066399826 0.01593266 -0.011913068
0003d0 3c d0 96 bc 04 f5 b8 bc a6 f5 c9 bb c0 63 14 3c
       -0.01840984 -0.02257777 -0.006163317 0.009056985
0003e0 15 60 23 bb 1b 85 b7 3c b2 ae a4 3c c3 94 b4 3c
       -0.0024929096 0.022402337 0.020102832 0.022043591
0003f0 0c d1 be bb b1 c6 ab 3c 45 2c 4e 3c 12 5d b2 bc
       -0.00582326 0.020968767 0.012583797 -0.021772895
