online/32_D1.pth (torch, 158283 bytes, 7 tensors)

li.0.weight f4 [512, 70]
00000000: 9551 533d 63ae ee3d 90a6 65bd 94d1 bebd
00000010: e7ec c83c d991 8a3a 8da2 71bd ff32 8d3c
00000020: 715e 693b 82f3 b5bd 50f3 b0bd 80aa dd3d
00000030: 5593 92bd 8296 e1bd ec4f 1cbd 481d ba3d
00000040: 2c5a b5bd d24c 603d fd1e 3a3d 9299 503c
00000050: 6ee0 8e3d 6188 bbba 50eb 4fbc 0176 39bc
00000060: ac36 28bc b7d7 1fbd 6771 b53d 8ee5 923d
00000070: 7750 cd3c 9f21 80bd e3d1 a63d f76b 11bd
00000080: 250c cabd 5e19 1e3c 8715 4ebc ad47 96ba
00000090: 22ec e53b 6219 9abd db26 9e3d a23a e63c
000000a0: bebe e13d 460e c4bc 35cb 44bd c51f 81bd
000000b0: 004b 79bd 1177 6dbd 510f 4ebd 6a4f aebd
000000c0: 04c7 d83c 881d 2ebd 0671 bf3b c37d d73d
000000d0: 956a e7bd 216b 6cbd 5e02 b03d 1265 a5bd
000000e0: f13a bcbc 9b87 ac3d cd9b e2bd bfdf e33d
000000f0: a1d8 af3c a285 17bd 54ef 78bd 9e37 d5bd
00000100: 2138 71bd dc10 913c 3b9e 26bd ad8a 59bc
00000110: c6f7 5d3d efd6 d0bd 8597 e63d 461d b73d
00000120: 004d 4c3d 9617 b43d dcdb e23d 4469 ce3d
00000130: 7a70 be3d fd4f 99bd ed4d 833d d9ab b0bd
00000140: 2391 5e3c 1853 8cbd 61f1 6cbb 5578 aabb
00000150: 0b3c d4bc 93ca 803d 741c e1bc d3f7 033b
00000160: cdef 6e3d 2d3d a7bd e6c4 243d 9aca 083b
00000170: 47b4 33bd 161a 483d 54ee 363d fe26 823d
00000180: 4071 62bb bd94 933d cbf7 3b3d 394c 99bd
00000190: 86cf 91ba 1ee6 423d 7a4d a0bd 419a 21bd
000001a0: 8770 4d3d db4a a93d 8ed4 5a3d 2592 833d
000001b0: 7e38 e83c 45bf ad3d 042a 22bc ba68 3b3d
000001c0: f8bd 9dbd a535 303c f0e3 2e3d 1247 e93d
000001d0: e6cf 34bd 49b4 933c e839 d8bd 7f80 343b
000001e0: 1983 8f3d 3970 a43c 4c99 64bd e6cf c03b
000001f0: 1465 ca3d b180 953d 9748 69bd 7549 14bd
00000200: fd6e a6bd a7ed e73d 9a34 d93b 996f 4ebd
00000210: f323 95bd 5f17 dfbd 8df6 8dbc 28e9 21bc
00000220: 0034 7ebd da77 82bd 19fe b3bd 89a1 893d
00000230: eafb adbd e4ce 9d3c 78a3 eb3d 8001 943d
00000240: c982 23bc ed66 c33d e8b1 4c3d 4b6a d4bd
00000250: 39e9 3a3d d66e ffbc 9e21 9e3d 2946 c93c
00000260: d837 313d a0bb 4bbd cde4 1fbb 7b6e f7bd
00000270: bfed c13d 23bc 6b3d 6c62 843d b3e9 9a3d
00000280: be02 cb3d 4ae2 30bd 080f fcbd fceb 4c3d
00000290: 5428 d1bd 8e8f a63d c3b4 bfbd e6f5 7abd
000002a0: db0c 36bd e171 d4bd 1a6a 623d 788d c53d
000002b0: 8b31 28bd 1c52 b3bc 523e 6a3d 5a73 963d
000002c0: afdd 3a3d 203e b2bc b490 89bd cffb 62bc
000002d0: 07b7 3cbd 092b a2bc 64f7 963c 4322 fbbd
000002e0: 0aed 123d 76e9 e0bd 0bb0 66bd 0016 da3d
000002f0: ee9f 47bd 6cd2 b1bd 7a07 89bd a962 bbbc
00000300: 5ac2 6f3d 5b1b 2cbd 7097 0e3d 74a3 eabd
00000310: 4b54 f9bd 7b3c 9d3c 19b6 e9bc 12c3 a73d
00000320: f02d d93d 462d d7b9 5891 d93d 617d 673c
00000330: 6cf2 84bd 37c7 abbd 625a 973c 883a a6bd
00000340: 6acd d0bc 8aa7 84bd ca4d c23d 4239 b9bc
00000350: 8e93 923d cf83 62bc 8690 cfbd ea12 03b9
00000360: 47a0 9c3d be6d d73d 9cc7 e9bc 3495 07bd
00000370: 5b29 6c3d e296 eb3d b3cf 4bbd 5c52 9b3d
00000380: d443 2abd f8e6 bc3d 7a31 ebbd ee2c 1abd
00000390: 206b a13d bf22 bc3c 099b 753c a565 8fbd
000003a0: f4d8 37ba 9d3f 3f3d 0d00 2abd c2c6 793d
000003b0: f22b 87bd 0ad6 2f3c 8860 ccbd 679f 73bb
000003c0: 5d8d 813d 2377 c43d 20be c43d 10ab 7e3c
000003d0: 2dc1 6f3d 08b5 86bc b368 de3c f96b 393a
000003e0: 86c7 8d3d 23f8 d13d ed9c d63d 39e6 413d
000003f0: 20a5 f53c ff38 85bd 5cd7 eebd 022e c03d
0.051591475 0.116543554 -0.05606705 -0.093173176 0.024527026 0.001057203 -0.05899291 0.01723623
0.003560927 -0.08884336 -0.08640158 0.10823536 -0.071570076 -0.11015035 -0.038162157 0.09087616
-0.088550895 0.05476076 0.04543971 0.0127319265 0.069764 -0.0014307612 -0.01269038 -0.011319638
-0.010266941 -0.03902408 0.088595204 0.0717269 0.025062783 -0.06256413 0.081455015 -0.035503354
-0.09865598 0.009649603 -0.012578375 -0.0011465453 0.0070166746 -0.07524373 0.07722255 0.02810413
0.11022709 -0.023932587 -0.048045356 -0.06304888 -0.06086254 -0.05797488 -0.050307576 -0.08511241
0.026462086 -0.042508632 0.005842331 0.10522034 -0.11299626 -0.057719354 0.085942015 -0.08075918
-0.022977324 0.08424302 -0.11064873 0.111266606 0.021465601 -0.036992677 -0.060775116 -0.10410999
-0.05889142 0.017708234 -0.040678244 -0.013277692 0.054191373 -0.10197245 0.11259369 0.0894113
0.04987812 0.08793561 0.11077091 0.100786716 0.09298797 -0.0748596 0.064113475 -0.08626527
0.013584408 -0.068517864 -0.0036154615 -0.005202333 -0.025907537 0.06288638 -0.027479388 0.0020136728
0.05833416 -0.08165965 0.04022684 0.0020872713 -0.043873098 0.048853002 0.04466088 0.063550934
-0.0034552366 0.07206104 0.04589061 -0.074852414 -0.0011124469 0.047582738 -0.078272775 -0.03945375
0.050156143 0.08266231 0.053425364 0.06424359 0.02834725 0.084837474 -0.009897713 0.045754172
-0.07702249 0.010754977 0.042697847 0.11390509 -0.04414358 0.018030303 -0.1055792 0.002754241
0.07007427 0.020073043 -0.055810258 0.0058841584 0.0988256 0.072999366 -0.056953993 -0.036202867
-0.08126638 0.113246255 0.006628585 -0.050399397 -0.072822474 -0.108931296 -0.017329479 -0.009882249
-0.06206131 -0.06370516 -0.087887 0.067202635 -0.084953144 0.019263692 0.115057886 0.072268486
-0.009979912 0.09541116 0.049974352 -0.10371836 0.045632575 -0.03118078 0.07721256 0.024569588
0.043266147 -0.04973948 -0.002439785 -0.12081619 0.094691746 0.057552468 0.06464085 0.07564106
0.099126324 -0.043184556 -0.123075545 0.05002974 -0.1021277 0.0813285 -0.093606494 -0.061269663
-0.044445854 -0.10373283 0.055276968 0.09646124 -0.041062873 -0.021889739 0.05718834 0.0734622
0.04562157 -0.02175814 -0.06717053 -0.013853981 -0.046072986 -0.019795911 0.018428512 -0.12262394
0.03587059 -0.10982029 -0.05632023 0.106487274 -0.048736505 -0.08682713 -0.06690879 -0.022874193
0.058534957 -0.042018276 0.03481239 -0.114569575 -0.12174281 0.019193878 -0.028529214 0.081915036
0.10604465 -0.00041041727 0.10623425 0.014129014 -0.06491551 -0.083876066 0.018475715 -0.08116633
-0.025488574 -0.06477268 0.09487493 -0.02261031 0.0715705 -0.013825371 -0.101349875 -0.0001250018
0.07647758 0.105189785 -0.028537564 -0.033101276 0.057656627 0.11503388 -0.049758624 0.07584068
-0.041568592 0.09223741 -0.11484046 -0.037640505 0.078817606 0.022965787 0.014990577 -0.07001809
-0.00070132245 0.046691526 -0.041503955 0.060980566 -0.06600179 0.010732183 -0.099793494 -0.0037173869
0.06325791 0.09593036 0.09606576 0.015543714 0.058533836 -0.016443744 0.027149534 0.0007073279
0.06922822 0.102524064 0.1047915 0.047338698 0.029985964 -0.06505012 -0.1166217 0.09383775

li.0.bias f4 [512]
00000000: 5409 163d 369e b83a bb6b 44bd ca84 c3bd
00000010: 5bbe 80bd fd13 f1bb 539e a13d 5e78 12bd
00000020: 1083 bd3d 5a9f ddbd 95b4 2cbc 1289 57bc
00000030: a5ef adbc 0a67 f3bd 85e9 d9bd 7af3 b7bd
00000040: e24f e6bd 064e eb3a 4083 993d ba79 8c3d
00000050: d405 a83c 7d04 a23d c700 23bd caff 573d
00000060: b159 9fbc db62 d73d bed7 9cbd 1934 0abd
00000070: 5c1e d2bd 6070 00ba fb57 22bd a46c 94bd
00000080: 3fb1 8b3d 0146 5cbd f710 dcbd ae8f b8bd
00000090: d7b4 d53b 7c33 8a3d fcd7 343b 07da 7c3d
000000a0: b3cc d7bd 93f5 31bd 5b7d 84bd 5c8a f0bc
000000b0: a853 c4bd 4211 4bbd e636 de3d 14e9 b2bd
000000c0: b76b bcbd 402e 3f3d 033d 7abd cc9f 923c
000000d0: 41cf 4b3d 2674 5fbd 8c60 e83d 7161 bcbc
000000e0: 46c0 ecbd 7779 d93d e26f 7f3d 37fb e33d
000000f0: 06a9 863d 09a1 edbd 668a 29bd 1ebb b3bd
00000100: 89c4 a1bd ee0c e53c 3517 9d3d 9974 73bd
00000110: 9c31 03bd 31a9 4dbd e1cb 7c3d 8317 30bd
00000120: 954a 923d 737f 57bb 3179 923b 1428 94bd
00000130: e458 86bd 3ee7 493c bc04 8e3c 7117 003d
00000140: 0335 93bd 1bf5 8a3d fac8 19bc 5097 f0bd
00000150: 18ec e33d cfaf a9bd ba17 b43d 4172 a9bc
00000160: 3f6f 8a3d 5bd6 d6bd 6808 033d 79be ecbd
00000170: 79d7 a63d 2f24 e73b 3378 ecbd a1b3 d93d
00000180: ac1a d73d e4f5 edbd e119 233d 63b3 45bd
00000190: 4696 eebd 1f54 6abd e6fa 9abb 9c0b ca3d
000001a0: 9a79 cfba 3374 483d e9a5 e9bd 8c0a 223d
000001b0: cf1c e9bd dd0f d83c e4a4 7a3b a52e 3b3d
000001c0: fabe 34bd dcf1 ee3d 5300 883c 30ac bebd
000001d0: 9ab3 153d 1ac0 853d bb29 b53d a293 6abb
000001e0: 9c34 d6bb 14de ddbd 8f0e 343d 2d6a 99bd
000001f0: 58a2 bcbc 6d2a cb3d 3b5f c8bd e319 893c
00000200: d53c 26bb 9479 3e3d 3089 f3bc 22da c23d
00000210: d038 793d 6e9d 97bd ef59 c03d d77a db3d
00000220: 1f66 15bc 692d db3d 7bd2 d23d 72c7 ccbb
00000230: 446b 26bc b728 c13d 8319 1c3c ee05 673d
00000240: eee6 5dbd 4b73 c2bd 70b2 4c3d fe4b c73d
00000250: ee0c c5bd a5b5 c03d 256c 023d 8c47 84b8
00000260: 1d42 923d a7c9 463d a483 a53d e1e0 a23d
00000270: cad4 1cbd f604 543d 932e 893d f33d debd
00000280: 387a 0cbd 3936 1f3d d3cd 73bc c693 a73c
00000290: 2dbe 94bd 0ea2 f0bd 4f47 96bd afbe e0bd
000002a0: 1955 e73d c125 88bd 2b94 cbbd 95fa 233d
000002b0: 2274 8bbc dfd9 f5bc 61c9 a5bd bd18 e43d
000002c0: 6d97 a9bc 614d 9abd 9b26 8fbd 6973 493d
000002d0: 9d52 b63d 5422 703d a61d 6f3d 33b4 bc3d
000002e0: 2554 19bc 02c8 adbd 173b 00bd 648a c0ba
000002f0: 222a e3bd ced4 c33d ab3b 35bc 794b c8bd
00000300: e61e 0b3d e304 14bd d08a d2bd ea21 803c
00000310: 753f 653c ce14 20bb 68dd 36ba ad94 82bd
00000320: 110b e13c 911f fabc 3607 493d 60cc 78bd
00000330: 1dfe a0bb 64a6 bbbd 32c9 393c 14d6 4e3d
00000340: f049 1dbc 3617 6a3d 1525 d1bd fe14 773c
00000350: 13d0 233d 5b30 ca3d 5c92 d0bd dbdb 88bd
00000360: 0224 cbbd 9569 7bbd 5703 3ebd 4a5b cbbc
00000370: 1147 c8bc 8daf e83d e296 a3bd 2adf 993d
00000380: 6521 c93d 8f00 073d 3e40 0fbc 81f0 c33d
00000390: 0dad 2c3d 074d e6bd 07e9 bfbd 9c59 dfbd
000003a0: 34dc 8ebd 60c9 0dbd f460 cebd 240d bc3d
000003b0: 4757 173c e9ba 913b f082 cf3d 2e39 ab3d
000003c0: 580d 0fbd cb67 4bbd b097 e53d 84d0 a03d
000003d0: 18c9 e2ba 9c3c ffbc e371 0e3c a902 2dbd
000003e0: eb24 bb3c 1e54 f2bd dd04 d1bc 5c6e 523d
000003f0: dd20 e4bd e029 303d 1756 95bd 1c89 103d
0.03662999 0.0014085236 -0.047954302 -0.09546812 -0.062863074 -0.007357119 0.07891526 -0.035759322
0.09253514 -0.108214095 -0.010541101 -0.013155239 -0.021232435 -0.118848875 -0.106402434 -0.08981986
-0.11245705 0.001795233 0.07495737 0.06859155 0.020510592 0.07911012 -0.039795663 0.052734174
-0.019451948 0.10516902 -0.07658337 -0.03374109 -0.10259697 -0.00048995577 -0.039634686 -0.07247284
0.068209164 -0.0537777 -0.10745423 -0.0901178 0.006521802 0.06748101 0.0027594557 0.061731365
-0.1053709 -0.04344709 -0.06469222 -0.02936285 -0.09586269 -0.049577005 0.10850315 -0.087358624
-0.092002325 0.046674967 -0.06109334 0.017898463 0.0497582 -0.054554127 0.1134654 -0.022995682
-0.11560111 0.10618871 0.06236256 0.111319 0.065752074 -0.11602981 -0.041391753 -0.08775924
-0.07898814 0.027960267 0.07670442 -0.059437368 -0.032029733 -0.05021018 0.06171787 -0.042991173
0.07143132 -0.0032882362 0.0044700135 -0.07234207 -0.06559923 0.012323199 0.017336242 0.031272355
-0.071878456 0.067850314 -0.009386295 -0.117476106 0.11129016 -0.08285486 0.08793588 -0.020684363
0.067595 -0.10490104 0.03199044 -0.11559767 0.08146567 0.007053874 -0.11546364 0.106299646
0.10503134 -0.116191655 0.039819602 -0.04826678 -0.11649756 -0.05720913 -0.0047296165 0.098654956
-0.0015829087 0.04893894 -0.11408598 0.03956084 -0.11382448 0.026374752 0.0038245255 0.04569878
-0.044127442 0.11667225 0.016601717 -0.09310186 0.036548235 0.06530781 0.0884585 -0.0035793562
-0.0065370332 -0.10833374 0.043959197 -0.074909545 -0.02302663 0.099202015 -0.09783789 0.016735977
-0.0025365849 0.046502665 -0.029728502 0.09514262 0.060845196 -0.07403074 0.093921535 0.10716789
-0.009118586 0.10702021 0.10294052 -0.0062493617 -0.01015741 0.09431594 0.009527567 0.05640214
-0.05417531 -0.09494647 0.04997486 0.09731291 -0.09621607 0.09409646 0.031841416 -6.307577e-05
0.07141516 0.048532154 0.08081749 0.079530485 -0.03828887 0.051762544 0.066983365 -0.108516596
-0.034296244 0.03887007 -0.014880615 0.020456206 -0.07262836 -0.117496595 -0.0733782 -0.1097387
0.11295528 -0.06647826 -0.0994037 0.040033896 -0.01702315 -0.030011116 -0.080950506 0.11137531
-0.020702088 -0.0753429 -0.06989785 0.04918233 0.08902476 0.058626488 0.058377884 0.09214058
-0.0093584405 -0.08485414 -0.031306352 -0.0014689681 -0.110920206 0.09562074 -0.011061589 -0.0978002
0.033965014 -0.036137473 -0.10280383 0.015641171 0.01399218 -0.0024426463 -0.0006975741 -0.06376014
0.027471097 -0.03053263 0.049079143 -0.060741782 -0.004913105 -0.09162596 0.011339473 0.05049713
-0.009600148 0.057151042 -0.10212151 0.0150806885 0.039993357 0.09872504 -0.10184166 -0.06682559
-0.09918977 -0.061379988 -0.046389904 -0.024823803 -0.02444795 0.11361609 -0.07987763 0.07513268
0.098208226 0.032959517 -0.008743344 0.09567357 0.04215722 -0.112451605 -0.09370618 -0.109057635
-0.06975594 -0.034615874 -0.10077086 0.09182194 0.009237117 0.0044473303 0.10132396 0.083605155
-0.034924835 -0.04965953 0.11210573 0.07852271 -0.0017302362 -0.03115683 0.008694145 -0.042238865
0.022844752 -0.1183245 -0.025515014 0.05137478 -0.11139081 0.043008685 -0.07291811 0.035287008

li.1.weight f4 [512]
00000000: ed07 803f 0103 803f 1ecf 7f3f 560e 803f
00000010: 14e9 7f3f 27ec 7f3f 2a21 803f 26fc 7f3f
00000020: 6900 803f 5d01 803f cc02 803f 0904 803f
00000030: 0b00 803f 6307 803f b8fe 7f3f 2d1a 803f
00000040: 5b01 803f d5f1 7f3f fc04 803f 16d6 7f3f
00000050: 16fa 7f3f 87fb 7f3f 6103 803f 1800 803f
00000060: 9afe 7f3f 5de9 7f3f db06 803f a9eb 7f3f
00000070: 86fa 7f3f 1501 803f a40c 803f 7d00 803f
00000080: 60e3 7f3f 4e00 803f 6b11 803f 40e1 7f3f
00000090: 38f7 7f3f e808 803f 05ef 7f3f 9e0e 803f
000000a0: 8209 803f 85ec 7f3f fdf0 7f3f 2501 803f
000000b0: 04e2 7f3f 0200 803f 16f0 7f3f 19e1 7f3f
000000c0: a009 803f 40ff 7f3f c3e3 7f3f ccec 7f3f
000000d0: f005 803f bbfe 7f3f 0712 803f d900 803f
000000e0: 041d 803f 0a0e 803f 5807 803f 34fb 7f3f
000000f0: 9801 803f 5e0e 803f 12cd 7f3f 320d 803f
00000100: c503 803f ab02 803f 090c 803f 60fb 7f3f
00000110: 85fa 7f3f c700 803f b7e0 7f3f cef1 7f3f
00000120: 2310 803f 1ff1 7f3f f917 803f 8f0e 803f
00000130: 40f2 7f3f 7ee9 7f3f d802 803f 4701 803f
00000140: 71ef 7f3f 9e00 803f a000 803f 22e6 7f3f
00000150: b001 803f 32ff 7f3f 6a16 803f fd02 803f
00000160: 6de5 7f3f 4ffc 7f3f 95f6 7f3f 8f0a 803f
00000170: 4e00 803f fe02 803f d8f5 7f3f b0f9 7f3f
00000180: f7fd 7f3f 8e04 803f f110 803f 9206 803f
00000190: 6e0b 803f 90f5 7f3f 1a06 803f 26fe 7f3f
000001a0: 16eb 7f3f 9dee 7f3f 4402 803f 5bfc 7f3f
000001b0: a1fc 7f3f 1f04 803f 78f5 7f3f 5605 803f
000001c0: 1d00 803f 97f2 7f3f 6301 803f c400 803f
000001d0: 0a0d 803f 34d6 7f3f b9f0 7f3f cdfc 7f3f
000001e0: f70d 803f ffe5 7f3f 27e8 7f3f 9dfc 7f3f
000001f0: fcfc 7f3f 5711 803f 01b2 7f3f 5be2 7f3f
00000200: 01fe 7f3f 60eb 7f3f 6ef7 7f3f c6ea 7f3f
00000210: e208 803f 7c0d 803f e403 803f f3e6 7f3f
00000220: 30fd 7f3f b6fe 7f3f 7ddd 7f3f 4df8 7f3f
00000230: 8bfa 7f3f b7d6 7f3f 6fee 7f3f d506 803f
00000240: cb08 803f cd17 803f d6fd 7f3f 6e03 803f
00000250: f2ee 7f3f 082f 803f 58f5 7f3f 0000 803f
00000260: b703 803f 34e0 7f3f 330c 803f 07f9 7f3f
00000270: 9df2 7f3f 2801 803f d1fe 7f3f 27f4 7f3f
00000280: 0c05 803f 0dfa 7f3f 94dd 7f3f d1d2 7f3f
00000290: 33fb 7f3f a7fb 7f3f 5bee 7f3f 33eb 7f3f
000002a0: ac01 803f dd01 803f 4cd3 7f3f 6ffe 7f3f
000002b0: fbf5 7f3f adef 7f3f 6de1 7f3f 63fd 7f3f
000002c0: e803 803f 61f2 7f3f 8cff 7f3f 1f0a 803f
000002d0: e205 803f 44fc 7f3f 7406 803f 47fd 7f3f
000002e0: c706 803f c4e1 7f3f 63f7 7f3f 580f 803f
000002f0: 47ef 7f3f db12 803f 3ee8 7f3f 7306 803f
00000300: 0bf9 7f3f b704 803f b300 803f 14ec 7f3f
00000310: abf9 7f3f cafb 7f3f 17e4 7f3f 7dfb 7f3f
00000320: b634 803f 93fc 7f3f ebfc 7f3f 1c03 803f
00000330: e6fd 7f3f 14e3 7f3f a702 803f 6006 803f
00000340: 5108 803f 10e0 7f3f 230b 803f 9afe 7f3f
00000350: 22e9 7f3f 530b 803f 46f9 7f3f aa09 803f
00000360: effd 7f3f 80f1 7f3f 4afe 7f3f 58ee 7f3f
00000370: 9ae9 7f3f 2615 803f b0cb 7f3f a315 803f
00000380: 2d10 803f 84fd 7f3f c4fe 7f3f 9de8 7f3f
00000390: 81ed 7f3f b100 803f 7ef2 7f3f cad3 7f3f
000003a0: 93e5 7f3f 042f 803f cbf4 7f3f 32e8 7f3f
000003b0: c1f1 7f3f 06fd 7f3f a0d9 7f3f 28fa 7f3f
000003c0: 4703 803f bb08 803f a601 803f f00c 803f
000003d0: 4f19 803f a204 803f 3907 803f 0203 803f
000003e0: 45ff 7f3f 53ff 7f3f 84f2 7f3f 7404 803f
000003f0: 750a 803f 8e01 803f c800 803f 2d02 803f
1.0002419 1.0000917 0.9992541 1.0004375 0.99965024 0.99969715 1.0010121 0.99994123
1.0000125 1.0000416 1.0000854 1.0001231 1.0000013 1.0002254 0.99998045 1.0007988
1.0000414 0.9997838 1.0001521 0.99936044 0.99990976 0.99993175 1.0001031 1.0000029
0.99997866 0.9996546 1.0002092 0.99968964 0.99991643 1.000033 1.0003858 1.0000149
0.9995632 1.0000093 1.0005316 0.9995308 0.999866 1.0002718 0.9997409 1.0004461
1.0002902 0.99970275 0.99977094 1.0000349 0.9995425 1.0000002 0.9997572 0.99952847
1.0002937 0.99998856 0.9995691 0.999707 1.0001812 0.9999806 1.0005502 1.0000259
1.0008855 1.0004284 1.0002241 0.9999268 1.0000486 1.0004385 0.9992229 1.0004027
1.000115 1.0000814 1.0003673 0.9999294 0.9999164 1.0000237 0.9995226 0.9997834
1.0004925 0.99977297 1.0007316 1.0004443 0.9997902 0.99965656 1.0000868 1.000039
0.99974734 1.0000188 1.0000191 0.9996053 1.0000515 0.9999877 1.000684 1.0000912
0.9995945 0.9999437 0.9998563 1.0003222 1.0000093 1.0000913 0.999845 0.9999037
0.99996895 1.000139 1.000517 1.0002005 1.0003488 0.99984074 1.0001862 0.99997175
0.9996809 0.9997347 1.0000691 0.9999444 0.99994856 1.0001258 0.9998393 1.0001628
1.0000035 0.9997954 1.0000423 1.0000234 1.0003979 0.99936223 0.9997669 0.9999512
1.0004262 0.9996032 0.9996361 0.9999483 0.999954 1.0005292 0.9988099 0.99954766
0.99996954 0.9996853 0.9998692 0.9996761 1.0002711 1.0004115 1.0001187 0.99961776
0.9999571 0.99998033 0.9994734 0.9998825 0.99991673 0.99937004 0.99973196 1.0002085
1.0002683 1.0007263 0.999967 1.0001047 0.99973977 1.0014353 0.9998374 1.0
1.0001134 0.9995148 1.0003723 0.9998936 0.99979573 1.0000353 0.99998194 0.9998192
1.000154 0.9999092 0.99947476 0.99931055 0.99992675 0.99993366 0.99973077 0.9996826
1.000051 1.0000569 0.9993179 0.9999761 0.9998471 0.9997509 0.9995335 0.9999601
1.0001192 0.99979216 0.9999931 1.0003089 1.0001795 0.999943 1.0001969 0.99995846
1.0002068 0.99953866 0.9998686 1.0004683 0.99974483 1.0005754 0.9996375 1.0001968
0.99989384 1.0001439 1.0000213 0.999696 0.9999034 0.99993575 0.9995741 0.99993116
1.0016086 0.9999477 0.999953 1.0000949 0.99996793 0.9995587 1.000081 1.0001945
1.0002538 0.9995127 1.0003399 0.99997866 0.9996511 1.0003456 0.99989736 1.0002949
0.99996847 0.99977875 0.9999739 0.9997306 0.9996582 1.0006454 0.9992018 1.0006603
1.0004936 0.9999621 0.99998116 0.99964315 0.9997178 1.0000211 0.9997939 0.9993254
0.9995968 1.0014348 0.999829 0.99963677 0.9997826 0.9999546 0.99941444 0.99991083
1.0001 1.0002664 1.0000503 1.0003948 1.0007724 1.0001414 1.0002204 1.0000918
0.99998885 0.9999897 0.99979424 1.0001359 1.0003191 1.0000474 1.0000238 1.0000664

li.1.bias f4 [512]
00000000: 017e 62bb b095 6a3b c483 dfbb 5c1d 06bc
00000010: b190 bf3b 2773 783b 1846 a4bb 6392 073a
00000020: 86f5 24bb 433c 8fbc 7c7b 923b 3bbf 86b9
00000030: 00af 53bb 0e63 803b 7f51 aa3a b3f9 63bc
00000040: 04ae 88bb 5cc1 713a 6eec e5bb 0c06 00ba
00000050: 2073 f737 a1c2 cf3b f6d3 103b f9d9 e83a
00000060: 7c7f 8039 d299 adbb 0c86 d03b eb68 c0ba
00000070: 1bba db3b ac82 17bc be96 0bbc 08bc 193a
00000080: e6be adb9 7bcc 413c 64ea 4a3b e2ff a5b8
00000090: 4472 063b eeab 3fbc ce33 393a 5e69 ba3a
000000a0: ae4b d139 edc6 86ba 8d55 e8b9 97c7 eaba
000000b0: 3cc2 623b f149 ec3a 38c8 623b a44b 993b
000000c0: 831f 8539 91e0 4d3b d83a 81ba ab96 e93a
000000d0: 77aa 25bb fe24 b0ba db11 f63b e58a 813a
000000e0: d27f 8d3c 70ac 0dbc a2d6 6a3b 7770 143c
000000f0: 40d6 37bb 268c bdba 52d9 5a3b 88be 7e3c
00000100: caac 353b 926e cfba 81c8 31bc c892 41bb
00000110: 79b9 84bb 61eb 70bb 76db 3d3b d691 e0bb
00000120: 68d4 1e3c 220c 213a f254 a0bb f52f e43b
00000130: e6d6 95ba c2a2 813a d141 2d3b a427 8a3a
00000140: db66 003b 5d20 b0ba 8e30 4e3b dc1b a03b
00000150: 0659 123a 34f0 5fbb 6687 91bb 778d 1abb
00000160: f250 a23b 644c 1abb 4875 633c 6d55 0bbb
00000170: affe c1bb 676f 3ebb 9fe6 b538 ec94 2bbb
00000180: 366f bf3a 92c1 9b3b f7fc 5f3c 77cc 02bb
00000190: 1117 8cbb be1a 14bc 760a 393b c7dc 063b
000001a0: ed32 18bb 9a0d 10bc 2bf7 43bb e326 8039
000001b0: b741 c3bb 4d80 5a3b 3b30 0c3b 89a2 f1bb
000001c0: b216 943a 80e9 cc3b 84b4 143c 9cbe 10bc
000001d0: ddd6 58bc 1d63 24bb 0012 ac3a e803 94bb
000001e0: 9589 7eba 25d9 8abb d0b2 f33a 8ca5 51ba
000001f0: e88a e3bb 0c75 20bb 6671 7abd 5d8c 963c
00000200: 4060 a2b9 174c c1bb dfab 063b 8337 0abc
00000210: b2f8 55bb 41b1 f33b 8ffc 0f39 2cc3 603b
00000220: 6a5e 8dbb a9e5 8539 f248 233b 3078 69bb
00000230: 9e72 97bb aee0 30bb 823e 7e3b 9f06 03bc
00000240: 2500 40bb db5a 11bc f325 bf3a f556 18ba
00000250: ccbd bbba 98d1 18bc 8a94 d3bb 09b9 913b
00000260: 4b4b 3fbb 7951 8e3b da3b 80bc c3f6 e73a
00000270: 1b0b 11bc 9dcb 443c 8bc2 a53b a168 263b
00000280: 911c 6fba 1959 9b3a 6a01 0dbb 5dfa e93b
00000290: 6301 583b 9c56 f9bb 1cdc 5a3b 3f3b e2bb
000002a0: 450c 383b b931 33bb 1a3e 783a 3ba4 b53b
000002b0: 4494 16bc f3ca 8239 046a 43bc 35fe 753b
000002c0: 1837 9dbb 73de 773b 2086 f73b 527d dabb
000002d0: a216 9dbb d9b0 8bbb 8aa5 803b 195d 39bb
000002e0: 5f19 153c 930f 30bb 0476 93ba 77f8 86bc
000002f0: 7651 85bb abd0 68bb 6943 f9bb e171 323c
00000300: 3775 c33b c0d2 5c3c 9c3f 49bb b25b 7eba
00000310: 937e 9a3b be69 24bb cb7f 4c3b bd13 39bb
00000320: 9dea dcbb fa81 0dbc 60dd 153c a78a 7c39
00000330: 6be9 2aba eea0 cf3c d031 ce3a e01f ae3b
00000340: 3dab 86bb f660 8b3b ec2e acbb e75b 683b
00000350: 5fac d73b 6bfa 2ebc 6a8a c4ba 3586 1abb
00000360: d417 763a 50b6 aab9 ae1a 693a c9dd 8fbb
00000370: 225e 19bc 99db 793c 380a 173c 9f3d 88ba
00000380: b00a c6bb 93a9 013b 6651 3a3b b6cd 713b
00000390: 9147 5d3b 7957 623b 471f 2d3b 7f4f d63b
000003a0: 5c61 1ebb 54b2 ccbc 4f03 36bb a3e6 213c
000003b0: fe18 d4bb 1752 f8ba 3e73 40ba b6b3 a4bb
000003c0: dba9 c6b8 0ca7 b9ba 5de0 25bb 681c 91bb
000003d0: 9d2d 5a3c d3e1 96bb 631d 2139 52fa a5ba
000003e0: 0da7 20bb 39af 0e3b 36e1 b7bb ba70 ca3b
000003f0: cb2a 483a 36e9 f539 6e0c f938 b98a 7c3b
-0.0034559967 0.0035794787 -0.0068211276 -0.008185711 0.005846106 0.0037910433 -0.0050132386 0.00051716546
-0.0025170757 -0.01748479 0.004470287 -0.0002570095 -0.0032300353 0.0039180582 0.0012994258 -0.013914513
-0.004171135 0.0009222233 -0.00701671 -0.00048837136 2.9498304e-05 0.0063403402 0.0022098995 0.0017765156
0.00024509046 -0.005297878 0.006363636 -0.0014679705 0.006705535 -0.009247463 -0.008519826 0.00058645057
-0.00033139362 0.011828537 0.0030962462 -7.915475e-05 0.0020514885 -0.011698706 0.00070649094 0.0014222076
0.00039919972 -0.0010282673 -0.0004431423 -0.0017912266 0.0034600636 0.0018027407 0.0034604203 0.0046782065
0.00025391215 0.003141437 -0.0009859456 0.0017821392 -0.0025278607 -0.0013438759 0.0075094528 0.0009883313
0.017272864 -0.008647069 0.0035833498 0.009060017 -0.0028051287 -0.0014461323 0.0033393693 0.015548356
0.0027721399 -0.0015825799 -0.0108510265 -0.0029536951 -0.0040504304 -0.003676139 0.002896992 -0.0068533225
0.009694196 0.00061434705 -0.004892939 0.0069637247 -0.0011431843 0.0009890425 0.0026436935 0.0010540378
0.0019592557 -0.0013437379 0.0031462046 0.0048861336 0.00055827235 -0.0034170272 -0.0044411896 -0.0023582855
0.004953497 -0.0023544068 0.0138829425 -0.0021260635 -0.005920253 -0.00290581 8.673709e-05 -0.0026181294
0.0014605287 0.0047533 0.013671151 -0.0019958296 -0.0042752107 -0.009039579 0.0028234995 0.002057837
-0.0023223714 -0.008792305 -0.0029901962 0.00024443035 -0.0059587616 0.0033340633 0.0021391052 -0.007374112
0.0011298268 0.0062534213 0.009076241 -0.008834507 -0.013234821 -0.002508349 0.0013127923 -0.004517067
-0.00097098324 -0.0042373114 0.0018592719 -0.00079973857 -0.006944049 -0.0024483828 -0.0611433 0.018377477
-0.0003097076 -0.005898963 0.002054922 -0.008436087 -0.0032649455 0.007436902 0.00013731628 0.003429602
-0.0043142335 0.00025538847 0.0024915305 -0.0035624616 -0.0046218177 -0.0026989388 0.0038794582 -0.007997184
-0.002929696 -0.008871759 0.0014583453 -0.00058112975 -0.0014323532 -0.009327315 -0.006456916 0.0044471067
-0.0029189165 0.0043432084 -0.01565354 0.0017697442 -0.008852745 0.012011436 0.0050585917 0.0025391954
-0.0009121383 0.0011852115 -0.0021515735 0.0071404413 0.003295981 -0.0076092016 0.0033395356 -0.0069040353
0.0028083485 -0.002734287 0.0009469703 0.0055432594 -0.009190623 0.0002494674 -0.011927132 0.0037535552
-0.0047978275 0.00378218 0.0075538307 -0.0066677714 -0.004793958 -0.0042630252 0.003925984 -0.002828425
0.009100287 -0.0026864752 -0.0011250381 -0.0164759 -0.004068549 -0.0035524766 -0.007606913 0.010891409
0.005964901 0.013477981 -0.003070808 -0.0009702995 0.004714796 -0.0025087441 0.00312041 -0.0028240525
-0.0067418353 -0.008636946 0.009147018 0.00024084245 -0.00065197673 0.025345292 0.0015731398 0.0053138584
-0.0041097687 0.004253502 -0.005254617 0.0035455169 0.0065818275 -0.0106798215 -0.0014994864 -0.0023578529
0.0009387706 -0.0003256076 0.000889222 -0.0043904525 -0.009360822 0.01525011 0.009218745 -0.0010394341
-0.0060437545 0.0019784912 0.0028429865 0.0036896295 0.003376458 0.0034537 0.0026416348 0.0065402384
-0.0024166917 -0.024987377 -0.0027772968 0.009881648 -0.006472706 -0.0018945363 -0.0007341391 -0.005026306
-9.473014e-05 -0.0014164164 -0.0025310733 -0.004428435 0.013316539 -0.004604557 0.00015365104 -0.0012663102
-0.0024513633 0.0021771921 -0.005611564 0.006177989 0.0007635771 0.00046903797 0.000118755604 0.0038534834

li.1.running_mean f4 [512]
00000000: d88c b7be 3f57 053f a5e5 5fbe 0468 013f
00000010: 0dff a83e 0c64 e83e 70c9 3cbe d27f 083f
00000020: 9b8e 583f ef04 17be 4f53 41be f61b 56be
00000030: d2f8 1a3e 3599 78be 9561 a73e 933f f5be
00000040: 5f48 d33c a31b 35be 80fb ac3e 1fe8 4bbe
00000050: 7e3b 77be 7c38 70bc dbde 7abe dd49 873e
00000060: 7dde 85bd 45ed fa3e 7cbd 4b3d 7e8f bc3c
00000070: c25d a93b e070 b4be 47de bfbe 7b42 993e
00000080: 69bc a1bd 2d9a c03e afc3 c13d 6577 6abe
00000090: 5318 1ebf e22d 8b3e f1d8 2c3d 932b 62bd
000000a0: eab1 85be 781b 8a3e 8077 2e3e 7b03 6dbe
000000b0: 10e3 e6be 4576 7e3e b81e dabe 8a64 7d3e
000000c0: b271 6c3d dc9d 153f cee3 3ebf 0b8e 41bd
000000d0: 431a 5bbe 3ea4 97be 8f58 19ba a36d 9a3e
000000e0: 4d5b 283d 7520 f23e 33fb 343e 25db 0bbe
000000f0: 6541 e83e 8322 89bd e6b2 52bf daf8 86be
00000100: 915c 25be 651a d3bd 4e4d a23e fc98 f9be
00000110: 49b0 64be 0179 0abe 69ea b6be 9c52 1ebe
00000120: f65f cbbd 1667 753e ebf6 743f e576 6bbe
00000130: 78fb 273f 098e 92be 3643 2b3f a041 c63c
00000140: 570a 65bd bf91 a9be bbd8 ccbe 499d 953e
00000150: 5b67 b23c 52c2 9f3e f14d 94be 95fd 01be
00000160: 200c 0abf e667 99be 5d4c 433e 1a25 0d3c
00000170: cc82 b93e 177a ed3e 55cd 673c e223 323d
00000180: 1fa9 f33e 2de0 b13e 3e3d 83be 0527 23bf
00000190: 90cf 23bf 69b7 39bf 084a 1abe 7566 25be
000001a0: 6dcc 2ebe fcf8 4bbe 41a0 39be 77e9 bdbd
000001b0: 0771 14bf f2bb 2f3f b481 fdbe 3deb 82bd
000001c0: 70b5 f23d 0abe be3e c108 20be 2327 023e
000001d0: 956b 8d3e 60fc 16be 8315 cfbe 6f74 66bf
000001e0: 42a1 803f 3606 ea3d 4f94 53bd a34d 6ebe
000001f0: d08b 06bf af27 91be ef83 a03d 70dc 03be
00000200: 759b 333e 2c24 01be f8f4 5cbf 0264 b3bd
00000210: 62b9 febe bb33 03be f3fb 53be 6f45 5d3f
00000220: f8cc a23e aa4c 783d 74f1 0cbf f6c6 92bc
00000230: 56bb 7a3e e240 e03e f9ec f63e a2ef 813e
00000240: ac6a aa3e 5b19 ec3e 2954 533f 0697 90be
00000250: e88f 10bf a7b2 3a3f 85e7 33be fdae a83e
00000260: 806d 4dbf d039 11bf 74d0 613e ace4 1ebc
00000270: ac15 973e a849 db3e 0810 833c 08be a2be
00000280: e9bb 1f3e 94b4 bb3e f7cd 90be 5f27 13bf
00000290: 6168 de3e 004c c0be e440 7b3f 48cd 02bf
000002a0: 560a 1a3f 8aa0 1cbf 63a0 f2bc 816e 3cbe
000002b0: 4f0a e33e c163 be3e 2332 833e 16cd 513f
000002c0: f64e 4e3e ae4d b3be b756 61be 1fc4 46be
000002d0: ed77 483d 50d6 49be ba5c 243e cf6b 25be
000002e0: d950 1c3e d97a 143f cf97 7a3e 839d 6e3e
000002f0: ecc4 50be 0647 b5be edac 9abe 1ad0 92be
00000300: 85c5 b1be b03a 5f3e 030f 6bbf d79b b8be
00000310: d3cc ee3e 4eeb 16bf 9bb9 8abe 89c5 a9be
00000320: 5347 09bf 7bd4 a23e 004b e93e fd06 6c3e
00000330: 81ed 073f 1d29 82be 2cd5 08be b378 f73c
00000340: edc0 ddbc 05c6 a33e fec1 0cbf 74dd 0a3f
00000350: b3ca dd3e 7929 ca3d 884f 0ebf f91d 703f
00000360: 1ee4 41be 3e1c 033e 3a6d 66be 2100 9e3e
00000370: 7d85 98be 9d98 b2bd 2564 b33e c8f0 afbe
00000380: 745d 253f e586 01be d495 cfbe 628a f83e
00000390: f779 e0be 492b dabe 262b b43e f148 c5be
000003a0: e7e2 83be e953 08bd 99ae da3e 1521 363f
000003b0: 639c 2dbe b0eb 99be 0ac0 4c3e 1317 ed3e
000003c0: 80bd 003e 3d45 66bf 92c4 b9bd 3f61 903e
000003d0: fc99 193f 2b92 93be 11db a0be 18ee b2be
000003e0: 0c25 b4be e57f c7be 2407 50bf c964 d93e
000003f0: 0099 03be 266f d83d 453d 413e 7b4b b5be
-0.35849643 0.5208625 -0.21864946 0.5054934 0.33007088 0.4538883 -0.18436217 0.5332004
0.845926 -0.14747976 -0.18879436 -0.20909104 0.1513398 -0.24277194 0.32691637 -0.47900066
0.025791345 -0.17686324 0.3378563 -0.19912766 -0.24143788 -0.014661904 -0.24499075 0.2642354
-0.06536577 0.49009147 0.049741253 0.023017641 0.0051686475 -0.35242367 -0.37474272 0.29933533
-0.078972645 0.37617627 0.09461152 -0.22897108 -0.61755866 0.27183443 0.04219908 -0.055217337
-0.261123 0.26974082 0.17037773 -0.23145859 -0.4509511 0.24849804 -0.42601562 0.24745384
0.057725616 0.58444 -0.7456635 -0.047254603 -0.21396737 -0.29617494 -0.0005849683 0.3016177
0.041102696 0.47290388 0.1767395 -0.13657816 0.45362392 -0.06696036 -0.8230423 -0.26361734
-0.16148593 -0.10307769 0.31699604 -0.4874953 -0.22332872 -0.13522722 -0.35725716 -0.154612
-0.099304125 0.23965105 0.95689267 -0.22994573 0.65618086 -0.2862399 0.6689943 0.024201214
-0.055918064 -0.33119008 -0.40009102 0.29221562 0.0217778 0.31202942 -0.28965715 -0.1269439
-0.5392475 -0.2996208 0.19072099 0.008614803 0.36232603 0.4638221 0.014148076 0.04349125
0.47589967 0.34741345 -0.25632662 -0.63731414 -0.6398859 -0.72545487 -0.15067303 -0.16152366
-0.1707017 -0.19919199 -0.18127538 -0.092730455 -0.57984966 0.68646157 -0.49513018 -0.063925244
0.11851013 0.37254363 -0.1562834 0.12710242 0.2762114 -0.14744711 -0.404461 -0.90021414
1.0049212 0.11426966 -0.05165511 -0.23271804 -0.52557087 -0.2835059 0.07837664 -0.12877059
0.17539771 -0.12611455 -0.8631129 -0.08759309 -0.4975081 -0.12812702 -0.2070158 0.8643407
0.31797004 0.060619988 -0.5505593 -0.017917138 0.24485525 0.43799502 0.4822767 0.25378138
0.3328451 0.46113095 0.82550293 -0.28240222 -0.56469584 0.7292885 -0.17568786 0.32946005
-0.8024521 -0.5672884 0.22052175 -0.009698074 0.29508722 0.42829633 0.015998855 -0.31785607
0.15599026 0.36661208 -0.2828214 -0.5748195 0.4343901 -0.37557983 0.9814589 -0.51094484
0.6017202 -0.61182463 -0.029617494 -0.18401529 0.44343802 0.3718548 0.2562419 0.8195356
0.20147309 -0.35020202 -0.22005735 -0.19410752 0.048942495 -0.1971066 0.16050997 -0.16154407
0.15265216 0.5799995 0.24471973 0.23302273 -0.2038762 -0.3540575 -0.30210057 -0.28674394
-0.34721008 0.21799731 -0.9181978 -0.36056396 0.46640643 -0.58952796 -0.2709473 -0.3315852
-0.5362446 0.31802735 0.45565033 0.23049541 0.5309678 -0.25421992 -0.13362569 0.030208921
-0.027069533 0.31987014 -0.5498351 0.5424416 0.4331871 0.098711915 -0.55590105 0.93795735
-0.18934676 0.12803742 -0.22502604 0.30859473 -0.29789343 -0.08720515 0.35037342 -0.3436339
0.64595723 -0.12649114 -0.40543997 0.48543078 -0.43843052 -0.4261115 0.3518917 -0.38532212
-0.2575905 -0.033283148 0.42711332 0.7114423 -0.16954188 -0.30062628 0.19995132 0.46306667
0.12572289 -0.899494 -0.09070696 0.28199193 0.60000587 -0.28822455 -0.31417134 -0.34947276
-0.35184515 -0.38964763 -0.81260896 0.42459705 -0.12851334 0.10568075 0.18871029 -0.3540915

li.1.running_var f4 [512]
00000000: 6cea 6a3d 3189 583d 2cb7 ab3c 787d d53d
00000010: d0cf 573d 5afe 8e3d 239b 1f3c 4b17 983d
00000020: 6575 3b3e fff5 443b 91dd 8e3c 8ebf 903c
00000030: a55b 893c ef04 1b3c ad09 593d d1eb 323d
00000040: f93a 013c 1c2c ff3b b187 643c 1dac 6c3c
00000050: 4720 b93c 9a43 d63b 1d16 013c b594 003c
00000060: 4df1 7d3b 3ca3 fe3c 6495 943c 706e 503b
00000070: d132 3e3c fa71 8e3d 856b 8f3d a82e 183d
00000080: f284 2b3c 1bc7 873d f73c b83c 0ba2 763c
00000090: d14b 0f3e 1e2b 553c 4a26 3e3b 5c18 163c
000000a0: ba5a 653c 8132 2b3d 2bb9 063d 4921 8b3c
000000b0: 9aaf 2d3d de95 133d 4002 913d 0c37 8f3d
000000c0: eb89 0e3c 90f6 943d 67f3 f73d bc05 0a3c
000000d0: f3f7 293c 62a3 a63c 8912 983b 111c fc3c
000000e0: cdfd c33c f019 0e3d 2289 583c 891d 963c
000000f0: 0f4a 453d 118b dd3b 26f5 343e c880 0b3c
00000100: 50c7 803b 5176 d03b 9720 373c 7a4f b33d
00000110: 3630 fb3b 5f65 383c 22f0 053d 7d39 203c
00000120: 1f41 c83b b62c 833c a3c7 5b3e 2444 193c
00000130: fd82 2a3e c684 c73c 2012 113e 2556 043b
00000140: 1efe 173b 8938 373d 861a 193d 8949 803d
00000150: c4ba 543b 7bc8 203d 5cc5 123d 442b 253c
00000160: dc00 e03d c13f 8a3c b4ba 603c d6ff b83b
00000170: de58 8b3c ed15 853d 7390 c93b 9002 273c
00000180: d70e 103d 1e2c 3b3d 5135 f63c e3c9 c63d
00000190: 7a45 e33d 3aa6 d63d a806 cd3b d79b e03c
000001a0: ee29 313c f5cb 523c 9016 9b3b 23bb d13b
000001b0: 47b2 8d3d 443c 083e 3e24 9a3d 20f8 9e3c
000001c0: c898 8c3c ab56 ab3c e9b5 133c fdfa 5b3c
000001d0: 663d 663c a621 e83b 5225 a73d eb1b 483e
000001e0: ebeb 983e 7bd0 ca3c 6dc5 8c3b 0dd3 c93b
000001f0: c0eb b53d 6fbb 4e3d e68a 8b3b f986 a83b
00000200: d6e8 473c b50b 9d3c 7251 4d3e 016d 013d
00000210: bffb cf3d 99c8 483b 08e4 013d f75e 343e
00000220: 979b 0d3d 8213 7a3b 3cfb 143e 68e2 dc3b
00000230: 9375 4a3c 0965 fc3c 9f78 863d 9afa 0c3c
00000240: 54f9 9c3d b281 b03d 0996 283e c847 3f3d
00000250: f3fa 6a3d f49d 133e 12f5 c93c 5b63 0d3d
00000260: d472 603e 9386 083e 0a6c 843b 2e8e 093c
00000270: 72f1 ca3c b329 2f3d a9cb 003b 20c2 4e3c
00000280: edc5 753c dd6d e33c 81ed a03c 390a 013e
00000290: 1cd1 903d e126 213c 7883 a23e b031 303d
000002a0: 744a a93d 9b7e d03d 4b7e 873b 59ae 7f3c
000002b0: 13b3 2d3d 21dd 803d 6f2c f23c e21c 133e
000002c0: 4a63 2a3c f99f 9a3c c2de 593c c197 b03c
000002d0: 0a31 de3a aa77 fd3c 5c51 423c 9d31 793c
000002e0: cfab 863c 8550 ff3d 5aff e03c bf9e a83c
000002f0: 9662 5d3c 1f90 273d ce86 803c 769a 3c3c
00000300: 0b98 c33c 6d00 143c 80af 5e3e b536 3b3d
00000310: b8e9 9b3d 728c 9f3d fc87 903c 642f 063d
00000320: b750 6e3d 3c80 a73c 0c43 523d 981f bc3c
00000330: ff7b c33d 1529 8f3b e6d0 a43c 88ed ef3a
00000340: 6556 593b 3b70 053d ef62 533d 3fa9 913d
00000350: fa42 703d c906 643b 4bc0 583d 6088 b73e
00000360: 0bea 603b 1ad9 6f3c e5fd 393c 5fca fd3c
00000370: e056 c23c cc42 bc3c ab23 7f3d cd23 723d
00000380: e18d a73d ea27 8a3c e2a7 133d f042 fd3c
00000390: b7b1 713d a003 e23c afec 453d 2066 073d
000003a0: c1c9 9a3c 871b 383b b7cb 883d 98ab f93d
000003b0: 67c4 323c 7bc2 3b3d 040f 0f3b 6356 063d
000003c0: ae6f c93b f0fa 683e bd97 e93c bc7a 813c
000003d0: 51f6 923d a900 113c 4eda 043d 0506 023d
000003e0: 3138 3f3d 41da e23c 7814 1e3e 63a1 043d
000003f0: 31b6 fd3a 8b64 853b 0eb9 a53c d8b1 003d
0.05735247 0.05286521 0.020961367 0.10424322 0.05268842 0.069821075 0.009741577 0.07426318
0.18306501 0.0030053852 0.017439635 0.017669465 0.016767332 0.0094616255 0.052987743 0.043681923
0.007887595 0.0077872407 0.013948367 0.014445332 0.022598399 0.0065388205 0.007878807 0.0078479545
0.0038748563 0.031083696 0.018137641 0.0031804107 0.011608795 0.06955333 0.070029296 0.03715387
0.010468708 0.06629773 0.022490008 0.0150532825 0.13993765 0.013010768 0.0029014521 0.009161081
0.013998682 0.04179621 0.032891434 0.016983645 0.042403795 0.036031596 0.07080507 0.06992921
0.008699874 0.072735906 0.12106972 0.008424219 0.010374057 0.020341579 0.0046408814 0.030775102
0.023924733 0.034692705 0.013216289 0.01832463 0.04816633 0.006760963 0.17671642 0.008514591
0.00393001 0.0063617607 0.011177204 0.08755393 0.0076656593 0.0112546375 0.03269971 0.009779331
0.0061112787 0.01601253 0.21462874 0.009354625 0.1665153 0.024355303 0.1416707 0.0020192948
0.0023192237 0.04473165 0.03737881 0.06264026 0.0032459954 0.039253693 0.035832748 0.010081116
0.10937664 0.016876103 0.0137163885 0.0056457324 0.017010149 0.06498323 0.006151253 0.010193482
0.035170402 0.04569637 0.03005472 0.097064756 0.11097236 0.10480924 0.006256897 0.02741806
0.0108132195 0.01286601 0.0047329143 0.0064004823 0.06918769 0.1330424 0.07526444 0.019405425
0.017162696 0.02091535 0.009015539 0.0134265395 0.0140527245 0.0070840893 0.08161415 0.195419
0.2986749 0.024757614 0.004295996 0.0061591924 0.08882856 0.05047172 0.0042585013 0.005143043
0.0122015085 0.019170621 0.200506 0.031598095 0.10155439 0.0030637144 0.03171161 0.17614351
0.03457221 0.00381586 0.14548963 0.006740857 0.012357133 0.030809896 0.065659754 0.00860467
0.07664743 0.086184874 0.16463484 0.046699315 0.05736823 0.14415723 0.024652991 0.03451858
0.21918803 0.13332586 0.0040411996 0.008395715 0.024773333 0.042764377 0.001965264 0.012619525
0.015000802 0.027762348 0.0196445 0.12601556 0.070711344 0.00983593 0.31740928 0.043016136
0.08266154 0.10180398 0.0041349283 0.015605533 0.042407107 0.06292177 0.029562203 0.14366487
0.010399649 0.018875109 0.0132977385 0.021556737 0.0016951871 0.03094085 0.011860218 0.015209583
0.016439347 0.1246653 0.027465511 0.020583509 0.013512274 0.04090893 0.01568928 0.011511436
0.02387621 0.009033305 0.21746635 0.04570647 0.07612938 0.0779046 0.017642967 0.03276004
0.058182444 0.02044689 0.051333472 0.022964284 0.09545135 0.004368911 0.020119142 0.0018305043
0.0033163067 0.032577734 0.051608022 0.07112359 0.058657624 0.0034794083 0.05291776 0.35846233
0.0034319188 0.014639163 0.011352037 0.030980287 0.023723066 0.02298107 0.062289875 0.059116174
0.08181358 0.016864736 0.036048777 0.030915707 0.059007373 0.02758962 0.048321422 0.03305638
0.018895032 0.002809258 0.066794805 0.12190932 0.010911084 0.045839768 0.0021829018 0.03279723
0.0061473465 0.22751975 0.028514737 0.015805595 0.071758874 0.008850255 0.032434754 0.031744022
0.046684448 0.027691962 0.15437496 0.032380473 0.0019356665 0.0040708235 0.020229843 0.031419605

li.3.weight f4 [1, 512]
00000000: 1a67 1a3d e002 8abc 9ad2 b1bc deb0 413d
00000010: a849 963c 493d d63c 45a1 3a3d 9e52 e6bb
00000020: dc5c 613c 2cfe 313d b859 333d ed77 91bc
00000030: 7511 edbb a6ef ccbc bf69 71ba 93f0 74bd
00000040: 1738 19bd 332b 183d 1c1c a63c e227 bd3c
00000050: 6334 bcbc 3047 d2bc 7d24 803c 6f4d a73c
00000060: 7776 4b3b 9559 a7bc 0a0f b5bc d3ee cabc
00000070: 8201 47bc 2e57 313d 2fc7 4e3d 5b7d 0abd
00000080: b0c4 853b 2440 29bd a829 54bd 62cf bcbc
00000090: 1e28 0c3c 26b9 da3c 6532 25bc a489 f6bc
000000a0: 28b6 debc de0d b63c a042 09bd b0d5 9d3c
000000b0: b670 d3bc 1319 7ebb ede0 d8ba a596 cf3c
000000c0: 5e89 d4bc de3e 51bb b3ae 4dbc 7c7f 1cbc
000000d0: 18ee a43c e18d edbc f4c8 13bd 626d 18bc
000000e0: 13f5 47bd 2055 523d 6a0b b4bc cf5e 9d3a
000000f0: 4cab bc3c 5c4e 173d da57 13bc ae3e 35bd
00000100: 9a3c 87bc 60b9 a63c a06b 143d 768a 823b
00000110: 11de 283c 1bbc 49bc f828 bebc a50d f23c
00000120: 395d 13bd 67db ac3b c203 713d 7c5c 20bd
00000130: 2be8 01bb 141a 9ebc 9ba2 733c caf6 56bc
00000140: 060b e1bb 6ed0 043c 300d 183c e767 f63c
00000150: 3cb6 43bc 4f4a df3b cab0 22bd 1add 8cbc
00000160: 444e 803b 1d0d 983c 1498 19bd 1ed9 d2bc
00000170: 7629 2e3c 70a0 073d 97db 46bb e5cb 033b
00000180: 1a4d 75bc 93a3 3bbd 2ace 453d 564e bd3c
00000190: a297 f03c 088a 2f3c 3def a53c 8763 043b
000001a0: 972a ee3c 0921 cb3c 6b50 da3c 1df6 05bb
000001b0: 844b 083d 9615 b83c 542c d33b 192a 40bd
000001c0: 8c45 ecbb 7bd4 2eba 0d55 13bd 9b8d 4a3c
000001d0: a311 3d3d b1b7 173c d442 7bbc 0f3c 6dbb
000001e0: 6218 0b3d b654 033d 74df b6bc cfb0 fb3b
000001f0: 8e31 e63b bf30 3f3d 8898 5dbd 3e3f 14bd
00000200: ed38 4dbb 7075 6d3c d83e a03b d94a c33c
00000210: fe23 fa3c 18ca 06bd fa6e 02bd 1068 10bc
00000220: 57df df3b 1e35 15ba 9faf 33bc 2999 023c
00000230: 7381 283d f40f cebc cc1f ffbc af6f 3a3d
00000240: ac88 343d 941e 723d 150f 94b9 bf98 843c
00000250: aacc cbbc c472 813d 2eff 153d 4bba eebb
00000260: e83a 883c a0aa afbb 542d 08bd 5de9 11bb
00000270: d29a 833a 3eac 13bd 1deb 73bc 845a 353c
00000280: 0fac 96bc ad2c a23c 2c02 b93c 98a4 c9bc
00000290: 9672 173c 3e51 2c3d 54f7 52bb c551 2c3c
000002a0: f9e4 853c 0a5b 883c 9a26 8dbb 4345 9c3b
000002b0: a567 eabb d5c0 133d e82b 85bb 264b 4b37
000002c0: d753 8c3c 1bff 79ba 122b f4bc f294 51bd
000002d0: 7f28 ac3c 5eb4 02bc c462 ddbc c3df ee3c
000002e0: 25de 37bd 3b1c 68bc fd48 0abc b686 103d
000002f0: 81eb a4bc 6ebe 24bd 32a4 963c 4ab8 0cbd
00000300: 1367 67bb 459a 1d3d 2b9b 383c 104f ca3c
00000310: 8096 8d3c a633 93bb af8c 60bc c82d 01bb
00000320: 4c37 8ebd 7b84 323c cbba 03bc b885 71bc
00000330: 5d24 33ba be10 dcbc 7dfc 6b3c 2c68 b2bc
00000340: 6390 de3c 1688 773c 2f90 13bd 8a03 25bb
00000350: 1db3 db3b e394 2a3d f1e0 7abc c27c cd3c
00000360: a64b f6ba 8fa9 0fbc 557b 863a 9ba7 0c3d
00000370: adb4 093d 0cc2 61bd 3a1e f73b cbd4 3f3d
00000380: f1ac 383d 21b1 013c f423 39bb 161e 953c
00000390: 0478 55bb d0eb a1bc 10cd 22bc 1d2b cfbc
000003a0: 87db 9e3c 56fa 953d c295 a6bb 55a9 8a3c
000003b0: 9a69 083c 7fea 893b cbc0 40bc b020 48bc
000003c0: 2f20 ce3c d36b cd3c a8a2 913c 101b 31bd
000003d0: 429c 3dbd 3d8a d43c b276 b2bc 3e9c 2fbd
000003e0: b2dc 4c3b 9c14 443b c124 e1bc 5cd4 3abd
000003f0: 11fa fc3c e258 82bc fef7 20bc 0013 83bc
0.03769598 -0.016847074 -0.021706868 0.047287814 0.018345669 0.02615227 0.045563955 -0.0070288917
0.01375505 0.043455288 0.043786734 -0.01775738 -0.007234747 -0.025016617 -0.0009209178 -0.059799742
-0.037407007 0.037150573 0.020277075 0.023090307 -0.022974199 -0.02566871 0.015642399 0.020422665
0.0031045952 -0.020428458 -0.022101898 -0.024772083 -0.012146356 0.04329603 0.050482925 -0.033810955
0.004082285 -0.041320935 -0.05179754 -0.023048107 0.008554487 0.026699614 -0.010082816 -0.030094929
-0.027186468 0.02222341 -0.033510804 0.019266933 -0.02581058 -0.003877227 -0.0016546525 0.025340388
-0.025944408 -0.003192834 -0.012553859 -0.009551879 0.020133063 -0.028998317 -0.036080316 -0.009303423
-0.048817705 0.051350713 -0.021978099 0.0012006405 0.0230309 0.036939964 -0.008993113 -0.04424923
-0.01650839 0.020352066 0.03623545 0.003983791 0.010306851 -0.012312914 -0.023212895 0.029547522
-0.035977576 0.0052751782 0.058841474 -0.0391507 -0.001982222 -0.019299544 0.014870311 -0.013120363
-0.006867769 0.008106334 0.009280488 0.030078841 -0.0119453035 0.006814278 -0.03971938 -0.017195273
0.00391558 0.01856094 -0.03749855 -0.025738295 0.010630002 0.03311199 -0.0030343288 0.0020110544
-0.014971996 -0.045810293 0.048292316 0.023108643 0.02936918 0.010714062 0.02025568 0.0020200924
0.029073043 0.024796026 0.026649674 -0.0020440884 0.033275142 0.02247123 0.0064444933 -0.046915147
-0.007210439 -0.00066692353 -0.035969783 0.012362863 0.046159398 0.009260104 -0.015335757 -0.0036199128
0.0339588 0.03206321 -0.022323348 0.0076809893 0.0070249503 0.046677347 -0.054100543 -0.036193125
-0.0031314448 0.014493331 0.004890304 0.023839401 0.03053474 -0.032907575 -0.031844117 -0.008813873
0.006832044 -0.0005691814 -0.010967164 0.007971087 0.041139077 -0.025154091 -0.031143092 0.045516666
0.044075653 0.059111193 -0.00028239997 0.016186116 -0.024877865 0.06320718 0.03662031 -0.0072853914
0.016629651 -0.0053609163 -0.033246353 -0.002226434 0.0010040647 -0.036052935 -0.014887598 0.011068944
-0.01839259 0.019796694 0.022584043 -0.024614617 0.009243628 0.042069666 -0.0032190876 0.010517542
0.016344534 0.016644973 -0.00430758 0.004768999 -0.0071534687 0.03607257 -0.004064072 1.211724e-05
0.017129822 -0.000953661 -0.029805694 -0.051167436 0.021015404 -0.007977573 -0.027024634 0.029159432
-0.044889588 -0.014166887 -0.008440253 0.03528472 -0.020131828 -0.04022067 0.018388841 -0.03435544
-0.003530924 0.0384772 0.011267464 0.024695903 0.017283678 -0.004492241 -0.013705417 -0.0019711126
-0.06944141 0.010895844 -0.00804014 -0.014741354 -0.00068337267 -0.026863452 0.01440346 -0.021778189
0.027168458 0.015108129 -0.036026176 -0.0025179111 0.0067047016 0.041645896 -0.015312419 0.025083903
-0.0018790856 -0.008768453 0.0010260144 0.03433953 0.03361957 -0.0551167 0.007541445 0.046833795
0.045086805 0.007915766 -0.002825019 0.018202823 -0.0032572756 -0.019765764 -0.009936586 -0.025289113
0.019391788 0.073231384 -0.0050837705 0.016926447 0.008325959 0.0042088623 -0.011764715 -0.012214825
0.02516183 0.025075829 0.017777756 -0.0432387 -0.046291597 0.025944823 -0.021785114 -0.042873614
0.0031259474 0.002991951 -0.027483346 -0.045612678 0.03088096 -0.015911523 -0.009824751 -0.01600027
