online/32_D1.pth (torch, 158283 bytes, 7 tensors)

li.0.weight f4 [512, 70]
00000000: c32b 543d a9c9 ee3d 8bc8 63bd 04fd bdbd
00000010: 68e4 cc3c 28bf c43a 6d0f 6fbd 5cf8 8f3c
00000020: 7cbf 7e3b 954d b5bd e046 b0bd fbdc dd3d
00000030: 8fcd 91bd 02dd e0bd e37a 1abd 8b23 bb3d
00000040: 6475 b4bd 0033 623d d06d 3a3d c2fd 573c
00000050: 1556 8f3d ea8e a7ba 9abb 4ebc ccb2 38bc
00000060: 2be0 23bc fd1a 1fbd 0790 b63d 62c7 933d
00000070: bf8a d03c b8c5 7dbd 09fe a73d ca50 10bd
00000080: 7e54 c9bd f983 253c 27ba 47bc b913 85ba
00000090: e201 ea3b d528 9abd 31e5 9e3d 095f e73c
000000a0: e4bd e23d c695 c3bc 7b37 44bd 48c8 80bd
000000b0: 863d 78bd 73cf 6dbd bf00 4ebd 6842 aebd
000000c0: 120f dd3c 0292 2dbd 73f9 c43b c1cf d73d
000000d0: 9715 e7bd c168 6abd 1b21 b13d 7588 a4bd
000000e0: bab1 b8bc 93f9 ad3d 1290 e1bd c0f1 e43d
000000f0: 07e8 b33c 5cf6 15bd d2de 78bd 1a5e d5bd
00000100: f425 71bd 6c07 943c 6850 25bd aba1 53bc
00000110: 19db 5e3d 60a9 d0bd 65c9 e63d d639 b73d
00000120: 92ef 4c3d 1c1b b43d 71f8 e23d a517 ce3d
00000130: 98f7 bd3d 7f0c 9abd 9dab 823d ec6a b1bd
00000140: 2d9e 593c 5a29 8dbd da11 85bb fb26 b3bb
00000150: 6909 d7bc 99bb 803d 7eb8 e2bc a3fb f43a
00000160: 4df8 6d3d c411 a8bd f3a1 233d 6611 f83a
00000170: c2b9 34bd 62b9 463d 70fa 343d 0544 813d
00000180: ace1 75bb e03b 933d 190c 3c3d f44b 99bd
00000190: a30e 9fba 188c 413d 24a0 a0bd 71ed 21bd
000001a0: 851c 4d3d 03e2 a83d 0a41 5a3d 3ad8 823d
000001b0: 39f4 e63c e372 ad3d d198 23bc de06 3b3d
000001c0: 89e6 9dbd ba8b 2d3c 108e 2e3d 5ef6 e83d
000001d0: 553b 34bd 517e 953c 230f d8bd 0b33 383b
000001e0: 4ff9 8f3d 1709 a43c 37f7 63bd 9110 cc3b
000001f0: 5a09 cb3d 8bda 953d 4c85 68bd 6381 13bd
00000200: 1fd0 a5bd 8cc9 e83d ce52 e63b fadc 4dbd
00000210: c45c 95bd c717 dfbd 284d 8cbc c076 20bc
00000220: 84a3 7dbd 4de2 82bd 896e b4bd 28b6 893d
00000230: 4a7d aebd 2260 9f3c 3902 ec3d fa01 943d
00000240: 1854 27bc 252e c33d 3fae 4b3d bd0f d5bd
00000250: 9fec 3a3d ae21 01bd e6d3 9d3d efec c93c
00000260: 56a8 303d 72bb 4cbd 3f71 2fbb 1685 f8bd
00000270: c356 c13d 443f 6a3d 189a 843d 2c44 9a3d
00000280: 74a7 ca3d 69bd 31bd b704 fcbd 955d 4c3d
00000290: d6a0 d1bd 1820 a63d 434b c0bd 8332 7cbd
000002a0: 3419 37bd 3fa6 d5bd 82ca 603d c919 c53d
000002b0: f6ea 29bd a977 b5bc e94a 683d 030d 963d
000002c0: 7c57 3a3d bb7c b3bc 85e4 89bd 4493 63bc
000002d0: ef0e 3dbd a1aa a1bc af42 953c 2af4 fabd
000002e0: 384d 113d 728e e0bd ac65 66bd 77a3 d93d
000002f0: c431 48bd ded1 b1bd 57e4 88bd bd85 b9bc
00000300: 1bc6 6e3d bad1 2cbd cc7a 0d3d 7de9 eabd
00000310: c064 f9bd 4611 9a3c f10c eebc fa48 a73d
00000320: ae74 d83d b9b0 2dba e927 d93d 0df0 623c
00000330: 36b6 84bd eff5 abbd fa2f 973c 6ec5 a6bd
00000340: 4f1c d2bc 448f 84bd f045 c13d 90cc bbbc
00000350: 0d2b 913d 712e 68bc a27e d0bd 7460 3cb9
00000360: b6ba 9c3d 3b6e d73d 7399 e7bc 4438 07bd
00000370: b28e 6c3d cb11 ec3d 3065 4abd a765 9b3d
00000380: dd2b 2abd 4b05 bc3d be93 ebbd e5be 1bbd
00000390: 4867 a13d 17fc bc3c db12 753c dff2 8fbd
000003a0: 5467 5bba ff5c 3f3d f6bf 29bd 8519 7a3d
000003b0: 0382 87bd 86b2 2a3c 3f0a cebd c899 92bb
000003c0: 6fc3 803d 5eb9 c43d 0238 c43d fe43 773c
000003d0: 1fe8 6d3d 81f0 89bc 505a db3c 312f 1e3a
000003e0: af4e 8d3d fd4b d13d 74c2 d53d 2dfc 3f3d
000003f0: 5ffc ef3c 584a 86bd ff3b f0bd b67b bf3d
0.051799547 0.11659557 -0.055611175 -0.092767745 0.025011256 0.0015010582 -0.05836432 0.017574482
0.0038871458 -0.08852688 -0.08607268 0.10833164 -0.07119285 -0.10979654 -0.03771485 0.09137639
-0.08811453 0.05522442 0.04551488 0.013183059 0.06998841 -0.001278368 -0.01261797 -0.011273097
-0.010002176 -0.038844097 0.0891419 0.07215764 0.025456784 -0.061956137 0.0820275 -0.035233296
-0.09830569 0.0101022655 -0.012190378 -0.0010152973 0.0071413377 -0.07527319 0.077585585 0.028243558
0.11071375 -0.023875128 -0.047904473 -0.062882006 -0.06060555 -0.058059167 -0.05029368 -0.0850876
0.026984725 -0.042375572 0.006011182 0.10537673 -0.11283415 -0.057228807 0.086488925 -0.080338396
-0.022545684 0.08494868 -0.11013807 0.11178923 0.021961225 -0.0366119 -0.060759373 -0.10418339
-0.058874086 0.018069945 -0.040359885 -0.012916963 0.054408167 -0.10188556 0.11268882 0.08946578
0.05003316 0.08794233 0.11082543 0.100631036 0.092757404 -0.07521915 0.06380389 -0.08662972
0.013282341 -0.06892653 -0.004060966 -0.0054672933 -0.026249604 0.062857814 -0.027675863 0.0018690716
0.058098126 -0.082065135 0.03994937 0.0018926084 -0.044122465 0.04851664 0.04418415 0.06311802
-0.0037518544 0.071891546 0.045909975 -0.0748519 -0.0012135099 0.047252744 -0.078430444 -0.039533082
0.050076026 0.08246233 0.053284682 0.06388898 0.028192626 0.084691785 -0.009985165 0.045660846
-0.07709987 0.010592395 0.04261595 0.11375116 -0.044001896 0.018248709 -0.10549762 0.0028106596
0.07029974 0.020023866 -0.055655684 0.006227561 0.09913893 0.073170744 -0.056767747 -0.036012065
-0.080963366 0.11366567 0.007028914 -0.050259568 -0.07293084 -0.10893207 -0.017126635 -0.009793937
-0.06192352 -0.0639082 -0.088101454 0.06724197 -0.08519991 0.01945502 0.115238614 0.072269395
-0.010212921 0.09530286 0.04972672 -0.104033925 0.045635816 -0.03152626 0.07706432 0.024649112
0.043129288 -0.04998345 -0.002677038 -0.12134759 0.094403766 0.05718924 0.064747036 0.07532534
0.098952204 -0.043393526 -0.12305587 0.049893934 -0.10235755 0.0811159 -0.09389355 -0.06157161
-0.04470177 -0.104320996 0.054880626 0.09624059 -0.04148384 -0.022151785 0.056712065 0.073267005
0.045493588 -0.021910062 -0.0673304 -0.013890091 -0.04615682 -0.019734683 0.018220274 -0.12253602
0.035474032 -0.10964669 -0.056249306 0.106268816 -0.048875585 -0.08682607 -0.06684177 -0.02264678
0.058294397 -0.0421922 0.034540936 -0.114703156 -0.1217742 0.018807065 -0.029058905 0.08168216
0.1056913 -0.000662576 0.106033154 0.013851178 -0.064800665 -0.083965175 0.018455494 -0.081431255
-0.025648264 -0.06472638 0.09437168 -0.022924691 0.070882894 -0.014171229 -0.10180403 -0.00017965009
0.076528 0.10519072 -0.028271412 -0.033012643 0.057753272 0.11526831 -0.049412906 0.07587748
-0.041545738 0.09180697 -0.11502789 -0.038023848 0.078810275 0.023069425 0.014958109 -0.07028746
-0.0008369584 0.046719547 -0.041442834 0.061059494 -0.06616595 0.01041854 -0.10060548 -0.0044738986
0.06287276 0.096056685 0.09580995 0.015091894 0.058082696 -0.016838314 0.026776463 0.0006034254
0.06899773 0.10219572 0.104374796 0.046871353 0.029295145 -0.06557149 -0.11730193 0.09349768

li.0.bias f4 [512]
00000000: 5409 163d 369e b83a bb6b 44bd ca84 c3bd
00000010: 5bbe 80bd fd13 f1bb 539e a13d 5e78 12bd
00000020: 1083 bd3d 5a9f ddbd 95b4 2cbc 1289 57bc
00000030: a5ef adbc 0a67 f3bd 85e9 d9bd 7af3 b7bd
00000040: e24f e6bd da4d eb3a 4083 993d ba79 8c3d
00000050: d405 a83c 7d04 a23d c700 23bd caff 573d
00000060: b159 9fbc db62 d73d bed7 9cbd 1934 0abd
00000070: 5c1e d2bd 4370 00ba fb57 22bd a46c 94bd
00000080: 3fb1 8b3d 0146 5cbd f710 dcbd ae8f b8bd
00000090: d7b4 d53b 7c33 8a3d fcd7 343b 07da 7c3d
000000a0: b3cc d7bd 93f5 31bd 5b7d 84bd 5c8a f0bc
000000b0: a853 c4bd 4211 4bbd e636 de3d 14e9 b2bd
000000c0: b76b bcbd 402e 3f3d 033d 7abd cc9f 923c
000000d0: 41cf 4b3d 2674 5fbd 8c60 e83d 7161 bcbc
000000e0: 46c0 ecbd 7779 d93d e26f 7f3d 37fb e33d
000000f0: 06a9 863d 09a1 edbd 668a 29bd 1ebb b3bd
00000100: 89c4 a1bd ee0c e53c 3517 9d3d 9974 73bd
00000110: 9c31 03bd 31a9 4dbd e1cb 7c3d 8317 30bd
00000120: 954a 923d 737f 57bb 3179 923b 1428 94bd
00000130: e458 86bd 3ee7 493c bc04 8e3c 7117 003d
00000140: 0335 93bd 1bf5 8a3d fac8 19bc 5097 f0bd
00000150: 18ec e33d cfaf a9bd ba17 b43d 4172 a9bc
00000160: 3f6f 8a3d 5bd6 d6bd 6808 033d 79be ecbd
00000170: 79d7 a63d 2f24 e73b 3378 ecbd a1b3 d93d
00000180: ac1a d73d e4f5 edbd e119 233d 63b3 45bd
00000190: 4696 eebd 1f54 6abd e6fa 9abb 9c0b ca3d
000001a0: 8179 cfba 3374 483d e9a5 e9bd 8c0a 223d
000001b0: cf1c e9bd dd0f d83c e4a4 7a3b a52e 3b3d
000001c0: fabe 34bd dcf1 ee3d 5300 883c 30ac bebd
000001d0: 9ab3 153d 1ac0 853d bb29 b53d a293 6abb
000001e0: 9c34 d6bb 14de ddbd 8f0e 343d 2d6a 99bd
000001f0: 58a2 bcbc 6d2a cb3d 3b5f c8bd e319 893c
00000200: d53c 26bb 9479 3e3d 3089 f3bc 22da c23d
00000210: d038 793d 6e9d 97bd ef59 c03d d77a db3d
00000220: 1f66 15bc 692d db3d 7bd2 d23d 72c7 ccbb
00000230: 446b 26bc b728 c13d 8319 1c3c ee05 673d
00000240: eee6 5dbd 4b73 c2bd 70b2 4c3d fe4b c73d
00000250: ee0c c5bd a5b5 c03d 256c 023d 0848 84b8
00000260: 1d42 923d a7c9 463d a483 a53d e1e0 a23d
00000270: cad4 1cbd f604 543d 932e 893d f33d debd
00000280: 387a 0cbd 3936 1f3d d3cd 73bc c693 a73c
00000290: 2dbe 94bd 0ea2 f0bd 4f47 96bd afbe e0bd
000002a0: 1955 e73d c125 88bd 2b94 cbbd 95fa 233d
000002b0: 2274 8bbc dfd9 f5bc 61c9 a5bd bd18 e43d
000002c0: 6d97 a9bc 614d 9abd 9b26 8fbd 6973 493d
000002d0: 9d52 b63d 5422 703d a61d 6f3d 33b4 bc3d
000002e0: 2554 19bc 02c8 adbd 173b 00bd 5e8a c0ba
000002f0: 222a e3bd ced4 c33d ab3b 35bc 794b c8bd
00000300: e61e 0b3d e304 14bd d08a d2bd ea21 803c
00000310: 753f 653c ce14 20bb 95dd 36ba ad94 82bd
00000320: 110b e13c 911f fabc 3607 493d 60cc 78bd
00000330: 1dfe a0bb 64a6 bbbd 32c9 393c 14d6 4e3d
00000340: f049 1dbc 3617 6a3d 1525 d1bd fe14 773c
00000350: 13d0 233d 5b30 ca3d 5c92 d0bd dbdb 88bd
00000360: 0224 cbbd 9569 7bbd 5703 3ebd 4a5b cbbc
00000370: 1147 c8bc 8daf e83d e296 a3bd 2adf 993d
00000380: 6521 c93d 8f00 073d 3e40 0fbc 81f0 c33d
00000390: 0dad 2c3d 074d e6bd 07e9 bfbd 9c59 dfbd
000003a0: 34dc 8ebd 60c9 0dbd f460 cebd 240d bc3d
000003b0: 4757 173c e9ba 913b f082 cf3d 2e39 ab3d
000003c0: 580d 0fbd cb67 4bbd b097 e53d 84d0 a03d
000003d0: 26c9 e2ba 9c3c ffbc e371 0e3c a902 2dbd
000003e0: eb24 bb3c 1e54 f2bd dd04 d1bc 5c6e 523d
000003f0: dd20 e4bd e029 303d 1756 95bd 1c89 103d
0.03662999 0.0014085236 -0.047954302 -0.09546812 -0.062863074 -0.007357119 0.07891526 -0.035759322
0.09253514 -0.108214095 -0.010541101 -0.013155239 -0.021232435 -0.118848875 -0.106402434 -0.08981986
-0.11245705 0.0017952279 0.07495737 0.06859155 0.020510592 0.07911012 -0.039795663 0.052734174
-0.019451948 0.10516902 -0.07658337 -0.03374109 -0.10259697 -0.0004899541 -0.039634686 -0.07247284
0.068209164 -0.0537777 -0.10745423 -0.0901178 0.006521802 0.06748101 0.0027594557 0.061731365
-0.1053709 -0.04344709 -0.06469222 -0.02936285 -0.09586269 -0.049577005 0.10850315 -0.087358624
-0.092002325 0.046674967 -0.06109334 0.017898463 0.0497582 -0.054554127 0.1134654 -0.022995682
-0.11560111 0.10618871 0.06236256 0.111319 0.065752074 -0.11602981 -0.041391753 -0.08775924
-0.07898814 0.027960267 0.07670442 -0.059437368 -0.032029733 -0.05021018 0.06171787 -0.042991173
0.07143132 -0.0032882362 0.0044700135 -0.07234207 -0.06559923 0.012323199 0.017336242 0.031272355
-0.071878456 0.067850314 -0.009386295 -0.117476106 0.11129016 -0.08285486 0.08793588 -0.020684363
0.067595 -0.10490104 0.03199044 -0.11559767 0.08146567 0.007053874 -0.11546364 0.106299646
0.10503134 -0.116191655 0.039819602 -0.04826678 -0.11649756 -0.05720913 -0.0047296165 0.098654956
-0.0015829058 0.04893894 -0.11408598 0.03956084 -0.11382448 0.026374752 0.0038245255 0.04569878
-0.044127442 0.11667225 0.016601717 -0.09310186 0.036548235 0.06530781 0.0884585 -0.0035793562
-0.0065370332 -0.10833374 0.043959197 -0.074909545 -0.02302663 0.099202015 -0.09783789 0.016735977
-0.0025365849 0.046502665 -0.029728502 0.09514262 0.060845196 -0.07403074 0.093921535 0.10716789
-0.009118586 0.10702021 0.10294052 -0.0062493617 -0.01015741 0.09431594 0.009527567 0.05640214
-0.05417531 -0.09494647 0.04997486 0.09731291 -0.09621607 0.09409646 0.031841416 -6.307667e-05
0.07141516 0.048532154 0.08081749 0.079530485 -0.03828887 0.051762544 0.066983365 -0.108516596
-0.034296244 0.03887007 -0.014880615 0.020456206 -0.07262836 -0.117496595 -0.0733782 -0.1097387
0.11295528 -0.06647826 -0.0994037 0.040033896 -0.01702315 -0.030011116 -0.080950506 0.11137531
-0.020702088 -0.0753429 -0.06989785 0.04918233 0.08902476 0.058626488 0.058377884 0.09214058
-0.0093584405 -0.08485414 -0.031306352 -0.0014689674 -0.110920206 0.09562074 -0.011061589 -0.0978002
0.033965014 -0.036137473 -0.10280383 0.015641171 0.01399218 -0.0024426463 -0.00069757673 -0.06376014
0.027471097 -0.03053263 0.049079143 -0.060741782 -0.004913105 -0.09162596 0.011339473 0.05049713
-0.009600148 0.057151042 -0.10212151 0.0150806885 0.039993357 0.09872504 -0.10184166 -0.06682559
-0.09918977 -0.061379988 -0.046389904 -0.024823803 -0.02444795 0.11361609 -0.07987763 0.07513268
0.098208226 0.032959517 -0.008743344 0.09567357 0.04215722 -0.112451605 -0.09370618 -0.109057635
-0.06975594 -0.034615874 -0.10077086 0.09182194 0.009237117 0.0044473303 0.10132396 0.083605155
-0.034924835 -0.04965953 0.11210573 0.07852271 -0.0017302379 -0.03115683 0.008694145 -0.042238865
0.022844752 -0.1183245 -0.025515014 0.05137478 -0.11139081 0.043008685 -0.07291811 0.035287008

li.1.weight f4 [512]
00000000: 0200 803f 3303 803f 25d0 7f3f 8d0f 803f
00000010: 38e9 7f3f b7e2 7f3f f011 803f befd 7f3f
00000020: 11fc 7f3f baff 7f3f c607 803f 6f02 803f
00000030: 3dff 7f3f 3f01 803f 2bff 7f3f c80b 803f
00000040: 47e5 7f3f e1e7 7f3f 9204 803f 07cc 7f3f
00000050: 55fe 7f3f 47f4 7f3f 2a00 803f 35f5 7f3f
00000060: cdfe 7f3f 62e3 7f3f 6d04 803f 58e8 7f3f
00000070: cafe 7f3f 9f03 803f 3907 803f 03fb 7f3f
00000080: 48e6 7f3f b602 803f 8704 803f 6eec 7f3f
00000090: 94f5 7f3f c60b 803f abf5 7f3f 9707 803f
000000a0: 2a05 803f a7f5 7f3f 35ef 7f3f 7206 803f
000000b0: 5dec 7f3f 8f01 803f 61f0 7f3f dfe2 7f3f
000000c0: 310b 803f 66ff 7f3f e5e7 7f3f c2ec 7f3f
000000d0: 1e01 803f f6fc 7f3f 6209 803f 6303 803f
000000e0: 280e 803f 960b 803f 78ff 7f3f 5cfc 7f3f
000000f0: d901 803f 08f1 7f3f afd4 7f3f 4b12 803f
00000100: b801 803f 7904 803f 470a 803f 13fb 7f3f
00000110: 5af8 7f3f ab01 803f f9de 7f3f 12fc 7f3f
00000120: be0f 803f 93f2 7f3f 7e15 803f 1701 803f
00000130: c0f4 7f3f cfeb 7f3f 90ff 7f3f 8e02 803f
00000140: 73ef 7f3f 6c00 803f 6bff 7f3f 09e2 7f3f
00000150: 1cff 7f3f b100 803f 8710 803f 91fe 7f3f
00000160: ace5 7f3f 66f6 7f3f e9fa 7f3f da07 803f
00000170: fdfd 7f3f 85f9 7f3f f8fb 7f3f 7cfc 7f3f
00000180: 2103 803f 7902 803f e91c 803f 6404 803f
00000190: 4d06 803f c2f2 7f3f da03 803f 78fe 7f3f
000001a0: d1f1 7f3f 9bee 7f3f df0d 803f e0fc 7f3f
000001b0: 1bed 7f3f 6fff 7f3f 99f4 7f3f 51f3 7f3f
000001c0: 13ff 7f3f 89f3 7f3f a700 803f f3ff 7f3f
000001d0: a118 803f 1dd4 7f3f b6f4 7f3f 30fd 7f3f
000001e0: 8705 803f 8ae5 7f3f b6e0 7f3f 10fc 7f3f
000001f0: 9cfc 7f3f 800a 803f e6f3 7f3f 24ee 7f3f
00000200: 7dfe 7f3f 3eff 7f3f 33f7 7f3f 89e8 7f3f
00000210: 4202 803f f30a 803f 7504 803f 26ee 7f3f
00000220: 38fc 7f3f 0aff 7f3f 72e3 7f3f 02fa 7f3f
00000230: 52e6 7f3f 78d7 7f3f 2bf8 7f3f 2500 803f
00000240: 5506 803f 4a10 803f 78fe 7f3f dd02 803f
00000250: f1ea 7f3f ff21 803f 66fa 7f3f 75ff 7f3f
00000260: 5f02 803f 3fe6 7f3f d30b 803f 85fd 7f3f
00000270: 7df3 7f3f 6309 803f 1b02 803f 47fc 7f3f
00000280: 9404 803f 1bf9 7f3f 39e4 7f3f 24de 7f3f
00000290: baf9 7f3f 85e6 7f3f 3af1 7f3f 08ed 7f3f
000002a0: 91fd 7f3f 6f00 803f ccd3 7f3f d500 803f
000002b0: 41f4 7f3f 52e2 7f3f 25e1 7f3f 4dfe 7f3f
000002c0: c506 803f c3f3 7f3f 5dfb 7f3f a70b 803f
000002d0: 5701 803f a4fa 7f3f 7602 803f eef8 7f3f
000002e0: 950c 803f 62e3 7f3f d1f8 7f3f 9211 803f
000002f0: 62e5 7f3f fb0d 803f 42df 7f3f 6805 803f
00000300: 5afa 7f3f e2f8 7f3f a3fe 7f3f 25f2 7f3f
00000310: bcf2 7f3f e3fb 7f3f 29eb 7f3f 98fb 7f3f
00000320: e723 803f f1f9 7f3f 9efd 7f3f d501 803f
00000330: 5cfe 7f3f fff8 7f3f 1402 803f 3504 803f
00000340: 5800 803f 7ce3 7f3f 2804 803f 2cff 7f3f
00000350: 4aea 7f3f bff9 7f3f 3dfe 7f3f d604 803f
00000360: 86fe 7f3f 5ef2 7f3f 3f00 803f a6f1 7f3f
00000370: 8cf7 7f3f 260e 803f 2ecf 7f3f 6c08 803f
00000380: c903 803f 13ff 7f3f 8dff 7f3f bbe7 7f3f
00000390: 1bef 7f3f f005 803f bcf4 7f3f eadc 7f3f
000003a0: 0ff5 7f3f 030d 803f dbf5 7f3f 1be9 7f3f
000003b0: b9f5 7f3f b4fc 7f3f 5fdf 7f3f 83f8 7f3f
000003c0: a101 803f 2005 803f 28fe 7f3f c30f 803f
000003d0: 060d 803f b5f7 7f3f 5705 803f f307 803f
000003e0: 2bff 7f3f 2e00 803f 2cf5 7f3f 4e07 803f
000003f0: 0205 803f d1fb 7f3f ed00 803f 7d04 803f
1.0000002 1.0000976 0.9992698 1.0004746 0.9996524 0.99955314 1.0005474 0.99996555
0.99994 0.9999958 1.0002372 1.0000743 0.9999884 1.000038 0.9999873 1.0003595
0.99959224 0.99963194 1.0001395 0.99920696 0.99997455 0.9998211 1.000005 0.9998353
0.9999817 0.99956334 1.0001351 0.99963903 0.9999815 1.0001105 1.0002204 0.9999239
0.99960756 1.0000827 1.0001382 0.9997014 0.999841 1.0003593 0.99984235 1.0002316
1.0001576 0.9998421 0.99974376 1.0001967 0.99970037 1.0000476 0.99976164 0.9995555
1.0003415 0.9999908 0.9996322 0.9997064 1.0000341 0.9999536 1.0002863 1.0001034
1.000432 1.0003536 0.9999919 0.99994445 1.0000564 0.9997716 0.99933904 1.0005583
1.0000525 1.0001365 1.0003136 0.99992484 0.9998833 1.0000509 0.99949604 0.99994004
1.0004804 0.99979514 1.0006559 1.0000333 0.99982834 0.9996919 0.9999933 1.000078
0.99974746 1.0000129 0.9999911 0.9995428 0.9999864 1.0000211 1.0005044 0.9999781
0.99959826 0.9998535 0.99992234 1.0002396 0.9999693 0.9999011 0.9999385 0.99994636
1.0000955 1.0000755 1.0008823 1.000134 1.0001923 0.99979794 1.0001175 0.99997663
0.9997836 0.9997346 1.0004233 0.9999523 0.9997117 0.99999136 0.999826 0.99980646
0.9999859 0.9998098 1.0000199 0.9999992 1.0007516 0.99933034 0.99982774 0.9999571
1.0001687 0.99959624 0.99952257 0.9999399 0.99994826 1.0003204 0.99981534 0.9997275
0.99997693 0.99998844 0.9998657 0.99964195 1.0000689 1.0003341 1.000136 0.9997276
0.9999423 0.99998534 0.9995643 0.99990857 0.99960816 0.99938154 0.9998805 1.0000044
1.0001932 1.0004971 0.99997663 1.0000874 0.9996787 1.0010375 0.9999145 0.9999917
1.0000724 0.999607 1.0003608 0.99996215 0.9998091 1.0002865 1.0000643 0.9999432
1.0001397 0.9998948 0.99957615 0.99948335 0.9999043 0.9996112 0.9997746 0.99971056
0.99996287 1.0000132 0.9993255 1.0000254 0.99982077 0.9995471 0.9995292 0.9999741
1.0002066 0.99981326 0.99992925 1.0003556 1.0000409 0.9999182 1.0000751 0.9998921
1.000384 0.99956334 0.9998904 1.0005362 0.99959385 1.0004267 0.9995004 1.000165
0.9999138 0.9998914 0.9999792 0.9997886 0.9997976 0.99993724 0.999682 0.99993277
1.0010957 0.99990755 0.99996364 1.0000559 0.99997497 0.9998931 1.0000634 1.0001284
1.0000105 0.9995649 1.0001268 0.99998736 0.9996687 0.9999046 0.9999731 1.0001476
0.99997747 0.999792 1.0000075 0.999781 0.999871 1.0004318 0.99925506 1.000257
1.0001155 0.9999859 0.99999315 0.9996297 0.9997422 1.0001812 0.9998281 0.99946463
0.99983305 1.0003971 0.9998452 0.99965066 0.9998432 0.9999497 0.9995021 0.99988574
1.0000497 1.0001564 0.99997187 1.000481 1.0003974 0.99987346 1.000163 1.0002426
0.9999873 1.0000055 0.9998348 1.0002229 1.0001528 0.99993616 1.0000283 1.000137

li.1.bias f4 [512]
00000000: e3d3 5bbc 9c69 59bb c416 31bb b6d5 5a3c
00000010: 55f0 463c 0d06 583c 4e0c 9fba 2944 38bb
00000020: 22ce 9a3a eae1 78bc 59cd 04bb a024 003b
00000030: 4ce2 46bb d66b 4b3b f7c1 ca3a 0d2a 143b
00000040: b55d cebb 2da7 103a 8a00 91bb 3b3d baba
00000050: 3cc4 cc3b a1b0 933b 78a0 323b 09da 1b3b
00000060: 1494 9b39 9f10 31bc b480 543b f0aa 26bb
00000070: a8c8 923b dafe 8cbc 1308 a0bc 5338 35bc
00000080: 07e5 90ba 2e5b 9ebb 7c5e f6bb 7d24 bd3a
00000090: b19e 3a3a 03df c2bb 44bd ac39 1cc6 b6b9
000000a0: b055 bb39 2286 a13b d5f8 0cbc 56fe 48bb
000000b0: 048f 453c 7010 39ba 519c 913b 6e99 603c
000000c0: 9d15 d139 219f 093b 9ec0 a73b 3112 b73a
000000d0: 6cd8 f939 cd69 633b af68 003b 9ede 43bb
000000e0: 365e 4d3c 1977 023c f0c5 0c3b 1214 083c
000000f0: 0c5b a83b fd62 17bb c2eb 0a3c f5fb 5c3c
00000100: c6da f139 1566 4dba dd01 c7bb 2efe 64bb
00000110: 939b 28bb cf6f 2cbb 11a2 073c 8ca5 fdbb
00000120: d602 e93a 4de4 053b 24ec b43c 7127 b63b
00000130: 436a 5bbb d578 a93b 2024 e53b a9f9 043a
00000140: 3456 0d3b 37cf 60bb 7d18 c03a 6118 6d3c
00000150: 1396 0cba 7d41 59b9 8f5a bd3b 91d9 b9ba
00000160: 80f8 a43b 5a8d b6bb fc65 d33b d340 7a39
00000170: f93c a7bb 1c13 0b3c 7528 a039 4cea 4bbb
00000180: 2560 98bb 5d9b 47bc f86d c83b 2db5 1dbc
00000190: 6a7c 37bc b195 47bc 39e3 3c3b 16b4 eb3a
000001a0: 693c e3bb 6d47 1dbc 09c1 39bb 0ff9 1e39
000001b0: 01cd 81bc adc1 473c 4586 e33a b1b6 62bb
000001c0: 16b1 a938 b453 ce3b f5c4 d33b 1be0 e6bb
000001d0: 2e1d debb 57ee c5ba 6b92 d03b 7f53 63bb
000001e0: 2660 3e3c 8a3c c63b 3745 6dba f7b8 a5b7
000001f0: 9731 17bc da0b 5dbc 6b74 2cbd c041 253c
00000200: a352 adb8 2e01 12bc 7bc0 d93a 3364 3bbc
00000210: c441 44bc 49b6 983b 6719 0e3c 7d24 28bb
00000220: 87bb 4fbb 94fe 3939 e309 023c d659 8ebb
00000230: 129a 3aba 1dda 3bbc 44d3 13bc 6775 79bb
00000240: c9a3 403c 4d74 733c ff8e d83a 1ec6 c9bb
00000250: e7c4 f93b 1efa 593c 0b2b 59bc 0f57 383b
00000260: 98c3 08bc c84e f83b aa2a 0ebc cca0 c93a
00000270: 8632 19bc 4900 45bb 2426 3b3b 9ac7 c23a
00000280: 39c1 1fbb 575c ee3b e4bd 9abb d7f8 703c
00000290: 624c de3b 906c adbb 9ee3 d3b8 4abf 27bc
000002a0: 796d 023c afe0 00bc 413f 893a 9a86 923b
000002b0: 70c1 47bc 907e 4f3c e1b5 55bc 312b 303b
000002c0: e04b 49bb 9a5f 563b 8ec1 df3b 593e 593b
000002d0: 10ef b1ba 0b8b 80bb 57bb 003b 6e6c f8bb
000002e0: e1cd 333b af9a 1dbc 8e91 78bb 94f2 d7bb
000002f0: d61d 4dbb aee0 df3b bb87 0fbc f912 473c
00000300: 52ea e53b f16c d13b e5ba c7bb dc58 04bc
00000310: 9bda 213c f6d8 80ba 0ed9 b23b 5cf0 33bb
00000320: 9123 6f3c 70ce 09bc c76f d43b 1bfb 5dbb
00000330: 1a44 cfb9 8b2c 7e3c 3d4e 19ba 91a1 1e3b
00000340: aa3b 75bb 532b 133c 4687 c43b 6398 383b
00000350: baaf 2d3c e43a bebb e869 893b 8bcb bb3b
00000360: 845e 7c39 e7b9 56bb 59eb 463a d1e1 113c
00000370: 8925 58bc da6a 743c 360e 5e3c 75d2 4abc
00000380: ee95 363c ccb9 083a 20e5 823b 3d8d 2a3c
00000390: aa68 ba3b c8af 123c 2525 e7ba 8e0f 463c
000003a0: ebb9 cabb b7a1 6cbc 3724 c1bb 4346 973c
000003b0: 0def e3bb f07c 21bb 253e b53a f78e 12bc
000003c0: 699c b3b7 e146 1cbc 6d9a a6bb 2ca2 63bc
000003d0: 2d3a 74bb 57e8 97ba a7ef bd3b a4a4 283c
000003e0: 2e32 59bb 9410 843a 3c1f b53b 02fc 1bbc
000003f0: b1ed 963a 0236 fd39 9c07 38bb 3efa 033c
-0.013417217 -0.003317452 -0.0027021626 0.013356617 0.012142261 0.013185036 -0.0012134404 -0.0028116798
0.00118107 -0.015190581 -0.0020263998 0.001955308 -0.0030347286 0.0031039617 0.0015469183 0.0022608072
-0.006297792 0.0005518075 -0.004425113 -0.0014208922 0.006248979 0.00450714 0.0027256291 0.0023781082
0.0002967423 -0.010807185 0.0032425346 -0.0025431477 0.0044794865 -0.017211366 -0.0195351 -0.011060792
-0.0011054584 -0.004832647 -0.0075185876 0.001443043 0.0007118984 -0.005946995 0.0003294741 -0.00034861348
0.00035731262 0.00492932 -0.008604248 -0.0030669174 0.012058023 -0.00070596393 0.004443683 0.0137084555
0.0003987969 0.002099939 0.0051193973 0.0013967213 0.00047654228 0.0034700513 0.0019593646 -0.002988733
0.012534669 0.007962965 0.0021480285 0.008305566 0.0051378068 -0.0023099773 0.008479061 0.013487806
0.000461301 -0.0007835341 -0.00607322 -0.0034941542 -0.0025727495 -0.002631176 0.008278386 -0.007740682
0.0017777334 0.0020430267 0.022085257 0.005558901 -0.0033480085 0.005171875 0.006992832 0.00050726027
0.0021566274 -0.0034303197 0.0014655736 0.014471144 -0.0005362939 -0.00020719129 0.0057786177 -0.001417922
0.0050345063 -0.0055710496 0.0064513665 0.00023866007 -0.005103704 0.008488443 0.0003054772 -0.0031114994
-0.004650133 -0.012183038 0.006116625 -0.009625715 -0.011199096 -0.012181685 0.0028821959 0.0017982747
-0.0069346917 -0.009599549 -0.0028343818 0.00015160836 -0.015844824 0.012192172 0.0017358741 -0.0034593756
8.091533e-05 0.0062965993 0.006462688 -0.0070457584 -0.006778381 -0.0015100938 0.0063651106 -0.0034687219
0.011619603 0.0060496973 -0.00090511463 -1.9755664e-05 -0.009228132 -0.013491595 -0.042103212 0.010086477
-8.264675e-05 -0.008911414 0.001661315 -0.011437464 -0.01197857 0.004660402 0.008673049 -0.0025656514
-0.0031697468 0.00017737813 0.0079369275 -0.0043442054 -0.0007118295 -0.0114655765 -0.009022538 -0.0038064362
0.011757799 0.014859271 0.0016522108 -0.0061576506 0.0076223495 0.0133042615 -0.013254891 0.0028128063
-0.008347414 0.007577751 -0.008677164 0.0015383004 -0.009350425 -0.0030059984 0.002855667 0.0014860511
-0.0024376644 0.0072741914 -0.0047223438 0.014707766 0.006784008 -0.0052924827 -0.00010103661 -0.010238478
0.007960671 -0.007866069 0.0010471122 0.004471612 -0.012192115 0.012664452 -0.013043852 0.0026881213
-0.003071539 0.0032710792 0.0068284934 0.0033148734 -0.0013575274 -0.003922825 0.0019642913 -0.007581285
0.0027435946 -0.009619399 -0.0037928554 -0.006590197 -0.0031298301 0.006832204 -0.008760388 0.0121505195
0.0070164585 0.0063911607 -0.0060952776 -0.008077826 0.00987878 -0.0009830284 0.005458004 -0.0027456498
0.014595882 -0.008411035 0.0064830515 -0.0033871594 -0.00039532856 0.01551355 -0.0005848145 0.0024205188
-0.0037419596 0.008982497 0.005997571 0.0028167001 0.0106009785 -0.00580536 0.004193533 0.0057310513
0.00024067803 -0.0032764615 0.000758817 0.0089039365 -0.013192543 0.0149180535 0.013553193 -0.012379278
0.011144144 0.0005215674 0.003994599 0.01040965 0.0056887465 0.008953042 -0.0017634971 0.012088669
-0.006186714 -0.014442853 -0.0058942097 0.01846612 -0.0069559873 -0.002464112 0.0013827725 -0.008945218
-2.1411297e-05 -0.009538383 -0.005084327 -0.013893645 -0.003726612 -0.0011589628 0.005796391 0.01029316
-0.0033141482 0.0010075741 0.005527405 -0.009520533 0.0011514929 0.0004829616 -0.0028080707 0.008055268

li.1.running_mean f4 [512]
00000000: 70b9 c3be af3b 0e3f d8de 7cbe 23c8 083f
00000010: bcc2 b43e 1a1d f83e d1c9 5fbe a506 133f
00000020: 73c9 693f 2a0d 14be e2f8 0fbe eb7e 81be
00000030: 4e6d 2d3e ac3f 49be 802d b93e 5688 09bf
00000040: 4867 33bb fa54 38be 817a a03e c501 51be
00000050: 455b 95be 532a 5f3d d3ea 87be 1913 903e
00000060: dd76 94bd db51 053f a144 b23c ec46 b53c
00000070: 7f41 ffbc e6f6 b3be 7fc5 c8be 827a b23e
00000080: 227f b6bd aa5e e03e 92b6 343e 7af0 46be
00000090: d9f3 2bbf 637a 833e 9b3e 283d 6a81 d03c
000000a0: ba9b 8cbe e5f4 8a3e 7fa5 783e e788 4dbe
000000b0: c357 ffbe 021e 8d3e 20ca efbe 13b5 863e
000000c0: 3823 203d cecc 203f 8605 4dbf 285b 683b
000000d0: 8835 45be df95 adbe 3696 6cbc 561e ad3e
000000e0: fc12 bebb 3b74 003f 1507 3c3e 553a 20be
000000f0: abc8 f03e 4c9d f5bd 7947 63bf e376 babe
00000100: bebb 1ebe 97f0 eebd 451b b43e 23d2 07bf
00000110: 2526 76be a159 a7bd 4a66 b3be 44cc 4dbe
00000120: b459 c1bd 67a0 733e 358c 823f 9635 a1be
00000130: abab 383f bffa 9ebe 4546 3a3f 513b d0bc
00000140: 8b9c dbbd 3e7c b7be 6bec ddbe 3d4d 9d3e
00000150: 0376 8bbc 53db b03e 2764 a8be 78e6 adbd
00000160: da96 16bf b1cb a9be 841e 5d3e 8209 ec3b
00000170: 2cdc c13e 8468 fb3e 22e7 143d 927a b73b
00000180: cb55 013f e9dc be3e db61 23be 58b4 2ebf
00000190: 0023 2dbf 4608 47bf cb00 32be d272 3ebe
000001a0: 8a1c 2abe ca6e 80be a55a 7abe a25a c7bd
000001b0: bf55 1ebf a093 3d3f 2c7e 09bf cc9c 5a3c
000001c0: 6941 143e 0e1b cb3e 1c00 41be a3da 113e
000001d0: bbc6 803e 8dbd 13be 3d9a ecbe cc1a 79bf
000001e0: 32e1 8b3f 4eb8 e53d 9692 36bd 6305 6dbe
000001f0: 29db 12bf 5019 87be f8cd 923d 0d1e eebd
00000200: d739 403e 9160 e8bd a32f 70bf 50b5 ccbd
00000210: cbca 0abf 512d f6bd 357b 7ebe 315e 6f3f
00000220: ecb4 ae3e db3f 873d 3c6d 1cbf 7bb7 a7bd
00000230: b65d 893e 16c1 f23e c366 083f 3588 833e
00000240: 324d b53e 7329 fa3e dbea 643f 69e0 98be
00000250: 0009 1dbf 84cb 443f a31c 2ebe 0a1a bb3e
00000260: 094b 60bf 35f0 20bf b84d 6f3e d567 a23b
00000270: bfd0 a33e b3e9 ea3e d7c7 8bbb 8a09 9abe
00000280: cd9e 323e dfe0 c73e bacb 98be 166a 24bf
00000290: d635 f43e f81c dabe 81a7 893f 8d18 09bf
000002a0: d7f5 233f be17 29bf 409a 8dbd 38dc 4bbe
000002b0: eed3 f13e ce16 cb3e ed4e 933e fd8f 613f
000002c0: c652 5b3e 3837 c0be 47c0 60be 0a83 6bbe
000002d0: 8f63 4a3d eb92 6dbe e4cd 813d cc64 57be
000002e0: d9e3 a93d 52d9 243f a66c 8e3e 776f 4a3e
000002f0: c8bf 28be 0162 babe c912 b8be d0ec bcbe
00000300: 68a8 afbe 1566 8b3e f76a 7ebf 1e45 c0be
00000310: f62a 003f 046f 22bf c1cc 8fbe b8ec b8be
00000320: 0a39 07bf f7f0 b53e 340a fe3e 2efe 853e
00000330: 8078 153f b845 8abe 010d 1ebe 71a5 963d
00000340: 4aff aebc bc72 a73e c15a 1abf f240 163f
00000350: 26b1 ef3e 2e8f a53d 1a00 19bf e941 843f
00000360: e68f 35be 54dc 173e 4baa 64be 48fa ab3e
00000370: baed 8dbe 0f6c bcbd 7466 c43e 5a3c bbbe
00000380: ce21 2f3f d9c5 10be 5093 dfbe 64aa 093f
00000390: 03af f4be 6b76 debe 43ea c83e bf3d e1be
000003a0: e528 74be 245a d0bd 0a80 f13e 1308 433f
000003b0: 7615 2cbe d27a a8be a361 5d3e 0908 fa3e
000003c0: 79bf 153e 7530 7abf e8c9 debd b7c2 b83e
000003d0: ca3a 253f 814b a6be d632 b4be 61fb cebe
000003e0: 223c c5be 032e d1be 92e5 62bf eb99 d03e
000003f0: 9860 ffbd be99 643d 466d 633e 5347 babe
-0.38227415 0.5555982 -0.24694383 0.53430384 0.3530482 0.48459703 -0.2185433 0.57432014
0.9132301 -0.14458147 -0.14059785 -0.25292143 0.16936228 -0.19653195 0.36167526 -0.5372366
-0.0027374793 -0.18001166 0.31343463 -0.20410831 -0.29171196 0.054483723 -0.26546344 0.2813957
-0.07249234 0.52078027 0.02176124 0.022128545 -0.03115916 -0.35149306 -0.39213178 0.3485909
-0.089109674 0.43822223 0.1764777 -0.19427672 -0.67168957 0.2567931 0.04107533 0.025452334
-0.2746256 0.27139965 0.24281882 -0.20071755 -0.49871644 0.27561957 -0.46833897 0.26310024
0.039096087 0.6281251 -0.80086553 0.0035454724 -0.19258702 -0.33903405 -0.01444011 0.33812207
-0.005800603 0.50177354 0.18362077 -0.15647252 0.47028098 -0.119928926 -0.88780934 -0.36418828
-0.15501305 -0.116669826 0.35177055 -0.5305502 -0.24037988 -0.08171392 -0.35038978 -0.20097452
-0.09440938 0.23791657 1.0199038 -0.31486195 0.72136945 -0.3105068 0.7276347 -0.02541891
-0.107232176 -0.35836977 -0.43344435 0.3072299 -0.017024046 0.3454233 -0.3288891 -0.08491224
-0.5882393 -0.33163217 0.21593672 0.007203282 0.3786329 0.49103177 0.036353238 0.0055993283
0.50521535 0.37277916 -0.15955298 -0.6824393 -0.6763153 -0.77747 -0.17383115 -0.18598488
-0.1661245 -0.25084525 -0.2444864 -0.09734084 -0.6184959 0.7405338 -0.5370815 0.013343047
0.14478077 0.3966908 -0.18847698 0.1424356 0.2515162 -0.14427777 -0.46211424 -0.97306514
1.0928099 0.11216794 -0.04457339 -0.23146586 -0.5736566 -0.263865 0.07168192 -0.116268255
0.18772064 -0.113465436 -0.9382269 -0.0999552 -0.5421569 -0.12020362 -0.24851687 0.935031
0.34122407 0.06603976 -0.6110418 -0.08189293 0.26829308 0.47412938 0.532818 0.25689855
0.35410458 0.48859748 0.8942086 -0.2985871 -0.6134186 0.7687304 -0.17003112 0.36543304
-0.87614495 -0.62866527 0.23369491 0.0049562254 0.31995198 0.45881423 -0.004265766 -0.30085403
0.1744339 0.3903875 -0.2984293 -0.64224374 0.47697324 -0.42600226 1.0754243 -0.53553087
0.64046997 -0.6605185 -0.069141865 -0.19908226 0.47232002 0.39665836 0.28771153 0.88110334
0.21418294 -0.3754213 -0.21948348 -0.22999206 0.049411353 -0.23200576 0.06338099 -0.21034545
0.082954116 0.64394104 0.27817267 0.19769083 -0.16479409 -0.36402896 -0.35951832 -0.36899424
-0.3430817 0.2722632 -0.99381965 -0.37552732 0.50065553 -0.63450646 -0.28085902 -0.36118102
-0.5282141 0.35535404 0.4961716 0.26170486 0.58386993 -0.27006316 -0.15434648 0.07355774
-0.021361966 0.32704723 -0.6029473 0.5869285 0.4681484 0.0808395 -0.5976578 1.0332614
-0.17730674 0.14830142 -0.22330587 0.33589387 -0.27720433 -0.09200298 0.38359416 -0.36569482
0.68410957 -0.14137973 -0.43667078 0.5377562 -0.47789773 -0.4344972 0.39241228 -0.4399242
-0.23843725 -0.10173443 0.47168 0.76184195 -0.16805062 -0.32906204 0.21619277 0.48834255
0.14623822 -0.9773019 -0.10878354 0.36086056 0.6454283 -0.3247948 -0.35195035 -0.40426162
-0.3852244 -0.40855417 -0.88631546 0.4074243 -0.12469596 0.055810682 0.22209653 -0.3638254

li.1.running_var f4 [512]
00000000: cd44 4a3d 11fb 493d f0ae 9f3c 27cc b33d
00000010: 7189 373d 6491 793d 8404 3e3c 2155 8c3d
00000020: 75bf 283e b077 103b 66ae 143c b2fa 9f3c
00000030: 0f8f 753c 39e6 8a3b 830c 423d c895 433d
00000040: f6b6 963b a770 e83b 62f8 153c e7d2 403c
00000050: b63b c53c d799 1e3b 1d83 073c 2993 ff3b
00000060: bffc 4d3b 7c16 eb3c ae9a 3d3c 0417 383b
00000070: 0b2c d83b 6c8a 553d 9339 6b3d d93d 193d
00000080: 07a1 1b3c afcc 863d 6b74 ea3c 3b26 0d3c
00000090: d6b6 fe3d acb3 183c 53bf 313b ffb6 483b
000000a0: 8e35 473c 27bd 013d be33 153d f993 283c
000000b0: c717 273d 7427 083d dbc7 823d a8d4 6c3d
000000c0: 7158 c83b 3989 893d 0e3d e83d 4373 613b
000000d0: 34f3 fc3b fcf1 af3c 7dc7 8d3b 2f14 f23c
000000e0: a753 4a3c 3466 033d 9e44 363c 2b2e 8b3c
000000f0: bf4d 263d c86a 0a3c 9b3c 233e c092 7b3c
00000100: c0e3 553b d63d d23b 02b1 4d3c a318 9e3d
00000110: 8681 f83b b7dd 923b 56f1 cd3c 0b63 3a3c
00000120: 1237 943b 7999 4c3c ea08 433e df0f 713c
00000130: 473d 1b3e e7c1 b93c b836 033e ed67 5e3b
00000140: 94bd 803b 4088 253d 90fa 103d 946b 503d
00000150: 49f4 8a3b e7e2 183d 1465 113d bd7d ba3b
00000160: 0eea c73d 8eb7 8d3c ff44 563c ddc4 9a3b
00000170: fdcf 7e3c 8065 683d ca1c d73b af64 2a3c
00000180: b9b8 063d 0f37 2a3d 30df 4a3c d1fb b03d
00000190: 058d c73d f4b9 c73d 4401 e53b 3859 cd3c
000001a0: 2c4f 083c d8b8 823c dff4 ef3b 38b8 ad3b
000001b0: dc4a 813d 937d f73d b030 8c3d d804 fc3b
000001c0: 9a4a 843c 45f8 a43c 1a86 1e3c 83b5 573c
000001d0: 31de 1c3c fd1b b33b cde1 9b3d fd36 3a3e
000001e0: 4015 8c3e ffd6 a13c 93f3 693b 99a6 983b
000001f0: f46b a73d 6a10 103d 470e 4b3b f241 5b3b
00000200: e567 293c efe2 5c3c a318 3b3e 0271 c53c
00000210: 9ec3 bb3d 51e3 253b f2de 013d ec96 263e
00000220: 1ca4 ff3c 1fb2 473b 70b6 073e a643 1c3c
00000230: ea19 4e3c db95 f63c 92fe 7e3d d8fa 013c
00000240: 1697 823d 25b3 973d 8d41 1d3e ae5a 243d
00000250: bbde 643d 12bb f83d b2bf 933c 648c 043d
00000260: 0810 4e3e 694c f73d 7cd9 843b b075 b53b
00000270: 1fae b73c 6ee9 223d 08df 263b d2d5 103c
00000280: 5407 633c 3ad3 cb3c 1868 943c 4c6d ef3d
00000290: 560d 853d f935 523c a287 943e 285b 1c3d
000002a0: a736 973d 4c93 bd3d 8344 143b 539d 623c
000002b0: 17a5 223d 73a4 553d 5777 ed3c 7606 053e
000002c0: f2bc 203c 6127 963c ac7c 273c c362 af3c
000002d0: 77b9 d33a 1839 f33c 203b 7c3b ab3f 923c
000002e0: 6b8f e33b 8b4b eb3d 09f0 d53c 7840 493c
000002f0: 739d ea3b ea40 0a3d 7ece 9a3c 7025 893c
00000300: a5e3 993c f28c 4e3c 06be 483e a700 173d
00000310: 71fb 883d 3191 943d 6c4f 7b3c 8953 f83c
00000320: ae03 393d 9bf0 b33c d895 473d 1d09 b83c
00000330: 5571 b13d 1140 883b 8fe7 913c 21d6 3a3b
00000340: c31a 153b c4a3 d83c 33c9 543d d4b8 8c3d
00000350: 40c0 523d e756 033b a9f2 4e3d 8aa4 a33e
00000360: 3b40 383b 1d48 683c 5a93 093c 28ae ee3c
00000370: b009 7d3c 0149 943c ee9d 673d 3090 4c3d
00000380: 9a27 963d 75ea 673c 878d 0c3d b2d6 083d
00000390: bbff 613d bbec c03c 6b96 393d 2a19 093d
000003a0: e9fa 513c 02dc c53a 413b 7c3d 9275 de3d
000003b0: 74b2 0f3c 5c3b 243d e6ee 303b b372 f83c
000003c0: f05d e33b 9dde 553e 3e5b ca3c ee89 ae3c
000003d0: 2c30 8b3d 38e2 273c ad53 033d 1d23 0d3d
000003e0: 5022 2b3d fb2f cb3c 363e 153e 89f2 c13c
000003f0: b67b d03a 5af0 043b 51c8 a03c 5fbe d83c
0.04938202 0.0493117 0.019492596 0.08779173 0.04480881 0.06092967 0.011597756 0.068521746
0.16479285 0.0022043996 0.009074783 0.01952872 0.014987721 0.0042388705 0.047375213 0.047750264
0.0045994474 0.0070935073 0.009153457 0.011769033 0.024076324 0.0024200582 0.008271006 0.0077995253
0.0031431166 0.028697245 0.011572523 0.002808989 0.006597047 0.052133963 0.057427954 0.0374125
0.009498841 0.06582009 0.028619966 0.008615072 0.12437217 0.009320181 0.0027122095 0.0030626652
0.0121587645 0.03167453 0.0364263 0.010289186 0.04079416 0.03324075 0.06385776 0.057819992
0.0061140587 0.06715626 0.1133977 0.0034400977 0.0077194218 0.021477692 0.0043267594 0.02955064
0.012349046 0.03207989 0.011124758 0.016989788 0.04060149 0.00844831 0.15941088 0.015354812
0.003263697 0.006416063 0.012554409 0.07719543 0.0075838 0.004481997 0.025139492 0.011376153
0.0045231665 0.012487763 0.19046369 0.014713257 0.15160094 0.022675468 0.12813842 0.0033936456
0.0039288495 0.04041314 0.035395205 0.050883844 0.004240547 0.037325766 0.035496786 0.0056912587
0.09761439 0.01729944 0.013077973 0.004723175 0.015552518 0.056737423 0.006564711 0.010399981
0.03289101 0.041556414 0.012382314 0.0864178 0.09743694 0.097522646 0.0069886763 0.025066957
0.008319657 0.015957281 0.007322892 0.0053015016 0.063131064 0.12084498 0.06845224 0.007691007
0.016148854 0.020137915 0.009675527 0.013165834 0.009574459 0.005465983 0.076114275 0.18185039
0.27359962 0.019755838 0.003569816 0.004658532 0.08174887 0.035171904 0.0030983852 0.0033456055
0.010339712 0.01348184 0.18271117 0.024101738 0.091681704 0.0025312493 0.031706758 0.1626851
0.031206183 0.0030471159 0.13253188 0.009537613 0.012579421 0.030100754 0.062254496 0.007933341
0.063764736 0.07407216 0.15357037 0.04012554 0.055876475 0.12145056 0.018035743 0.03236045
0.20123303 0.12075121 0.0040542465 0.005537711 0.022421895 0.039773397 0.0025462527 0.008840041
0.013856728 0.024880994 0.018116042 0.116907686 0.06496684 0.012830251 0.2900973 0.03817287
0.07383471 0.0925661 0.0022623844 0.013831454 0.039708223 0.052158784 0.02898757 0.12990746
0.009810673 0.018329324 0.010222595 0.021409398 0.0016153295 0.02969031 0.003848739 0.017852625
0.006944587 0.11489018 0.026115434 0.012283437 0.0071598827 0.033753313 0.018897291 0.016741484
0.018785307 0.012606846 0.19603738 0.036865856 0.06688584 0.072542556 0.01533876 0.03031327
0.045169525 0.021965316 0.048726887 0.022465283 0.086641945 0.004158028 0.017810611 0.0028508978
0.0022751547 0.026445277 0.05194969 0.06871191 0.051452875 0.0020040812 0.050524388 0.3196147
0.0028114456 0.014177349 0.008396948 0.029135779 0.015444204 0.018101217 0.056547098 0.049942195
0.07331772 0.01415502 0.03431466 0.033407874 0.055175524 0.023550382 0.045309465 0.033471264
0.012816169 0.0015095475 0.061579946 0.108622685 0.008770574 0.040095672 0.0026997863 0.03032813
0.0069386885 0.20885701 0.02470171 0.021306004 0.067962974 0.010246806 0.03206222 0.034457315
0.04178077 0.024803152 0.14574513 0.02367522 0.0015906009 0.0020284862 0.019626768 0.026457964

li.3.weight f4 [1, 512]
00000000: 4d4e 073d 944a 89bc 16ca aebc 8e1d 493d
00000010: e67f ac3c 5353 bf3c 985f 083d bbf0 1cbc
00000020: ac94 a23b b1a0 293d f81e 403d 577c 6dbc
00000030: 2eb7 6e3b 2781 7ebc 2085 d43a 8556 4cbd
00000040: 870b bbbc 3acc 053d 546c 983c e180 6f3c
00000050: cda9 d6bc 2464 a5bc 4057 c73b 023e 083c
00000060: b5a8 2ebb d5ac 90bc 8cec 8cbc 740e b9bc
00000070: 4147 80bc 096b 413d 52c8 4d3d 3137 06bd
00000080: 232b 223c c627 2abd 3938 34bd 3807 f1bc
00000090: 0037 1b3b 9137 e43c afba 8cbc afff b1bc
000000a0: ebab b1bc d2e0 e53c f91f 0abd c978 d53c
000000b0: d7d8 07bd fcc4 25bc b7f9 29bb 048b ef3c
000000c0: 205d e1bc 5c62 14ba 610e 8dbc fd5a 14bc
000000d0: d2f5 1a3c dc77 e5bc 69db dabc 4ae1 7cbc
000000e0: 2a83 15bd d00f 4b3d bddd afba 2058 643b
000000f0: 0d45 bf3c 7e70 b13b 4513 9cbc 5d2d 40bd
00000100: 082f 3dbc 0840 b83c f283 083d d105 2a3a
00000110: 361a 813b 28de 67bc b7a7 bcbc 5ab0 0d3d
00000120: 19d4 0bbd 7700 0c3c dc35 7b3d 256b d5bc
00000130: 8d97 12bc ae99 aebc 3512 033c d3e0 80bc
00000140: a8e3 cfbb cfed ea3b e4ce 5f3b 0e0d fd3c
00000150: 75bd d9ba 0c4f 1b3c f3ed 0ebd 317e f3bb
00000160: a5cf 6abb ccd1 593c 1547 18bd fd56 b5bc
00000170: 55c0 793b 5e0d e23c 2bc1 60bc 1edc 173c
00000180: 73be b3bc 0ac4 3abd 2b9d 5c3d e38f b43c
00000190: be40 d03c e99f 133c bf35 853c e4a5 3f3a
000001a0: 4ffa 063d dfc6 ca3c ae07 1a3d 0201 493b
000001b0: 6b19 ed3c 1e8f 9d3c 36ab d6ba 8ca2 1bbd
000001c0: 478f 16bb 1fd7 713b 05b9 0dbd fe14 083c
000001d0: 86b0 543d 92a3 013b 573f a1bc 7765 153a
000001e0: 8a8b e23c 2d1c 033d f9be 84bc 3f56 bd3b
000001f0: 8c64 053c f4c8 333d f7f0 5ebd 18ae 1abd
00000200: a61f 863b f87a ef3c 9645 45ba c2ec bf3c
00000210: 125e d13c 3695 f4bc 284f 08bd 2dee 88bc
00000220: e3c9 9438 0025 c6ba ff92 98bc e024 323c
00000230: fc87 043d f16e e2bc 1e09 15bd ed59 243d
00000240: af1f 333d 42d4 663d f985 3c3b d98c 823c
00000250: ade2 bdbc 2cc8 6a3d 510a 253d 6cbe 8dbb
00000260: 274a 7c3c c9c3 7dbc 6494 f5bc 96d1 3ebc
00000270: 44d4 abbb f5b7 26bd 4386 9cbc 78cf 9a3c
00000280: 00c8 8fbc 096d a33c 9cc8 db3c 0d13 08bd
00000290: e51a 043c 58a1 063d d08a 0dbc 526c 6e3c
000002a0: 7035 3e3c 95af 7b3c 3cdf afbb e6ae 223c
000002b0: a757 e6bb ae7f 043d 4cef 92bb 5a30 1fbb
000002c0: 693d ad3c b9e1 a43b fc62 dfbc 3f28 53bd
000002d0: 62f6 3a3c 87fa 53ba f7f2 b0bc 100d e13c
000002e0: 1af8 43bd 63a0 93bc 7158 30bc 2486 0a3d
000002f0: 1e34 1bbc c753 15bd 0da6 063c 8ee8 09bd
00000300: 5f00 e1bb 024a eb3c 7e70 fd3b 1f38 ee3c
00000310: 5b1d 4c3c cdbe 33bb cbdb a5bc 3ebb 2aba
00000320: 34c0 80bd 0ce8 8dbb 07dd b6bb 795b 41bc
00000330: d7be f13a 5adc ffbc 55ad 4e3c 7db3 91bc
00000340: d98a 7d3c 12c9 a13c 08ba f1bc 5349 883a
00000350: 4609 423c 978f e23c 006f a1bc b566 983c
00000360: 22c1 87bb 82f8 27bc 8312 003c b63d 153d
00000370: b16e 253d 3368 50bd 7f36 813c 3f6b 203d
00000380: f9a4 163d 16da 233c 1c72 a3bb 3dd1 9f3c
00000390: ddb1 06bc 5660 e2bc 787f 4bbc b118 02bd
000003a0: 8cb7 f13c 7f38 5b3d 0704 0abc 482e bf3c
000003b0: c70f 603c 6b2c c13a 743c 90bc 288b 40bc
000003c0: 7d35 bd3c 86c0 b43c 53f9 543c 67b7 40bd
000003d0: 8c52 0ebd 1355 223c da2e 9ebc 3cc6 41bd
000003e0: 3e03 803a 5f59 a93b 04f2 eabc cdd1 43bd
000003f0: ba95 cb3c 8731 9bbb 9d42 2bbc 0a0e aabc
0.033033658 -0.016759194 -0.021336596 0.04910045 0.02105708 0.023355162 0.03329429 -0.009578879
0.0049615707 0.041413013 0.046904534 -0.014494977 0.0036425102 -0.015533722 0.0016213991 -0.0498872
-0.022832645 0.03266547 0.018606342 0.0146181295 -0.026204014 -0.020189352 0.006083399 0.008315565
-0.002665085 -0.017660538 -0.017202638 -0.0225899 -0.015658977 0.047221217 0.05023987 -0.03276748
0.00989798 -0.041541837 -0.04399893 -0.029422387 0.0023683906 0.027858527 -0.017178861 -0.021728365
-0.021688422 0.028061304 -0.033721898 0.026058571 -0.03316578 -0.0101177655 -0.0025936195 0.029241093
-0.027510226 -0.00056604086 -0.01721877 -0.009054896 0.009458022 -0.028011255 -0.026715951 -0.0154345725
-0.03650204 0.049575627 -0.0013417524 0.0034842566 0.023348356 0.0054150214 -0.019052157 -0.04691826
-0.011546858 0.02249147 0.033328958 0.0006485852 0.003939892 -0.014152087 -0.023029191 0.03459201
-0.03413782 0.008545033 0.06133066 -0.026052067 -0.008947265 -0.021313515 0.007999946 -0.015732205
-0.0063442774 0.0071694623 0.0034150416 0.030890014 -0.0016612249 0.009479295 -0.034894895 -0.0074308147
-0.0035829332 0.013294648 -0.037177164 -0.022136206 0.0038109024 0.027594265 -0.01371793 0.009268789
-0.0219414 -0.045597114 0.053860825 0.022041267 0.025421496 0.0090102935 0.01626098 0.00073107914
0.032953557 0.024753032 0.03760498 0.0030670767 0.028942784 0.019233283 -0.0016377929 -0.037996814
-0.0022973584 0.0036901904 -0.034600276 0.008305786 0.05192616 0.0019781333 -0.019683523 0.00056990184
0.027654428 0.032009292 -0.016204344 0.0057781036 0.008141648 0.043892816 -0.05442902 -0.037763685
0.0040931283 0.02923344 -0.0007525323 0.023428325 0.025557552 -0.029856306 -0.033278614 -0.016715134
7.094794e-05 -0.0015117228 -0.01862478 0.0108730495 0.032356247 -0.027640792 -0.036385648 0.040124822
0.043731388 0.05635477 0.0028766377 0.015936302 -0.023179376 0.057319805 0.04029304 -0.0043256786
0.015398539 -0.015488573 -0.029977985 -0.011646649 -0.00524381 -0.04070278 -0.01910699 0.018897757
-0.017551422 0.019949453 0.026829056 -0.033221293 0.008063053 0.032868713 -0.0086390525 0.014552193
0.01160942 0.015361686 -0.005367188 0.009929394 -0.007029492 0.032348327 -0.004484093 -0.0024290294
0.021147447 0.005031791 -0.02726888 -0.051552054 0.011411281 -0.0008086343 -0.02160023 0.027472049
-0.04784403 -0.018020814 -0.010763274 0.033819333 -0.009472875 -0.03645685 0.0082183005 -0.033669047
-0.0068664993 0.028721813 0.0077343574 0.029079495 0.012458171 -0.0027426959 -0.020246407 -0.00065128866
-0.0628666 -0.0043306407 -0.0055805477 -0.011801594 0.0018443716 -0.031233002 0.012614568 -0.017785782
0.015474998 0.019749198 -0.029507652 0.0010397829 0.011843031 0.02765636 -0.01970625 0.018603662
-0.0041428963 -0.01025212 0.007816914 0.036435805 0.040388767 -0.050880622 0.015773056 0.039164778
0.036778424 0.010000726 -0.004987968 0.019508952 -0.008221117 -0.027633827 -0.012420528 -0.03176183
0.029506467 0.053520676 -0.008423812 0.023337498 0.013675637 0.0014737969 -0.017606951 -0.011751927
0.023096794 0.022064459 0.012998897 -0.047049906 -0.03474669 0.009907979 -0.01930945 -0.04730819
0.0009766591 0.0051681246 -0.028679855 -0.047807503 0.024851669 -0.0047361287 -0.010452894 -0.020758647
