online/32_D1.pth (torch, 158283 bytes, 7 tensors)

li.0.weight f4 [512, 70]
000000 20 0b 51 3d c6 70 ed 3d 60 8b 64 bd fc b1 be bd
       0.051036 0.115937755 -0.05579698 -0.093112916
000010 a6 44 c6 3c 2b 06 d3 39 4b a2 71 bd 33 21 88 3c
       0.024202656 0.00040249652 -0.058992665 0.016617393
000020 a1 1c 47 3b 41 ce b6 bd 8a cf b1 bd df ad db 3d
       0.0030382054 -0.089260586 -0.08682163 0.10726523
000030 30 70 93 bd c4 d4 e1 bd de cd 1c bd a2 8b b8 3d
       -0.071991324 -0.1102691 -0.038282268 0.09011008
000040 b7 5c b6 bd ca 04 5d 3d be a8 35 3d 58 40 43 3c
       -0.08904403 0.053959645 0.04435038 0.011917196
000050 55 ce 8c 3d 47 eb 23 bb 6a e1 64 bc 0a b9 4a bc
       0.06875292 -0.0025012062 -0.0139697585 -0.012373218
000060 84 ba 31 bc e4 f0 21 bd 2a 3d b4 3d 72 66 91 3d
       -0.010847691 -0.03953637 0.088007286 0.07099618
000070 0a 4a c5 3c 8d 0e 81 bd 87 3b a5 3d b9 82 13 bd
       0.024083156 -0.063016035 0.080679946 -0.03601334
000080 0b dd ca bd 17 6a 15 3c 01 1d 5c bc 24 59 0f bb
       -0.09905442 0.009119532 -0.013434649 -0.00218732
000090 3e 28 cf 3b 53 dc 9a bd 53 98 9d 3d 98 1d e2 3c
       0.006321936 -0.07561555 0.07695069 0.027602002
0000a0 c8 3a e0 3d d6 1a cf bc f2 13 49 bd 61 a8 82 bd
       0.10948712 -0.025281351 -0.049091287 -0.06379772
0000b0 9c 52 7b bd de 1f 72 bd af 49 52 bd c7 10 b0 bd
       -0.06135808 -0.059112422 -0.0513398 -0.0859695
0000c0 78 dc d6 3c 48 ca 30 bd 61 00 a9 3b f2 1b d6 3d
       0.026228175 -0.04316166 0.005157516 0.10454549
0000d0 94 67 e8 bd ff 27 6d bd 72 f1 ae 3d 2c 4e a6 bd
       -0.11347881 -0.05789947 0.08542146 -0.08120379
0000e0 5a ff bf bc 40 8a ab 3d 92 1d e3 bd 47 83 e2 3d
       -0.02343719 0.083759785 -0.110896245 0.110601954
0000f0 4e 5c a9 3c 33 cb 19 bd a8 f1 7b bd 58 30 d6 bd
       0.020673897 -0.0375473 -0.06150976 -0.104584396
000100 74 b6 73 bd 85 30 8d 3c a1 38 29 bd a6 7a 66 bc
       -0.059500173 0.01723505 -0.04131377 -0.014067328
000110 87 f0 58 3d 42 7a d2 bd 1a e8 e5 3d 8e 03 b7 3d
       0.05296376 -0.10277225 0.112259105 0.08936225
000120 62 36 4c 3d 4f 41 b3 3d 72 03 e2 3d b2 6a cc 3d
       0.04985655 0.08752691 0.110358134 0.09981288
000130 e4 68 bc 3d 90 23 9c bd 3b 5e 81 3d 11 77 b3 bd
       0.09199694 -0.076239705 0.06316801 -0.087629445
000140 05 a8 4c 3c 68 f0 8e bd 58 1b a5 bb 8d db c8 bb
       0.012491231 -0.069794476 -0.00503866 -0.006129688
000150 48 aa dc bc 72 00 7f 3d 70 b8 e9 bc 26 24 8b 3a
       -0.026936665 0.062256284 -0.02853033 0.0010615631
000160 26 81 6a 3d 38 4c aa bd 7e 97 20 3d af 95 89 3a
       0.05725207 -0.08315319 0.039206974 0.001049688
000170 76 7f 38 bd 29 d4 43 3d 43 b7 32 3d ae 32 80 3d
       -0.04504343 0.047809754 0.043631803 0.062596664
000180 28 04 8e bb bc 0c 92 3d 36 1f 39 3d d4 2b 9b bd
       -0.0043339916 0.07131335 0.04519578 -0.07576719
000190 b5 d7 f3 ba 4c 1d 3f 3d e8 33 a2 bd 66 22 25 bd
       -0.0018603714 0.0466588 -0.079200566 -0.040316008
0001a0 60 ad 4a 3d 27 68 a7 3d d5 19 58 3d 05 dc 81 3d
       0.04948175 0.08174162 0.05275901 0.063407935
0001b0 2f b4 e2 3c 89 59 ac 3d 46 c7 30 bc 9f bb 37 3d
       0.027673809 0.08415515 -0.010789698 0.044856664
0001c0 73 d5 9f bd f9 2a 21 3c 91 5b 2b 3d a1 a3 e7 3d
       -0.07804384 0.009836906 0.04183537 0.113105066
0001d0 96 bc 37 bd ca 3d 91 3c 9a 69 d9 bd 9b ea 17 3b
       -0.044857584 0.017729659 -0.10615845 0.0023180607
0001e0 70 f1 8e 3d 23 04 a0 3c d5 51 66 bd 6e 30 bc 3b
       0.06979644 0.019533223 -0.056230385 0.005743078
0001f0 8d 3a ca 3d 91 96 94 3d 6c 4f 6b bd 2d 56 16 bd
       0.09874449 0.07255281 -0.05744879 -0.036703277
000200 2a 5d a7 bd e7 c1 e7 3d ff 60 d8 3b 41 f3 50 bd
       -0.081720665 0.11316281 0.0066033597 -0.051013235
000210 e7 9c 96 bd fd 4b e0 bd 2d 67 90 bc 69 fb 29 bc
       -0.073541455 -0.109519936 -0.017627323 -0.010374882
000220 fe 62 80 bd 22 ac 84 bd 40 4e b6 bd 3b 8c 88 3d
       -0.06268881 -0.06478144 -0.08901644 0.06667372
000230 3b 9d ad bd bd 66 a2 3c 7b 02 ee 3d 90 e5 95 3d
       -0.08477255 0.01982438 0.11621567 0.07319176
000240 21 d2 16 bc 28 c3 c6 3d a9 2c 51 3d 52 91 d2 bd
       -0.009205372 0.09705192 0.051067982 -0.10281624
000250 89 c0 40 3d 82 46 f9 bc 0f fa a0 3d 36 2e d2 3c
       0.047058616 -0.030429129 0.07860195 0.0256568
000260 55 53 36 3d b3 ca 48 bd c8 5e f1 ba 86 62 f6 bd
       0.044513065 -0.049021434 -0.0018415088 -0.120305106
000270 43 48 c4 3d 73 51 70 3d 6b 9c 87 3d fd c4 9d 3d
       0.09584095 0.058671426 0.06621631 0.07703588
000280 d3 0c ce 3d f3 cd 2a bd 0a 75 f8 bd cc f2 51 3d
       0.1006104 -0.041700315 -0.121316984 0.05125694
000290 ee f5 cf bd f6 6f a8 3d 88 f9 bd bd 9a 88 77 bd
       -0.10154329 0.0822448 -0.0927611 -0.060433008
0002a0 fb 37 30 bd d4 bb d2 bd 4f 80 66 3d 25 ff c7 3d
       -0.043022137 -0.102897316 0.05627471 0.09765462
0002b0 8b c7 24 bd da 5f aa bc 14 55 70 3d b5 b7 99 3d
       -0.04022936 -0.020797659 0.058674887 0.075057425
0002c0 17 91 3f 3d 21 77 ac bc 6e ad 88 bd 7c 31 57 bc
       0.046769228 -0.021052899 -0.06673704 -0.013134357
0002d0 37 9f 37 bd 8f 01 93 bc 6e 44 a2 3c 61 f1 f7 bd
       -0.044829573 -0.01794508 0.01980802 -0.12106586
0002e0 84 bf 16 3d a6 1d dd bd 08 2d 5f bd e3 cc dc 3d
       0.036803737 -0.107966706 -0.054486305 0.107812665
0002f0 94 19 43 bd 5a 6f af bd 09 60 86 bd 93 62 b2 bc
       -0.047631815 -0.085661605 -0.06561286 -0.02177552
000300 7c 08 74 3d 0a 1e 26 bd f7 24 14 3d e1 e7 e7 bd
       0.059578404 -0.04055599 0.036168065 -0.11323524
000310 0d b1 f6 bd 27 c3 a6 3c 68 60 e1 bc 74 f5 aa 3d
       -0.120454885 0.020356728 -0.02751179 0.08347598
000320 3d 6c dc 3d 9a dc 4c 3a aa ff db 3d 9c e8 6f 3c
       0.10762832 0.00078148546 0.107421234 0.014642861
000330 94 62 82 bd 8f a4 a9 bd e8 fa a4 3c cb c9 a3 bd
       -0.063664585 -0.0828334 0.020139173 -0.07997473
000340 90 f3 c6 bc 40 03 82 bd df e6 c2 3d a1 1b b9 bc
       -0.024286062 -0.06348276 0.095166914 -0.022596182
000350 8a fc 90 3d 26 15 57 bc 94 60 cd bd 3d 2d e4 3a
       0.07079418 -0.013127601 -0.100281864 0.0017408502
000360 79 d2 9f 3d c8 9b d9 3d 97 75 db bc ef 14 00 bd
       0.07803816 0.10625416 -0.02678947 -0.031269964
000370 c8 a1 72 3d 9a 05 ee 3d 55 b5 40 bd 57 78 9d 3d
       0.059236318 0.11622162 -0.04704793 0.07688969
000380 d0 4c 23 bd ea 75 be 3d b5 fc e6 bd f2 dd 13 bd
       -0.039868176 0.09299834 -0.11278669 -0.036100335
000390 d3 1f a5 3d ac b2 ce 3c 41 a7 88 3c 72 ba 8b bd
       0.080627106 0.025231682 0.016681315 -0.06822671
0003a0 31 58 82 3a a7 e8 44 3d 90 8e 23 bd 20 06 7f 3d
       0.0009944496 0.048073437 -0.03993088 0.0622617
0003b0 8f 29 84 bd 0b 00 44 3c 4d c6 c9 bd f1 32 36 bb
       -0.06453239 0.011962901 -0.09852276 -0.002780136
0003c0 d4 65 83 3d 49 2e c7 3d f7 3f c6 3d 83 05 87 3c
       0.064159065 0.09725625 0.09680169 0.01648212
0003d0 6a d1 72 3d 21 24 77 bc 00 5e e4 3c 82 97 f4 3a
       0.059281744 -0.015084297 0.027876854 0.0018660876
0003e0 ab 11 8f 3d 0c 3c d3 3d 95 a4 d8 3d 33 ea 46 3d
       0.06985792 0.103141874 0.105782665 0.048563194
0003f0 22 59 ff 3c 0a 19 82 bd 36 b3 eb bd 9d 40 c2 3d
       0.031170432 -0.06352432 -0.11508791 0.0948498

li.0.bias f4 [512]
000000 54 09 16 3d 35 9e b8 3a bb 6b 44 bd ca 84 c3 bd
       0.03662999 0.0014085235 -0.047954302 -0.09546812
000010 5b be 80 bd fd 13 f1 bb 53 9e a1 3d 5e 78 12 bd
       -0.062863074 -0.007357119 0.07891526 -0.035759322
000020 10 83 bd 3d 5a 9f dd bd 95 b4 2c bc 12 89 57 bc
       0.09253514 -0.108214095 -0.010541101 -0.013155239
000030 a5 ef ad bc 0a 67 f3 bd 85 e9 d9 bd 7a f3 b7 bd
       -0.021232435 -0.118848875 -0.106402434 -0.08981986
000040 e2 4f e6 bd e1 4d eb 3a 40 83 99 3d ba 79 8c 3d
       -0.11245705 0.0017952287 0.07495737 0.06859155
000050 d4 05 a8 3c 7d 04 a2 3d c7 00 23 bd ca ff 57 3d
       0.020510592 0.07911012 -0.039795663 0.052734174
000060 b1 59 9f bc db 62 d7 3d be d7 9c bd 19 34 0a bd
       -0.019451948 0.10516902 -0.07658337 -0.03374109
000070 5c 1e d2 bd 3b 70 00 ba fb 57 22 bd a4 6c 94 bd
       -0.10259697 -0.0004899536 -0.039634686 -0.07247284
000080 3f b1 8b 3d 01 46 5c bd f7 10 dc bd ae 8f b8 bd
       0.068209164 -0.0537777 -0.10745423 -0.0901178
000090 d7 b4 d5 3b 7c 33 8a 3d fc d7 34 3b 07 da 7c 3d
       0.006521802 0.06748101 0.0027594557 0.061731365
0000a0 b3 cc d7 bd 93 f5 31 bd 5b 7d 84 bd 5c 8a f0 bc
       -0.1053709 -0.04344709 -0.06469222 -0.02936285
0000b0 a8 53 c4 bd 42 11 4b bd e6 36 de 3d 14 e9 b2 bd
       -0.09586269 -0.049577005 0.10850315 -0.087358624
0000c0 b7 6b bc bd 40 2e 3f 3d 03 3d 7a bd cc 9f 92 3c
       -0.092002325 0.046674967 -0.06109334 0.017898463
0000d0 41 cf 4b 3d 26 74 5f bd 8c 60 e8 3d 71 61 bc bc
       0.0497582 -0.054554127 0.1134654 -0.022995682
0000e0 46 c0 ec bd 77 79 d9 3d e2 6f 7f 3d 37 fb e3 3d
       -0.11560111 0.10618871 0.06236256 0.111319
0000f0 06 a9 86 3d 09 a1 ed bd 66 8a 29 bd 1e bb b3 bd
       0.065752074 -0.11602981 -0.041391753 -0.08775924
000100 89 c4 a1 bd ee 0c e5 3c 35 17 9d 3d 99 74 73 bd
       -0.07898814 0.027960267 0.07670442 -0.059437368
000110 9c 31 03 bd 31 a9 4d bd e1 cb 7c 3d 83 17 30 bd
       -0.032029733 -0.05021018 0.06171787 -0.042991173
000120 95 4a 92 3d 73 7f 57 bb 31 79 92 3b 14 28 94 bd
       0.07143132 -0.0032882362 0.0044700135 -0.07234207
000130 e4 58 86 bd 3e e7 49 3c bc 04 8e 3c 71 17 00 3d
       -0.06559923 0.012323199 0.017336242 0.031272355
000140 03 35 93 bd 1b f5 8a 3d fa c8 19 bc 50 97 f0 bd
       -0.071878456 0.067850314 -0.009386295 -0.117476106
000150 18 ec e3 3d cf af a9 bd ba 17 b4 3d 41 72 a9 bc
       0.11129016 -0.08285486 0.08793588 -0.020684363
000160 3f 6f 8a 3d 5b d6 d6 bd 68 08 03 3d 79 be ec bd
       0.067595 -0.10490104 0.03199044 -0.11559767
000170 79 d7 a6 3d 2f 24 e7 3b 33 78 ec bd a1 b3 d9 3d
       0.08146567 0.007053874 -0.11546364 0.106299646
000180 ac 1a d7 3d e4 f5 ed bd e1 19 23 3d 63 b3 45 bd
       0.10503134 -0.116191655 0.039819602 -0.04826678
000190 46 96 ee bd 1f 54 6a bd e6 fa 9a bb 9c 0b ca 3d
       -0.11649756 -0.05720913 -0.0047296165 0.098654956
0001a0 9f 79 cf ba 33 74 48 3d e9 a5 e9 bd 8c 0a 22 3d
       -0.0015829093 0.04893894 -0.11408598 0.03956084
0001b0 cf 1c e9 bd dd 0f d8 3c e4 a4 7a 3b a5 2e 3b 3d
       -0.11382448 0.026374752 0.0038245255 0.04569878
0001c0 fa be 34 bd dc f1 ee 3d 53 00 88 3c 30 ac be bd
       -0.044127442 0.11667225 0.016601717 -0.09310186
0001d0 9a b3 15 3d 1a c0 85 3d bb 29 b5 3d a2 93 6a bb
       0.036548235 0.06530781 0.0884585 -0.0035793562
0001e0 9c 34 d6 bb 14 de dd bd 8f 0e 34 3d 2d 6a 99 bd
       -0.0065370332 -0.10833374 0.043959197 -0.074909545
0001f0 58 a2 bc bc 6d 2a cb 3d 3b 5f c8 bd e3 19 89 3c
       -0.02302663 0.099202015 -0.09783789 0.016735977
000200 d5 3c 26 bb 94 79 3e 3d 30 89 f3 bc 22 da c2 3d
       -0.0025365849 0.046502665 -0.029728502 0.09514262
000210 d0 38 79 3d 6e 9d 97 bd ef 59 c0 3d d7 7a db 3d
       0.060845196 -0.07403074 0.093921535 0.10716789
000220 1f 66 15 bc 69 2d db 3d 7b d2 d2 3d 72 c7 cc bb
       -0.009118586 0.10702021 0.10294052 -0.0062493617
000230 44 6b 26 bc b7 28 c1 3d 83 19 1c 3c ee 05 67 3d
       -0.01015741 0.09431594 0.009527567 0.05640214
000240 ee e6 5d bd 4b 73 c2 bd 70 b2 4c 3d fe 4b c7 3d
       -0.05417531 -0.09494647 0.04997486 0.09731291
000250 ee 0c c5 bd a5 b5 c0 3d 25 6c 02 3d 35 48 84 b8
       -0.09621607 0.09409646 0.031841416 -6.3077e-05
000260 1d 42 92 3d a7 c9 46 3d a4 83 a5 3d e1 e0 a2 3d
       0.07141516 0.048532154 0.08081749 0.079530485
000270 ca d4 1c bd f6 04 54 3d 93 2e 89 3d f3 3d de bd
       -0.03828887 0.051762544 0.066983365 -0.108516596
000280 38 7a 0c bd 39 36 1f 3d d3 cd 73 bc c6 93 a7 3c
       -0.034296244 0.03887007 -0.014880615 0.020456206
000290 2d be 94 bd 0e a2 f0 bd 4f 47 96 bd af be e0 bd
       -0.07262836 -0.117496595 -0.0733782 -0.1097387
0002a0 19 55 e7 3d c1 25 88 bd 2b 94 cb bd 95 fa 23 3d
       0.11295528 -0.06647826 -0.0994037 0.040033896
0002b0 22 74 8b bc df d9 f5 bc 61 c9 a5 bd bd 18 e4 3d
       -0.01702315 -0.030011116 -0.080950506 0.11137531
0002c0 6d 97 a9 bc 61 4d 9a bd 9b 26 8f bd 69 73 49 3d
       -0.020702088 -0.0753429 -0.06989785 0.04918233
0002d0 9d 52 b6 3d 54 22 70 3d a6 1d 6f 3d 33 b4 bc 3d
       0.08902476 0.058626488 0.058377884 0.09214058
0002e0 25 54 19 bc 02 c8 ad bd 17 3b 00 bd 44 8a c0 ba
       -0.0093584405 -0.08485414 -0.031306352 -0.0014689644
0002f0 22 2a e3 bd ce d4 c3 3d ab 3b 35 bc 79 4b c8 bd
       -0.110920206 0.09562074 -0.011061589 -0.0978002
000300 e6 1e 0b 3d e3 04 14 bd d0 8a d2 bd ea 21 80 3c
       0.033965014 -0.036137473 -0.10280383 0.015641171
000310 75 3f 65 3c ce 14 20 bb 8d dd 36 ba ad 94 82 bd
       0.01399218 -0.0024426463 -0.00069757627 -0.06376014
000320 11 0b e1 3c 91 1f fa bc 36 07 49 3d 60 cc 78 bd
       0.027471097 -0.03053263 0.049079143 -0.060741782
000330 1d fe a0 bb 64 a6 bb bd 32 c9 39 3c 14 d6 4e 3d
       -0.004913105 -0.09162596 0.011339473 0.05049713
000340 f0 49 1d bc 36 17 6a 3d 15 25 d1 bd fe 14 77 3c
       -0.009600148 0.057151042 -0.10212151 0.0150806885
000350 13 d0 23 3d 5b 30 ca 3d 5c 92 d0 bd db db 88 bd
       0.039993357 0.09872504 -0.10184166 -0.06682559
000360 02 24 cb bd 95 69 7b bd 57 03 3e bd 4a 5b cb bc
       -0.09918977 -0.061379988 -0.046389904 -0.024823803
000370 11 47 c8 bc 8d af e8 3d e2 96 a3 bd 2a df 99 3d
       -0.02444795 0.11361609 -0.07987763 0.07513268
000380 65 21 c9 3d 8f 00 07 3d 3e 40 0f bc 81 f0 c3 3d
       0.098208226 0.032959517 -0.008743344 0.09567357
000390 0d ad 2c 3d 07 4d e6 bd 07 e9 bf bd 9c 59 df bd
       0.04215722 -0.112451605 -0.09370618 -0.109057635
0003a0 34 dc 8e bd 60 c9 0d bd f4 60 ce bd 24 0d bc 3d
       -0.06975594 -0.034615874 -0.10077086 0.09182194
0003b0 47 57 17 3c e9 ba 91 3b f0 82 cf 3d 2e 39 ab 3d
       0.009237117 0.0044473303 0.10132396 0.083605155
0003c0 58 0d 0f bd cb 67 4b bd b0 97 e5 3d 84 d0 a0 3d
       -0.034924835 -0.04965953 0.11210573 0.07852271
0003d0 15 c9 e2 ba 9c 3c ff bc e3 71 0e 3c a9 02 2d bd
       -0.0017302359 -0.03115683 0.008694145 -0.042238865
0003e0 eb 24 bb 3c 1e 54 f2 bd dd 04 d1 bc 5c 6e 52 3d
       0.022844752 -0.1183245 -0.025515014 0.05137478
0003f0 dd 20 e4 bd e0 29 30 3d 17 56 95 bd 1c 89 10 3d
       -0.11139081 0.043008685 -0.07291811 0.035287008

li.1.weight f4 [512]
000000 2d 06 80 3f 1d 02 80 3f 8d ea 7f 3f d5 1f 80 3f
       1.0001885 1.0000645 0.9996727 1.0009714
000010 f0 f5 7f 3f 80 e6 7f 3f 55 04 80 3f 15 fe 7f 3f
       0.99984646 0.9996109 1.0001322 0.99997073
000020 06 00 80 3f 00 07 80 3f a3 de 7f 3f 7d 00 80 3f
       1.0000007 1.0002136 0.9994909 1.0000149
000030 44 00 80 3f a2 02 80 3f 10 00 80 3f 01 1d 80 3f
       1.0000081 1.0000803 1.0000019 1.0008851
000040 ff e7 7f 3f db d4 7f 3f 4e ff 7f 3f dd d8 7f 3f
       0.9996337 0.99934167 0.9999894 0.9994028
000050 5c 08 80 3f fd fb 7f 3f 3b 01 80 3f 60 f3 7f 3f
       1.0002551 0.9999388 1.0000376 0.99980736
000060 d7 fe 7f 3f fa f6 7f 3f 46 00 80 3f 04 dd 7f 3f
       0.9999823 0.9998623 1.0000083 0.9994662
000070 86 01 80 3f 07 11 80 3f a4 1b 80 3f 80 01 80 3f
       1.0000465 1.0005196 1.0008435 1.0000458
000080 d4 e3 7f 3f 9d 01 80 3f 26 1f 80 3f c9 d9 7f 3f
       0.99957013 1.0000492 1.0009506 0.9994169
000090 69 f7 7f 3f 34 01 80 3f 73 ee 7f 3f 4b 00 80 3f
       0.9998689 1.0000367 0.9997322 1.000009
0000a0 51 09 80 3f b2 ec 7f 3f f0 f1 7f 3f 55 ff 7f 3f
       1.0002843 0.99970543 0.9997854 0.9999898
0000b0 cc f7 7f 3f c9 09 80 3f 92 f1 7f 3f ff e8 7f 3f
       0.99987483 1.0002986 0.9997798 0.999649
0000c0 a4 02 80 3f 4f 01 80 3f 19 de 7f 3f 5a f8 7f 3f
       1.0000806 1.0000399 0.9994827 0.9998833
0000d0 f3 ff 7f 3f b4 f4 7f 3f 7a fe 7f 3f 7b 0e 80 3f
       0.9999992 0.9998276 0.99997675 1.0004419
0000e0 38 12 80 3f 62 fc 7f 3f 15 00 80 3f 73 06 80 3f
       1.000556 0.9999448 1.0000025 1.0001968
0000f0 6c 01 80 3f 31 f3 7f 3f af c7 7f 3f c9 06 80 3f
       1.0000434 0.99980456 0.9991407 1.0002071
000100 22 ff 7f 3f 23 02 80 3f 00 f7 7f 3f a8 ff 7f 3f
       0.99998677 1.0000652 0.9998627 0.99999475
000110 29 fc 7f 3f bc 04 80 3f a6 fd 7f 3f 84 14 80 3f
       0.9999414 1.0001445 0.9999641 1.0006261
000120 47 02 80 3f 11 f0 7f 3f d0 3f 80 3f 9a 02 80 3f
       1.0000695 0.9997569 1.0019474 1.0000794
000130 ea f3 7f 3f 65 04 80 3f cc 03 80 3f 0a 00 80 3f
       0.9998156 1.0001341 1.0001159 1.0000012
000140 f6 fa 7f 3f 2b 04 80 3f 13 00 80 3f 18 d5 7f 3f
       0.9999231 1.0001272 1.0000023 0.9993453
000150 1a 01 80 3f 1a ff 7f 3f f6 0c 80 3f 3c fd 7f 3f
       1.0000336 0.9999863 1.0003955 0.9999578
000160 9a e3 7f 3f dd f2 7f 3f 70 09 80 3f d6 ff 7f 3f
       0.9995667 0.99979955 1.000288 0.9999975
000170 aa 00 80 3f b5 f8 7f 3f 11 fb 7f 3f 7b f9 7f 3f
       1.0000203 0.9998887 0.9999247 0.9999005
000180 02 24 80 3f 85 0f 80 3f ee 01 80 3f 27 16 80 3f
       1.0010989 1.0004736 1.0000589 1.000676
000190 28 0a 80 3f 53 ff 7f 3f 06 00 80 3f 2f ff 7f 3f
       1.00031 0.9999897 1.0000007 0.99998754
0001a0 82 dd 7f 3f 21 e6 7f 3f 46 fb 7f 3f cf fe 7f 3f
       0.9994737 0.99960524 0.9999279 0.9999818
0001b0 11 fa 7f 3f a9 0c 80 3f c7 f4 7f 3f 7c 1e 80 3f
       0.99990946 1.0003864 0.99982876 1.0009303
0001c0 2d ff 7f 3f ee f3 7f 3f 3c 02 80 3f 30 02 80 3f
       0.9999874 0.9998158 1.0000682 1.0000668
0001d0 05 f7 7f 3f 1b f0 7f 3f 1d ed 7f 3f a7 05 80 3f
       0.99986297 0.99975747 0.9997118 1.0001725
0001e0 0d 13 80 3f fd d3 7f 3f af db 7f 3f d7 fb 7f 3f
       1.0005814 0.99932843 0.99944586 0.9999365
0001f0 ce 02 80 3f e2 09 80 3f 4c 0b 80 3f 09 de 7f 3f
       1.0000856 1.0003016 1.0003448 0.99948174
000200 4e 01 80 3f 91 f7 7f 3f 3d f8 7f 3f f6 fd 7f 3f
       1.0000398 0.9998713 0.99988157 0.9999689
000210 7e 07 80 3f f3 04 80 3f 6a 17 80 3f ce e4 7f 3f
       1.0002286 1.000151 1.0007145 0.99958503
000220 df fe 7f 3f 64 ff 7f 3f 33 d8 7f 3f e2 f7 7f 3f
       0.9999828 0.9999907 0.9993927 0.99987614
000230 61 e4 7f 3f 57 00 80 3f 8a f3 7f 3f a0 ec 7f 3f
       0.99957854 1.0000104 0.99980986 0.99970436
000240 92 05 80 3f c2 23 80 3f 50 03 80 3f 22 06 80 3f
       1.00017 1.0010912 1.0001011 1.0001872
000250 53 e0 7f 3f 79 34 80 3f d0 ff 7f 3f 53 ff 7f 3f
       0.99951667 1.0016013 0.99999714 0.9999897
000260 9a 0e 80 3f 70 de 7f 3f c2 08 80 3f aa fa 7f 3f
       1.0004456 0.9994879 1.0002673 0.9999186
000270 15 fd 7f 3f e2 23 80 3f 53 fb 7f 3f 09 f7 7f 3f
       0.9999555 1.001095 0.99992865 0.9998632
000280 21 05 80 3f 97 fb 7f 3f 25 cd 7f 3f 4e cb 7f 3f
       1.0001565 0.9999327 0.999224 0.99919593
000290 b6 fb 7f 3f 87 df 7f 3f da ed 7f 3f 77 f4 7f 3f
       0.99993455 0.9995045 0.9997231 0.999824
0002a0 9d 06 80 3f fe 06 80 3f f7 df 7f 3f a8 ff 7f 3f
       1.0002018 1.0002134 0.9995112 0.99999475
0002b0 04 00 80 3f 47 e8 7f 3f c2 fd 7f 3f 14 00 80 3f
       1.0000005 0.999638 0.9999658 1.0000024
0002c0 d0 00 80 3f d2 f5 7f 3f 0a fe 7f 3f d8 02 80 3f
       1.0000248 0.9998447 0.9999701 1.0000868
0002d0 48 ff 7f 3f 41 fb 7f 3f 3a f7 7f 3f 22 fe 7f 3f
       0.99998903 0.9999276 0.9998661 0.9999715
0002e0 69 12 80 3f e7 d8 7f 3f 31 00 80 3f 10 06 80 3f
       1.0005618 0.9994034 1.0000058 1.000185
0002f0 23 f5 7f 3f dc 1a 80 3f 7e e0 7f 3f f8 0a 80 3f
       0.99983424 1.0008197 0.9995192 1.0003347
000300 c9 06 80 3f bf e3 7f 3f 27 07 80 3f 15 ef 7f 3f
       1.0002071 0.9995689 1.0002183 0.99974185
000310 db f2 7f 3f 75 fe 7f 3f c9 f6 7f 3f ad fe 7f 3f
       0.99979943 0.99997646 0.9998594 0.9999798
000320 c0 1f 80 3f f3 08 80 3f e1 fd 7f 3f 53 17 80 3f
       1.0009689 1.0002731 0.99996763 1.0007118
000330 43 ff 7f 3f fa 01 80 3f 85 02 80 3f 18 03 80 3f
       0.99998873 1.0000603 1.0000769 1.0000944
000340 97 00 80 3f ee e0 7f 3f 6f 01 80 3f e4 ff 7f 3f
       1.000018 0.9995259 1.0000437 0.99999833
000350 b5 ed 7f 3f 61 f3 7f 3f 2c 00 80 3f 7c 0e 80 3f
       0.9997209 0.9998074 1.0000052 1.000442
000360 38 fe 7f 3f 24 06 80 3f c6 fe 7f 3f e4 f8 7f 3f
       0.9999728 1.0001874 0.9999813 0.9998915
000370 48 f1 7f 3f 13 1a 80 3f ff d6 7f 3f c8 04 80 3f
       0.9997754 1.0007957 0.99937433 1.0001459
000380 38 0a 80 3f 5c fd 7f 3f a8 07 80 3f 23 e7 7f 3f
       1.0003119 0.9999597 1.0002337 0.9996206
000390 01 ee 7f 3f 02 0c 80 3f 62 f0 7f 3f f2 e4 7f 3f
       0.9997254 1.0003664 0.9997617 0.9995872
0003a0 56 db 7f 3f 04 f6 7f 3f b4 f4 7f 3f 28 0d 80 3f
       0.99944055 0.99984765 0.9998276 1.0004015
0003b0 df fc 7f 3f 28 fe 7f 3f ff e4 7f 3f 9a 08 80 3f
       0.99995226 0.99997187 0.99958795 1.0002625
0003c0 e7 f7 7f 3f dd 14 80 3f 2d fb 7f 3f bc 20 80 3f
       0.99987644 1.0006367 0.9999264 1.000999
0003d0 41 02 80 3f 0a f5 7f 3f f3 16 80 3f 14 06 80 3f
       1.0000688 0.99983275 1.0007004 1.0001855
0003e0 ca ff 7f 3f 0a 00 80 3f 90 dc 7f 3f 2b 0d 80 3f
       0.9999968 1.0000012 0.99945927 1.0004019
0003f0 67 fe 7f 3f 92 fc 7f 3f bb 02 80 3f 78 14 80 3f
       0.9999756 0.99994767 1.0000833 1.0006247

li.1.bias f4 [512]
000000 8a 42 05 bd b7 c8 59 bc f1 e0 51 3c 29 14 5d 3d
       -0.03253416 -0.013292483 0.012809978 0.053974304
000010 16 37 ee 3c df 86 f6 3c e6 25 70 ba a3 83 3c bc
       0.029079001 0.030093608 -0.0009160921 -0.011505994
000020 d7 65 95 3b 6c 4f b6 bc a5 30 7a bc 23 db c5 3b
       0.0045592594 -0.022254668 -0.015270387 0.006038086
000030 82 46 85 ba b2 e7 27 3a 31 79 0f 3b 6a 6d e7 3c
       -0.0010168108 0.000640507 0.0021892304 0.028250415
000040 99 44 f5 bb f3 ff 45 bb 71 93 3c bb 7d b8 6f ba
       -0.007484984 -0.0030212372 -0.0028774405 -0.00091446174
000050 06 5c b7 3c 5d bf 2f 3b 9d 34 13 3b 9b 60 42 3b
       0.022382747 0.0026816942 0.002246178 0.0029659632
000060 2e a7 18 39 f8 db 98 bc c0 64 f3 b9 32 38 86 bb
       0.00014558129 -0.018659577 -0.00046423636 -0.0040960545
000070 c0 ad 82 3a d4 a2 3f bd 6a f3 5e bd 6d 20 fc bc
       0.0009969994 -0.046786144 -0.054431356 -0.03077718
000080 ce 97 8d bb 47 34 2e bd 52 44 1d bd 2a 9b b9 3b
       -0.004321075 -0.042530324 -0.038395233 0.005664249
000090 4d db d9 39 3c c5 0d 3b d6 61 e9 b8 a4 0c f9 b8
       0.00041552857 0.0021632453 -0.00011128529 -0.000118756
0000a0 29 28 d2 3b af c4 b7 3c d7 f9 0e bd 09 9c 92 bb
       0.006413479 0.022432653 -0.034906235 -0.0044741672
0000b0 68 35 0f 3d 82 83 29 bc f2 22 99 3b 9e 29 1e 3d
       0.03496304 -0.010346295 0.0046733553 0.038613908
0000c0 d0 40 93 ba 9f 80 92 3b b5 51 90 3c b5 d3 38 3b
       -0.0011234526 0.0044708992 0.017617086 0.002820236
0000d0 69 08 95 3a e8 fe 82 3c f8 dd 98 3a 4f 18 8b bc
       0.0011370304 0.01599069 0.0011662832 -0.016979365
0000e0 00 59 82 3a 8b 85 1f 3d 08 4a 16 3b c8 78 1b 3c
       0.0009944737 0.038945716 0.002293231 0.009489246
0000f0 0c 67 aa 3c fc ca 94 bb fc 05 c8 3c a2 fd d5 3c
       0.02080109 -0.004540799 0.024416916 0.026121918
000100 8b ba 56 b8 d0 45 38 b9 7d 17 b1 39 bf 88 93 bb
       -5.1195308e-05 -0.00017573615 0.0003377757 -0.0045023854
000110 9f e6 b0 ba 86 c8 11 39 fa ec 61 3c b7 e4 a0 bc
       -0.0013496465 0.00013902978 0.01378941 -0.01964031
000120 aa 52 6c ba 78 58 7e 3b 9a 9e 95 3d dc 40 60 3c
       -0.00090150035 0.0038810056 0.073056415 0.013687339
000130 38 d9 60 bc 5e a6 68 3c 3c 44 6f 3c 57 b4 2a 39
       -0.013723664 0.014199821 0.014603671 0.00016279645
000140 66 bb 9e 3b 2d 71 15 bc d6 f0 e2 3a 63 94 06 3d
       0.004844117 -0.0091212215 0.0017314206 0.032856356
000150 b4 9b bb b9 33 a3 a7 3b 08 e0 ae 3c 71 b9 05 37
       -0.00035783427 0.0051158904 0.02134706 7.970594e-06
000160 ea e9 1a 3c f6 e1 2f bc 75 20 59 bc 76 ef 0a 39
       0.0094551835 -0.010735026 -0.013252367 0.00013249912
000170 98 f4 9a bb cc 15 e2 3c 42 fd 9a ba 1a 19 a5 bb
       -0.004728865 0.027598284 -0.0011824744 -0.0050383927
000180 f2 c7 ac bc 27 b5 18 bd e2 61 5c ba d8 77 ea bc
       -0.021091435 -0.037282135 -0.00084069197 -0.0286216
000190 dd 10 e1 bc e9 b5 9e bc 4a 50 84 3a 3f 08 0e 3b
       -0.027473861 -0.01937385 0.0010094729 0.0021672396
0001a0 81 68 71 bc af 9d 68 bc a4 6b d7 bb b8 2d 11 b9
       -0.014734388 -0.014197751 -0.006574111 -0.00013845309
0001b0 94 14 0e bd cf c4 fa 3c ad da 7a 3b a3 df 4b 3c
       -0.034687594 0.030611424 0.0038277314 0.012443456
0001c0 49 e8 db 3a 46 8e 63 3c b5 1e 44 3c 57 82 b2 bb
       0.00167776 0.013888901 0.011970212 -0.0054476666
0001d0 3d 0d 08 3b 7f c4 97 37 4c 15 aa 3c f9 0d 07 bc
       0.0020759844 1.8092103e-05 0.020762108 -0.008243077
0001e0 be 0c 15 3d 4a 71 e8 3c 96 b4 8c ba 76 cc 3c 39
       0.036389105 0.028374333 -0.0010734971 0.00018005245
0001f0 1f 36 84 bc 74 40 15 bd 45 d8 08 bd fa 77 1c 3c
       -0.016139088 -0.03643842 -0.033409376 0.009550089
000200 5e e8 34 3b 8c 13 a3 bc dd ea 2c 3b 0d f2 c6 bc
       0.0027604322 -0.019906782 0.0026385107 -0.02428534
000210 8d 67 e5 bc 08 e3 3f 3b 6e f3 ef 3c 50 d0 97 bc
       -0.028003478 0.0029279608 0.029290881 -0.018531948
000220 e7 e5 be bb 81 77 e3 38 10 be b9 3c 45 d2 28 bc
       -0.0058257463 0.00010846463 0.022673637 -0.010304038
000230 3d 7f 1a 3b f9 51 dd bc 4b 16 1a bd a0 7e e8 3a
       0.0023574375 -0.027016627 -0.037618916 0.0017737933
000240 c6 ff 41 3d b5 98 72 3d da 80 ee 3b 85 8e 79 bc
       0.047363065 0.059227664 0.007278544 -0.015231733
000250 bf c1 c3 3c 2e a9 70 3d da 31 0c bd f8 01 b6 b9
       0.023896096 0.058755092 -0.03422723 -0.00034715212
000260 0c af ab bc bc e7 a1 3c 44 53 0a bc 44 23 50 3b
       -0.020957492 0.01976382 -0.008442704 0.0031759301
000270 a3 36 64 bc 63 04 0d bd c9 69 39 3b 95 28 80 b6
       -0.013929042 -0.03442801 0.0028291813 -3.8194216e-06
000280 c4 4d 07 bc 70 fc 9d 3c 07 91 2a bc 99 39 1a 3d
       -0.008258287 0.01928541 -0.010410554 0.037652586
000290 71 b0 5b 3c bd b5 96 bb ed 27 cf bb 24 2d a0 bc
       0.013408766 -0.0045993016 -0.006321898 -0.019552775
0002a0 d4 6f a2 3c 73 0e a2 bc 86 ee 1e ba 22 0f f3 3a
       0.019828714 -0.01978228 -0.00060627644 0.0018543939
0002b0 5e 7c 94 bc 4b e8 1c 3d db 39 9c bc 43 38 de 3a
       -0.01812571 0.03830747 -0.019070556 0.0016954023
0002c0 f0 37 9f 3a 52 35 03 3b 1c 24 3c 3c 52 4c c2 3c
       0.0012147408 0.0020020795 0.0114832185 0.023718033
0002d0 f6 a9 bb b8 a3 aa 5e bb 12 46 0e b9 b6 32 b1 bc
       -8.9485125e-05 -0.003397622 -0.00013568279 -0.021630626
0002e0 fa 46 53 bc c2 73 c8 bc 97 8c 41 bc 12 32 49 3b
       -0.01289534 -0.02446926 -0.011813304 0.003070001
0002f0 dd 42 27 ba 2a 48 9f 3c 22 14 37 bc e2 c0 b4 3c
       -0.0006380508 0.01944359 -0.011174234 0.02206463
000300 f5 13 f8 3b 29 06 32 3c d8 19 5f bc d2 48 cd bc
       0.0075707384 0.0108657265 -0.0136170015 -0.025059137
000310 03 b6 92 3c b7 51 2e ba 8e f9 38 3c 21 ac 1c 3a
       0.017909056 -0.00066497497 0.011289967 0.0005976577
000320 5c f5 18 3d 2c cc 42 bc 79 a7 aa 3b 20 7b 3c bc
       0.037343368 -0.011889499 0.0052079526 -0.011503965
000330 27 b6 8a 3a 34 9a 51 3c ce e5 eb bb 95 7e 7e b9
       0.001058285 0.012793113 -0.0071990257 -0.00024270483
000340 36 db b9 bb 02 d5 c1 3c 33 b9 c1 3c f6 07 92 3b
       -0.005671884 0.02366114 0.02364788 0.0044565154
000350 2b 24 a0 3c 11 9b 8a ba 48 9f 88 3c 19 c9 b4 3c
       0.019548496 -0.0010574778 0.016677514 0.022068547
000360 23 b5 ad 36 a3 f8 38 bc 65 ee ac 39 c3 46 19 3d
       5.176889e-06 -0.011289748 0.00032984014 0.037421
000370 5d 6c dc bc c0 a9 0f 3d 1f 7d ec 3c 25 68 05 bd
       -0.02690714 0.035073996 0.028868256 -0.032570023
000380 a1 18 21 3d 11 47 99 bb 8f 05 01 3c bd 46 b4 3c
       0.03933013 -0.004677661 0.00787486 0.022006387
000390 45 0f 52 3c e5 a9 9a 3c 1d a3 21 bc cf 5e 08 3d
       0.012821023 0.01887984 -0.009865549 0.03329354
0003a0 37 00 5e bc 78 fe 13 bc fb 7e 48 bc a2 3f 30 3d
       -0.013549856 -0.009032838 -0.012237306 0.043029435
0003b0 99 88 00 bc 80 8d 6b bb 5d a0 e0 3a 8f 22 86 bc
       -0.007845067 -0.0035942495 0.0017137636 -0.0163739
0003c0 8d 37 09 3a 5a 20 e5 bc 20 c6 3d bc 48 b7 31 bd
       0.0005234413 -0.027969528 -0.011582881 -0.04338768
0003d0 81 ae b4 bc 44 f0 21 ba 62 6e 94 3c 5b 77 1f 3d
       -0.022055866 -0.0006177465 0.01811904 0.038932186
0003e0 91 10 ba ba e2 52 9e 3a 05 3f c7 3c 32 6c 07 bd
       -0.0014195611 0.0012079144 0.024322042 -0.033062167
0003f0 38 69 0e 3a bd 51 cd 39 ae 32 20 bc c6 34 7f 3c
       0.0005432549 0.00039161547 -0.009777708 0.015576547

li.1.running_mean f4 [512]
000000 64 cd c9 be 81 93 f4 3e 05 30 1f be aa 49 0d 3f
       -0.39414513 0.47768787 -0.15545662 0.5519053
000010 49 3f b4 3e 11 9e f1 3e 9a fe ac bd b0 ad 03 3f
       0.35204533 0.47190908 -0.08446999 0.514369
000020 89 47 59 3f 63 56 76 be 11 8e 98 bd 77 ad 6b be
       0.8487478 -0.24056391 -0.07448972 -0.2301539
000030 c7 bd 16 3e 84 3e 09 be 34 b1 a9 3e 5a a0 b6 be
       0.14720832 -0.13402754 0.33143008 -0.35669214
000040 79 d2 13 3d 2a bf 91 bd d5 7e 92 3e ee 19 86 bc
       0.036089394 -0.0711654 0.2861239 -0.016369786
000050 23 42 3c be 0e dc 0a 3d 23 55 7b be 52 24 84 3e
       -0.18384604 0.033901267 -0.24544196 0.2580896
000060 60 f9 0f bd 3c 13 e6 3e ff fb ca b8 26 9b 9b 3d
       -0.035149932 0.4493655 -9.6790485e-05 0.075979516
000070 31 d9 18 be b7 fa a6 be 0a 99 bb be e9 05 82 3e
       -0.14926602 -0.32613155 -0.36640197 0.25395134
000080 7f d1 3f bd c8 29 b3 3e a0 8f 90 3d 7b 86 c8 bd
       -0.04683065 0.34992814 0.07058644 -0.09791275
000090 3e 12 1c bf 55 fb 12 3e 75 e0 7b bd 2c ac a1 3d
       -0.60965335 0.14353688 -0.061493356 0.07894167
0000a0 4b 16 72 be 1b 7b 8b 3e e4 1b 63 3e 16 de e8 bd
       -0.23641317 0.2724236 0.22178608 -0.113704845
0000b0 c7 1a d0 be 49 6a 5b 3e 7a f6 d5 be cb bd 69 3e
       -0.4064543 0.21427263 -0.4178961 0.22826307
0000c0 66 d1 0e bd 06 26 17 3f c4 5f 3d bf 3f 74 1e bd
       -0.034867667 0.59042394 -0.7397425 -0.03868508
0000d0 8f 11 2d be 91 ea 91 be 67 9d 8f 3b 06 66 7e 3e
       -0.1690123 -0.28499272 0.0043827775 0.24843606
0000e0 3c b2 24 be 9b 34 16 3f eb 7f 31 3e a1 8f c5 bd
       -0.16083616 0.5867402 0.17333953 -0.09646536
0000f0 44 22 f5 3e b8 e1 f3 bd 9c 55 50 bf d5 af c3 be
       0.47877705 -0.11908287 -0.8138063 -0.38220087
000100 9a 8f fb bd 1f 73 1c 3c 78 df 6b 3e d7 2c ff be
       -0.12283249 0.009548931 0.23034465 -0.49838898
000110 45 ea 44 be 5e e4 1a bd 9b 17 82 be 31 41 24 be
       -0.19229992 -0.037815444 -0.25408635 -0.16040494
000120 6c 85 a1 3d 05 92 63 3e 94 60 76 3f 03 6a 96 be
       0.07886776 0.22223671 0.96241117 -0.29377756
000130 be 51 26 3f 55 7e 63 be 18 75 2c 3f f5 06 28 3d
       0.6496848 -0.2221616 0.6736617 0.04102226
000140 9c e5 13 be d6 61 b1 be 8c 18 c8 be c6 60 9f 3e
       -0.14443058 -0.34644955 -0.39081228 0.3112852
000150 95 35 5b 3d 9f 82 a7 3e 44 a7 6a be 99 04 1f bd
       0.053517897 0.32716843 -0.2291537 -0.038822744
000160 c6 95 09 bf 7a 01 b0 be fc 5d 2d 3e 4a 4d 5c bd
       -0.5374416 -0.34376127 0.16930383 -0.053784646
000170 59 a6 af 3e 07 0d f7 3e 97 83 29 3d 3f 4b 40 3c
       0.343066 0.48252127 0.04138526 0.01173669
000180 15 8d b8 3e 5f 41 77 3e 36 df da 3c 1c b0 26 bf
       0.36045137 0.24146031 0.026717763 -0.6511247
000190 b7 14 23 bf f9 28 3c bf ed 8d 1c be 0b 9b 1e be
       -0.63703483 -0.7350002 -0.15288515 -0.15488832
0001a0 ac ee 3c be 7d e9 87 be 93 c8 65 be 97 ba 1d bc
       -0.18450421 -0.26545325 -0.22439794 -0.009627006
0001b0 ed e7 1d bf a6 2e 32 3f cd 04 00 bf bf 69 b7 3c
       -0.61682016 0.6960243 -0.50007325 0.02238929
0001c0 2e 16 0c 3e 27 88 cf 3e 6a 0c 44 be 94 86 dc 3d
       0.13680336 0.40533563 -0.1914536 0.10767856
0001d0 41 8e fa 3d 92 02 19 bd f5 63 cc be 25 af 66 bf
       0.12234164 -0.037355967 -0.3992001 -0.90111
0001e0 5a 27 80 3f e2 fb 1f 3e d2 c5 3d 3c aa e6 52 be
       1.0012009 0.1562343 0.011582809 -0.20595804
0001f0 92 2f 08 bf 6a 78 90 be 2e 77 62 3e 32 fe 3b be
       -0.53197587 -0.2821687 0.22115776 -0.18358687
000200 16 0d dd 3d 97 48 22 be f2 9a 5d bf fa 9f 48 bd
       0.107935116 -0.15848003 -0.8656455 -0.04898069
000210 1f d4 03 bf 1f 79 42 be b9 59 dd bd 03 09 5c 3f
       -0.51495546 -0.18991517 -0.10808129 0.8595125
000220 5b 5c 9f 3e db 70 a3 3d fb f5 0b bf 07 4d bf bd
       0.3112515 0.0798051 -0.5467221 -0.09340864
000230 95 1b cd 3d b6 1d c7 3e a1 be ee 3e 58 23 fe 3d
       0.100150265 0.38889855 0.46629813 0.12409085
000240 76 51 b4 3e f8 03 fd 3e 3b c7 55 3f c6 16 97 be
       0.352184 0.4941709 0.83507127 -0.29509562
000250 07 26 0a bf 34 e3 3a 3f 75 fa 60 be 4d 98 ac 3e
       -0.53964275 0.73002934 -0.21970542 0.33709946
000260 a0 5b 4e bf be d8 0d bf 2d 6a 9c 3e 32 ec f0 3b
       -0.8060856 -0.5540885 0.30549756 0.0073523754
000270 1b 04 88 3e 95 b4 93 3e 02 8f 5a bd c2 b1 16 be
       0.26565632 0.2884871 -0.05335904 -0.14716247
000280 2a e2 16 3e 16 a3 d0 3e 54 57 96 be d8 84 0f bf
       0.14734712 0.40749425 -0.293635 -0.5606208
000290 c1 25 e6 3e 1d e8 9d be 15 0a 7b 3f 0f a5 0a bf
       0.4495068 -0.3084115 0.9806226 -0.5415811
0002a0 61 e1 1a 3f ca 7e 1f bf 6c f5 99 bd 97 2b 32 be
       0.6050015 -0.6230284 -0.07517514 -0.1739944
0002b0 15 db c8 3e d6 36 ca 3e da ea 43 3e 05 7b 52 3f
       0.39229646 0.39494962 0.19132558 0.8221896
0002c0 42 7d 21 3e ca b7 b6 be 19 11 5f be 20 a4 1f be
       0.15770438 -0.35687095 -0.21783866 -0.15589952
0002d0 8b a7 b1 3c 1d 99 4e be 45 04 01 bc 41 5e 83 be
       0.021686336 -0.20175596 -0.007874553 -0.25657848
0002e0 51 d4 80 3d dc ef 12 3f aa b6 6c 3e 2c 5a af 3d
       0.06290496 0.57397246 0.23116556 0.08562121
0002f0 3f 69 84 bd a8 dc 6e be 7e 3a bb be dd 24 bc be
       -0.064653866 -0.23326361 -0.36568063 -0.36746874
000300 bc 04 96 be ba db af 3e d1 61 6d bf e8 12 ca be
       -0.29300487 0.34347326 -0.9272738 -0.3946755
000310 ed b5 ed 3e e3 c8 19 bf a8 ee 6f be a5 23 a3 be
       0.4642786 -0.60072154 -0.23430884 -0.31863132
000320 4c af b9 be a3 6d 92 3e 5f 96 ec 3e 50 db 2e 3e
       -0.36266553 0.2859927 0.46208474 0.17075849
000330 31 75 08 3f 9d 7a b8 be 5c 52 13 be 35 73 4f 3d
       0.5330382 -0.36031047 -0.14386886 0.05064698
000340 b3 0b c3 bd f3 dc a8 3e a0 3d 00 bf d2 ec 0c 3f
       -0.09523716 0.3298107 -0.5009403 0.5504886
000350 6c 1f e6 3e d4 e5 10 3d b3 f1 01 bf 26 77 70 3f
       0.44945848 0.03537543 -0.5075943 0.93931806
000360 d5 a8 12 be 71 cc bf 3d 82 1b 46 be 8d 90 d6 3e
       -0.14322217 0.09365166 -0.19346431 0.41907158
000370 6f 04 a9 be 48 ee 4c bd c6 31 ba 3e b2 65 c6 be
       -0.33011195 -0.05003193 0.363661 -0.38749462
000380 b6 24 2e 3f e6 45 f7 bd c4 12 b5 be e2 fd 15 3f
       0.68024766 -0.12073879 -0.3536588 0.5859052
000390 f6 e6 d5 be 81 32 c3 be 07 30 b0 3e 7e 29 c6 be
       -0.41777772 -0.3812447 0.34411642 -0.3870353
0003a0 59 42 79 be ee 18 29 be 01 0c cf 3e e6 93 39 3f
       -0.24341716 -0.16513416 0.40438846 0.724913
0003b0 77 3b d3 bd f3 15 99 be 9f fe 91 3d 70 cf ca 3e
       -0.103140764 -0.29899558 0.07128643 0.39611387
0003c0 b7 6c 06 3d da 1c 68 bf 82 30 a4 bd 84 cb a3 3e
       0.032818522 -0.90669024 -0.08017065 0.31991208
0003d0 ae 27 0e 3f b6 7c 91 be 81 b8 5a be 0c 40 9e be
       0.55529296 -0.2841546 -0.21359445 -0.3090824
0003e0 3f bd b2 be 7a 3e bf be ac b5 4e bf 49 da 97 3e
       -0.34910008 -0.37352353 -0.8074596 0.29658726
0003f0 17 a1 c6 bd 5d 72 8b 3c db d7 3b 3e 68 ea 86 be
       -0.09698694 0.017022306 0.18344061 -0.26350713

li.1.running_var f4 [512]
000000 ac 5e 3e 3d c9 9e 11 3d 7d 8f 56 3c 30 3a ad 3d
       0.046477005 0.03555182 0.013095734 0.08458364
000010 e7 58 28 3d 52 3d 5f 3d a5 a3 7e 3b 89 1e 4f 3d
       0.04110041 0.05450184 0.0038854864 0.05056623
000020 04 04 08 3e 7d fd ea 3b 62 ff b7 3b 55 2e 83 3c
       0.13282782 0.0071713314 0.005615161 0.016013304
000030 3c 28 4f 3c 7c d4 14 3b c6 f1 13 3d 0d 79 8a 3c
       0.01264387 0.0022709658 0.036119245 0.016903425
000040 2b 85 ce 3b 09 52 26 3b 14 19 e1 3b b2 2e 2c 3b
       0.006302496 0.0025378487 0.0068694446 0.002627295
000050 64 d2 37 3c f0 64 61 3b 73 e6 e3 3b c4 d1 ab 3b
       0.011219595 0.0034392439 0.006954962 0.005243512
000060 e5 46 52 3b a2 2e 90 3c a9 93 35 3c ac 4f a3 3b
       0.0032085713 0.017600361 0.011082568 0.004983863
000070 ef b2 23 3b d6 56 3d 3d c0 c4 56 3d 56 27 ac 3c
       0.002497848 0.04622539 0.05243373 0.02101485
000080 92 ab f1 3b dd 26 36 3d 47 53 80 3c 34 ae 93 3b
       0.007375189 0.044470657 0.01566471 0.0045068506
000090 c5 ea d0 3d 74 a1 3a 3b b1 89 2a 3b 2e 35 1a 3b
       0.10201029 0.0028477581 0.0026022012 0.0023530233
0000a0 21 01 38 3c 4a 4a 00 3d 55 93 ff 3c 02 6d 96 3b
       0.011230738 0.031320848 0.031198183 0.0045906315
0000b0 ae 7d c1 3c 6a ed ca 3c 93 a6 56 3d 02 0c 55 3d
       0.023619499 0.024771411 0.05240495 0.052013405
0000c0 20 9f 7e 3b b9 d7 57 3d 0c 43 af 3d fc e6 cc 3b
       0.003885217 0.052695964 0.0855771 0.0062531214
0000d0 49 3f b7 3b 25 e6 8a 3c 5f 75 7d 3b 08 bc 90 3c
       0.005592261 0.016955445 0.0038674695 0.017667785
0000e0 d4 62 58 3b 9c c5 42 3d df 70 2c 3c 74 6e 3f 3c
       0.003301789 0.047551736 0.010524957 0.011684049
0000f0 4e 8c 26 3d 36 6c 0d 3c 2c e5 fc 3d fb de 86 3c
       0.04066115 0.0086317565 0.123483986 0.016463747
000100 65 4a 41 3b 63 d7 35 3b b5 19 6d 3b 08 8e 7d 3d
       0.0029493805 0.0027746789 0.0036178653 0.06190303
000110 3d 96 7d 3b bf e3 58 3b 17 30 50 3c 25 bd 15 3c
       0.0038694285 0.0033094732 0.012706778 0.009139334
000120 d5 08 69 3b 2c 00 29 3c 7a e5 21 3e 8c e2 4b 3c
       0.0035558243 0.010314982 0.15810195 0.01244415
000130 77 24 f5 3d 22 d3 49 3c 81 26 dd 3d cb 7c 0b 3b
       0.11969846 0.012318404 0.1079836 0.00212841
000140 68 8a e1 3b 4b 55 0f 3d 16 dd ea 3c 6a 06 4b 3d
       0.0068829544 0.03499345 0.028669875 0.049566664
000150 e4 bc 19 3b a3 b0 0a 3d 22 f2 9e 3c 74 5b 83 3b
       0.0023458535 0.03385986 0.019402567 0.004008705
000160 82 cf 95 3d 3b bc 9c 3c 24 90 1b 3c e3 da 3c 3b
       0.073149696 0.019132724 0.009494815 0.002881699
000170 88 9c 4e 3c d5 c2 63 3d ce c0 08 3c d5 61 2c 3c
       0.012610562 0.05560573 0.0083467495 0.010521372
000180 6d 6b 67 3c b0 1f 95 3c b6 19 28 3b 43 61 96 3d
       0.014124733 0.018203586 0.002565009 0.0734277
000190 56 ed b2 3d 3f 8f a7 3d 27 6b d6 3b b9 f1 a0 3c
       0.087366745 0.08181619 0.0065435353 0.019646512
0001a0 8d ba 24 3c 4a e8 83 3c c9 27 ca 3b 6c f3 27 3b
       0.010054243 0.016101975 0.0061692935 0.0025627268
0001b0 17 52 7e 3d f6 fd cb 3d a6 58 61 3d 28 8c f8 3b
       0.062090006 0.099605486 0.055016182 0.0075850673
0001c0 20 77 69 3c 1c e2 b0 3c c3 cd 1e 3c ef ec 47 3c
       0.014249593 0.021592192 0.009692612 0.012202485
0001d0 99 d8 4f 3b 10 9e 14 3b db bd 6f 3d ab 15 17 3e
       0.0031714796 0.002267722 0.05853067 0.1475436
0001e0 c6 b6 69 3e 48 b1 e0 3c e8 6b 3b 3b 93 4e 7b 3b
       0.22823629 0.027428284 0.0028598253 0.0038346394
0001f0 53 15 90 3d 84 6e 14 3d b3 cd 52 3c ce 19 f2 3b
       0.07035317 0.03623821 0.012866425 0.00738833
000200 68 28 b0 3b db f0 97 3c 37 08 15 3e f7 0b 87 3c
       0.0053759106 0.018547466 0.14553915 0.016485197
000210 ac 7c a3 3d 04 59 d6 3b e3 9d 66 3c 70 80 04 3e
       0.07982764 0.006541373 0.014075729 0.1293962
000220 87 a3 c5 3c 69 47 5f 3b b1 a7 d5 3d 19 67 45 3c
       0.024125827 0.0034069663 0.10432375 0.012048506
000230 81 23 3b 3b b4 5e 80 3c 07 2f 2c 3d 30 91 11 3b
       0.0028555098 0.015670158 0.042037036 0.0022211783
000240 b7 92 81 3d a0 f3 90 3d e9 dd f8 3d 16 72 18 3d
       0.06326812 0.07077718 0.12151701 0.037218176
000250 ef f8 26 3d 61 aa d2 3d 93 d4 c5 3c 28 22 d0 3c
       0.040764745 0.102864034 0.024149215 0.025406912
000260 1a 03 25 3e 74 70 cb 3d 7c b5 07 3c a9 0c dd 3b
       0.16114464 0.09933558 0.008283015 0.006745894
000270 ba 8c 86 3c c5 f7 87 3c 30 45 c1 3b 57 49 24 3b
       0.016424526 0.016597638 0.0058981404 0.0025068128
000280 f5 40 49 3c 7d 0f d3 3c da c6 8d 3c ff 0d ca 3d
       0.012283553 0.025764221 0.017306734 0.09865951
000290 57 78 66 3d 05 13 8c 3b 05 7d 6e 3e 5e 7d 17 3d
       0.05626711 0.0042747282 0.23289879 0.036984794
0002a0 2b 70 7d 3d b0 01 a2 3d f5 37 35 3b 27 63 37 3c
       0.06187455 0.07910478 0.0027651761 0.011193073
0002b0 00 b0 be 3c 3f 5a 53 3d 3e ca 83 3c b4 92 ce 3d
       0.023277283 0.051599737 0.016087648 0.10086575
0002c0 bd 5a c4 3b f9 b4 6f 3c 0a 9d 17 3c 1f 34 3d 3c
       0.005992262 0.01463055 0.00925375 0.011548071
0002d0 69 ff 2f 3b 28 35 d3 3c c6 6a 5f 3b 84 51 c0 3c
       0.0026855117 0.025782183 0.0034090742 0.02347637
0002e0 65 6e 14 3c 93 b6 b7 3d 40 fb 97 3c d4 39 91 3b
       0.009059523 0.0897037 0.018552423 0.0044319425
0002f0 b0 18 44 3b 27 36 6b 3c 38 94 9a 3c f7 0a 85 3c
       0.0029921941 0.014356173 0.018869504 0.01624058
000300 60 07 3a 3c 44 cc 82 3c 18 d5 1e 3e dd f3 22 3d
       0.011354297 0.015966542 0.15510976 0.039783347
000310 65 0a 7c 3d 55 6f 65 3d 01 f7 4c 3c 5b cc d7 3c
       0.06153335 0.056014378 0.012510062 0.026342561
000320 ef 8b 73 3c 0d e0 58 3c 29 08 1e 3d 5c 44 37 3c
       0.014864906 0.013237012 0.038582 0.011185732
000330 0e fe 8a 3d 04 c9 23 3c 3b 67 89 3c 6f ca 31 3b
       0.06786738 0.009996656 0.016772857 0.0027128716
000340 bd 5b be 3b 4a 7b e7 3c 80 47 f7 3c 68 8d 67 3d
       0.005809276 0.028257031 0.030185461 0.05653134
000350 5f d7 3a 3d 2e 66 04 3b 44 79 08 3d 41 47 82 3e
       0.04561555 0.0020202505 0.033318773 0.25444987
000360 0b b2 41 3b 51 aa 2b 3c 39 8e ce 3b c1 b9 31 3d
       0.0029555585 0.010477618 0.0063035754 0.04339004
000370 b5 fb ab 3c 85 2f 88 3c 4a 26 5d 3d d3 0f 58 3d
       0.020994047 0.016624222 0.053991593 0.052749466
000380 cd a0 8c 3d be b6 68 3c 25 2b 95 3c 7f e3 17 3d
       0.06866608 0.014203725 0.01820905 0.03708219
000390 6d 65 2f 3d ab f7 85 3c 62 0c 03 3d 8b 08 d7 3c
       0.042821337 0.016353449 0.03199423 0.02624919
0003a0 64 8e 55 3c e0 e2 36 3b 7d 35 49 3d 8e af b0 3d
       0.013034437 0.0027906224 0.049123276 0.086272344
0003b0 c4 00 9f 3b e4 87 0b 3d 79 9e 47 3b 9b f6 86 3c
       0.004852386 0.034065142 0.0030459447 0.016475013
0003c0 70 da 2c 3b 0a 35 2e 3e 82 d4 c7 3c 28 d1 90 3c
       0.0026375316 0.1701242 0.024393324 0.017677858
0003d0 f8 ff 1f 3d 29 bf c5 3b fe 90 57 3c ce 3f a6 3c
       0.03906247 0.006034751 0.013157127 0.020294096
0003e0 da 69 03 3d be 52 ae 3c e7 c8 e5 3d f9 2a 2f 3c
       0.03208337 0.021279689 0.1121996 0.010691398
0003f0 3d d6 eb 3a 49 82 28 3b 10 50 6d 3c fe 58 54 3c
       0.0017992925 0.0025712422 0.01448442 0.0129606705

li.3.weight f4 [1, 512]
000000 8e 07 46 3d ce 16 9d bc f8 b1 19 bd 0e 59 a0 3d
       0.04834705 -0.019175913 -0.03752324 0.07829486
000010 b5 c5 1f 3d 71 61 18 3d b2 7d 86 3c d2 59 6e bc
       0.039006907 0.037202302 0.016417358 -0.014547782
000020 34 80 48 3c e2 e6 48 3d 55 9d f9 3c 68 6e 2b bc
       0.012237597 0.049048312 0.03047053 -0.010463335
000030 3d 72 b6 bb e0 f5 8f bc c9 89 a1 3b ee 9d 86 bd
       -0.0055678175 -0.017573297 0.0049297553 -0.065730914
000040 2e 24 cb bc 93 fe b4 3c b2 a5 9c bb 4b 93 c7 3c
       -0.024797525 0.022094047 -0.0047804946 0.024362227
000050 7d b9 28 bd 60 ae cc bc 06 24 14 bc a4 8d 18 bb
       -0.04119252 -0.024985492 -0.009041792 -0.0023277784
000060 0c 6b dd 3a c6 74 09 bd f9 20 99 bb b2 25 54 bc
       0.0016892864 -0.03355863 -0.00467312 -0.01294844
000070 4b 30 9a bc 2a f5 8f 3d 19 33 a3 3d 8e e1 3c bd
       -0.018821856 0.07029183 0.079687305 -0.046113543
000080 cd 4f b5 3b 41 f0 6f bd 42 52 90 bd 11 06 93 bc
       0.0055331946 -0.058578733 -0.070469394 -0.017947229
000090 ba db e3 3b 97 66 22 3c 32 cd 07 bc 43 ae 94 bb
       0.0069536837 0.009912155 -0.0082886685 -0.004537375
0000a0 d6 d5 e1 bc 1a ac 00 3d a2 c0 46 bd b7 d3 85 3c
       -0.027567785 0.03141413 -0.048523553 0.016336305
0000b0 29 73 4d bd ce 36 da bc 32 c2 c7 3b 09 cf 45 3d
       -0.050158653 -0.026637461 0.006096148 0.048293147
0000c0 0b 7e 78 bc 1f 55 24 3c e5 f2 86 bc 20 f2 aa bc
       -0.01516677 0.01003006 -0.016473243 -0.020867407
0000d0 01 71 68 bb c4 24 e3 bc e2 32 1d bc 8f ce 0c bd
       -0.0035467746 -0.027727492 -0.009594651 -0.034376677
0000e0 5e 89 1a bd 58 06 63 3d 8b b5 7b bb 65 e7 bb bc
       -0.03772866 0.05542597 -0.0038407769 -0.022937486
0000f0 9d 4c f8 3c 22 e0 27 3c b9 d7 b2 bc ab ae 36 bd
       0.03030997 0.0102463085 -0.02183138 -0.04460017
000100 af 3c 80 3a ce 4a 9b 3c 0d b5 52 3c c6 ae 40 3c
       0.000978371 0.018956568 0.012860549 0.011760419
000110 33 c1 32 3c 75 e5 9f bc ca 62 22 bd 89 41 5c 3d
       0.01091032 -0.019518593 -0.039644994 0.053773437
000120 67 bb 96 bc 9f 1d 4a 3a e4 9b d8 3d ba 15 f9 bc
       -0.018399907 0.00077101024 0.10576609 -0.030405868
000130 39 24 73 bc 0a 83 1e bd f5 e6 b0 3c 70 9e 21 bc
       -0.014840179 -0.038699187 0.021594504 -0.009864435
000140 6e 86 a4 bc 1a 5d 97 3c 79 4e a1 bb fd 38 1a 3d
       -0.020083632 0.018477011 -0.0049226847 0.037652005
000150 21 40 1b 3c ff 52 b8 3b f5 9d 19 bd 17 a3 2d bb
       0.009475739 0.0056251283 -0.037504155 -0.0026494914
000160 fe 63 74 ba d8 44 44 3c 4b e2 41 bd f2 c8 8a 3a
       -0.00093227613 0.011979304 -0.04733495 0.0010588451
000170 d6 dc 24 bc 9e 10 1a 3d c6 a5 4b bc e6 c4 9d 3a
       -0.010062417 0.037613504 -0.01242966 0.001203683
000180 4c 60 5c bd 08 3e 83 bd 92 d5 0e 3d 09 ed 43 3d
       -0.053802773 -0.06408316 0.034871645 0.047833476
000190 b3 c4 1e 3d 3c 3e d5 3c 15 7d 9d bb 08 f3 81 bb
       0.038761806 0.026030652 -0.0048061707 -0.003965739
0001a0 99 64 cc 3c 66 96 ad 3c a9 83 af 3c 21 80 00 3c
       0.024950312 0.02118988 0.021425085 0.007843048
0001b0 52 f9 3e 3d f0 19 34 3d 5e 36 2c 3b 02 72 7d bd
       0.04662449 0.04397005 0.0026277523 -0.061876304
0001c0 b9 a5 72 3a a0 b8 53 3c b0 81 18 bd bb 56 57 bc
       0.0009256262 0.012922436 -0.037233055 -0.013143237
0001d0 e2 8e f0 3c 65 bb ed 3c d8 3a bd bc 71 ad b2 3c
       0.029365007 0.02902002 -0.023099348 0.021811219
0001e0 31 4b 57 3d fa 89 10 3d 48 4d 28 3c 6e 8d 92 bb
       0.052561942 0.035287835 0.010272332 -0.004472426
0001f0 58 5c b7 3c e8 56 61 3d 9e 72 6d bd d8 96 f7 bc
       0.0223829 0.05501452 -0.057970636 -0.030223295
000200 af b5 43 3c 19 cd f9 3c 4d 2f a4 3b 35 84 26 3d
       0.011945172 0.030493306 0.0050105215 0.040653426
000210 82 ed 23 3d c8 ea b7 bc a5 bb 61 bd 3a da 92 bc
       0.040021427 -0.02245082 -0.055110592 -0.017926324
000220 56 7e 1e bc c5 f8 07 bb 46 df ac bc ce 3c 3f 3c
       -0.0096736755 -0.0020747643 -0.021102559 0.011672212
000230 3f 82 00 3d af 42 51 bd f8 fc 4c bd f8 1a 01 3d
       0.031374212 -0.051088985 -0.050045937 0.03151986
000240 c8 ff 80 3d cd 10 b3 3d 9d b0 8b 3c 83 e4 ce 3c
       0.062987864 0.08743439 0.01705199 0.025255447
000250 52 75 da bc 5c 85 b3 3d 51 db 57 3d 07 96 37 39
       -0.02666727 0.08765671 0.05269939 0.0001750813
000260 5b d0 15 3d a6 a2 92 bc 2b c0 d8 bc 8a 45 ea bb
       0.036575656 -0.017899822 -0.02645882 -0.007149403
000270 2e af a6 bc 25 8c 88 bd ce 0c 18 bc 00 97 60 3c
       -0.020347204 -0.066673554 -0.009280397 0.013707876
000280 25 78 a3 bc 02 2e e5 3c 5a 8d 19 3c 33 d7 29 bd
       -0.01995475 0.02797604 0.00937208 -0.041464996
000290 77 31 81 3c 3e cd ee 3c 41 e3 26 3a a6 95 d9 3c
       0.015770657 0.029150601 0.0006366261 0.026560616
0002a0 8c 98 fa 3c ce 07 fd 3c 6b 39 a2 bc a0 89 4f bb
       0.030590318 0.03088751 -0.01980277 -0.0031667724
0002b0 a7 e2 c3 bc 66 d9 4d 3d 5e 1d 06 bd f9 64 d9 3b
       -0.023911787 0.050256155 -0.03274285 0.0066343513
0002c0 b6 10 fe 3b 65 78 09 bc f6 58 f6 bc 72 4e 53 bd
       0.007753457 -0.008390521 -0.030071717 -0.051588483
0002d0 b4 7e 8d 3b 3d e9 9b ba 01 46 c7 bb fc a2 14 3d
       0.0043180827 -0.0011895072 -0.006081343 0.036288247
0002e0 be bc 58 bd d5 3f b6 bc 47 08 b0 bc 57 0a a3 3c
       -0.052914374 -0.022247234 -0.021488322 0.019902391
0002f0 58 34 c2 bc 82 e0 49 bd 1b fd 41 3c 95 f5 2d bd
       -0.0237066 -0.049286373 0.01184013 -0.042470533
000300 39 2d cd bc 0a 9b 80 3c 3e 9d d4 3c 06 fb 13 3d
       -0.025045978 0.015698928 0.025953885 0.036128066
000310 ec 21 9e 3c 16 cd 07 3c 46 23 ef bc 20 cd 11 bc
       0.019303285 0.008288642 -0.029191624 -0.008899003
000320 d5 d7 8e bd f3 23 e9 bc 8c 42 78 3b 8a 04 22 bd
       -0.069747604 -0.028459525 0.0037881462 -0.03955511
000330 3d 1a 94 3b 21 12 0f bd ce 29 76 3c f6 af 7e bc
       0.0045197294 -0.0349294 0.015024615 -0.015544882
000340 6b 4b 85 3c 3a c8 e4 3c 4a e7 0e bd 7c e7 97 3b
       0.016271314 0.027927507 -0.034888543 0.0046357494
000350 05 0a b8 3c 22 df bc 3c 7e 64 d8 bc 4d 2b 18 3d
       0.022465715 0.023055617 -0.026415106 0.03715067
000360 10 51 93 3a 5f 9f 01 bd 6f b3 27 3b 36 07 5b 3d
       0.0011239368 -0.03164613 0.0025589128 0.053473674
000370 0b 32 36 3d d3 98 86 bd 21 7d 09 3d b4 b3 40 3d
       0.04448132 -0.06572118 0.033566598 0.04704638
000380 5c db 65 3d e1 d8 fa 3b ab a5 bd bc 4c 37 dc 3c
       0.0561174 0.0076552485 -0.023150286 0.026881836
000390 48 9f 4c bc 53 36 19 bd 73 10 28 bc 05 66 40 bd
       -0.0124891475 -0.037405323 -0.010257828 -0.046972293
0003a0 29 2b 75 3c 2c 88 25 3d ad 3e 3e bc 37 fb 73 3d
       0.014963903 0.040413067 -0.011611623 0.05956575
0003b0 b3 01 a6 3c b7 5b da 3b 92 d5 b2 bc eb cb 05 bd
       0.020264482 0.0066637653 -0.021830354 -0.032665174
0003c0 d1 ba 5c 3c 6c c5 3c 3d b1 5d 5a 3c ed f1 8f bd
       0.013472275 0.046086714 0.013328002 -0.070285656
0003d0 8c c0 01 bd bf b9 de 3a b1 4c 2a bd cd 1c 73 bd
       -0.031677768 0.0016992613 -0.041577045 -0.05935364
0003e0 bb ab 90 39 7b 35 42 bb 93 41 cc bc 18 df 76 bd
       0.0002759377 -0.0029633928 -0.024933612 -0.060271353
0003f0 08 d2 82 3c 33 35 d1 3b 66 1e 8e bc 00 49 22 bd
       0.015969291 0.0063845157 -0.01734848 -0.0396204
