online/32_D2.pth (torch, 158980 bytes, 8 tensors)

li1.weight f4 [1, 24]
000000 69 84 ca 3d b0 ae 2b 3e 0c c1 dc 3c 7a 92 ec bd
       0.098885365 0.16765857 0.02694752 -0.11551376
000010 e0 c1 a1 3d 8a f7 44 3d 5e b8 42 3e 7b 52 a4 3d
       0.07898307 0.048087634 0.19015643 0.080235444
000020 9b bf f7 bd f5 ff aa bd cc 31 27 be 83 aa b9 3b
       -0.12097093 -0.08349601 -0.1632759 0.0056660785
000030 a7 b0 04 be b8 38 f7 3d 98 d3 16 be be fa 1b 3e
       -0.12958013 0.12071365 -0.14729154 0.1523237
000040 ed f8 65 bd 58 33 d4 bd 48 33 af 3d bb ab 49 3e
       -0.056145597 -0.103613555 0.08554703 0.19694416
000050 5f 9b 22 be 2a ba 2d 3d eb fd 68 bd 50 e8 2f 3e
       -0.15879582 0.042413868 -0.05688278 0.17178464

li2.0.weight f4 [512, 70]
000000 60 7c 2c bd c6 6c d1 bd fa 10 d1 bd 8c 53 8a bc
       -0.0421108 -0.10225825 -0.10208316 -0.016885541
000010 bb f7 90 bd 57 2f 5c 3d cd 4c d6 bd ea 49 d8 bd
       -0.07078501 0.053756084 -0.10463867 -0.10560973
000020 1c c6 91 bd bb f8 6e bd 29 9b 8b 3c b5 ee d1 bd
       -0.071178645 -0.058342677 0.01704176 -0.10250608
000030 24 59 16 3d 5b fd 09 3d 78 cb 81 3d b7 f7 84 3d
       0.036706105 0.033688884 0.06337637 0.0649256
000040 b4 1f 0a bc 4d 46 6a 3d 9d 54 9b 3d 6f 57 37 3c
       -0.00843041 0.05719595 0.07584498 0.011190279
000050 c2 b8 64 bd 21 81 62 bd 3b 08 36 bc 33 c8 14 bd
       -0.05584026 -0.05529893 -0.011110361 -0.036323737
000060 1e 19 d5 3d 8b 92 34 bc 5b 86 da 3d 0b 34 33 bc
       0.10405181 -0.011021267 0.106701575 -0.010937701
000070 4d ad 79 bc 7a 4d d3 bc 36 86 c6 bd ef f7 c5 3d
       -0.015239072 -0.02579378 -0.096935675 0.0966643
000080 58 c6 92 3c c8 e1 63 bd 46 c1 6a 3d a0 88 d7 3c
       0.017916843 -0.055635244 0.057313226 0.026310265
000090 45 9a f3 3d 15 93 a1 3d 65 ad 6c bd 3e 6b cf bd
       0.11894659 0.07889382 -0.05778255 -0.10127877
0000a0 d3 8a 05 3d b1 3e 90 3d 75 d0 7a bc 1f 40 58 bc
       0.032603096 0.070432074 -0.015308489 -0.013198881
0000b0 2c c2 e2 bd 37 7f 6c 3d 8a a1 e4 bc cc 03 9e 3d
       -0.110721916 0.05773851 -0.02790906 0.07715568
0000c0 0b cd 8f bd 59 2a 0c 3d 19 9e e2 3c bf 02 f1 3d
       -0.07021531 0.034220073 0.027663277 0.11768102
0000d0 62 06 90 3c 6c 69 8e 3d e8 f0 c8 3d 9a 20 e3 3d
       0.017581169 0.069537014 0.09811574 0.11090203
0000e0 ff c1 52 bc 3f 0b fa 3c 8c c2 ef bd b0 b6 d8 3c
       -0.012863635 0.03052294 -0.11707029 0.0264543
0000f0 62 60 d3 bd 79 43 cb bd db 95 ec 3d c3 74 e9 3d
       -0.10321118 -0.09924979 0.1155202 0.11399224
000100 4d ef 0a bd b5 6e e2 3d 74 d6 80 3d 42 26 93 bd
       -0.03391962 0.11056272 0.06290904 -0.071850315
000110 62 70 28 bc 29 cd 4a bd 87 1a 86 bd 51 8e 2b 3d
       -0.0102807 -0.049512062 -0.065480284 0.04188377
000120 08 f6 9c bd b1 cc b9 bc f7 e1 47 bd 84 fd 07 3d
       -0.07664114 -0.022680612 -0.04879948 0.033200756
000130 97 76 6a bd 55 b3 7c bd d5 86 2b bd ce 45 41 bc
       -0.057242002 -0.06169446 -0.041876633 -0.011796428
000140 14 32 c2 bd 3b 7d 5e 3d 4f 26 ca bd 5e ad 31 3d
       -0.09482208 0.054318648 -0.09870588 0.043378226
000150 42 9a d1 bd fd aa 0d 3d 9e 14 27 bd fd 97 77 3c
       -0.102345005 0.034586895 -0.040791146 0.01511192
000160 48 ca 97 3d 58 53 af 3d af 64 4f 3d 9e de e5 bd
       0.07411629 0.085608184 0.05063313 -0.112241015
000170 49 09 43 bd 91 01 c7 3d 3a 0b e5 bc e5 a7 03 3c
       -0.047616277 0.09717096 -0.027959455 0.008035635
000180 fd 5a 83 3d 7e 25 82 bd 6b 32 bc bd 44 5b 52 bb
       0.06413839 -0.06354807 -0.09189304 -0.0032097856
000190 bd c6 5a bb 29 23 56 3c 0d a8 da 3d 5b 04 39 3d
       -0.0033382617 0.013069906 0.106765844 0.04517017
0001a0 0a c6 a2 3d 59 7c 27 3d ad 34 e7 bc 57 11 35 3d
       0.07947929 0.04089007 -0.02822336 0.04420599
0001b0 9f 8f 8a 3d 82 2f 40 3d 8a b5 22 3d c2 94 93 3d
       0.06765675 0.046920307 0.03972391 0.07206108
0001c0 7c 3d e9 bd 6a 97 f2 3d 9d 38 b0 bd 92 2c 0b bb
       -0.1138868 0.11845286 -0.08604548 -0.0021236283
0001d0 e4 49 a6 3c 9e 8c 93 bd dc 27 f1 3c 6a 5e 9d 3d
       0.020298906 -0.07204555 0.029437952 0.07684024
0001e0 8a 68 f2 bd 72 3b ac bd 28 05 e6 3d e3 b9 6c bd
       -0.118363455 -0.08409776 0.11231452 -0.057794463
0001f0 34 bb 96 3d e1 d4 aa 3c d4 b1 e6 bc 95 0d 50 3d
       0.07359925 0.020853462 -0.028160967 0.050794203
000200 73 e9 ea 3d 55 1f a6 bd 9e 8b c8 bd d1 5c 02 bd
       0.11470308 -0.08111445 -0.09792255 -0.031826798
000210 d7 28 20 bd 3b c8 cd 3d e5 c0 28 3d a3 02 4c 3d
       -0.039101448 0.100479566 0.041199584 0.049807202
000220 a1 ad f1 bd cc 6c 14 3c 6e 79 e4 3d 28 75 cb 3d
       -0.11800695 0.009059142 0.111559734 0.09934455
000230 33 10 ee bd 52 de 91 bd 9f 65 21 bd d3 4f b6 3c
       -0.116241835 -0.07122482 -0.039403554 0.02225486
000240 93 94 8f 3d 86 e7 ac bd 9c 6d 3e 3d fe bc ac bd
       0.0701076 -0.08442597 0.04649125 -0.08434485
000250 64 20 a3 bc e6 aa d8 3d 1c d7 e7 bb d1 f0 8a bd
       -0.019912906 0.10579471 -0.0070752036 -0.06784213
000260 2b 22 98 bc 67 c2 dd 3c 65 da 87 3d 12 ba 50 bc
       -0.01857098 0.027070237 0.06633452 -0.012739675
000270 33 80 97 3d 2e 6e c3 3c 80 1a d3 3c 2e f0 ca bd
       0.07397499 0.023856249 0.025769472 -0.09909092
000280 b3 77 a4 3d 62 d7 dc 3d 91 d5 f2 bd c4 ce 8e bd
       0.08030643 0.107832685 -0.11857141 -0.06973031
000290 04 80 c8 bd 31 d8 24 bd 55 eb ca bd 87 b1 1b 3d
       -0.09790042 -0.04024524 -0.09908167 0.0380111
0002a0 34 0b 04 3d 93 07 cf 3d 92 09 20 3b e0 48 7f 3d
       0.032237247 0.101088665 0.0024419767 0.06232536
0002b0 a3 8e c1 bd 4c 88 6b bd 09 0e 79 bb 71 e0 39 ba
       -0.09451034 -0.05750303 -0.003800275 -0.00070906343
0002c0 dc 92 89 bd fa 78 42 3d 62 e1 5c 3d d4 d0 a0 3d
       -0.06717464 0.047478653 0.05392588 0.07852331
0002d0 7f 64 6a 3d 2d 1a 99 3b 75 37 cf 3d a2 1c 9b bc
       0.057224747 0.00467231 0.101179995 -0.018934552
0002e0 c8 52 31 ba 17 c8 70 3b 10 09 cd 3d 86 ae a9 bc
       -0.00067643495 0.0036740357 0.10011494 -0.020713102
0002f0 15 63 cc 3d b9 6a a6 3d 48 92 8a 3d ba 13 60 bd
       0.09979836 0.081258245 0.06766182 -0.054706313
000300 dc 40 c2 bc c6 97 3a bd 05 cf a5 bd 4d b0 c4 3d
       -0.023712568 -0.0455549 -0.080961265 0.09603939
000310 9d bb e0 3c ec e0 eb bc fe 36 a7 3d b2 24 b0 bd
       0.027433211 -0.028793775 0.08164786 -0.08600749
000320 ac 63 db 3c a9 7c c2 bd ef 7a cb ba 9b 49 eb bc
       0.026780926 -0.09496433 -0.0015524308 -0.028721621
000330 51 37 02 bd 56 30 15 3d 6b 91 3c bd 70 e5 a0 3d
       -0.031791035 0.03642305 -0.04603712 0.07856262
000340 73 b7 eb 3d d6 83 94 3c d6 79 93 3d 47 3c 1b 3d
       0.115095995 0.01812927 0.07200973 0.03789928
000350 35 a2 ef bd ef d2 8f 3d c0 93 ec bd c6 ff 83 bc
       -0.117008604 0.07022654 -0.115516186 -0.016113173
000360 95 75 a8 bc ca b6 b7 3d 4a 8b 97 bd e9 cf 94 3c
       -0.02056388 0.08970411 -0.07399614 0.018165546
000370 46 60 d8 bb e6 f1 68 bd c0 5b 6d bc 59 de 47 bd
       -0.0066032736 -0.056871317 -0.014487207 -0.04879603
000380 00 33 aa bd 1a f3 47 bc 18 d9 eb 3b 61 10 1f bd
       -0.08310509 -0.012203956 0.0071975105 -0.03883398
000390 a8 8e 02 3c ee 39 29 3d 96 5c 8d bd 3d 23 e1 bb
       0.007968582 0.04131501 -0.06902425 -0.006870656
0003a0 86 e4 d0 3d e6 1a ec bd a6 68 1b bd 68 56 16 bd
       0.101998374 -0.11528568 -0.037941597 -0.036703497
0003b0 58 a6 c0 bd 86 72 b3 3d 24 a0 7a 3d cf 22 7f bd
       -0.094067276 0.08762078 0.06118788 -0.062289055
0003c0 1e d9 f1 bd 90 d5 24 bd 77 8b e2 bd 55 f7 d7 bc
       -0.1180899 -0.04024273 -0.11061757 -0.026363054
0003d0 a8 c9 b9 bd d2 d4 d7 bc 66 51 ba bd 9b ad d4 3d
       -0.09071666 -0.026346598 -0.09097557 0.10384675
0003e0 f9 b1 b7 3d 0d 51 68 bd 78 f1 c8 bd 9c 14 f1 bd
       0.089694925 -0.05671792 -0.098116815 -0.11771509
0003f0 56 0c f0 bd 6e 34 cc 3b b2 20 82 bc 49 ee 3c bd
       -0.11721103 0.006231836 -0.015884731 -0.046125684

li2.0.bias f4 [512]
000000 93 ed 0d 3c 98 7d 98 bd 8a 61 9b bd cf 48 c2 bc
       0.008662599 -0.0744583 -0.075869635 -0.023716358
000010 6d 5c 33 3d b0 32 bf bd 0f 44 e5 bb 75 b8 1a 3d
       0.043789316 -0.0933584 -0.0069966386 0.03777357
000020 37 2a 20 bd 70 7c bb 3c bc 2d e8 bc a6 8a 9f 3d
       -0.03910276 0.022886485 -0.02834212 0.07790117
000030 62 09 d7 3d 62 75 21 3d 5a 0d 26 bd 1c 42 27 3b
       0.104998365 0.039418586 -0.040540077 0.0025521582
000040 07 e9 6d bb a0 2d a2 3d 7c 72 27 3d f5 ff a0 bd
       -0.0036302225 0.079188585 0.040880665 -0.0786132
000050 35 f6 47 b9 a3 59 e6 3d 43 dd e3 bd 27 37 51 bd
       -0.00019069838 0.112475656 -0.11126187 -0.051077988
000060 08 87 28 bd df 33 ea 3d b2 3e 20 bc 1a 5d db bb
       -0.0411444 0.11435675 -0.009780573 -0.006694448
000070 bc 90 cf 3d d3 c4 ca bd a1 a2 86 bc 38 b5 ac 3d
       0.10135028 -0.099008225 -0.01643497 0.08433002
000080 e7 b7 cb bd 2f 16 c4 3d 14 b7 9b bd bd 52 19 3d
       -0.09947186 0.09574544 -0.07603279 0.03743242
000090 1b 8a b3 3d 46 49 80 bd b5 76 79 bd 8b 77 e5 3c
       0.08766576 -0.06263976 -0.060904223 0.028011104
0000a0 b0 97 8e bd 3b 28 a9 3d d0 95 87 3d 6f 8b 4d 3d
       -0.06962526 0.082596265 0.06620371 0.050181802
0000b0 73 a6 63 bd 8e ed 37 bc 88 d2 a0 bd 8b ed 9d 3d
       -0.05557866 -0.011226071 -0.07852656 0.07711323
0000c0 07 59 b3 3d 4d 80 a5 bd ca b1 ec 3a b4 39 b2 ba
       0.08757215 -0.08081112 0.0018058356 -0.0013597519
0000d0 39 b6 2b 3d 39 34 dd bd 1d 95 12 3d 94 3b 9c bb
       0.041921828 -0.10800976 0.035786737 -0.0047678445
0000e0 db 43 b0 3d 43 25 8a 3c 93 9e ba bc ad df 9d 3d
       0.086066924 0.01686347 -0.022780692 0.077086784
0000f0 11 79 e9 bd ce 51 65 3b 98 01 9c bd 28 00 5b bd
       -0.11400045 0.0034991386 -0.076174915 -0.053466946
000100 e2 67 68 bd 88 49 ed bd 24 ae 26 bc d1 3f 51 bd
       -0.056739695 -0.115862906 -0.010173354 -0.05108625
000110 a4 46 ee 3c d4 0c 7e 3d e5 7e 5b bd 78 bf ef 3a
       0.029086418 0.062023953 -0.053587813 0.0018291315
000120 86 a7 22 3d 91 fd 4e 3c ba 2a 9f 3d 39 0b a4 bc
       0.039710544 0.012633697 0.07771821 -0.020024883
000130 ae 3c 82 bd 0f 58 aa bd 96 3e 1e 3d 8e a3 1f bd
       -0.0635923 -0.08317577 0.038633905 -0.038974337
000140 02 be f1 bd f3 ca 19 bc 15 a2 8a 3d da d3 27 3d
       -0.11803819 -0.009386766 0.06769196 0.04097352
000150 b5 dd 07 bd a9 41 36 3c 24 68 b8 bd 40 4f b4 3d
       -0.03317042 0.011124053 -0.09004238 0.08804178
000160 a5 c4 d9 3d 3f dd 4d 3d ea 8b b1 3b 87 9d 18 3d
       0.1063321 0.050259825 0.0054182904 0.037259605
000170 01 02 b2 3d 5a 74 92 3c 25 cb 00 bd 51 72 b1 bd
       0.086917885 0.017877746 -0.031443734 -0.08664382
000180 5f 1d 71 3c 9f bb 3c 3c 43 14 f8 bc 1e 48 f1 3d
       0.014716475 0.011519342 -0.030283099 0.117813334
000190 9f d0 bc 3d dc c7 99 bd 3b 5d ce bd 62 c1 21 3d
       0.09219479 -0.07508823 -0.10076376 0.039491065
0001a0 53 20 74 3d 40 de e2 bc 62 f2 3d bd 50 63 d5 bd
       0.05960114 -0.027693868 -0.046373732 -0.10419333
0001b0 20 0b 99 3d 2a ec 37 3d 31 4d 2b 3d f9 74 60 3c
       0.07472825 0.044902958 0.041821662 0.013699763
0001c0 d0 71 04 3d de 9a ee bd 87 ab fa 3c fe 5d d7 3d
       0.032335103 -0.11650632 0.030599369 0.105159745
0001d0 3f a5 29 3d e4 f1 f8 bc b5 87 ba 3d 3b 1b 9e 3d
       0.041417357 -0.03038878 0.09107915 0.077200375
0001e0 62 27 bc bc ba 39 93 3d 47 6e 7c 3d 81 24 1f bd
       -0.022967998 0.07188745 0.061628606 -0.038853172
0001f0 5b d8 ab 3d a4 00 76 bd fa d0 ef bc 4b 0b a5 3d
       0.08390876 -0.060059205 -0.029274452 0.080587946
000200 27 e0 eb bd f2 48 d9 bd cf b4 c3 3d 13 c7 ef 3d
       -0.11517363 -0.10609616 0.09555971 0.11707892
000210 25 35 10 bd c8 af db bd 44 05 91 bc 52 b9 76 3c
       -0.035206933 -0.10726887 -0.017702706 0.015058832
000220 cc 61 90 bd 92 96 99 3d 3a e5 31 3d 70 9d 58 3d
       -0.07049903 0.07499422 0.043431498 0.05288452
000230 21 a4 ba 3d 65 38 a4 3d a8 cb 56 bd 60 e1 f2 bc
       0.09113336 0.08018569 -0.052440315 -0.029648483
000240 34 9c 97 3d 4d 17 97 3c b2 7e c1 3c 3a 7d 2b bc
       0.0740284 0.018443728 0.023619983 -0.010466868
000250 5e e7 aa bd e1 bb e4 bd 10 c9 03 bc f1 57 29 bd
       -0.08344911 -0.111686476 -0.0080435425 -0.041343633
000260 92 35 30 3d 97 a7 81 bc 23 66 82 bd c9 b9 8b bc
       0.04301984 -0.015826983 -0.06367137 -0.017056363
000270 2a 3e 9b 3d 2e 24 de 3d a2 2c f4 bd 4b 69 1c 3c
       0.07580216 0.108467445 -0.119225755 0.009546588
000280 e6 1e df bc 73 b1 ae 3d 18 c9 0e bd be 30 8c bd
       -0.027236413 0.085299395 -0.034859747 -0.06845234
000290 13 90 9a bc b9 17 95 3d 8a 45 11 bd 90 e6 2d 3c
       -0.018867528 0.07279915 -0.03546671 0.010614052
0002a0 ea d8 e8 3d 6a 9e 81 bd 75 5a d7 bc 38 88 8d bd
       0.11369498 -0.06329043 -0.02628825 -0.06910747
0002b0 ee 72 d2 bc 9e 0d 1b bd 5a c9 9e 3d c5 32 32 3c
       -0.025689568 -0.037854783 0.077532485 0.010876362
0002c0 8e 74 60 bd df c3 df bc e6 6f 8b 3d 41 98 dd bd
       -0.054798655 -0.027315078 0.06808452 -0.10820056
0002d0 f4 41 a7 bd 18 d3 50 bd fa 68 ee 3d e9 e9 38 3d
       -0.081668764 -0.050982565 0.116411164 0.04514495
0002e0 4b ec 18 bd 23 16 49 bd 4c 41 cd 3d a6 13 5f bd
       -0.03733472 -0.049093377 0.1002222 -0.054462098
0002f0 97 1e 48 3d 83 1c e9 bd f3 12 96 bd e9 5b 53 bd
       0.048857298 -0.11382391 -0.07327833 -0.051601324
000300 3c 79 d7 bc ee cc 9c 3d 3d 92 f2 bd 56 43 de bd
       -0.026302926 0.07656275 -0.11844299 -0.10852687
000310 b2 3c f4 3d 45 9e d3 bd c3 a4 7b 3d 15 5c 1f 3c
       0.11925639 -0.10332922 0.061436426 0.009726544
000320 ee 47 b9 bc e8 10 85 3d 1a e1 b0 bd c5 92 92 3b
       -0.022617307 0.06497365 -0.08636685 0.0044730627
000330 37 d2 29 bd 3a 94 f3 3d 09 13 7c 3d 7c d8 f1 3c
       -0.041460242 0.11893506 0.06154159 0.029522173
000340 5a 74 35 bd ef 92 7f 3d 00 3d 05 3d 6b ba 07 3d
       -0.044300415 0.062395986 0.032528877 0.033136766
000350 79 96 97 3c 0b 76 a2 3d 46 b7 a3 bd 11 07 b1 3c
       0.018504368 0.07932671 -0.07993941 0.021609815
000360 01 85 b1 3d cd f5 9c 3d 1e d6 af bd 0b aa c8 bd
       0.086679466 0.0766407 -0.085857615 -0.09798058
000370 91 ce 72 3d 47 7b c9 3d 35 4d 08 3c 62 6a b4 bb
       0.05927903 0.098379664 0.008319189 -0.005505846
000380 c0 cf ae 3b b3 7e 02 bd fd b9 ba 3d 8f 0c 5c ba
       0.0053348243 -0.03185911 0.09117506 -0.00083942054
000390 2c d9 0a bd 1b ca 8d 3c ae 48 4d 3d ad fa 6a bd
       -0.033898517 0.017308285 0.05011814 -0.05736797
0003a0 2e 2e bb bc 36 7c 2c bd a9 2c ce 3d 15 e1 38 3c
       -0.022849169 -0.042110644 0.10067112 0.0112841325
0003b0 38 cc 13 3d ad 3e ca bc 81 7c 47 bd 5e ac 83 bd
       0.03608343 -0.02468809 -0.04870272 -0.06429361
0003c0 ce d2 ab 3b ec 11 b9 3d ce 85 62 3d cb 01 e0 bd
       0.0052436357 0.090366215 0.055303387 -0.10937842
0003d0 23 6f ba 3d cd c3 34 bd ae 84 ad 3d fd 1e 9f 3d
       0.09103229 -0.044132043 0.08472572 0.077695824
0003e0 e1 5a d6 3d b2 02 cf bd d2 c0 8c bd 35 7e dd 3d
       0.104665525 -0.10107936 -0.06872715 0.10815088
0003f0 16 7a 52 3d 89 ff 88 3c 90 8d 77 bd d7 13 93 bd
       0.05138596 0.016723411 -0.06043774 -0.071815185

li2.1.weight f4 [512]
000000 00 00 80 3f 00 00 80 3f 00 00 80 3f 00 00 80 3f
       1.0 1.0 1.0 1.0
000010 00 00 80 3f 00 00 80 3f 00 00 80 3f 00 00 80 3f
       1.0 1.0 1.0 1.0
000020 00 00 80 3f 00 00 80 3f 00 00 80 3f 00 00 80 3f
       1.0 1.0 1.0 1.0
000030 00 00 80 3f 00 00 80 3f 00 00 80 3f 00 00 80 3f
       1.0 1.0 1.0 1.0
000040 00 00 80 3f 00 00 80 3f 00 00 80 3f 00 00 80 3f
       1.0 1.0 1.0 1.0
000050 00 00 80 3f 00 00 80 3f 00 00 80 3f 00 00 80 3f
       1.0 1.0 1.0 1.0
000060 00 00 80 3f 00 00 80 3f 00 00 80 3f 00 00 80 3f
       1.0 1.0 1.0 1.0
000070 00 00 80 3f 00 00 80 3f 00 00 80 3f 00 00 80 3f
       1.0 1.0 1.0 1.0
000080 00 00 80 3f 00 00 80 3f 00 00 80 3f 00 00 80 3f
       1.0 1.0 1.0 1.0
000090 00 00 80 3f 00 00 80 3f 00 00 80 3f 00 00 80 3f
       1.0 1.0 1.0 1.0
0000a0 00 00 80 3f 00 00 80 3f 00 00 80 3f 00 00 80 3f
       1.0 1.0 1.0 1.0
0000b0 00 00 80 3f 00 00 80 3f 00 00 80 3f 00 00 80 3f
       1.0 1.0 1.0 1.0
0000c0 00 00 80 3f 00 00 80 3f 00 00 80 3f 00 00 80 3f
       1.0 1.0 1.0 1.0
0000d0 00 00 80 3f 00 00 80 3f 00 00 80 3f 00 00 80 3f
       1.0 1.0 1.0 1.0
0000e0 00 00 80 3f 00 00 80 3f 00 00 80 3f 00 00 80 3f
       1.0 1.0 1.0 1.0
0000f0 00 00 80 3f 00 00 80 3f 00 00 80 3f 00 00 80 3f
       1.0 1.0 1.0 1.0
000100 00 00 80 3f 00 00 80 3f 00 00 80 3f 00 00 80 3f
       1.0 1.0 1.0 1.0
000110 00 00 80 3f 00 00 80 3f 00 00 80 3f 00 00 80 3f
       1.0 1.0 1.0 1.0
000120 00 00 80 3f 00 00 80 3f 00 00 80 3f 00 00 80 3f
       1.0 1.0 1.0 1.0
000130 00 00 80 3f 00 00 80 3f 00 00 80 3f 00 00 80 3f
       1.0 1.0 1.0 1.0
000140 00 00 80 3f 00 00 80 3f 00 00 80 3f 00 00 80 3f
       1.0 1.0 1.0 1.0
000150 00 00 80 3f 00 00 80 3f 00 00 80 3f 00 00 80 3f
       1.0 1.0 1.0 1.0
000160 00 00 80 3f 00 00 80 3f 00 00 80 3f 00 00 80 3f
       1.0 1.0 1.0 1.0
000170 00 00 80 3f 00 00 80 3f 00 00 80 3f 00 00 80 3f
       1.0 1.0 1.0 1.0
000180 00 00 80 3f 00 00 80 3f 00 00 80 3f 00 00 80 3f
       1.0 1.0 1.0 1.0
000190 00 00 80 3f 00 00 80 3f 00 00 80 3f 00 00 80 3f
       1.0 1.0 1.0 1.0
0001a0 00 00 80 3f 00 00 80 3f 00 00 80 3f 00 00 80 3f
       1.0 1.0 1.0 1.0
0001b0 00 00 80 3f 00 00 80 3f 00 00 80 3f 00 00 80 3f
       1.0 1.0 1.0 1.0
0001c0 00 00 80 3f 00 00 80 3f 00 00 80 3f 00 00 80 3f
       1.0 1.0 1.0 1.0
0001d0 00 00 80 3f 00 00 80 3f 00 00 80 3f 00 00 80 3f
       1.0 1.0 1.0 1.0
0001e0 00 00 80 3f 00 00 80 3f 00 00 80 3f 00 00 80 3f
       1.0 1.0 1.0 1.0
0001f0 00 00 80 3f 00 00 80 3f 00 00 80 3f 00 00 80 3f
       1.0 1.0 1.0 1.0
000200 00 00 80 3f 00 00 80 3f 00 00 80 3f 00 00 80 3f
       1.0 1.0 1.0 1.0
000210 00 00 80 3f 00 00 80 3f 00 00 80 3f 00 00 80 3f
       1.0 1.0 1.0 1.0
000220 00 00 80 3f 00 00 80 3f 00 00 80 3f 00 00 80 3f
       1.0 1.0 1.0 1.0
000230 00 00 80 3f 00 00 80 3f 00 00 80 3f 00 00 80 3f
       1.0 1.0 1.0 1.0
000240 00 00 80 3f 00 00 80 3f 00 00 80 3f 00 00 80 3f
       1.0 1.0 1.0 1.0
000250 00 00 80 3f 00 00 80 3f 00 00 80 3f 00 00 80 3f
       1.0 1.0 1.0 1.0
000260 00 00 80 3f 00 00 80 3f 00 00 80 3f 00 00 80 3f
       1.0 1.0 1.0 1.0
000270 00 00 80 3f 00 00 80 3f 00 00 80 3f 00 00 80 3f
       1.0 1.0 1.0 1.0
000280 00 00 80 3f 00 00 80 3f 00 00 80 3f 00 00 80 3f
       1.0 1.0 1.0 1.0
000290 00 00 80 3f 00 00 80 3f 00 00 80 3f 00 00 80 3f
       1.0 1.0 1.0 1.0
0002a0 00 00 80 3f 00 00 80 3f 00 00 80 3f 00 00 80 3f
       1.0 1.0 1.0 1.0
0002b0 00 00 80 3f 00 00 80 3f 00 00 80 3f 00 00 80 3f
       1.0 1.0 1.0 1.0
0002c0 00 00 80 3f 00 00 80 3f 00 00 80 3f 00 00 80 3f
       1.0 1.0 1.0 1.0
0002d0 00 00 80 3f 00 00 80 3f 00 00 80 3f 00 00 80 3f
       1.0 1.0 1.0 1.0
0002e0 00 00 80 3f 00 00 80 3f 00 00 80 3f 00 00 80 3f
       1.0 1.0 1.0 1.0
0002f0 00 00 80 3f 00 00 80 3f 00 00 80 3f 00 00 80 3f
       1.0 1.0 1.0 1.0
000300 00 00 80 3f 00 00 80 3f 00 00 80 3f 00 00 80 3f
       1.0 1.0 1.0 1.0
000310 00 00 80 3f 00 00 80 3f 00 00 80 3f 00 00 80 3f
       1.0 1.0 1.0 1.0
000320 00 00 80 3f 00 00 80 3f 00 00 80 3f 00 00 80 3f
       1.0 1.0 1.0 1.0
000330 00 00 80 3f 00 00 80 3f 00 00 80 3f 00 00 80 3f
       1.0 1.0 1.0 1.0
000340 00 00 80 3f 00 00 80 3f 00 00 80 3f 00 00 80 3f
       1.0 1.0 1.0 1.0
000350 00 00 80 3f 00 00 80 3f 00 00 80 3f 00 00 80 3f
       1.0 1.0 1.0 1.0
000360 00 00 80 3f 00 00 80 3f 00 00 80 3f 00 00 80 3f
       1.0 1.0 1.0 1.0
000370 00 00 80 3f 00 00 80 3f 00 00 80 3f 00 00 80 3f
       1.0 1.0 1.0 1.0
000380 00 00 80 3f 00 00 80 3f 00 00 80 3f 00 00 80 3f
       1.0 1.0 1.0 1.0
000390 00 00 80 3f 00 00 80 3f 00 00 80 3f 00 00 80 3f
       1.0 1.0 1.0 1.0
0003a0 00 00 80 3f 00 00 80 3f 00 00 80 3f 00 00 80 3f
       1.0 1.0 1.0 1.0
0003b0 00 00 80 3f 00 00 80 3f 00 00 80 3f 00 00 80 3f
       1.0 1.0 1.0 1.0
0003c0 00 00 80 3f 00 00 80 3f 00 00 80 3f 00 00 80 3f
       1.0 1.0 1.0 1.0
0003d0 00 00 80 3f 00 00 80 3f 00 00 80 3f 00 00 80 3f
       1.0 1.0 1.0 1.0
0003e0 00 00 80 3f 00 00 80 3f 00 00 80 3f 00 00 80 3f
       1.0 1.0 1.0 1.0
0003f0 00 00 80 3f 00 00 80 3f 00 00 80 3f 00 00 80 3f
       1.0 1.0 1.0 1.0

li2.1.bias f4 [512]
000000 00 00 00 00 00 00 00 00 00 00 00 00 00 00 00 00
       0.0 0.0 0.0 0.0
000010 00 00 00 00 00 00 00 00 00 00 00 00 00 00 00 00
       0.0 0.0 0.0 0.0
000020 00 00 00 00 00 00 00 00 00 00 00 00 00 00 00 00
       0.0 0.0 0.0 0.0
000030 00 00 00 00 00 00 00 00 00 00 00 00 00 00 00 00
       0.0 0.0 0.0 0.0
000040 00 00 00 00 00 00 00 00 00 00 00 00 00 00 00 00
       0.0 0.0 0.0 0.0
000050 00 00 00 00 00 00 00 00 00 00 00 00 00 00 00 00
       0.0 0.0 0.0 0.0
000060 00 00 00 00 00 00 00 00 00 00 00 00 00 00 00 00
       0.0 0.0 0.0 0.0
000070 00 00 00 00 00 00 00 00 00 00 00 00 00 00 00 00
       0.0 0.0 0.0 0.0
000080 00 00 00 00 00 00 00 00 00 00 00 00 00 00 00 00
       0.0 0.0 0.0 0.0
000090 00 00 00 00 00 00 00 00 00 00 00 00 00 00 00 00
       0.0 0.0 0.0 0.0
0000a0 00 00 00 00 00 00 00 00 00 00 00 00 00 00 00 00
       0.0 0.0 0.0 0.0
0000b0 00 00 00 00 00 00 00 00 00 00 00 00 00 00 00 00
       0.0 0.0 0.0 0.0
0000c0 00 00 00 00 00 00 00 00 00 00 00 00 00 00 00 00
       0.0 0.0 0.0 0.0
0000d0 00 00 00 00 00 00 00 00 00 00 00 00 00 00 00 00
       0.0 0.0 0.0 0.0
0000e0 00 00 00 00 00 00 00 00 00 00 00 00 00 00 00 00
       0.0 0.0 0.0 0.0
0000f0 00 00 00 00 00 00 00 00 00 00 00 00 00 00 00 00
       0.0 0.0 0.0 0.0
000100 00 00 00 00 00 00 00 00 00 00 00 00 00 00 00 00
       0.0 0.0 0.0 0.0
000110 00 00 00 00 00 00 00 00 00 00 00 00 00 00 00 00
       0.0 0.0 0.0 0.0
000120 00 00 00 00 00 00 00 00 00 00 00 00 00 00 00 00
       0.0 0.0 0.0 0.0
000130 00 00 00 00 00 00 00 00 00 00 00 00 00 00 00 00
       0.0 0.0 0.0 0.0
000140 00 00 00 00 00 00 00 00 00 00 00 00 00 00 00 00
       0.0 0.0 0.0 0.0
000150 00 00 00 00 00 00 00 00 00 00 00 00 00 00 00 00
       0.0 0.0 0.0 0.0
000160 00 00 00 00 00 00 00 00 00 00 00 00 00 00 00 00
       0.0 0.0 0.0 0.0
000170 00 00 00 00 00 00 00 00 00 00 00 00 00 00 00 00
       0.0 0.0 0.0 0.0
000180 00 00 00 00 00 00 00 00 00 00 00 00 00 00 00 00
       0.0 0.0 0.0 0.0
000190 00 00 00 00 00 00 00 00 00 00 00 00 00 00 00 00
       0.0 0.0 0.0 0.0
0001a0 00 00 00 00 00 00 00 00 00 00 00 00 00 00 00 00
       0.0 0.0 0.0 0.0
0001b0 00 00 00 00 00 00 00 00 00 00 00 00 00 00 00 00
       0.0 0.0 0.0 0.0
0001c0 00 00 00 00 00 00 00 00 00 00 00 00 00 00 00 00
       0.0 0.0 0.0 0.0
0001d0 00 00 00 00 00 00 00 00 00 00 00 00 00 00 00 00
       0.0 0.0 0.0 0.0
0001e0 00 00 00 00 00 00 00 00 00 00 00 00 00 00 00 00
       0.0 0.0 0.0 0.0
0001f0 00 00 00 00 00 00 00 00 00 00 00 00 00 00 00 00
       0.0 0.0 0.0 0.0
000200 00 00 00 00 00 00 00 00 00 00 00 00 00 00 00 00
       0.0 0.0 0.0 0.0
000210 00 00 00 00 00 00 00 00 00 00 00 00 00 00 00 00
       0.0 0.0 0.0 0.0
000220 00 00 00 00 00 00 00 00 00 00 00 00 00 00 00 00
       0.0 0.0 0.0 0.0
000230 00 00 00 00 00 00 00 00 00 00 00 00 00 00 00 00
       0.0 0.0 0.0 0.0
000240 00 00 00 00 00 00 00 00 00 00 00 00 00 00 00 00
       0.0 0.0 0.0 0.0
000250 00 00 00 00 00 00 00 00 00 00 00 00 00 00 00 00
       0.0 0.0 0.0 0.0
000260 00 00 00 00 00 00 00 00 00 00 00 00 00 00 00 00
       0.0 0.0 0.0 0.0
000270 00 00 00 00 00 00 00 00 00 00 00 00 00 00 00 00
       0.0 0.0 0.0 0.0
000280 00 00 00 00 00 00 00 00 00 00 00 00 00 00 00 00
       0.0 0.0 0.0 0.0
000290 00 00 00 00 00 00 00 00 00 00 00 00 00 00 00 00
       0.0 0.0 0.0 0.0
0002a0 00 00 00 00 00 00 00 00 00 00 00 00 00 00 00 00
       0.0 0.0 0.0 0.0
0002b0 00 00 00 00 00 00 00 00 00 00 00 00 00 00 00 00
       0.0 0.0 0.0 0.0
0002c0 00 00 00 00 00 00 00 00 00 00 00 00 00 00 00 00
       0.0 0.0 0.0 0.0
0002d0 00 00 00 00 00 00 00 00 00 00 00 00 00 00 00 00
       0.0 0.0 0.0 0.0
0002e0 00 00 00 00 00 00 00 00 00 00 00 00 00 00 00 00
       0.0 0.0 0.0 0.0
0002f0 00 00 00 00 00 00 00 00 00 00 00 00 00 00 00 00
       0.0 0.0 0.0 0.0
000300 00 00 00 00 00 00 00 00 00 00 00 00 00 00 00 00
       0.0 0.0 0.0 0.0
000310 00 00 00 00 00 00 00 00 00 00 00 00 00 00 00 00
       0.0 0.0 0.0 0.0
000320 00 00 00 00 00 00 00 00 00 00 00 00 00 00 00 00
       0.0 0.0 0.0 0.0
000330 00 00 00 00 00 00 00 00 00 00 00 00 00 00 00 00
       0.0 0.0 0.0 0.0
000340 00 00 00 00 00 00 00 00 00 00 00 00 00 00 00 00
       0.0 0.0 0.0 0.0
000350 00 00 00 00 00 00 00 00 00 00 00 00 00 00 00 00
       0.0 0.0 0.0 0.0
000360 00 00 00 00 00 00 00 00 00 00 00 00 00 00 00 00
       0.0 0.0 0.0 0.0
000370 00 00 00 00 00 00 00 00 00 00 00 00 00 00 00 00
       0.0 0.0 0.0 0.0
000380 00 00 00 00 00 00 00 00 00 00 00 00 00 00 00 00
       0.0 0.0 0.0 0.0
000390 00 00 00 00 00 00 00 00 00 00 00 00 00 00 00 00
       0.0 0.0 0.0 0.0
0003a0 00 00 00 00 00 00 00 00 00 00 00 00 00 00 00 00
       0.0 0.0 0.0 0.0
0003b0 00 00 00 00 00 00 00 00 00 00 00 00 00 00 00 00
       0.0 0.0 0.0 0.0
0003c0 00 00 00 00 00 00 00 00 00 00 00 00 00 00 00 00
       0.0 0.0 0.0 0.0
0003d0 00 00 00 00 00 00 00 00 00 00 00 00 00 00 00 00
       0.0 0.0 0.0 0.0
0003e0 00 00 00 00 00 00 00 00 00 00 00 00 00 00 00 00
       0.0 0.0 0.0 0.0
0003f0 00 00 00 00 00 00 00 00 00 00 00 00 00 00 00 00
       0.0 0.0 0.0 0.0

li2.1.running_mean f4 [512]
000000 b0 91 b2 be a5 8d b7 bd 46 f8 ca be ae 05 6e 3e
       -0.34876776 -0.089625634 -0.39642543 0.23244354
000010 e2 12 07 3f a9 5c 6e 3e ff 7e a5 3e 86 6f cd bd
       0.5276319 0.23277535 0.32323453 -0.10031037
000020 a5 f3 44 3b 22 ce b8 3d 56 d8 4f be 4d b5 7a be
       0.003005245 0.09023692 -0.2029737 -0.24483223
000030 ee 5e 33 be f6 52 a5 bd 5f ce 05 bd a9 91 10 be
       -0.17516682 -0.08072464 -0.032667514 -0.14118065
000040 4b 6e 59 3e 46 6b 8f bd 3d e7 bd 3e 45 81 43 3c
       0.2123348 -0.07002883 0.37090483 0.011932676
000050 8c 20 1c bd 2c e1 cf bd 39 3a 4e 3c 5a 3d d4 bd
       -0.038116977 -0.1015037 0.012587124 -0.103632644
000060 a0 ba 36 be 82 9c b3 3e de a7 65 bd d4 ed a4 bd
       -0.1784463 0.35080343 -0.056068294 -0.080531746
000070 38 e3 83 3e 66 fc 26 3d 66 d6 20 bd 26 01 88 be
       0.25759292 0.04076805 -0.039266966 -0.26563376
000080 58 50 3b be 4f e9 1f bd 48 99 0c be 7f 4c 10 be
       -0.18292367 -0.03904086 -0.13730347 -0.14091681
000090 13 35 3a 3e d4 bb 74 be ce d7 83 be 92 af 39 3e
       0.18184309 -0.23899776 -0.25750583 0.18133381
0000a0 fe 85 5b be dd a4 ef 3e ef 5b 42 3d f4 f4 af 3c
       -0.21437833 0.46805468 0.047450956 0.021479107
0000b0 5e 0e b1 3d 4b 6e e8 bd 84 1d 67 be a9 02 d2 3d
       0.086453184 -0.11349162 -0.22569853 0.10254414
0000c0 ac 77 cd bc 4f 4c 3e be 2d 4f 5f 3e 31 3a be 3d
       -0.025081478 -0.18583797 0.21807547 0.09288443
0000d0 65 60 11 be e5 c6 12 3e ef a4 c5 3e 38 4e a4 bd
       -0.14196928 0.14333685 0.38602397 -0.080227315
0000e0 f7 ef 04 3d 6b da 38 3d 27 61 73 ba e1 f2 ee 3d
       0.03245541 0.045130175 -0.0009284191 0.11667419
0000f0 98 75 54 be 29 6b b4 3e 92 e6 d8 bd d4 4b 3b 3a
       -0.20747983 0.35238007 -0.10590853 0.0007144783
000100 25 38 f4 bc 44 7b 82 3e 4a f0 37 3d 6d 47 89 be
       -0.029811928 0.2548467 0.044906892 -0.26812306
000110 ab 10 9c bd 41 62 48 3e b6 c2 cc 3e 14 fa b4 3e
       -0.07620367 0.19568731 0.39992303 0.35347044
000120 e4 ba b4 3d 2a 75 38 be 0d 4f 44 3e 0c 80 8f be
       0.08824709 -0.18013445 0.1917078 -0.2802738
000130 6e d6 cc be d2 65 95 3c f9 3e 90 3d 33 af ce bd
       -0.40007347 0.018237028 0.07043261 -0.1009201
000140 d3 63 45 3d 77 d4 62 be cc 08 3f 3e 39 41 22 3d
       0.048190903 -0.22151361 0.186557 0.039612982
000150 d7 e0 41 3d 01 e6 36 be 91 e9 29 3c 55 ce 05 3e
       0.047333565 -0.17861177 0.010370628 0.1306699
000160 d5 1c 67 bc c7 52 41 be c4 1f 70 3e 9a e6 57 bd
       -0.014105995 -0.18879233 0.23449618 -0.052710153
000170 b6 d4 4c 3e a7 5f 56 be dd ef a7 bd 31 32 57 3e
       0.20003018 -0.20934926 -0.08200047 0.2101524
000180 13 3a 46 be 9f 36 66 3e e4 00 53 3e b8 76 53 3e
       -0.19358091 0.22481774 0.20605808 0.20650756
000190 e4 e7 f5 3d dc 18 63 be 70 26 1a bd 8c 3d b2 3b
       0.1200712 -0.22177452 -0.037634313 0.005439466
0001a0 ec ba 89 3e 02 9f 66 bd 62 41 3d be bc 05 95 be
       0.26900423 -0.056303985 -0.18481973 -0.29105937
0001b0 b7 bf 29 3d ec 11 86 3e 9a 77 a6 be 2a 2c 90 be
       0.0414426 0.26185548 -0.32513124 -0.28158695
0001c0 95 b8 13 3e 11 48 88 bd 27 f3 b9 be 45 75 73 bd
       0.14425881 -0.066543706 -0.36318323 -0.05943801
0001d0 f5 f6 89 bd 6b 76 91 bc 2c 7f ba 3d a3 4d b9 3d
       -0.067365564 -0.017756661 0.09106287 0.09048011
0001e0 a3 e5 b6 be 79 e5 de 3c c3 49 94 3d 26 7a 2c 3e
       -0.35722074 0.02720903 0.072406314 0.16843471
0001f0 5c 48 45 bd 4b 92 81 be 11 e2 f7 bd a8 36 d8 3d
       -0.04816471 -0.25306925 -0.121036656 0.105573
000200 f5 e0 af be 7b 12 ba bd 37 71 da 3c 17 e5 d2 bd
       -0.34351316 -0.09085556 0.026665313 -0.10297602
000210 c7 84 9d 3e bf 36 d1 3a a1 fa 84 bd 38 29 32 be
       0.30765364 0.001596175 -0.06493116 -0.17398536
000220 1a 0d da 3d d4 f6 b8 3c 25 49 bc 3d dc 37 a7 bd
       0.1064703 0.022578634 0.09193639 -0.08164951
000230 bc cd 15 3e 65 a8 1b 3e a6 b0 06 bd a3 a3 7b be
       0.14629263 0.15200956 -0.03288331 -0.24574141
000240 d9 46 62 3e fc 8c 11 3e 1e 51 f1 bd 35 b0 a5 3e
       0.22097339 0.14213938 -0.1178305 0.32360998
000250 c8 ec 87 be d0 d8 d4 3c d4 ef 8d 3e 98 8e 59 3e
       -0.26547837 0.02598229 0.27722037 0.21245801
000260 b9 af 89 3e b6 89 12 3c c8 e8 39 3e e0 c7 79 3d
       0.26891878 0.008943966 0.18155205 0.06098163
000270 c8 a8 cb be 3a f7 ba 3e 43 c3 d7 bd 1d cd 61 be
       -0.39777207 0.36516744 -0.1053529 -0.22050901
000280 fe 96 86 be 7e a9 d0 3d 01 13 be be 72 b5 9c bc
       -0.26287073 0.10188578 -0.37123874 -0.019129489
000290 ce a4 4b 3e 6e 71 07 be 8f 96 6b 3e 82 67 c8 3d
       0.19887087 -0.13226864 0.23006652 0.097853675
0002a0 bc 13 6e bd 69 0c e7 bd 73 12 fd 3d db b4 78 3d
       -0.05812429 -0.11281664 0.123570345 0.060719352
0002b0 e9 73 8f 3d fc 0f 28 be e0 3f d1 3e fe 8f a4 3d
       0.0700453 -0.16412348 0.40869045 0.08035277
0002c0 d1 7e 3a be 4e b0 ac 3d f5 60 18 bd cb 1c 00 be
       -0.18212439 0.08432065 -0.03720184 -0.12510984
0002d0 2f ab 1c 3d fd 7d 05 be 7b 8c 92 3e 3a bd 43 3d
       0.03824919 -0.13036342 0.28622803 0.047787882
0002e0 b0 dc cd bd 0a c1 87 be f2 a7 63 bd e8 7c 33 bd
       -0.100518584 -0.26514465 -0.055580087 -0.04382029
0002f0 ab 5a 0f 3d 91 56 3e be 79 fd f7 3d 2b f7 3a 3c
       0.034998577 -0.1858771 0.12108893 0.0114114685
000300 70 f8 8a be c0 64 39 bd e7 cc 4c be 01 86 c2 3c
       -0.27142668 -0.0452621 -0.20000039 0.023745539
000310 f5 1d f9 3d 2b 6c b0 be 74 45 e1 bd 55 59 99 3c
       0.12163917 -0.34457526 -0.10999575 0.018719355
000320 94 8a cf 3d d6 f9 7f 3e 9a 73 25 3e 3c ec 07 3e
       0.101338536 0.24997649 0.1615738 0.1327371
000330 b8 d4 d4 bd 86 c8 88 bd 10 27 5b bd bc c6 42 3e
       -0.103921354 -0.06678872 -0.05350405 0.19021124
000340 db 38 0d be d7 d5 c6 3d 55 61 54 be ef a5 13 ba
       -0.1379122 0.097087555 -0.20740254 -0.0005632331
000350 b6 f9 4c be a8 02 8c 3d 6a 37 72 be e0 56 54 be
       -0.20017132 0.06836444 -0.23653951 -0.20736265
000360 90 ac d5 3d 77 f1 2b 3e 49 56 93 3e 72 1a 24 be
       0.10433304 0.1679133 0.28776768 -0.16025713
000370 11 5a b0 3d 3d 47 99 3d 5f 4d 52 3d 7c 3b 0a 3e
       0.08610929 0.07484291 0.051343318 0.13499254
000380 3f 1a 43 bd a6 85 25 3d fa 8a 8a bd 0d c1 a4 3d
       -0.047632452 0.04041066 -0.06764789 0.08044634
000390 12 7f 83 be 6f 71 6e be b9 42 a8 3e 3e cd 84 be
       -0.25682884 -0.23285459 0.32863405 -0.25937837
0003a0 62 f0 d5 be e1 32 15 3e 30 75 81 3e 5c c9 e4 be
       -0.4178496 0.1457019 0.2528472 -0.44684875
0003b0 f1 cf a9 3d a0 ff 1f 3e 1b 0b 14 3e 0a 07 11 be
       0.08291615 0.15624857 0.14457361 -0.14162841
0003c0 95 97 4b bd ca 8d 79 3e 1e 55 da 3e 11 5e 1a bf
       -0.049705107 0.24370494 0.42643064 -0.60299784
0003d0 ae 6e d9 3d d8 72 df bd 48 e5 a1 3d ee a5 3d be
       0.106168136 -0.109105766 0.0790506 -0.18520328
0003e0 75 09 fc 3d c3 fb 69 be 61 05 c3 3d ed f8 0f bd
       0.12306491 -0.22849946 0.0952251 -0.035149503
0003f0 13 37 9a 3d 90 17 c5 be b0 9c 63 be 9e f4 87 3d
       0.07530036 -0.3849454 -0.2222774 0.06638454

li2.1.running_var f4 [512]
000000 be b7 3c 3d 71 fa 23 3d f2 1b 19 3d d8 76 55 3d
       0.046073668 0.04003376 0.037380166 0.05211529
000010 d9 c6 17 3d 25 4c 31 3d 6b 19 80 3d dc c7 2d 3d
       0.03705487 0.043285508 0.06254848 0.04242693
000020 e6 5f 3d 3d 33 f4 3b 3d 33 60 53 3d 73 08 f1 3c
       0.046234034 0.045887183 0.051605415 0.029422974
000030 71 9d 2d 3d 4b c0 43 3d 94 6d 30 3d ae 9d 1e 3d
       0.042386476 0.047790807 0.04307325 0.038724594
000040 31 5a 80 3d 7b 85 15 3d 2d 51 2b 3d 81 b3 14 3d
       0.06267203 0.03650425 0.041825462 0.036304
000050 80 4e 4c 3d ec 34 2a 3d c8 93 39 3d 83 61 28 3d
       0.04987955 0.041554376 0.04530695 0.04110862
000060 fc 3d 52 3d 70 ca 26 3d 8e 8b 47 3d a6 df 30 3d
       0.051328644 0.040720403 0.048717074 0.043182038
000070 f2 f8 3e 3d 5e f2 3c 3d 58 8c 42 3d d3 9d 46 3d
       0.04662413 0.046129577 0.047497123 0.048490357
000080 33 94 47 3d 67 61 29 3d 47 e5 28 3d 41 4b 1e 3d
       0.04872532 0.041352656 0.04123428 0.038645986
000090 39 a7 32 3d ac ba 2f 3d 5b 2b 62 3d 02 8b 4c 3d
       0.043616507 0.042902634 0.05521713 0.049937256
0000a0 d4 8a 74 3d be 56 27 3d a3 90 12 3d cd 7f 31 3d
       0.05970271 0.04085421 0.035782468 0.04333477
0000b0 a6 58 39 3d 8d 04 1c 3d 9a 16 38 3d 81 1c 32 3d
       0.045250557 0.038090277 0.04494343 0.043484215
0000c0 31 99 06 3d d5 99 4a 3d 3a 12 2e 3d 28 00 2e 3d
       0.03286094 0.049463112 0.04249785 0.042480618
0000d0 d2 f7 30 3d 6d a8 2c 3d 01 4f 5d 3d f0 ab 35 3d
       0.04320509 0.04215281 0.054030422 0.044353426
0000e0 ef b4 4b 3d 57 d4 3a 3d 2b b9 1f 3d a6 36 45 3d
       0.0497331 0.04561266 0.03899495 0.04814782
0000f0 ba e7 2a 3d 8e 55 2b 3d ae 4a 33 3d 4b 47 52 3d
       0.041724898 0.04182964 0.043772392 0.05133752
000100 c8 bf 23 3d 30 6d 20 3d fa e3 4a 3d 15 ab 22 3d
       0.03997782 0.03916663 0.04953382 0.039713938
000110 da 79 2b 3d 03 e2 86 3d b0 e0 94 3d 92 e4 63 3d
       0.041864254 0.06586077 0.07269418 0.055637904
000120 a9 fb 42 3d ea 7d 26 3d 5a 1d 0f 3d ff 1f 4e 3d
       0.047603283 0.040647425 0.0349401 0.050323483
000130 78 c0 7f 3d 87 0e 4a 3d 87 09 55 3d 10 87 19 3d
       0.062439412 0.04933026 0.05201104 0.03748232
000140 d7 98 46 3d b7 e1 36 3d 07 f2 46 3d 90 df 17 3d
       0.048485603 0.044648852 0.04857066 0.03707844
000150 f8 1a 15 3d 5b 07 46 3d b3 69 0f 3d 39 f5 54 3d
       0.036402673 0.04834686 0.035012912 0.051991675
000160 6a b4 30 3d fa e2 37 3d fd 95 18 3d 6d 96 50 3d
       0.043140806 0.044894196 0.037252415 0.050924707
000170 f5 f9 3a 3d de c4 34 3d 34 52 5e 3d bf 0c 31 3d
       0.045648534 0.04413306 0.054277614 0.043225046
000180 ca dc 28 3d 4c e2 37 3d 20 b8 4e 3d f8 46 28 3d
       0.041226186 0.044893548 0.050468564 0.041083306
000190 4a 0a 1d 3d ef 1f 3b 3d ce 0e 1f 3d 3e c3 26 3d
       0.03833989 0.04568475 0.03883248 0.04071354
0001a0 9e 71 3b 3d a8 c1 1b 3d bc 01 2f 3d 57 ee 12 3d
       0.04576265 0.038026482 0.042726263 0.03587183
0001b0 f1 95 22 3d 35 2d 51 3d 5b bd 2d 3d a8 5e 21 3d
       0.039693777 0.051068503 0.04241691 0.03939691
0001c0 c0 d2 08 3d 92 ef 23 3d c2 72 1e 3d b8 91 5b 3d
       0.03340411 0.040023394 0.03868366 0.053605765
0001d0 2e b7 21 3d c0 c7 2e 3d bb 2b 27 3d c2 6c 36 3d
       0.039481334 0.042670965 0.04081319 0.044537313
0001e0 c1 ee 3a 3d ba 1f 47 3d 59 0b 20 3d 29 26 3b 3d
       0.04563785 0.04861424 0.039073322 0.04569069
0001f0 00 bd 50 3d 0e 32 43 3d ed 73 35 3d 62 c3 67 3d
       0.050961494 0.047655158 0.04430001 0.056582816
000200 e7 8a 35 3d 5a 19 1b 3d bb ae 31 3d 46 85 38 3d
       0.04432192 0.037865974 0.043379527 0.045048974
000210 18 f2 31 3d f2 84 34 3d 2e f8 20 3d 7d 57 7e 3d
       0.04344377 0.0440721 0.039299183 0.062095154
000220 a2 ed 32 3d ee 04 26 3d 3a 0a 83 3d d3 4c 3b 3d
       0.043683656 0.040532045 0.06398435 0.045727562
000230 b8 4b 42 3d 86 b4 2a 3d 39 aa 49 3d 65 29 32 3d
       0.047435492 0.041676067 0.049234603 0.04349651
000240 6a 72 51 3d 18 54 24 3d d2 27 1c 3d 81 ef 68 3d
       0.051134504 0.04011926 0.038123913 0.056869034
000250 1a e7 13 3d de 05 5d 3d b5 f3 60 3d 05 df 4a 3d
       0.036109067 0.053960674 0.054919917 0.049529094
000260 07 76 33 3d e4 b7 51 3d eb 92 3e 3d 71 e4 42 3d
       0.04381373 0.051200762 0.04652683 0.04758114
000270 4a 78 6a 3d f9 46 7c 3d cf 61 26 3d c5 7e 5b 3d
       0.057243623 0.061591122 0.04062062 0.053587694
000280 73 ec 2f 3d 10 78 1f 3d 4e 3c 18 3d d9 b2 2f 3d
       0.042950105 0.03893286 0.037166886 0.04289517
000290 d9 59 3e 3d 55 e6 0d 3d c4 5f 3e 3d 38 04 46 3d
       0.046472404 0.03464349 0.046478048 0.048343867
0002a0 ca 16 1d 3d af 8e 1d 3d 08 1c 70 3d 90 e6 24 3d
       0.03835181 0.03846615 0.058620483 0.040258944
0002b0 3b 4e 80 3d 45 f9 75 3d e2 e9 47 3d ce f0 4c 3d
       0.06264921 0.060052175 0.048807032 0.050034337
0002c0 93 58 1f 3d 2e 41 19 3d cd c1 29 3d 3b 17 1b 3d
       0.03890283 0.037415676 0.04144459 0.03786395
0002d0 c6 70 1c 3d dc 55 38 3d c8 34 9c 3d 91 b1 4f 3d
       0.038193487 0.045003757 0.07627255 0.05070645
0002e0 d8 cc 48 3d 48 e9 23 3d ae 5f 27 3d 07 45 19 3d
       0.04902348 0.040017396 0.04086273 0.037419345
0002f0 88 90 38 3d 5a c4 2d 3d 42 9d 1e 3d 2f a4 41 3d
       0.04505971 0.042423584 0.03872419 0.04727572
000300 1e d5 36 3d be 31 36 3d 59 a2 20 3d 62 87 43 3d
       0.04463684 0.04448103 0.039217327 0.047736533
000310 80 79 81 3d 5c cc 1b 3d a4 1a 1a 3d 4b 36 6b 3d
       0.063220024 0.03803669 0.037623063 0.057424825
000320 fa 3f 32 3d 2c 84 6f 3d 6a f0 5a 3d a7 47 47 3d
       0.043518044 0.05847566 0.053451933 0.048652317
000330 2e 9f 27 3d 54 c4 27 3d 55 fd 38 3d 5a 10 2b 3d
       0.04092329 0.040958717 0.04516347 0.04176364
000340 b1 80 59 3d 6b 27 3e 3d 4d bc 2b 3d d2 b9 27 3d
       0.053101245 0.04642431 0.041927624 0.040948696
000350 f0 8b 4a 3d 01 c1 2c 3d d5 47 26 3d f0 38 38 3d
       0.04944986 0.04217625 0.040595848 0.044976175
000360 1c 37 17 3d 38 49 08 3d 62 14 47 3d 33 f4 2c 3d
       0.03691779 0.03327295 0.048603423 0.042225074
000370 0a 13 18 3d 1e 34 21 3d 67 1b 4b 3d b4 fc 3c 3d
       0.037127532 0.039356343 0.04958668 0.046139434
000380 70 e0 22 3d 8a 5c 54 3d cf 77 0f 3d 66 a8 31 3d
       0.03976482 0.051846065 0.035026368 0.043373488
000390 1d 99 42 3d 22 9f 3f 3d 80 c3 45 3d 6f 42 27 3d
       0.0475093 0.04678262 0.048282146 0.04083484
0003a0 5b a3 40 3d e1 b8 59 3d ba ee 28 3d 68 40 47 3d
       0.047030788 0.05315483 0.041243292 0.048645407
0003b0 9a 02 4c 3d f6 12 46 3d 52 0e 47 3d 1a bd 2b 3d
       0.04980717 0.048357926 0.04859764 0.04192839
0003c0 b2 31 2d 3d df 6a 4e 3d dd 60 35 3d 9d 2d 80 3d
       0.04228372 0.05039489 0.04428183 0.062587
0003d0 ed 90 51 3d 91 12 69 3d e1 32 20 3d ae 89 4a 3d
       0.051163603 0.056902472 0.039111022 0.049447708
0003e0 d3 49 28 3d 0b f2 fd 3c a5 90 48 3d 05 98 30 3d
       0.04108603 0.030999204 0.04896607 0.043113727
0003f0 e3 61 2e 3d d0 87 33 3d 81 70 27 3d e5 d5 31 3d
       0.04257382 0.043830693 0.040878776 0.043416876

li2.3.weight f4 [1, 512]
000000 36 6c 78 3c 67 0a 0e bd 45 41 b4 bc 96 c8 dd 3c
       0.015162518 -0.03467789 -0.02200378 0.027073186
000010 ef 7f fa 3c 5f 61 33 bb cd b7 98 bb 71 4d 00 bc
       0.030578582 -0.002737127 -0.0046605826 -0.0078309635
000020 88 ac 96 bc 7d fb b9 bc e4 25 90 3c 8f 00 27 bd
       -0.018392816 -0.022702927 0.017596193 -0.040772017
000030 8a 81 20 bd 10 a1 1d bd 15 1a 01 bd fd 10 7d 3c
       -0.039186038 -0.03848368 -0.031519014 0.015445945
000040 0d c5 13 3d 5b 6e 5a bc 1d 39 5c 3c 91 98 1a 3d
       0.036076594 -0.013331975 0.013441351 0.037743155
000050 e8 93 0d 3d 03 e0 a6 3c 0b ed ab bc d9 ec 32 bd
       0.034564883 0.020370489 -0.020987054 -0.043682907
000060 e3 b9 94 3c 9c 65 0e bc b6 26 4f 3c 89 35 e2 3c
       0.018155044 -0.008691218 0.012643507 0.027613418
000070 86 60 1b bb 88 9e 0e bc 8e 05 2a bd 2c b0 3b bc
       -0.0023708655 -0.008704789 -0.041509204 -0.011455577
000080 08 44 f7 bc 4b b2 29 3d c0 0a 7a 3c 50 36 6c 3c
       -0.030183807 0.0414298 0.015261352 0.014417246
000090 f5 d2 29 bd 2c 42 bb bc f4 10 34 3d 0b 63 a3 bc
       -0.04146095 -0.022858702 0.04396148 -0.019944688
0000a0 bb 09 87 bc 52 94 20 3d 55 b6 14 bd 53 53 e2 bc
       -0.016484132 0.03920395 -0.036306698 -0.027627623
0000b0 09 7f 20 bd 09 e6 23 3d 4e 81 00 3d f8 78 81 3c
       -0.03918365 0.0400143 0.031373315 0.015804753
0000c0 3e 96 eb 3b b8 9c 02 bd e7 40 e5 3c 68 ac 6f 3c
       0.007189541 -0.03188774 0.02798505 0.014628507
0000d0 68 a7 c4 3c 74 8e a1 3b 80 29 2f 3d 69 24 f9 3c
       0.024005607 0.004930312 0.042764187 0.03041287
0000e0 50 d2 f3 bc 3a 12 10 bc 4e 5a 6d 3b 3e 9e b0 3c
       -0.02976337 -0.008793408 0.0036217156 0.02155983
0000f0 87 21 7b 3b bb e2 30 bd a2 e2 23 bc 1f 3a 34 3c
       0.0038319544 -0.043184977 -0.010002764 0.011000185
000100 d4 b1 ed bc 2a 76 c4 bc 1c db f3 bc ee 7e d4 3c
       -0.02901546 -0.023982126 -0.029767565 0.025939431
000110 a4 e4 2b 3d d1 c1 ac bc 35 fc 54 bb 72 af 4b 3c
       0.041966096 -0.021088513 -0.003249896 0.012431966
000120 f6 2d 21 bd 87 a1 83 3a 26 ca 2f bd 5c 65 0a bd
       -0.039350472 0.0010042646 -0.042917393 -0.03378807
000130 31 fc 5b bb 82 d3 a1 bc b8 97 ca bc fe 90 91 3c
       -0.0033567066 -0.019754175 -0.024730548 0.017769333
000140 8e 90 36 bc 8b 0a 3d 3c 1b e8 1a bd 99 41 eb bc
       -0.011142863 0.011538158 -0.03781901 -0.028717803
000150 2c 55 dd b9 cf 05 08 bd 99 e6 08 bc 7d 06 f1 3b
       -0.00042215863 -0.033208665 -0.00835576 0.00735551
000160 a8 22 fb bc 52 47 d4 3c bc f7 97 3c dc a8 47 3c
       -0.030656174 0.025912914 0.018550746 0.012186255
000170 41 88 28 bc 9a e6 f9 3a d6 7e d7 3c a0 17 0a 3c
       -0.010286392 0.0019065917 0.026305597 0.008428484
000180 a4 7c 69 3c f7 d3 2e bd ca 78 90 3c bc 8f 9d 3c
       0.014250908 -0.042682614 0.017635722 0.019233577
000190 d4 db b8 bc 40 8f 0c bb 8b ed af bc e1 01 b9 3c
       -0.02256576 -0.0021447688 -0.021475574 0.022583904
0001a0 d3 64 60 bb 2d 69 9f bc ae d9 8f 3c 1f 4f 09 3d
       -0.0034239783 -0.019459331 0.017559852 0.03352272
0001b0 6d 6d 18 bd a0 4d 04 3d 66 ef b7 3c da 81 2b bb
       -0.03721373 0.03230059 0.022453021 -0.0026169927
0001c0 89 83 11 3d 4f 45 aa 3c b6 e2 5c bb 90 cf 9f bc
       0.035525832 0.020785002 -0.0033704466 -0.019508153
0001d0 9f b2 27 bd 77 af 65 bc 65 0c 02 bd 69 42 15 3d
       -0.04094183 -0.014018885 -0.0317501 0.036440287
0001e0 6b 58 81 bc e4 36 41 bc 15 84 c4 3c 88 26 6d 3c
       -0.015789231 -0.011792872 0.023988763 0.014474519
0001f0 40 25 f1 39 bd a1 59 3c aa 09 ee 3c 36 f8 c9 bc
       0.00045994855 0.01328319 0.029057343 -0.024654489
000200 d2 e4 0a bd a2 2f b2 3b 05 38 20 3d bc 44 d0 3a
       -0.033909626 0.005437807 0.039115924 0.0015889625
000210 6d 14 d9 bc 77 b9 de bc 09 8b 29 3d 45 22 1b 3d
       -0.026498998 -0.027188046 0.04139236 0.03787448
000220 54 f3 ba bc 53 f8 83 ba 08 bd ed 3b a2 d1 30 3d
       -0.022821106 -0.0010068513 0.0072552003 0.04316867
000230 57 6b 20 bd 1f 15 06 3d 91 d6 18 3d fc 05 06 3d
       -0.039164867 0.032734986 0.037314 0.03272055
000240 15 af 98 bc 76 57 d0 3c 81 be 5e ba 67 69 ad bb
       -0.018638173 0.02543233 -0.0008497015 -0.005292106
000250 da 01 04 3d de 8c 1c 3b 64 7d 0b bd 9c 61 27 ba
       0.03222833 0.0023887674 -0.03405513 -0.00063850894
000260 46 81 25 3d d3 61 80 bc b8 39 97 3c 2d 32 d8 3c
       0.040406488 -0.015671646 0.01846014 0.026391113
000270 8a aa 19 3c a2 0b b1 3c 18 c2 fe bc ca c0 1d bd
       0.009379039 0.021611992 -0.03109841 -0.038513936
000280 59 b2 39 bc 48 2f 0e bd d1 ae b4 bb ba d2 01 3c
       -0.011334025 -0.03471306 -0.005514004 0.007923776
000290 98 78 e1 bb 8a 03 2a bd 7c 56 a3 3c ab 5b fd 3c
       -0.006880831 -0.04150728 0.0199387 0.0309275
0002a0 44 a3 91 bc c7 26 e4 bc 15 3e 13 3d 28 e7 2d 3c
       -0.017778046 -0.027850522 0.035947878 0.010614194
0002b0 8b b3 84 3c 78 4a 9b 3b 7c 75 09 bd fe 49 0b 3d
       0.016198894 0.004739102 -0.033559307 0.03400611
0002c0 e3 fa 1a bd e5 f2 03 bd 8e c2 7a 3c e9 18 49 bc
       -0.03783692 -0.032214064 0.0153051745 -0.012274005
0002d0 60 33 a0 bc ab 62 88 3c 38 39 0d 3b b7 43 1b 3d
       -0.019555748 0.016648611 0.0021548998 0.037906375
0002e0 a0 9b e6 bc dd 6e 6b 3b 00 a1 13 3d 67 f0 32 bd
       -0.02815038 0.0035924234 0.036042213 -0.043686297
0002f0 11 d5 e4 bc 84 8c 5b 3c dc 5f 30 bb a3 90 0d bc
       -0.02793363 0.013400201 -0.0026912605 -0.008640441
000300 d0 47 57 3c 22 47 ce bc c0 51 29 3d f8 87 5e 3c
       0.01313968 -0.025180403 0.04133773 0.013582222
000310 4d b0 ff bb 2b 37 b0 3c 90 7e 8f 3c df d9 1f bd
       -0.007802999 0.021510681 0.017516404 -0.039026137
000320 40 06 f7 3c c9 e7 2f 3c d3 de d1 bc 0e bd c5 bc
       0.030154347 0.010736414 -0.025618946 -0.024138
000330 82 19 d3 3c 39 78 0b 3d d3 13 1d bd 05 54 e8 3c
       0.025768999 0.0340502 -0.038348984 0.028360376
000340 2f 88 78 bc 46 71 1f bd ff 68 29 bd 4f 1c ae 3c
       -0.015169187 -0.038926385 -0.041359898 0.021253733
000350 a0 03 d6 3c 4d 38 0b 3a c5 b0 d6 3c 03 4a 03 3d
       0.026124775 0.00053108187 0.026207337 0.032053005
000360 5b d0 1c bd 3f 00 f1 3c aa 07 10 bd 0e f4 5c bc
       -0.03828464 0.029419063 -0.03516356 -0.013485922
000370 af d2 05 bd a4 cd 9d 3c bf 31 f7 bc 50 21 bf 3c
       -0.032671627 0.019263096 -0.030175088 0.023331314
000380 59 70 94 bc 23 33 d6 bc 95 3f 1d bd 91 3b 6d 3c
       -0.018119978 -0.02614743 -0.038390715 0.014479534
000390 48 5f 0b 3b 6e 8a 02 3d ae 67 63 3c a8 af 66 3c
       0.002126651 0.031870298 0.0138797 0.014079966
0003a0 af 3d 4c 3b f9 75 06 3d ae 93 9f ba 88 dc 80 3c
       0.0031164696 0.03282735 -0.0012174749 0.015730157
0003b0 3b b9 86 bc 4b b3 ad ba 65 6c 85 3b 01 aa 01 3d
       -0.016445747 -0.0013252286 0.0040717595 0.03165627
0003c0 51 8b de 3c 56 27 d2 3a 72 b8 14 3d b6 1a 2a bd
       0.02716604 0.0016033452 0.036308713 -0.04152938
0003d0 69 6b 03 bd 64 ca e9 bc 57 e7 b4 bc 1b b7 b3 3b
       -0.032084856 -0.02853889 -0.022082968 0.0054844744
0003e0 1a 4f 4f bb c2 53 83 3c c2 87 08 3d 61 80 22 3d
       -0.0031632842 0.01603115 0.033332594 0.039673213
0003f0 0c aa 5d bc 72 c9 d9 3c 81 84 76 3c 70 4f 0b bd
       -0.013529312 0.026585314 0.01504624 -0.034011304
