online/32_D2.pth (torch, 158980 bytes, 8 tensors)

li1.weight f4 [1, 24]
00000000: 1250 c13d 7e86 2a3e 4a08 c23c 99d6 efbd
00000010: 4aca a43d adb8 3f3d ab00 433e 351e 9e3d
00000020: dfc6 f6bd 19c5 a4bd cbe1 29be 0ca6 f13b
00000030: ee9f 04be 0728 003e 5e22 14be 8628 173e
00000040: 9f2d 74bd c379 d4bd 5341 ac3d 901d 4d3e
00000050: d2d2 22be 5071 2d3d c587 65bd 67ce 313e
0.094391 0.16652867 0.023685593 -0.11710853 0.08046396 0.04680698 0.19043224 0.07720605
-0.120496504 -0.08045406 -0.1659004 0.0073745307 -0.12951633 0.12515269 -0.14466235 0.14761552
-0.05961382 -0.10374787 0.08410897 0.20030808 -0.15900734 0.04234439 -0.056037683 0.17363892

li2.0.weight f4 [512, 70]
00000000: af7a 2cbd 7f2b d1bd bdf7 d1bd be66 8bbc
00000010: 4b78 90bd 64ca 5b3d fade d6bd 2a7f d8bd
00000020: aaf0 91bd 2891 6fbd 5a2e 8d3c 01f6 d0bd
00000030: 1325 163d a862 083d 26de 813d cefe 843d
00000040: 7e8e 0abc 318d 693d cf86 9b3d 0c17 353c
00000050: df1a 64bd 9977 62bd 9169 36bc d7ae 14bd
00000060: 0d33 d53d a327 36bc 148d da3d e9f1 32bc
00000070: dacf 7abc 7e0f d6bc 9ab1 c6bd 6a02 c63d
00000080: 4354 923c ead7 63bd 1c65 6c3d cd12 d83c
00000090: 336b f33d 72db a13d 5d58 6cbd aa60 cfbd
000000a0: 9a10 063d 121a 903d 48b5 7abc 86e4 56bc
000000b0: b13d e2bd 6314 6d3d 3f7a e3bc 1f4c 9e3d
000000c0: dfb8 8fbd 323e 0c3d 478a e43c 69c8 f03d
000000d0: 7a82 913c 6de2 8d3d 9625 c93d b9e7 e23d
000000e0: 4464 51bc 72f9 fa3c 28c2 efbd e384 d73c
000000f0: f9c9 d3bd 73ec cabd 9871 ec3d d94b e93d
00000100: 9c39 0abd 577e e23d ca1f 813d 008b 93bd
00000110: 28df 2abc c142 4abd d019 86bd 930d 2b3d
00000120: f824 9bbd ddd6 b7bc 5566 4abd 40a9 083d
00000130: 5899 67bd f68b 7cbd bd5a 2abd 2b1a 3cbc
00000140: 322e c3bd 116f 5a3d 84fe c9bd b6b3 343d
00000150: d8ff d1bd f902 0d3d 5753 27bd 151a 7e3c
00000160: e394 973d 1601 b03d ddee 4e3d f3de e5bd
00000170: 0ca6 42bd 01da c63d d457 e4bc c690 073c
00000180: c769 833d 7583 82bd 88fa bbbd d3de 24bb
00000190: 4682 43bb a06b 593c 9888 db3d 717a 393d
000001a0: c676 a13d 7208 273d f2fe e4bc e127 343d
000001b0: ba6e 8a3d 2191 3f3d 50ce 213d 6520 943d
000001c0: 3845 e9bd 0737 f23d 30ad b1bd 590d 20bb
000001d0: 4ba0 a43c 2b28 94bd d015 f13c b9a1 9d3d
000001e0: 73ab f3bd 9dfd abbd 60f9 e43d eb5a 6abd
000001f0: 151f 963d a761 ad3c 71cd e7bc 5ec3 4f3d
00000200: f63a eb3d 02fb a4bd f374 c7bd 3b0b 03bd
00000210: 6875 1ebd c415 cf3d 02b6 273d 354b 4d3d
00000220: 6a25 f2bd 0d5f 1a3c b52e e53d 027c cb3d
00000230: 12f3 edbd 4d7f 92bd 4b4f 1ebd 8412 b83c
00000240: d778 8e3d fa75 acbd 2295 403d 9ba7 acbd
00000250: dd7a a1bc 2d32 d93d 6b88 f3bb 0ce8 8cbd
00000260: 35f3 97bc f073 e13c 7ac4 873d 3155 51bc
00000270: 8c3b 973d f152 c53c 7a06 d23c 89b4 cabd
00000280: 35b7 a33d bdce dc3d 48db f2bd 5cff 8ebd
00000290: e93b c8bd 8881 24bd 3df9 cabd 6b4a 1b3d
000002a0: e617 053d d334 d03d 0726 2e3b 5a3e 7f3d
000002b0: ed48 c1bd 4634 6bbd 0222 91bb 1224 40ba
000002c0: 7e0e 89bd 5e1b 423d ee92 5c3d be7e a03d
000002d0: d742 693d 12b0 9e3b ed1e cf3d 6f47 9cbc
000002e0: bffa a2ba ec0b 6b3b 9ca0 cc3d e494 abbc
000002f0: 7e48 cc3d 946c a63d 869b 893d 991a 5fbd
00000300: e882 c5bc b67d 38bd 9707 a6bd 5405 c53d
00000310: 903d e03c b0d9 edbc d151 a73d 103d afbd
00000320: 1eb4 de3c 36c8 c2bd a38a b4ba d882 e9bc
00000330: ce83 03bd ff46 153d b67a 3dbd 666c a13d
00000340: 273a ec3d f2a4 933c be1b 933d 34ce 1b3d
00000350: 4448 f1bd 6e33 8f3d 54ec ebbd f964 87bc
00000360: 73da acbc dede b63d 5c64 98bd b9d5 913c
00000370: 7c8e d3bb 3c4b 66bd 133b 6fbc 77c6 4abd
00000380: 7873 aabd 9db4 46bc d8d5 f03b ddec 1fbd
00000390: 0d5f 023c 6ee0 273d 4645 8dbd 93cd e4bb
000003a0: e27b d03d 2524 ecbd b45d 1bbd c55b 17bd
000003b0: 62a2 c0bd c8ca b33d ce9e 793d 88b5 80bd
000003c0: 8b6e f2bd 53b5 25bd 59c2 e2bd 01fb d9bc
000003d0: 1188 b8bd b6ae d7bc 3e5d bbbd 5166 d43d
000003e0: d31f b73d 9bd6 67bd 0745 c8bd dd4b f1bd
000003f0: adf7 efbd d117 cd3b 2c68 7ebc ae95 3cbd
-0.042109188 -0.10213374 -0.102523305 -0.017016765 -0.07054194 0.05365981 -0.10491748 -0.105711296
-0.07125981 -0.05848804 0.017234016 -0.102031715 0.03665645 0.03329721 0.063411996 0.06493913
-0.008456824 0.057019416 0.07594072 0.011052858 -0.05568969 -0.05528984 -0.011133567 -0.036299553
0.10410128 -0.011117849 0.1067144 -0.010921934 -0.015308345 -0.026130434 -0.097018436 0.09668429
0.017862445 -0.055625834 0.057713613 0.026376152 0.11885681 0.07903184 -0.057701457 -0.10125859
0.032730676 0.070362225 -0.01530201 -0.013116008 -0.11046923 0.05788077 -0.027768252 0.07729363
-0.07017683 0.034239 0.027897967 0.11756975 0.017762411 0.06927953 0.09821622 0.11079354
-0.012780253 0.030636523 -0.11706954 0.026308483 -0.103412576 -0.0990838 0.11545104 0.1139142
-0.033746347 0.11059254 0.063048914 -0.072042465 -0.010429181 -0.049380068 -0.06547892 0.041760992
-0.075754106 -0.022441322 -0.049413998 0.033364534 -0.056542724 -0.061656915 -0.04159044 -0.011480848
-0.095302954 0.053328577 -0.09862998 0.0441167 -0.102538764 0.034426663 -0.040850963 0.015509148
0.07401445 0.08593957 0.050520767 -0.11224165 -0.047521636 0.0970955 -0.027873911 0.008274263
0.0641666 -0.0637273 -0.091786444 -0.0025157228 -0.0029832288 0.013270289 0.107194126 0.045282785
0.07883982 0.04077954 -0.027953599 0.043983344 0.06759401 0.046769265 0.039503396 0.07232741
-0.113901556 0.11826902 -0.08675611 -0.0024422018 0.020095965 -0.07234224 0.029429346 0.07696862
-0.11897936 -0.08397982 0.11180377 -0.057215612 0.07330147 0.021164728 -0.028296204 0.050723426
0.11485855 -0.080556884 -0.09739103 -0.031993132 -0.038686186 0.10111573 0.04094506 0.05012055
-0.118235424 0.009422076 0.11190549 0.09935762 -0.116186276 -0.07153187 -0.03864984 0.022469766
0.06956642 -0.0842094 0.047017224 -0.08430406 -0.019711906 0.106052734 -0.007432034 -0.06880197
-0.018548587 0.027521104 0.06629272 -0.012776659 0.073844045 0.024087401 0.025637854 -0.098977156
0.07993928 0.1078162 -0.11858231 -0.069823 -0.09777052 -0.040162593 -0.0991082 0.037912767
0.032493494 0.101663254 0.002657296 0.062315322 -0.094377376 -0.0574229 -0.004429103 -0.00073295936
-0.06692217 0.04738938 0.05385106 0.07836674 0.05694851 0.0048427666 0.101133205 -0.019077031
-0.0012434347 0.003586526 0.09991571 -0.02094502 0.09974764 0.081261784 0.06719117 -0.054468725
-0.024110273 -0.045041762 -0.081069164 0.09620157 0.027373105 -0.029034466 0.08169902 -0.085565686
0.027185496 -0.095108435 -0.0013774227 -0.028504774 -0.03210812 0.03644466 -0.046259604 0.078820035
0.11534529 0.018022988 0.07183026 0.038038447 -0.11781362 0.06992231 -0.115196854 -0.01652764
-0.021100258 0.08929227 -0.07441017 0.017802106 -0.0064561944 -0.056224093 -0.014601487 -0.049505677
-0.08322805 -0.0121280225 0.007349711 -0.03904425 0.007957232 0.040985517 -0.068979785 -0.006982514
0.10179879 -0.115303315 -0.03793116 -0.036952753 -0.09405972 0.08778912 0.060942464 -0.06284624
-0.11837491 -0.040456127 -0.11072225 -0.026608946 -0.090103276 -0.026328426 -0.09148644 0.10371078
0.08941617 -0.056601148 -0.09778791 -0.11782048 -0.11717162 0.0062589427 -0.015527766 -0.046041183

li2.0.bias f4 [512]
00000000: 93ed 0d3c 987d 98bd 8a61 9bbd cf48 c2bc
00000010: 6d5c 333d b032 bfbd 0f44 e5bb 75b8 1a3d
00000020: 372a 20bd 707c bb3c bc2d e8bc a68a 9f3d
00000030: 6209 d73d 6275 213d 5a0d 26bd 1c42 273b
00000040: 07e9 6dbb a02d a23d 7c72 273d f5ff a0bd
00000050: 32f6 47b9 a359 e63d 43dd e3bd 2737 51bd
00000060: 0887 28bd df33 ea3d b23e 20bc 1a5d dbbb
00000070: bc90 cf3d d3c4 cabd a1a2 86bc 38b5 ac3d
00000080: e7b7 cbbd 2f16 c43d 14b7 9bbd bd52 193d
00000090: 1b8a b33d 4649 80bd b576 79bd 8b77 e53c
000000a0: b097 8ebd 3b28 a93d d095 873d 6f8b 4d3d
000000b0: 73a6 63bd 8eed 37bc 88d2 a0bd 8bed 9d3d
000000c0: 0759 b33d 4d80 a5bd cab1 ec3a b439 b2ba
000000d0: 39b6 2b3d 3934 ddbd 1d95 123d 943b 9cbb
000000e0: db43 b03d 4325 8a3c 939e babc addf 9d3d
000000f0: 1179 e9bd ce51 653b 9801 9cbd 2800 5bbd
00000100: e267 68bd 8849 edbd 24ae 26bc d13f 51bd
00000110: a446 ee3c d40c 7e3d e57e 5bbd 78bf ef3a
00000120: 86a7 223d 91fd 4e3c ba2a 9f3d 390b a4bc
00000130: ae3c 82bd 0f58 aabd 963e 1e3d 8ea3 1fbd
00000140: 02be f1bd f3ca 19bc 15a2 8a3d dad3 273d
00000150: b5dd 07bd a941 363c 2468 b8bd 404f b43d
00000160: a5c4 d93d 3fdd 4d3d ea8b b13b 879d 183d
00000170: 0102 b23d 5a74 923c 25cb 00bd 5172 b1bd
00000180: 5f1d 713c 9fbb 3c3c 4314 f8bc 1e48 f13d
00000190: 9fd0 bc3d dcc7 99bd 3b5d cebd 62c1 213d
000001a0: 5320 743d 40de e2bc 62f2 3dbd 5063 d5bd
000001b0: 200b 993d 2aec 373d 314d 2b3d f974 603c
000001c0: d071 043d de9a eebd 87ab fa3c fe5d d73d
000001d0: 3fa5 293d e4f1 f8bc b587 ba3d 3b1b 9e3d
000001e0: 6227 bcbc ba39 933d 476e 7c3d 8124 1fbd
000001f0: 5bd8 ab3d a400 76bd fad0 efbc 4b0b a53d
00000200: 27e0 ebbd f248 d9bd cfb4 c33d 13c7 ef3d
00000210: 2535 10bd c8af dbbd 4405 91bc 52b9 763c
00000220: cc61 90bd 9296 993d 3ae5 313d 709d 583d
00000230: 21a4 ba3d 6538 a43d a8cb 56bd 60e1 f2bc
00000240: 349c 973d 4d17 973c b27e c13c 3a7d 2bbc
00000250: 5ee7 aabd e1bb e4bd 10c9 03bc f157 29bd
00000260: 9235 303d 97a7 81bc 2366 82bd c9b9 8bbc
00000270: 2a3e 9b3d 2e24 de3d a22c f4bd 4b69 1c3c
00000280: e61e dfbc 73b1 ae3d 18c9 0ebd be30 8cbd
00000290: 1390 9abc b917 953d 8a45 11bd 90e6 2d3c
000002a0: ead8 e83d 6a9e 81bd 755a d7bc 3888 8dbd
000002b0: ee72 d2bc 9e0d 1bbd 5ac9 9e3d c532 323c
000002c0: 8e74 60bd dfc3 dfbc e66f 8b3d 4198 ddbd
000002d0: f441 a7bd 18d3 50bd fa68 ee3d e9e9 383d
000002e0: 4bec 18bd 2316 49bd 4c41 cd3d a613 5fbd
000002f0: 971e 483d 831c e9bd f312 96bd e95b 53bd
00000300: 3c79 d7bc eecc 9c3d 3d92 f2bd 5643 debd
00000310: b23c f43d 459e d3bd c3a4 7b3d 155c 1f3c
00000320: ee47 b9bc e810 853d 1ae1 b0bd c592 923b
00000330: 37d2 29bd 3a94 f33d 0913 7c3d 7cd8 f13c
00000340: 5a74 35bd ef92 7f3d 003d 053d 6bba 073d
00000350: 7996 973c 0b76 a23d 46b7 a3bd 1107 b13c
00000360: 0185 b13d cdf5 9c3d 1ed6 afbd 0baa c8bd
00000370: 91ce 723d 477b c93d 354d 083c 626a b4bb
00000380: c0cf ae3b b37e 02bd fdb9 ba3d 8f0c 5cba
00000390: 2cd9 0abd 1bca 8d3c ae48 4d3d adfa 6abd
000003a0: 2e2e bbbc 367c 2cbd a92c ce3d 15e1 383c
000003b0: 38cc 133d ad3e cabc 817c 47bd 5eac 83bd
000003c0: ced2 ab3b ec11 b93d ce85 623d cb01 e0bd
000003d0: 236f ba3d cdc3 34bd ae84 ad3d fd1e 9f3d
000003e0: e15a d63d b202 cfbd d2c0 8cbd 357e dd3d
000003f0: 167a 523d 89ff 883c 908d 77bd d713 93bd
0.008662599 -0.0744583 -0.075869635 -0.023716358 0.043789316 -0.0933584 -0.0069966386 0.03777357
-0.03910276 0.022886485 -0.02834212 0.07790117 0.104998365 0.039418586 -0.040540077 0.0025521582
-0.0036302225 0.079188585 0.040880665 -0.0786132 -0.00019069834 0.112475656 -0.11126187 -0.051077988
-0.0411444 0.11435675 -0.009780573 -0.006694448 0.10135028 -0.099008225 -0.01643497 0.08433002
-0.09947186 0.09574544 -0.07603279 0.03743242 0.08766576 -0.06263976 -0.060904223 0.028011104
-0.06962526 0.082596265 0.06620371 0.050181802 -0.05557866 -0.011226071 -0.07852656 0.07711323
0.08757215 -0.08081112 0.0018058356 -0.0013597519 0.041921828 -0.10800976 0.035786737 -0.0047678445
0.086066924 0.01686347 -0.022780692 0.077086784 -0.11400045 0.0034991386 -0.076174915 -0.053466946
-0.056739695 -0.115862906 -0.010173354 -0.05108625 0.029086418 0.062023953 -0.053587813 0.0018291315
0.039710544 0.012633697 0.07771821 -0.020024883 -0.0635923 -0.08317577 0.038633905 -0.038974337
-0.11803819 -0.009386766 0.06769196 0.04097352 -0.03317042 0.011124053 -0.09004238 0.08804178
0.1063321 0.050259825 0.0054182904 0.037259605 0.086917885 0.017877746 -0.031443734 -0.08664382
0.014716475 0.011519342 -0.030283099 0.117813334 0.09219479 -0.07508823 -0.10076376 0.039491065
0.05960114 -0.027693868 -0.046373732 -0.10419333 0.07472825 0.044902958 0.041821662 0.013699763
0.032335103 -0.11650632 0.030599369 0.105159745 0.041417357 -0.03038878 0.09107915 0.077200375
-0.022967998 0.07188745 0.061628606 -0.038853172 0.08390876 -0.060059205 -0.029274452 0.080587946
-0.11517363 -0.10609616 0.09555971 0.11707892 -0.035206933 -0.10726887 -0.017702706 0.015058832
-0.07049903 0.07499422 0.043431498 0.05288452 0.09113336 0.08018569 -0.052440315 -0.029648483
0.0740284 0.018443728 0.023619983 -0.010466868 -0.08344911 -0.111686476 -0.0080435425 -0.041343633
0.04301984 -0.015826983 -0.06367137 -0.017056363 0.07580216 0.108467445 -0.119225755 0.009546588
-0.027236413 0.085299395 -0.034859747 -0.06845234 -0.018867528 0.07279915 -0.03546671 0.010614052
0.11369498 -0.06329043 -0.02628825 -0.06910747 -0.025689568 -0.037854783 0.077532485 0.010876362
-0.054798655 -0.027315078 0.06808452 -0.10820056 -0.081668764 -0.050982565 0.116411164 0.04514495
-0.03733472 -0.049093377 0.1002222 -0.054462098 0.048857298 -0.11382391 -0.07327833 -0.051601324
-0.026302926 0.07656275 -0.11844299 -0.10852687 0.11925639 -0.10332922 0.061436426 0.009726544
-0.022617307 0.06497365 -0.08636685 0.0044730627 -0.041460242 0.11893506 0.06154159 0.029522173
-0.044300415 0.062395986 0.032528877 0.033136766 0.018504368 0.07932671 -0.07993941 0.021609815
0.086679466 0.0766407 -0.085857615 -0.09798058 0.05927903 0.098379664 0.008319189 -0.005505846
0.0053348243 -0.03185911 0.09117506 -0.00083942054 -0.033898517 0.017308285 0.05011814 -0.05736797
-0.022849169 -0.042110644 0.10067112 0.0112841325 0.03608343 -0.02468809 -0.04870272 -0.06429361
0.0052436357 0.090366215 0.055303387 -0.10937842 0.09103229 -0.044132043 0.08472572 0.077695824
0.104665525 -0.10107936 -0.06872715 0.10815088 0.05138596 0.016723411 -0.06043774 -0.071815185

li2.1.weight f4 [512]
00000000: 68fc 7f3f e6ec 7f3f c5ff 7f3f 37fb 7f3f
00000010: 79e4 7f3f 0700 803f 1f00 803f 27fe 7f3f
00000020: fa01 803f bdf6 7f3f 3bf7 7f3f 5bf3 7f3f
00000030: 59ef 7f3f 3ef7 7f3f a8f1 7f3f 72f9 7f3f
00000040: 03f3 7f3f f2fe 7f3f 7800 803f c300 803f
00000050: 7109 803f aafb 7f3f 39fa 7f3f 3bec 7f3f
00000060: f3fd 7f3f 8e01 803f adfc 7f3f d2f7 7f3f
00000070: 3700 803f e2fd 7f3f 31da 7f3f cefb 7f3f
00000080: ece8 7f3f 1ce5 7f3f 17fb 7f3f 90f9 7f3f
00000090: 4200 803f 5903 803f 42e9 7f3f c3f8 7f3f
000000a0: 70f7 7f3f cdee 7f3f fade 7f3f 0ae9 7f3f
000000b0: 0b07 803f 8d00 803f fbfa 7f3f 05f8 7f3f
000000c0: 2c02 803f eaf3 7f3f 0f02 803f effd 7f3f
000000d0: 30fc 7f3f 60ff 7f3f e2ee 7f3f a7f6 7f3f
000000e0: 93fb 7f3f 3dfe 7f3f 9f00 803f e2f2 7f3f
000000f0: aa00 803f 6704 803f dcfc 7f3f 3c00 803f
00000100: 36f6 7f3f c5f5 7f3f 45f4 7f3f 3201 803f
00000110: 4beb 7f3f 0e00 803f 3501 803f b0ff 7f3f
00000120: 02ef 7f3f 1400 803f fbed 7f3f 11f7 7f3f
00000130: ecff 7f3f b7f8 7f3f ebf5 7f3f af06 803f
00000140: 9500 803f 7301 803f 74e7 7f3f c9fa 7f3f
00000150: 7b00 803f f2ee 7f3f d8ff 7f3f 83ff 7f3f
00000160: b2ec 7f3f 0e01 803f 65fb 7f3f 1dfd 7f3f
00000170: 1500 803f 3100 803f 90ed 7f3f e3fd 7f3f
00000180: 4afc 7f3f 7807 803f 8202 803f f6f9 7f3f
00000190: af09 803f fdff 7f3f 19fb 7f3f 83f9 7f3f
000001a0: beff 7f3f 9401 803f b5f9 7f3f 25ed 7f3f
000001b0: d3f4 7f3f cff8 7f3f c5f6 7f3f f0ff 7f3f
000001c0: b8e6 7f3f 05fd 7f3f 0400 803f a001 803f
000001d0: e201 803f 0400 803f f2eb 7f3f c0fc 7f3f
000001e0: 91fc 7f3f c102 803f eb01 803f 6004 803f
000001f0: fb00 803f cafc 7f3f c0f4 7f3f 4c00 803f
00000200: 57f6 7f3f 4dff 7f3f 64e8 7f3f 2f01 803f
00000210: 91fc 7f3f fbfc 7f3f ade0 7f3f d4fb 7f3f
00000220: ad02 803f 9600 803f dd01 803f 7cf8 7f3f
00000230: 2bfa 7f3f d9f4 7f3f 4af9 7f3f 03f4 7f3f
00000240: 8906 803f 90f1 7f3f ffff 7f3f 9800 803f
00000250: 25f4 7f3f e0ff 7f3f e1df 7f3f fa00 803f
00000260: 9fe2 7f3f 25fc 7f3f 65fb 7f3f fffa 7f3f
00000270: 44ff 7f3f daf1 7f3f d2fd 7f3f e9f4 7f3f
00000280: f900 803f 67f0 7f3f e301 803f 07ff 7f3f
00000290: 7401 803f 18de 7f3f 36fb 7f3f 4fec 7f3f
000002a0: 87fb 7f3f 87ea 7f3f 1200 803f 1cfd 7f3f
000002b0: a3fb 7f3f 3c02 803f c2f4 7f3f 0905 803f
000002c0: 95ee 7f3f 9dee 7f3f 92fc 7f3f 5d03 803f
000002d0: 24fe 7f3f bdfc 7f3f 1500 803f 1bf8 7f3f
000002e0: d0f4 7f3f b0ff 7f3f 33e7 7f3f 4701 803f
000002f0: 1e00 803f 2703 803f 7001 803f 62ff 7f3f
00000300: 9afe 7f3f 9cfc 7f3f 9aed 7f3f aefa 7f3f
00000310: 5300 803f 1102 803f 5cf7 7f3f 9fde 7f3f
00000320: a7e9 7f3f 5600 803f 22f7 7f3f 45f5 7f3f
00000330: 87f5 7f3f d8f7 7f3f 8200 803f c2fa 7f3f
00000340: 81f8 7f3f a4ef 7f3f 99e4 7f3f e7fa 7f3f
00000350: 1507 803f fcff 7f3f 4bfa 7f3f f802 803f
00000360: 35ec 7f3f 8ff5 7f3f 7cfd 7f3f 9401 803f
00000370: 60f0 7f3f 5500 803f cef6 7f3f f0f7 7f3f
00000380: 63fa 7f3f de00 803f 8200 803f 1e00 803f
00000390: 0400 803f 98f1 7f3f ddf9 7f3f 9cf9 7f3f
000003a0: c7ff 7f3f a6f3 7f3f f5ff 7f3f 2ef9 7f3f
000003b0: a900 803f c300 803f 8400 803f 82f6 7f3f
000003c0: a0f7 7f3f 4b01 803f bbe2 7f3f bed8 7f3f
000003d0: 98ef 7f3f c5fc 7f3f 1cf4 7f3f 3200 803f
000003e0: cfff 7f3f 4403 803f d3ef 7f3f c1e9 7f3f
000003f0: bafb 7f3f 39f9 7f3f 5dfd 7f3f fdf3 7f3f
0.99994516 0.99970853 0.9999965 0.999927 0.99957997 1.0000008 1.0000037 0.9999718
1.0000603 0.9998587 0.9998662 0.99980706 0.9997459 0.99986637 0.99978113 0.9999
0.9998018 0.9999839 1.0000143 1.0000232 1.0002881 0.99993384 0.99991184 0.99969834
0.9999687 1.0000474 0.9999493 0.9998752 1.0000066 0.9999677 0.9994231 0.999936
0.99964786 0.9995897 0.9999251 0.9999018 1.0000079 1.0001022 0.999653 0.99988955
0.99986935 0.99973756 0.9994961 0.99964964 1.0002149 1.0000168 0.9999234 0.9998782
1.0000663 0.9998156 1.0000628 0.99996847 0.9999418 0.99999046 0.9997388 0.99985737
0.99993247 0.9999731 1.000019 0.99979985 1.0000203 1.0001343 0.9999521 1.0000072
0.99985063 0.9998439 0.999821 1.0000365 0.99968404 1.0000017 1.0000368 0.99999523
0.9997407 1.0000024 0.99972504 0.9998637 0.9999988 0.99988884 0.99984616 1.000204
1.0000178 1.0000442 0.99962544 0.9999204 1.0000147 0.99973977 0.9999976 0.99999255
0.99970543 1.0000322 0.9999297 0.99995595 1.0000025 1.0000058 0.99971867 0.99996775
0.9999434 1.0002279 1.0000765 0.99990785 1.0002955 0.9999998 0.9999252 0.999901
0.99999607 1.0000482 0.999904 0.9997123 0.9998295 0.99989027 0.99985915 0.99999905
0.99961424 0.9999545 1.0000005 1.0000496 1.0000575 1.0000005 0.999694 0.9999504
0.9999476 1.000084 1.0000585 1.0001335 1.0000299 0.999951 0.99982834 1.0000091
0.9998526 0.99998933 0.99963975 1.0000361 0.9999476 0.9999539 0.99952203 0.99993634
1.0000817 1.0000179 1.0000569 0.9998853 0.999911 0.9998298 0.9998976 0.9998171
1.0001994 0.9997797 0.99999994 1.0000181 0.9998191 0.9999981 0.9995099 1.0000298
0.9995517 0.9999412 0.9999297 0.99992365 0.9999888 0.9997841 0.99996674 0.9998308
1.0000297 0.999762 1.0000576 0.99998516 1.0000443 0.99948263 0.9999269 0.99969953
0.99993175 0.99967235 1.0000021 0.9999559 0.9999334 1.0000682 0.99982846 1.0001537
0.9997342 0.9997347 0.99994767 1.0001026 0.9999716 0.99995023 1.0000025 0.99987954
0.9998293 0.99999523 0.99962157 1.000039 1.0000036 1.0000962 1.0000439 0.9999906
0.99997866 0.99994826 0.99971926 0.9999188 1.0000099 1.0000631 0.99986815 0.9994907
0.999659 1.0000103 0.9998647 0.99983627 0.9998402 0.99987555 1.0000155 0.99992
0.9998856 0.9997504 0.9995819 0.9999222 1.0002161 0.99999976 0.9999129 1.0000906
0.999698 0.9998407 0.9999616 1.0000482 0.9997616 1.0000101 0.9998597 0.999877
0.99991435 1.0000265 1.0000155 1.0000036 1.0000005 0.9997802 0.99990636 0.9999025
0.9999966 0.99981153 0.99999934 0.99989593 1.0000201 1.0000232 1.0000157 0.99985516
0.9998722 1.0000395 0.9995534 0.999401 0.99974966 0.9999507 0.99981856 1.000006
0.9999971 1.0000997 0.9997532 0.99966055 0.9999348 0.9998966 0.99995977 0.9998167

li2.1.bias f4 [512]
00000000: 1d35 58b8 36bc 8538 7952 3e38 7696 3c39
00000010: 274f beb7 f57e 63b7 dff8 f9b8 cf7c 9db7
00000020: fc17 17b8 cc6c 8539 0d59 5db9 8766 ee37
00000030: 888a cab9 78dc 3e3a db9d 69b9 da80 b0b8
00000040: 35ee 103a 333b 43b8 9d1e 8db8 f938 7d38
00000050: 0414 8739 d050 a6b9 a1d0 c5b9 a805 0a3a
00000060: 3206 c338 9ddb f6b8 68e1 ceb8 7588 a3b7
00000070: 50f8 aab8 82ed d4b7 0447 beb9 6a73 f537
00000080: 67fe e337 3e45 7db9 6752 92b7 f9bc a0b8
00000090: f4b1 e4b8 8ec9 ca38 fd75 56ba d48a c2b9
000000a0: e6e9 0d39 bbb8 6639 4b9a 92b9 3f12 4bb9
000000b0: 4583 6f39 a321 cc37 3077 51b7 ad2e cbb8
000000c0: 0b06 3d38 e923 4238 5da8 a239 164c ba37
000000d0: 0de5 a039 28a9 64b7 9cca 25ba 8eb9 8838
000000e0: 6ee4 343a cbaa d0b7 14fb 5a37 32c0 65b9
000000f0: 4e5a 1f37 d9e4 ad39 2f92 90b7 9af8 4a39
00000100: 45fd ffb8 9060 0cb9 7683 9f38 39ea 7db9
00000110: bd3c fab9 78f2 fcb9 bc4a 9fb9 d593 333a
00000120: e68a 3aba e77a b638 33fa 19b9 f3c6 2bba
00000130: 6100 7f38 edbc 32b9 2eef b7b8 b1a8 b738
00000140: a6db 36b9 7946 e4b9 bb0c 22b8 fce2 2ab8
00000150: a92d dc37 4671 1139 d642 50b7 a309 86b8
00000160: 8083 efb8 6e84 bcb9 2bd0 67b8 2d3d 0039
00000170: 10cd bcb8 8aeb 8036 0205 b838 8497 a7b7
00000180: bc92 a6b8 31e5 a738 6cde 0b3a 26c6 ea37
00000190: 06e9 b439 afc6 99b7 953c 20b6 2b1a cbb8
000001a0: 4f0f d1b6 f130 6437 1a93 b7b8 e0cd e5b9
000001b0: 9c3f d838 6925 3e39 9e2f 3db8 5f15 b437
000001c0: caf6 b7b9 cb31 35b9 d05a 32b8 20e7 213a
000001d0: c1b2 6539 119f 9436 c6b3 ebb8 64a9 1937
000001e0: 2c2c a337 03ae c938 6de4 beb9 33a2 5538
000001f0: f7ed 0c37 7bc4 b838 28a8 4339 9266 403a
00000200: d70e 8db8 f104 2db8 f080 3ab9 1fa5 a2b6
00000210: 3b98 3ab8 c360 a638 c11e 1db9 c233 baba
00000220: 6af0 42b9 fbbc 9c38 8429 e2b9 c8a6 a93a
00000230: 9c52 4db7 7d38 2eb9 cf4d 12ba 1234 6cb8
00000240: 1fde 2239 afcd 33b9 f301 e936 707b 82b8
00000250: fe11 02b9 85ce 8fb7 d2c2 3fba cae9 3db8
00000260: be77 58b9 c3d5 13b8 7067 a7b8 f1eb 7838
00000270: 4e55 62b9 4f74 ba38 2bc7 1b39 824d 1939
00000280: 9e11 8d38 d9b6 a8b8 a9e7 1538 76f1 7fb8
00000290: bf69 aab8 7407 d9b9 3344 2339 db71 8fb8
000002a0: d956 dab7 c64d 92b9 d61a 2aba e375 38b8
000002b0: 9dcc d639 f073 0aba 6c21 08ba 5976 9838
000002c0: d766 40ba ac19 83b7 bcc5 11b9 c2a7 9f38
000002d0: 5f03 f8b8 337a 16b7 fc4a da38 894c 753a
000002e0: f71f a339 df2d a4b7 0f67 61b9 c089 13b9
000002f0: 0668 d539 02e1 c037 967d 3db4 f570 b5b6
00000300: 200b 57b7 7a36 2d3a 14f1 a1b8 dc87 93b8
00000310: b05d 97b9 155e 9438 3a31 78b7 b7f7 6eba
00000320: 5f38 83b8 ea28 9639 d16b 86ba 7dfe 35b9
00000330: cb77 5e39 0a0f 5ab9 3856 e139 423a b3b7
00000340: 0f7c e537 8fe1 8e39 0586 e6b7 3f28 0bb9
00000350: f6d9 30b9 f338 a3b6 4bd8 96b7 48b6 4338
00000360: d6c5 19b9 8c8f 70b8 65a0 d3b9 6bd8 a2b7
00000370: aaa9 f9b8 d24a a039 ec84 9dba 9c7a 63b8
00000380: f5fa 05b8 6452 49b9 1411 9d3a bd54 28b9
00000390: 4a63 3fb8 8f85 86b9 4e71 09b8 59af ceb8
000003a0: 6885 49b7 baa6 863a 8501 5937 d16e 0fb9
000003b0: 34c2 da38 7abe 2139 692e bcb8 c136 cab6
000003c0: 5ec2 8538 2d80 f2b8 e427 71b9 758c 8d3a
000003d0: 4196 b338 0425 223a 7ab7 33b9 27e1 0ab9
000003e0: 1332 e633 ee7f b638 4d9f b4b7 fa6d 8ab9
000003f0: 6660 9eb9 e646 57b9 ed8e 1cb9 c1d5 e0b9
-5.154788e-05 6.376991e-05 4.537634e-05 0.00017985128 -2.2686623e-05 -1.3559814e-05 -0.00011919601 -1.8773977e-05
-3.6023543e-05 0.00025448797 -0.00021109376 2.8419554e-05 -0.00038631656 0.0007280777 -0.00022279417 -8.4163345e-05
0.00055286597 -4.6546756e-05 -6.729106e-05 6.037296e-05 0.0002576412 -0.00031722197 -0.0003773021 0.0005265125
9.2994786e-05 -0.000117711 -9.864831e-05 -1.9494657e-05 -8.1524835e-05 -2.5382968e-05 -0.00036292535 2.926002e-05
2.7178974e-05 -0.00024153755 -1.7442928e-05 -7.6645934e-05 -0.000109050336 9.669653e-05 -0.0008181034 -0.00037105998
0.00013533942 0.00022003327 -0.00027962247 -0.00019366386 0.00022841718 2.4334358e-05 -1.2485121e-05 -9.688488e-05
4.506674e-05 4.628665e-05 0.00031024488 2.2208358e-05 0.00030688234 -1.3629244e-05 -0.00063244416 6.5195476e-05
0.0006900494 -2.4875064e-05 1.3052271e-05 -0.0002191074 9.498164e-06 0.00033167636 -1.723421e-05 0.00019356832
-0.00012206523 -0.00013387413 7.606197e-05 -0.00024215215 -0.0004772897 -0.0004824584 -0.00030382525 0.0006850337
-0.00071160344 8.7013286e-05 -0.00014684424 -0.0006552778 6.079709e-05 -0.00017045783 -8.770671e-05 8.757541e-05
-0.00017438698 -0.00043540055 -3.8635666e-05 -4.0742554e-05 2.6247306e-05 0.00013870475 -1.2413328e-05 -6.391413e-05
-0.00011420902 -0.00035956822 -5.5268563e-05 0.00012229821 -9.0027344e-05 3.8421176e-06 8.7747365e-05 -1.9978506e-05
-7.942828e-05 8.005871e-05 0.00053355726 2.7987244e-05 0.0003450589 -1.833154e-05 -2.3877121e-06 -9.6846685e-05
-6.2304675e-06 1.3601254e-05 -8.75352e-05 -0.00043831673 0.00010311531 0.00018133748 -4.510546e-05 2.1467624e-05
-0.00035088352 -0.00017280054 -4.2523083e-05 0.0006176103 0.00021905733 4.4292615e-06 -0.000112391586 9.15895e-06
1.9451683e-05 9.616839e-05 -0.00036409814 5.0934217e-05 8.400056e-06 8.810401e-05 0.00018659292 0.0007339503
-6.726168e-05 -4.1251016e-05 -0.00017786375 -4.847199e-06 -4.448763e-05 7.93352e-05 -0.00014984143 -0.0014206099
-0.00018590843 7.47386e-05 -0.0004313701 0.0012943381 -1.2238186e-05 -0.00016614977 -0.00055810524 -5.631528e-05
0.0001553227 -0.00017147393 6.944168e-06 -6.221875e-05 -0.00012404469 -1.7143097e-05 -0.0007315102 -4.5278844e-05
-0.00020643973 -3.5246612e-05 -7.982447e-05 5.9347545e-05 -0.00021584818 8.890835e-05 0.00014856148 0.00014620091
6.7266854e-05 -8.044922e-05 3.574012e-05 -6.1021616e-05 -8.1259284e-05 -0.00041395018 0.00015570298 -6.8399786e-05
-2.6028067e-05 -0.00027905236 -0.0006488984 -4.397881e-05 0.0004096971 -0.0005281558 -0.00051929685 7.269969e-05
-0.0007339543 -1.5628371e-05 -0.0001390194 7.612958e-05 -0.000118261894 -8.969148e-06 0.00010409017 0.0009357413
0.00031113598 -1.9571684e-05 -0.00021496064 -0.00014070328 0.0004070403 2.2992961e-05 -1.7647685e-07 -5.4073703e-06
-1.2817589e-05 0.0006607544 -7.7219825e-05 -7.034812e-05 -0.00028870767 7.074714e-05 -1.4793413e-05 -0.0009115892
-6.257067e-05 0.00028640713 -0.001025552 -0.0001735631 0.00021216196 -0.00020795703 0.00042979582 -2.1365591e-05
2.7356697e-05 0.00027252405 -2.7480544e-05 -0.00013271066 -0.00016865865 -4.8644083e-06 -1.7982113e-05 4.6661386e-05
-0.00014664917 -5.7354147e-05 -0.0004036456 -1.9412682e-05 -0.000119048476 0.00030573324 -0.0012017763 -5.4235206e-05
-3.1943393e-05 -0.00019199547 0.0011983239 -0.00016053296 -4.563042e-05 -0.0002565798 -3.276887e-05 -9.8555065e-05
-1.2011595e-05 0.0010273077 1.2934562e-05 -0.00013678825 0.00010431223 0.00015425115 -8.973183e-05 -6.0264433e-06
6.378138e-05 -0.00011563334 -0.00022998411 0.0010799306 8.563372e-05 0.00061853253 -0.0001713912 -0.00013244581
1.0719318e-07 8.702265e-05 -2.1531852e-05 -0.0002640335 -0.0003020793 -0.0002053041 -0.00014930563 -0.00042883868

li2.1.running_mean f4 [512]
00000000: fa64 adbe 9918 dcbd acad c1be b384 633e
00000010: dc55 013f e657 743e 1d34 a23e bafc e1bd
00000020: ff9b 903c 545f 893d 7d3e 27be 103f 55be
00000030: eb77 6dbe 96a0 a5bd c63f 90bd 874b d6bd
00000040: ba61 6b3e 3b6b a7bd 9ce9 b33e a181 e1bc
00000050: a3eb abbc 160c 92bd 5858 e4bc e767 a9bd
00000060: 9133 54be 8a09 b03e c9f7 1fbb 1f0f 61bd
00000070: 59fe 813e cdb8 be3b 864d febc 1926 97be
00000080: ebba 26be 52d9 a9bd b162 f9bd 34dd 84bd
00000090: c52b 133e d0b9 91be f1f9 6ebe 6df4 593e
000000a0: b8de 03be 6092 e63e e578 1e3d 870d 5c3d
000000b0: edc9 a33d 0134 00be 8502 2ebe 5489 e83d
000000c0: a964 05bd be0f 4fbe 4dd7 203e 41be cf3d
000000d0: 139c 07be 8fd5 fe3d 4518 db3e 644a cdbd
000000e0: 2e35 923d cbd9 913d b462 24bc cd65 163e
000000f0: 750e 56be f0b3 aa3e 7cf2 0abe 55ab 32bd
00000100: 7c64 1fbd 122f 8a3e 359a 8b3d c832 86be
00000110: 57be b3bd 0e25 333e 7046 ba3e 313b 9c3e
00000120: 9254 a03c 3f2d 14be 69e2 053e 6474 8cbe
00000130: fcbe bcbe def8 e4bc 4ba4 9e3d 6317 00be
00000140: 08a5 833d 0a76 52be 58b1 933e cea6 523c
00000150: be16 113c 19ee 1dbe bbef f33c e77a 2e3e
00000160: cff3 1cbc d99c 38be 50a3 783e 1c70 c8bd
00000170: ae6c 363e ac3a 67be 7058 d2bc d4c2 5d3e
00000180: 5236 1fbe 263f 713e 320f 133e bfb8 6b3e
00000190: 30c9 f03d d19d 59be c258 b7bc 3ba5 283d
000001a0: 2949 8f3e 472e 79bd eeec 80be 4217 92be
000001b0: a5c2 843d 0740 853e 0bc1 a4be e5a6 88be
000001c0: 6e95 ef3d 3388 85bd f359 a8be fe34 f1bc
000001d0: dd54 5d3b f433 0cbd 2eb7 783d 7df1 4b3d
000001e0: f1f4 aabe 319b 093d 5f63 e63d de02 473e
000001f0: 3756 66bd bbf7 7ebe 4a34 dbbd 1d2b 0f3e
00000200: 06d2 aebe 9d13 24bd 60b9 9c39 2fd0 debd
00000210: fd7e a43e 15b1 0a3d e8d7 bebd cad1 2abe
00000220: 7996 9c3d d8ee 943d ba7b 583d e1ae bfbd
00000230: a573 103e 3740 003e bddb 0fbd a786 82be
00000240: 2aff 873e 6b99 063e 3c5a dabd a706 af3e
00000250: 95b8 7cbe c9aa 7ebc 778e 843e 45c3 443e
00000260: fb25 783e c458 a33d 4dc3 0a3e a1dd 573d
00000270: 9c1e cabe f501 b33e 7e00 01be 8acd 27be
00000280: 14c2 76be 1948 c23d c5e1 b6be 66fe b33b
00000290: e6b5 203e 88a3 0bbe 9e97 393e 2949 453d
000002a0: 38b4 36bd c396 fcbd 62fd 323e f740 8b3d
000002b0: e9ae 8c3d 51a2 17be 4e0a c53e 99e5 233d
000002c0: f511 30be 7462 023d 8ecf b4bb fa82 9dbd
000002d0: bb46 97bb 89bd 06be b1ab 6d3e 1e6c 983d
000002e0: 6b8f 91bd 763e 44be 667d 1dbd 554e 82bc
000002f0: 27f2 463d ea1e 42be b48c 983d 042a ca3c
00000300: 826f a7be 2076 fcbc 781c 62be 82b0 053d
00000310: 2f41 c03d 244c a9be 15b9 90bd 2255 a13a
00000320: b079 ae3d f136 893e d6bc c43d 9282 853d
00000330: 60bd c8bd c047 3cbd b8df 86bd e2e6 643e
00000340: ba7d 3abe e2ac 133e fd8d 36be 48f9 a43c
00000350: b81c 4abe 32a7 113e 7fb3 4abe 26b5 64be
00000360: d0b1 123e 3491 0c3e 0da2 823e aa1a 21be
00000370: 928c b13d e1c7 2f3d f91d 353b e324 053e
00000380: 6ff6 d1ba 4086 f43c 5f2f 17bd cbe9 ff3d
00000390: f449 6dbe e265 35be f957 a03e 7ac8 74be
000003a0: b00b cdbe a40b e23d 4797 673e 9446 d6be
000003b0: 3fa6 bc3d 6dfe 1a3e a2d7 d93d fa5d 1cbe
000003c0: c07f a0bd bf25 813e 1b60 ca3e b260 1dbf
000003d0: e703 d43d 0713 9ebd d9a9 153d cf69 2cbe
000003e0: 7519 0a3e b654 53be f758 963d 6f9d f1bc
000003f0: f74a a43d 3806 b8be a798 2dbe ffa7 c83d
-0.33866102 -0.10746879 -0.37827814 0.2221859 0.50521636 0.23861656 0.31680384 -0.11034532
0.01765251 0.067076355 -0.16332431 -0.20824838 -0.23190276 -0.0808727 -0.07043414 -0.104636244
0.22986498 -0.081747495 0.35139167 -0.027527632 -0.020986384 -0.071312115 -0.027874157 -0.08271771
-0.20722796 0.34382278 -0.0024409166 -0.05494606 0.25389364 0.00582037 -0.031042825 -0.29521254
-0.16282241 -0.08293404 -0.12177027 -0.06487504 0.14372166 -0.28462076 -0.23337533 0.21284647
-0.12877929 0.4503355 0.038689513 0.05372384 0.07997499 -0.12519838 -0.16993149 0.11354318
-0.0325667 -0.20220849 0.1570713 0.1014371 -0.13243131 0.12443077 0.42791954 -0.100239545
0.071390495 0.07121619 -0.010033298 0.14687271 -0.20903952 0.33340406 -0.13569063 -0.043620426
-0.03891419 0.26989037 0.06816522 -0.26210618 -0.08776539 0.17494604 0.36381865 0.3051391
0.019571576 -0.14470385 0.1307465 -0.2743255 -0.3686446 -0.0279507 0.0774618 -0.12508921
0.064279616 -0.20552841 0.2884624 0.012857152 0.00885552 -0.15422858 0.029777398 0.17039071
-0.009579613 -0.18028583 0.24281049 -0.09787008 0.17814896 -0.22580975 -0.025676936 0.21656352
-0.15548065 0.23559245 0.14361265 0.23019694 0.117571235 -0.21251608 -0.02238119 0.0411732
0.27985504 -0.06083515 -0.25180763 -0.2853337 0.06482438 0.2602541 -0.3217853 -0.2668983
0.11698423 -0.065201186 -0.32881126 -0.029444214 0.0033772506 -0.034229234 0.06072157 0.049790848
-0.3339 0.033595268 0.11249422 0.19434687 -0.056234565 -0.24899189 -0.10703333 0.1398129
-0.3414461 -0.040057767 0.00029892754 -0.108795516 0.32128134 0.033860285 -0.093185246 -0.1668159
0.07645888 0.07272118 0.05285237 -0.093595274 0.14106615 0.12524496 -0.035121668 -0.25493357
0.26561862 0.13144462 -0.10661742 0.34184763 -0.24679787 -0.015543648 0.25889942 0.19215114
0.24233238 0.07975915 0.13551064 0.052701596 -0.39476478 0.3496243 -0.12597844 -0.16387
-0.24097472 0.09486408 -0.35719123 0.005492973 0.15694389 -0.13636601 0.18124244 0.048165474
-0.044605464 -0.12333443 0.1747947 0.067995004 0.06869299 -0.14808013 0.38484424 0.040013883
-0.1719435 0.031832173 -0.0055179065 -0.076909974 -0.004616586 -0.1315824 0.23210026 0.07442497
-0.07107433 -0.19164452 -0.038449667 -0.015906492 0.04857078 -0.18957105 0.07448712 0.024678238
-0.3270226 -0.030818045 -0.22081172 0.032639034 0.09387433 -0.33065903 -0.070665516 0.0012308697
0.08519304 0.2679973 0.0960633 0.06519045 -0.098017454 -0.045966864 -0.0658564 0.223537
-0.18212023 0.14421418 -0.17827602 0.020138398 -0.19737518 0.14223936 -0.19795035 -0.22334728
0.14325643 0.13727266 0.2551426 -0.15732828 0.0866939 0.04291523 0.0027636273 0.13002352
-0.0016018878 0.029849172 -0.03691041 0.12495764 -0.23172742 -0.17714646 0.31317118 -0.239046
-0.4004798 0.110373765 0.22616301 -0.41850722 0.092113964 0.15136118 0.10636832 -0.15270224
-0.078368664 0.2522411 0.39526448 -0.6147567 0.10352307 -0.07718473 0.036538932 -0.16837238
0.13486274 -0.20637783 0.073411874 -0.029494015 0.08022111 -0.35942245 -0.16952763 0.09797668

li2.1.running_var f4 [512]
00000000: e3fe 2f3d 1e1b 313d 61db 193d bafe 713d
00000010: b47c 343d 8d4c 343d 81c9 8c3d 35ef 373d
00000020: 9d21 423d 8dbf 333d 557c 5b3d 679b 0b3d
00000030: 6a2a 3b3d 2711 4a3d acfb 343d 6a31 213d
00000040: 62d2 863d 1b68 183d d4c7 2f3d 1d2c 203d
00000050: a495 4d3d c754 493d c8e5 453d 8710 323d
00000060: 93ab 543d 2f75 383d 2653 5e3d b8be 3b3d
00000070: 9eef 543d bde6 3a3d 87f7 513d 923d 4a3d
00000080: ad10 473d 8f78 313d 6770 413d 1f8d 243d
00000090: ed30 3e3d 2d38 423d 7a6c 7f3d 52e1 563d
000000a0: 6b0b 8e3d 5ae1 393d 8103 1c3d 52c7 343d
000000b0: 4a8f 4d3d 1683 1e3d 8a82 3c3d a174 2c3d
000000c0: 528d 093d 780b 533d 0893 413d 9328 2b3d
000000d0: bbd5 333d e3f7 383d 390e 633d 6e89 3c3d
000000e0: 9afc 593d f0c1 3f3d 0fbd 263d 9c5c 4c3d
000000f0: 7b76 303d 05d9 3d3d 85b5 393d 0176 653d
00000100: 4890 1d3d bc87 2d3d ce5a 513d 5ea4 3a3d
00000110: dba2 423d 5f7c 903d 205d b13d 2b27 893d
00000120: 8710 553d ca39 3f3d 34bb 1a3d 42b6 453d
00000130: 082e 953d 25a7 453d 5f04 5f3d bcb4 1c3d
00000140: d172 3b3d b51f 5a3d 6131 533d a191 203d
00000150: 7951 173d f1ec 563d 8e67 133d 34c3 513d
00000160: 9caf 333d 17b7 433d 049e 153d 22a0 5a3d
00000170: 51f7 523d 212a 353d bf32 543d 54b5 2f3d
00000180: aea4 333d 7f11 3c3d ea0b 653d dc8d 273d
00000190: 0277 243d 4cd5 473d c5a8 1f3d e640 303d
000001a0: 231c 463d b8a4 213d 74d7 2c3d 34fc 233d
000001b0: ddf4 263d 8db7 603d 4469 313d 1376 303d
000001c0: 92b1 113d 197b 273d 2a06 343d fd74 6b3d
000001d0: 9a18 1b3d a3b6 323d 27de 213d 592f 333d
000001e0: afe8 443d 30bb 463d dbc5 313d 85cc 353d
000001f0: fea1 503d 92d2 403d 338c 363d 0e8c 623d
00000200: b0e4 3f3d c62a 2d3d b6e6 303d 3a74 4e3d
00000210: 9680 3e3d 1434 453d 7474 2a3d 9b7f 943d
00000220: fe08 443d 4f0d 373d 0b0a 773d 4608 573d
00000230: f2a4 493d 3d21 1f3d 33dc 483d a721 3f3d
00000240: 178e 523d 5ae3 2e3d f803 2b3d bf5c 6f3d
00000250: d4cb 1a3d 863d 703d 761c 743d 4231 5f3d
00000260: 327a 4d3d 8633 5c3d 736d 3f3d dd01 353d
00000270: 5fbf 813d 1628 903d 5b7d 333d d0ea 623d
00000280: a75a 383d be33 253d 4758 163d 5946 2c3d
00000290: 2a0b 533d 5fd1 123d f7bf 543d b525 553d
000002a0: 0942 1c3d 9ea5 283d 8f98 743d 87e9 2c3d
000002b0: 5429 963d 1312 8f3d b02c 553d cc41 523d
000002c0: 7df3 163d dcdb 173d 40f6 3a3d c4a3 173d
000002d0: 0ebc 303d 168b 413d 729f ae3d ce1a 5b3d
000002e0: b87e 523d 7fe1 2a3d bc83 2d3d 48df 203d
000002f0: adaa 493d a1d1 393d b23c 333d 0c76 3b3d
00000300: b686 443d 52c2 4d3d 2376 1c3d a069 5d3d
00000310: 12b8 923d a76d 283d bc91 183d a21c 6f3d
00000320: 2159 2a3d c5e4 6c3d bbf7 893d ed4d 583d
00000330: 9608 2a3d ff2e 3b3d cce5 3f3d bac2 393d
00000340: e09e 533d 4f20 4d3d 7f99 3a3d 7e82 373d
00000350: ba09 583d 940d 293d 2af9 443d 986f 4a3d
00000360: 9b68 173d e9f2 173d 9b18 5f3d 8870 3d3d
00000370: 46b3 1c3d 61ec 343d 9922 6c3d 6623 453d
00000380: f352 253d 92f4 603d dbdc 143d 0667 493d
00000390: b33e 593d b916 4a3d 9d35 563d 5b59 273d
000003a0: 2827 5f3d e3d7 7f3d 94de 2c3d a348 6b3d
000003b0: aa96 433d 5996 4d3d 6791 543d 10d6 2b3d
000003c0: 216f 3f3d 39c0 563d a478 4c3d abb7 993d
000003d0: 8ceb 4d3d 0559 733d f013 363d d0b6 693d
000003e0: 6364 2e3d 55a5 093d f3cb 503d 9ac8 403d
000003f0: e50b 453d bb34 4b3d bfae 2e3d 57da 373d
0.04296769 0.04323875 0.03756273 0.059080817 0.04406424 0.044018317 0.06874371 0.04490586
0.047395337 0.04388385 0.05358537 0.03408375 0.045694746 0.049332764 0.044185326 0.039353766
0.06583096 0.037208658 0.04291518 0.03910457 0.050191537 0.049153116 0.04831484 0.043472793
0.05192144 0.04503363 0.054278515 0.04583618 0.05198633 0.045630205 0.05126145 0.049375124
0.048599888 0.043327864 0.047226336 0.040173646 0.046433378 0.047416855 0.06235931 0.052460976
0.069357716 0.045380928 0.03808928 0.0441354 0.05018548 0.038699232 0.04602293 0.042103413
0.03358204 0.05152461 0.04725936 0.04178674 0.043905 0.04515828 0.055433486 0.0460295
0.053219415 0.046815813 0.040707644 0.049893007 0.04308174 0.046349544 0.045339126 0.05602074
0.038467675 0.042365775 0.05111199 0.04556691 0.047518592 0.07054972 0.0866034 0.06696924
0.052017715 0.04668597 0.037776187 0.048269518 0.072841704 0.048255105 0.054447528 0.0382583
0.045763794 0.053252894 0.051560763 0.039201383 0.036942933 0.05247206 0.03598743 0.05121155
0.043868646 0.04778203 0.03652765 0.05337537 0.05150539 0.04422963 0.051806208 0.042897537
0.043858223 0.045915123 0.055919565 0.040906772 0.040152557 0.0487874 0.03897931 0.043030642
0.048366677 0.03946373 0.04219766 0.04003544 0.040760864 0.054862548 0.04331328 0.043081354
0.035569735 0.04088888 0.04395119 0.057484616 0.03786526 0.043631207 0.0395185 0.043746326
0.048073467 0.04851836 0.04340158 0.0443845 0.050935738 0.047075815 0.0445673 0.055309348
0.046848953 0.04227712 0.043188773 0.05040381 0.046509348 0.04814537 0.041614965 0.07250901
0.047860138 0.044690426 0.060312312 0.052498125 0.04922957 0.038850058 0.049038123 0.046662953
0.05140504 0.042697288 0.04175183 0.05843806 0.037792042 0.058652423 0.059597455 0.054490335
0.050165363 0.053760074 0.04673524 0.04419123 0.06335329 0.07038896 0.04382072 0.055399716
0.045008328 0.04033255 0.03670528 0.042059276 0.05152432 0.035844203 0.051940884 0.052037913
0.038148914 0.04117357 0.059715804 0.042214897 0.073321015 0.06985869 0.05204457 0.05133228
0.036853302 0.03707491 0.045645 0.037021413 0.043148093 0.047251783 0.085265055 0.05349236
0.05139038 0.041718956 0.04236196 0.039275438 0.049235035 0.045365933 0.043759055 0.045766875
0.047980033 0.050234146 0.0381986 0.05405581 0.07164015 0.041120198 0.037248358 0.058376916
0.041588906 0.05783536 0.06736704 0.05280869 0.041512094 0.045699116 0.04685001 0.04535172
0.051665187 0.05007964 0.04555654 0.04480218 0.05274365 0.041272715 0.048089184 0.04942283
0.036964994 0.03709689 0.054466825 0.046249896 0.038256906 0.04417074 0.057650182 0.04812946
0.04036231 0.05492074 0.036343437 0.049170516 0.05303831 0.049338076 0.052297223 0.0408567
0.0544807 0.062461745 0.042204455 0.05744232 0.047751106 0.05019221 0.05189648 0.041952193
0.04673684 0.05242941 0.04991974 0.07505735 0.050273463 0.059411068 0.044452608 0.05705911
0.042576205 0.03360494 0.05097575 0.04706631 0.048107047 0.049610835 0.04264712 0.04488596

li2.3.weight f4 [1, 512]
00000000: 22f9 333c cb12 ccbc 70a9 b2bc ab5d c63c
00000010: 25d2 203c 478f b239 144b bdbb 3fac 893a
00000020: ad15 afbc 8c86 79bc aa19 db3b 3755 12bd
00000030: 9303 03bd d198 0ebd cbe5 c0bc d6b1 cd3b
00000040: 7e6b f63c 8f65 45bc 0ce3 703c de22 1d3d
00000050: c660 2c3d 84fb 893c 175f 85bc 0cdd 13bd
00000060: d435 863c 076f 58bc 97f8 fc3b bc22 ba3c
00000070: 5850 85bb 6249 6e3b 0b7b c3bc e809 5cba
00000080: 539a 6dbc 0afc f43c ed0f 143c 4c7c 4c3b
00000090: 39b9 2abd 4f9e ddbc 3739 103d 8f6f 5cbc
000000a0: e68d 5fbb d837 023d 0c3f 90bc 083f 02bc
000000b0: 3576 35bd 1c9c 253d 2c54 ec3c c663 86b7
000000c0: d631 5d3c b7bd d0bc c7e0 f63c c362 493c
000000d0: 8cb8 af3c d57d 663a a80f 143d 5843 cf3c
000000e0: 0f9f e0bc e1ac a6bb 6269 fa3b d65e 013c
000000f0: a56b febb a149 3dbd c058 e6ba f486 403c
00000100: 88e2 bebc ed59 85bc 3d21 bcbc b86c df3c
00000110: 89a5 093d 6808 aebc 5eb7 15bc 5590 463c
00000120: 1e6c 03bd d651 8abb d333 13bd 38b0 f0bc
00000130: df04 32bb 0420 54bc d0bc 8ebc 54e4 db3c
00000140: adfd 4fbc 6939 743c 063f d6bc e3c7 d3bc
00000150: feda e3bb c67d c5bc 80ab 05bc 0636 cc3b
00000160: 7642 99bc ea13 de3c 76fd 683c 7d1c fa3b
00000170: 9884 29bc cf4d 9f3b 027c 3b3c b9de 98b9
00000180: 6ef4 1c3c 68a9 43bd 9789 b03c a893 5f3c
00000190: c0d3 07bd 8be8 383b 08a5 90bc b05f 903c
000001a0: 8329 b93a cc1c b3bc 79c7 303c 9a06 c03c
000001b0: 2639 04bd d3da ea3c 9cd7 743c f87d 0dbb
000001c0: 38c2 b53c 55c7 973c a70d 893b 896b b3bc
000001d0: 821d 2dbd 139f 65bc 43b5 a3bc 6397 0f3d
000001e0: a6e9 43bc 2160 90bc 3fde d73c 073a b33c
000001f0: a4b0 133c 207e 133c 43cb b63c 5c0c cdbc
00000200: 5aa5 efbc 5fe3 4d3b 045e e93c c91f 113c
00000210: 9546 c8bc cb09 d0bc 72cf e13c 0c48 143d
00000220: 7a7d d6bc a0b1 ebbb 610f 533c b8b3 253d
00000230: bfe5 16bd 297f dd3c 13dd 0c3d 836a d93c
00000240: 4a1b e0bc da48 6b3c 6296 1ebb 66db 03bc
00000250: bd86 d53c e09c 72ba 2a7f 5dbc c2b7 0cbc
00000260: 9078 dd3c 1598 3abc 77d9 663c eed6 be3c
00000270: c806 053c 0895 c03b b709 f6bc cc87 0abd
00000280: d60c 60bc 9f8b dcbc 056a 483c 5f9e c33b
00000290: 1b81 43bc 3b8f d6bc 79e2 823c 1c35 9a3c
000002a0: 1bb7 5cbc 06de 36bc 58a1 133d fc88 a13b
000002b0: 517b 3a3c e84d 523c 2ef4 e5bc ebda 1c3d
000002c0: d81a f6bc a048 b8bc 3ac1 3b3c 4acc 9abc
000002d0: c5dd 93bc 9aac 593c b7e1 9e3b 65ab 0d3d
000002e0: 74e3 adbc 726b 333a 5314 bf3c 01a2 36bd
000002f0: af14 e6bc 944e 9e3c 9532 25bc 991f f6bb
00000300: 2b7c 3a3c d2c6 bcbc 2dc2 0a3d 4320 9dbb
00000310: e957 11bc d61f c73c 6e15 d43b 1f12 b8bc
00000320: 575a 783c d7d3 3d3c 1490 a1bc 5b9b 82bc
00000330: c5ca 983c 5355 f73c 6c6f 1ebd 8896 cf3c
00000340: 6184 b1ba 4791 02bd 644c f2bc 470e 8d3c
00000350: 8ff7 083d f427 343a 30b4 b93c 8533 0e3d
00000360: 89d7 f0bc 4d61 bf3c f675 0bbd ee65 88bc
00000370: e1fc c6bc cd07 a13c 21c0 cdbc 35e2 8d3c
00000380: 09e8 4bbc 4be1 ddbc 6af4 1ebd 413d 733c
00000390: 5ae3 283b 9acb c43c e96e 303b b08b c0b9
000003a0: cfee 0fba 88b9 d83c 6df2 c9ba 35bd cc3b
000003b0: b659 91bc 6230 04bc 4b96 f9bb d150 da3c
000003c0: ed42 b43c a553 1d3c eeef a83c 4975 bcbc
000003d0: 4afd bbbc 574c dbbc 432a 36bc 3e77 d63b
000003e0: 5d5d d9ba b291 ae3c bbb2 cb3c 5042 f53c
000003f0: 7ed2 e9bb 25ff b63c 3a26 453c 5c49 e6bc
0.010984691 -0.024911305 -0.02180931 0.024214586 0.009815727 0.00034057556 -0.0057767723 0.0010503604
-0.02137264 -0.015229832 0.006686409 -0.0357258 -0.03198583 -0.034813706 -0.023547074 0.006277303
0.030080553 -0.012048139 0.01470257 0.03836333 0.042084478 0.016843565 -0.016280694 -0.03609948
0.01638309 -0.013210065 0.007720064 0.02272164 -0.0040684156 0.0036359658 -0.023862382 -0.000839381
-0.014502126 0.029905338 0.009037 0.0031202016 -0.04168055 -0.027053026 0.035210814 -0.013454332
-0.0034111678 0.031791538 -0.017608188 -0.007949598 -0.044302184 0.04043208 0.02884873 -1.6020505e-05
0.013500651 -0.025481088 0.030136479 0.012291613 0.021450303 0.0008792554 0.036147743 0.025300667
-0.027419595 -0.0050865267 0.007641957 0.007896146 -0.007764297 -0.046212796 -0.0017574057 0.011750925
-0.023301378 -0.016278232 -0.022965068 0.02727352 0.033605132 -0.021244243 -0.009137956 0.012119372
-0.03208553 -0.0042211814 -0.035938095 -0.029380903 -0.0027163548 -0.012947086 -0.017424017 0.026842274
-0.012694758 0.014906266 -0.026153099 -0.02585215 -0.006953596 -0.024107825 -0.008158565 0.006232026
-0.018708449 0.027109105 0.014220586 0.0076327906 -0.010346554 0.0048615704 0.01144314 -0.0002915764
0.009579761 -0.04776898 0.021549983 0.013646044 -0.033160925 0.0028214778 -0.017656818 0.017623752
0.0014126751 -0.021864317 0.0107897455 0.023440648 -0.032281063 0.028668797 0.014943983 -0.0021589976
0.022187337 0.018527666 0.0041825357 -0.021901863 -0.04226447 -0.014014977 -0.019983893 0.035056483
-0.011957562 -0.017623963 0.026351092 0.021878256 0.009014282 0.0090022385 0.02231372 -0.025030307
-0.02925365 0.0031416041 0.028487213 0.008857676 -0.024447719 -0.025395295 0.027564738 0.03620152
-0.026182879 -0.0071928054 0.012882085 0.040454596 -0.036840197 0.027038174 0.03439052 0.026540047
-0.027356762 0.014360631 -0.0024198522 -0.008047914 0.026065225 -0.00092549436 -0.013519088 -0.008588733
0.027035028 -0.011388798 0.014089934 0.023295846 0.008119293 0.005877141 -0.03003393 -0.033820912
-0.013674935 -0.026922045 0.012232308 0.005969807 -0.011932637 -0.026191344 0.015977131 0.018824153
-0.01347139 -0.011161333 0.03604254 0.00492966 0.01138194 0.012835957 -0.028070536 0.038294714
-0.030042097 -0.022495568 0.011459643 -0.01889624 -0.018050084 0.01328578 0.0048486846 0.034587283
-0.021226622 0.00068443187 0.023325121 -0.044588093 -0.028086035 0.019324578 -0.0100828605 -0.007511091
0.011382143 -0.023044024 0.033876587 -0.0047951057 -0.008871057 0.024307173 0.006472281 -0.022469578
0.015158257 0.011586151 -0.019722022 -0.01594322 0.018651376 0.030192053 -0.03868048 0.025340334
-0.001354348 -0.03187683 -0.029577442 0.017218722 0.033439215 0.00068724086 0.022668928 0.0347171
-0.02939965 0.023361826 -0.034048043 -0.016650166 -0.024290504 0.01965704 -0.025116028 0.017319778
-0.012445458 -0.027084967 -0.03880731 0.014846147 0.0025770278 0.024022866 0.0026921576 -0.0003672517
-0.00054906023 0.026455656 -0.0015407332 0.006248141 -0.017742973 -0.008068176 -0.0076167933 0.026649864
0.022004569 0.009602462 0.02062222 -0.023005145 -0.022947926 -0.0267698 -0.011118474 0.0065449765
-0.001658361 0.021309707 0.024865499 0.029938847 -0.0071356883 0.02233846 0.01203304 -0.028111152
