online/32_D2.pth (torch, 158980 bytes, 8 tensors)

li1.weight f4 [1, 24]
0.06427029 0.24472433 -0.053016957 -0.1338565 0.111746036 0.03898888 0.17437705 0.05293176
-0.12570621 0.015196894 -0.15059471 -0.0033894805 -0.09247086 0.14020164 -0.07934964 -0.0048156884
-0.11666291 -0.0905321 -0.024209658 0.23626862 -0.14907007 0.06154239 0.009468787 0.19443752
00000000: 24a0 833d 0499 7a3e 4f28 59bd ae11 09be
00000010: 1bdb e43d ceb2 1f3d e68f 323e f9ce 583d
00000020: 21b9 00be 65fc 783c 8035 1abe 0c22 5ebb
00000030: 5d61 bdbd 0591 0f3e 1082 a2bd eccc 9dbb
00000040: f7ec eebd e568 b9bd 5553 c6bc 67f0 713e
00000050: d3a5 18be e013 7c3d f922 1b3c a11a 473e

li2.0.weight f4 [512, 70]
-0.042068224 -0.10213555 -0.10257384 -0.017093739 -0.070461616 0.053588152 -0.10494952 -0.10578683
-0.07130864 -0.05852133 0.017237235 -0.10195641 0.036610033 0.033177096 0.063436486 0.06486463
-0.00858227 0.05684362 0.07588121 0.010967275 -0.055696685 -0.05535641 -0.01121329 -0.036412064
0.10410402 -0.011125542 0.10669453 -0.011022892 -0.015362376 -0.026265984 -0.09702841 0.09666112
0.017781507 -0.055574145 0.057764243 0.026384523 0.1188858 0.0790573 -0.057649627 -0.101353474
0.032572523 0.07024429 -0.015341803 -0.013139935 -0.110532 0.057851627 -0.027814003 0.07721581
-0.07023623 0.034250144 0.02790961 0.11746395 0.017680068 0.06914146 0.09819568 0.11069174
-0.012714803 0.030697174 -0.11702912 0.026355606 -0.103421144 -0.09904279 0.11553254 0.11411288
-0.033644736 0.110608876 0.063205704 -0.07216109 -0.010466715 -0.049327888 -0.06502269 0.042454682
-0.07528166 -0.022065826 -0.04932552 0.033966187 -0.055939324 -0.061194662 -0.040947527 -0.011114722
-0.09506528 0.053429753 -0.098218255 0.04452797 -0.102425806 0.0348367 -0.040343806 0.016189072
0.07446479 0.086363815 0.051123857 -0.11175567 -0.046980996 0.09738518 -0.027299542 0.008608987
0.06452509 -0.063612744 -0.09151724 -0.0020879847 -0.0025672799 0.013881175 0.10799599 0.045487568
0.079237536 0.041073617 -0.027834902 0.04431275 0.06767626 0.04715609 0.040063124 0.07297754
-0.11333241 0.11846757 -0.0868036 -0.002292072 0.020393932 -0.07198502 0.02950926 0.07714831
-0.11877652 -0.083733395 0.11188736 -0.05663967 0.07327445 0.021776684 -0.027953299 0.050945558
0.11492147 -0.08021152 -0.09716803 -0.031504072 -0.03801366 0.10142616 0.040961247 0.050398096
-0.118385635 0.009669306 0.11189884 0.099401616 -0.11638322 -0.07174374 -0.03873946 0.022466406
0.0693918 -0.08424888 0.047185376 -0.08437829 -0.019580074 0.10599675 -0.007580251 -0.06904402
-0.01851861 0.02745949 0.06626546 -0.012695719 0.07401699 0.024343962 0.025689421 -0.09885972
0.07984851 0.107749686 -0.11841582 -0.069665216 -0.09750437 -0.040281516 -0.09907434 0.03785793
0.03273868 0.101932995 0.0025721043 0.062490817 -0.09423232 -0.05720365 -0.0044207866 -0.0005133817
-0.06683901 0.047500104 0.053697973 0.07848366 0.057236828 0.005222087 0.10138454 -0.018759098
-0.0013146736 0.0038325721 0.10000436 -0.020624092 0.099869505 0.08141684 0.06707554 -0.05398621
-0.023900554 -0.04457735 -0.08087451 0.09629884 0.027356468 -0.029074796 0.081481 -0.08529754
0.027305052 -0.09487552 -0.0014894024 -0.028781159 -0.03230623 0.03626889 -0.046575427 0.07899604
0.11546896 0.017916005 0.07135942 0.03775581 -0.11837731 0.06942042 -0.115410306 -0.017258678
-0.021444121 0.0885584 -0.07500983 0.017464414 -0.00672004 -0.056442797 -0.014733702 -0.050059833
-0.08348808 -0.012503297 0.00712642 -0.039442502 0.007905448 0.040697023 -0.06940677 -0.0071966117
0.101129726 -0.11556188 -0.03783958 -0.037225343 -0.09426166 0.087737784 0.060610924 -0.06320122
-0.118862316 -0.040746234 -0.11071118 -0.026920045 -0.09000539 -0.026610868 -0.09201403 0.103300825
0.08892151 -0.05685988 -0.09760669 -0.11831951 -0.11745074 0.0060657174 -0.015790634 -0.04618171
00000000: bb4f 2cbd 712c d1bd 3c12 d2bd 2b08 8cbc
00000010: 2e4e 90bd 407f 5b3d c6ef d6bd c4a6 d8bd
00000020: 440a 92bd 10b4 6fbd 1a35 8d3c 86ce d0bd
00000030: 67f4 153d b5e4 073d fdea 813d bfd7 843d
00000040: a69c 0cbc dbd4 683d 9c67 9b3d 16b0 333c
00000050: 3522 64bd 67bd 62bd f2b7 37bc d124 15bd
00000060: 7d34 d53d e847 36bc a982 da3d 5c99 34bc
00000070: 7ab2 7bbc c32b d7bc d5b6 c6bd 44f6 c53d
00000080: 86aa 913c b7a1 63bd 339a 6c3d 5b24 d83c
00000090: 667a f33d cbe8 a13d 0422 6cbd 6992 cfbd
000000a0: c46a 053d 3ddc 8f3d 305c 7bbc e248 57bc
000000b0: 9a5e e2bd d4f5 6c3d 31da e3bc 5323 9e3d
000000c0: 03d8 8fbd e149 0c3d b2a2 e43c f090 f03d
000000d0: cad5 903c 0a9a 8d3d d11a c93d 5ab2 e23d
000000e0: c051 50bc a478 fb3c f7ac efbd b6e7 d73c
000000f0: 77ce d3bd f2d6 cabd 539c ec3d 03b4 e93d
00000100: 10cf 09bd e886 e23d fe71 813d 32c9 93bd
00000110: 967c 2bbc 0a0c 4abd 9e2a 85bd f6e4 2d3d
00000120: 452d 9abd 64c3 b4bc 8e09 4abd 2120 0b3d
00000130: a220 65bd 41a7 7abd 98b8 27bd 861a 36bc
00000140: 96b1 c2bd 28d9 5a3d a726 c9bd f662 363d
00000150: 9fc4 d1bd edb0 0e3d 8c3f 25bd f29e 843c
00000160: ff80 983d 83df b03d 4067 513d 28e0 e4bd
00000170: 256f 40bd e271 c73d 4aa3 dfbc b50c 0d3c
00000180: bb25 843d 6647 82bd 646d bbbd 92d6 08bb
00000190: cf3f 28bb de6d 633c 002d dd3d 2c51 3a3d
000001a0: 4a47 a23d cf3c 283d 0506 e4bc 4981 353d
000001b0: da99 8a3d bf26 413d 3b19 243d 4075 953d
000001c0: d31a e8bd 209f f23d 16c6 b1bd 9636 16bb
000001d0: 2d11 a73c e26c 93bd 67bd f13c efff 9d3d
000001e0: 1b41 f3bd 6a7c abbd 3325 e53d 00ff 67bd
000001f0: ea10 963d 0465 b23c 51fe e4bc 4aac 503d
00000200: f35b eb3d f045 a4bd 0800 c7bd 6a0a 01bd
00000210: 36b4 1bbd 85b8 cf3d fbc6 273d 3c6e 4e3d
00000220: 2b74 f2bd 026c 1e3c 382b e53d 1393 cb3d
00000230: 535a eebd 62ee 92bd 45ad 1ebd 780b b83c
00000240: 4a1d 8e3d ad8a acbd 7445 413d 86ce acbd
00000250: 6466 a0bc d314 d93d c163 f8bb f366 8dbd
00000260: 57b4 97bc b9f2 e03c 2fb6 873d b401 50bc
00000270: 3896 973d fd6c c73c 9f72 d23c f776 cabd
00000280: 9e87 a33d deab dc3d fe83 f2bd a3ac 8ebd
00000290: 5fb0 c7bd 3bfe 24bd 7de7 cabd eb10 1b3d
000002a0: fe18 063d 3fc2 d03d c090 283b 5ff6 7f3d
000002b0: e0fc c0bd 604e 6abd 3fdc 90bb 7694 06ba
000002c0: e4e2 88bd 788f 423d 68f2 5b3d 0bbc a03d
000002d0: 2a71 6a3d 0a1e ab3b b3a2 cf3d aeac 99bc
000002e0: 2051 acba e42b 7b3b 16cf cc3d dbf3 a8bc
000002f0: 6288 cc3d dfbd a63d e75e 893d a520 5dbd
00000300: 18cb c3bc bd96 36bd 89a1 a5bd 5438 c53d
00000310: ac1a e03c 442e eebc 83df a63d 7ab0 aebd
00000320: d8ae df3c 194e c2bd 0d38 c3ba 77c6 ebbc
00000330: 8a53 04bd b08e 143d e0c5 3ebd adc8 a13d
00000340: fd7a ec3d 96c4 923c e324 923d d6a5 1a3d
00000350: ce6f f2bd 4b2c 8e3d 3d5c ecbd 1262 8dbc
00000360: 95ab afbc 1b5e b53d c19e 99bd 8811 8f3c
00000370: c833 dcbb 9030 67bd a065 71bc 8a0b 4dbd
00000380: ccfb aabd a1da 4cbc be84 e93b 768e 21bd
00000390: da85 013c ecb1 263d 2325 8ebd 8ed1 ebbb
000003a0: 1a1d cf3d b5ab ecbd adfd 1abd 9a79 18bd
000003b0: 420c c1bd deaf b33d 2943 783d a46f 81bd
000003c0: 166e f3bd 86e5 26bd 8bbc e2bd 6d87 dcbc
000003d0: bf54 b8bd 09ff d9bc da71 bcbd 628f d33d
000003e0: 7b1c b63d e8e5 68bd 04e6 c7bd 8051 f2bd
000003f0: 038a f0bd edc2 c63b 5c5b 81bc 0829 3dbd

li2.0.bias f4 [512]
0.008662599 -0.0744583 -0.075869635 -0.023716358 0.043789316 -0.0933584 -0.0069966386 0.03777357
-0.03910276 0.022886485 -0.02834212 0.07790117 0.104998365 0.039418586 -0.040540077 0.0025521582
-0.0036302225 0.079188585 0.040880665 -0.0786132 -0.00019069856 0.112475656 -0.11126187 -0.051077988
-0.0411444 0.11435675 -0.009780573 -0.006694448 0.10135028 -0.099008225 -0.01643497 0.08433002
-0.09947186 0.09574544 -0.07603279 0.03743242 0.08766576 -0.06263976 -0.060904223 0.028011104
-0.06962526 0.082596265 0.06620371 0.050181802 -0.05557866 -0.011226071 -0.07852656 0.07711323
0.08757215 -0.08081112 0.0018058356 -0.0013597519 0.041921828 -0.10800976 0.035786737 -0.0047678445
0.086066924 0.01686347 -0.022780692 0.077086784 -0.11400045 0.0034991386 -0.076174915 -0.053466946
-0.056739695 -0.115862906 -0.010173354 -0.05108625 0.029086418 0.062023953 -0.053587813 0.0018291315
0.039710544 0.012633697 0.07771821 -0.020024883 -0.0635923 -0.08317577 0.038633905 -0.038974337
-0.11803819 -0.009386766 0.06769196 0.04097352 -0.03317042 0.011124053 -0.09004238 0.08804178
0.1063321 0.050259825 0.0054182904 0.037259605 0.086917885 0.017877746 -0.031443734 -0.08664382
0.014716475 0.011519342 -0.030283099 0.117813334 0.09219479 -0.07508823 -0.10076376 0.039491065
0.05960114 -0.027693868 -0.046373732 -0.10419333 0.07472825 0.044902958 0.041821662 0.013699763
0.032335103 -0.11650632 0.030599369 0.105159745 0.041417357 -0.03038878 0.09107915 0.077200375
-0.022967998 0.07188745 0.061628606 -0.038853172 0.08390876 -0.060059205 -0.029274452 0.080587946
-0.11517363 -0.10609616 0.09555971 0.11707892 -0.035206933 -0.10726887 -0.017702706 0.015058832
-0.07049903 0.07499422 0.043431498 0.05288452 0.09113336 0.08018569 -0.052440315 -0.029648483
0.0740284 0.018443728 0.023619983 -0.010466868 -0.08344911 -0.111686476 -0.0080435425 -0.041343633
0.04301984 -0.015826983 -0.06367137 -0.017056363 0.07580216 0.108467445 -0.119225755 0.009546588
-0.027236413 0.085299395 -0.034859747 -0.06845234 -0.018867528 0.07279915 -0.03546671 0.010614052
0.11369498 -0.06329043 -0.02628825 -0.06910747 -0.025689568 -0.037854783 0.077532485 0.010876362
-0.054798655 -0.027315078 0.06808452 -0.10820056 -0.081668764 -0.050982565 0.116411164 0.04514495
-0.03733472 -0.049093377 0.1002222 -0.054462098 0.048857298 -0.11382391 -0.07327833 -0.051601324
-0.026302926 0.07656275 -0.11844299 -0.10852687 0.11925639 -0.10332922 0.061436426 0.009726544
-0.022617307 0.06497365 -0.08636685 0.0044730627 -0.041460242 0.11893506 0.06154159 0.029522173
-0.044300415 0.062395986 0.032528877 0.033136766 0.018504368 0.07932671 -0.07993941 0.021609815
0.086679466 0.0766407 -0.085857615 -0.09798058 0.05927903 0.098379664 0.008319189 -0.005505846
0.0053348243 -0.03185911 0.09117506 -0.00083942054 -0.033898517 0.017308285 0.05011814 -0.05736797
-0.022849169 -0.042110644 0.10067112 0.0112841325 0.03608343 -0.02468809 -0.04870272 -0.06429361
0.0052436357 0.090366215 0.055303387 -0.10937842 0.09103229 -0.044132043 0.08472572 0.077695824
0.104665525 -0.10107936 -0.06872715 0.10815088 0.05138596 0.016723411 -0.06043774 -0.071815185
00000000: 93ed 0d3c 987d 98bd 8a61 9bbd cf48 c2bc
00000010: 6d5c 333d b032 bfbd 0f44 e5bb 75b8 1a3d
00000020: 372a 20bd 707c bb3c bc2d e8bc a68a 9f3d
00000030: 6209 d73d 6275 213d 5a0d 26bd 1c42 273b
00000040: 07e9 6dbb a02d a23d 7c72 273d f5ff a0bd
00000050: 41f6 47b9 a359 e63d 43dd e3bd 2737 51bd
00000060: 0887 28bd df33 ea3d b23e 20bc 1a5d dbbb
00000070: bc90 cf3d d3c4 cabd a1a2 86bc 38b5 ac3d
00000080: e7b7 cbbd 2f16 c43d 14b7 9bbd bd52 193d
00000090: 1b8a b33d 4649 80bd b576 79bd 8b77 e53c
000000a0: b097 8ebd 3b28 a93d d095 873d 6f8b 4d3d
000000b0: 73a6 63bd 8eed 37bc 88d2 a0bd 8bed 9d3d
000000c0: 0759 b33d 4d80 a5bd cab1 ec3a b439 b2ba
000000d0: 39b6 2b3d 3934 ddbd 1d95 123d 943b 9cbb
000000e0: db43 b03d 4325 8a3c 939e babc addf 9d3d
000000f0: 1179 e9bd ce51 653b 9801 9cbd 2800 5bbd
00000100: e267 68bd 8849 edbd 24ae 26bc d13f 51bd
00000110: a446 ee3c d40c 7e3d e57e 5bbd 78bf ef3a
00000120: 86a7 223d 91fd 4e3c ba2a 9f3d 390b a4bc
00000130: ae3c 82bd 0f58 aabd 963e 1e3d 8ea3 1fbd
00000140: 02be f1bd f3ca 19bc 15a2 8a3d dad3 273d
00000150: b5dd 07bd a941 363c 2468 b8bd 404f b43d
00000160: a5c4 d93d 3fdd 4d3d ea8b b13b 879d 183d
00000170: 0102 b23d 5a74 923c 25cb 00bd 5172 b1bd
00000180: 5f1d 713c 9fbb 3c3c 4314 f8bc 1e48 f13d
00000190: 9fd0 bc3d dcc7 99bd 3b5d cebd 62c1 213d
000001a0: 5320 743d 40de e2bc 62f2 3dbd 5063 d5bd
000001b0: 200b 993d 2aec 373d 314d 2b3d f974 603c
000001c0: d071 043d de9a eebd 87ab fa3c fe5d d73d
000001d0: 3fa5 293d e4f1 f8bc b587 ba3d 3b1b 9e3d
000001e0: 6227 bcbc ba39 933d 476e 7c3d 8124 1fbd
000001f0: 5bd8 ab3d a400 76bd fad0 efbc 4b0b a53d
00000200: 27e0 ebbd f248 d9bd cfb4 c33d 13c7 ef3d
00000210: 2535 10bd c8af dbbd 4405 91bc 52b9 763c
00000220: cc61 90bd 9296 993d 3ae5 313d 709d 583d
00000230: 21a4 ba3d 6538 a43d a8cb 56bd 60e1 f2bc
00000240: 349c 973d 4d17 973c b27e c13c 3a7d 2bbc
00000250: 5ee7 aabd e1bb e4bd 10c9 03bc f157 29bd
00000260: 9235 303d 97a7 81bc 2366 82bd c9b9 8bbc
00000270: 2a3e 9b3d 2e24 de3d a22c f4bd 4b69 1c3c
00000280: e61e dfbc 73b1 ae3d 18c9 0ebd be30 8cbd
00000290: 1390 9abc b917 953d 8a45 11bd 90e6 2d3c
000002a0: ead8 e83d 6a9e 81bd 755a d7bc 3888 8dbd
000002b0: ee72 d2bc 9e0d 1bbd 5ac9 9e3d c532 323c
000002c0: 8e74 60bd dfc3 dfbc e66f 8b3d 4198 ddbd
000002d0: f441 a7bd 18d3 50bd fa68 ee3d e9e9 383d
000002e0: 4bec 18bd 2316 49bd 4c41 cd3d a613 5fbd
000002f0: 971e 483d 831c e9bd f312 96bd e95b 53bd
00000300: 3c79 d7bc eecc 9c3d 3d92 f2bd 5643 debd
00000310: b23c f43d 459e d3bd c3a4 7b3d 155c 1f3c
00000320: ee47 b9bc e810 853d 1ae1 b0bd c592 923b
00000330: 37d2 29bd 3a94 f33d 0913 7c3d 7cd8 f13c
00000340: 5a74 35bd ef92 7f3d 003d 053d 6bba 073d
00000350: 7996 973c 0b76 a23d 46b7 a3bd 1107 b13c
00000360: 0185 b13d cdf5 9c3d 1ed6 afbd 0baa c8bd
00000370: 91ce 723d 477b c93d 354d 083c 626a b4bb
00000380: c0cf ae3b b37e 02bd fdb9 ba3d 8f0c 5cba
00000390: 2cd9 0abd 1bca 8d3c ae48 4d3d adfa 6abd
000003a0: 2e2e bbbc 367c 2cbd a92c ce3d 15e1 383c
000003b0: 38cc 133d ad3e cabc 817c 47bd 5eac 83bd
000003c0: ced2 ab3b ec11 b93d ce85 623d cb01 e0bd
000003d0: 236f ba3d cdc3 34bd ae84 ad3d fd1e 9f3d
000003e0: e15a d63d b202 cfbd d2c0 8cbd 357e dd3d
000003f0: 167a 523d 89ff 883c 908d 77bd d713 93bd

li2.1.weight f4 [512]
0.9998951 0.999548 0.99986255 0.999796 0.9995367 1.0000005 1.0000013 0.9999718
0.9999765 0.99980026 0.9998482 0.9995748 0.9996475 0.99960256 0.9996548 0.9998811
0.99975866 0.9999401 0.99992293 0.9996904 0.999886 0.9998687 0.999839 0.99933213
0.9998737 1.0000249 0.9999507 0.99976116 1.0000061 0.99996734 0.9991991 0.9999441
0.9995445 0.9994107 0.99989235 0.99991745 0.99967104 1.0000337 0.99928516 0.9999261
0.9999291 0.99937737 0.9993568 0.99962413 0.9999375 0.99961257 0.99975866 0.9998969
1.0000058 0.9996116 0.9999309 0.9999599 0.99976397 0.99999046 0.99919105 0.99972767
0.99978083 0.99996346 0.99999857 0.99977297 1.0000058 0.99965024 0.9999519 0.9999541
0.99965787 0.99980867 0.99961233 0.9997925 0.9994016 0.9998498 1.0000405 1.0004776
0.99948114 1.0000019 0.99939245 0.9997726 1.0000346 0.99983716 0.999735 1.0000914
0.99999094 1.0001818 0.99953705 0.99977946 1.0000337 0.99961287 0.9999754 0.9999998
0.99956733 0.9999003 0.99983865 0.9999388 0.9999776 1.0000013 0.99965715 0.9999677
0.99991345 0.99977255 0.99994296 0.9998298 1.0001149 0.9999939 0.9998233 0.9997793
0.9999959 0.99995863 0.9998497 0.99952227 0.9995895 0.99962413 0.9997533 0.9999986
0.9995001 0.9999046 1.0000585 0.9999153 0.9996684 1.00002 0.99959606 0.99959946
0.9998863 1.0000386 0.9997624 0.9999993 1.000029 0.9999348 0.99968153 0.9998652
0.9998013 0.999987 0.99940926 1.0000079 0.9998772 0.99978465 0.99935454 0.9996558
0.9999461 1.0000557 1.000052 0.99950594 0.9995464 0.99967414 0.99957836 0.99961734
1.0000664 0.9997132 0.99999774 1.0000129 0.9996161 0.9999981 0.9994319 1.0000228
0.9992853 0.99990416 0.9998767 0.99978596 1.0001059 0.99976975 0.99984336 0.99953526
0.99997157 0.9995768 1.0000725 0.9999723 1.00004 0.9992713 0.99986714 0.99960315
0.9998852 0.99963814 0.999511 0.99995327 0.9999996 1.0000421 0.99973977 0.9998232
0.999566 0.9996116 0.9999401 1.0000819 0.9998534 0.99992883 1.0001171 0.99949235
0.9996695 0.99999577 0.9994998 0.99949825 0.9998798 1.0000226 1.000026 0.99997246
0.9999394 0.9998537 0.99946904 0.9999093 1.0000563 0.9998738 0.9998503 0.99929345
0.9995604 1.0002123 0.99969196 0.99976516 0.9996925 0.99969906 0.999662 0.9997438
0.99989164 0.999605 0.9993155 0.9998802 1.0000172 1.0000011 0.9997488 0.9999244
0.99945396 0.9997298 0.99987614 0.99999505 0.9996908 0.9998935 0.9996432 0.999766
0.99987626 0.9998341 0.99947673 0.9999907 1.0000067 0.99959934 0.9999053 0.99990153
0.99999744 0.9997793 0.99999946 0.9999228 0.9999664 1.0000613 1.0000024 0.99963933
0.9996934 1.0000064 0.99942875 0.9991461 0.9996009 0.9997904 0.9997647 1.0000155
0.9999973 1.0000827 0.9995553 0.9993441 0.9999349 0.9998279 0.99996555 0.9996194
00000000: 20f9 7f3f 61e2 7f3f fef6 7f3f a1f2 7f3f
00000010: a3e1 7f3f 0400 803f 0b00 803f 27fe 7f3f
00000020: 76fe 7f3f e9f2 7f3f 0df6 7f3f 22e4 7f3f
00000030: e6e8 7f3f f4e5 7f3f 61e9 7f3f 35f8 7f3f
00000040: 2ff0 7f3f 13fc 7f3f f3fa 7f3f b6eb 7f3f
00000050: 87f8 7f3f 65f7 7f3f 73f5 7f3f 3bd4 7f3f
00000060: b9f7 7f3f d100 803f c5fc 7f3f 59f0 7f3f
00000070: 3300 803f dcfd 7f3f 83cb 7f3f 56fc 7f3f
00000080: 26e2 7f3f 61d9 7f3f f2f8 7f3f 97fa 7f3f
00000090: 71ea 7f3f 1b01 803f 27d1 7f3f 28fb 7f3f
000000a0: 5afb 7f3f 32d7 7f3f d9d5 7f3f 5ee7 7f3f
000000b0: e7fb 7f3f 9ce6 7f3f 2ff0 7f3f 3ef9 7f3f
000000c0: 3100 803f 8ce6 7f3f 79fb 7f3f 5ffd 7f3f
000000d0: 88f0 7f3f 60ff 7f3f fcca 7f3f 27ee 7f3f
000000e0: a3f1 7f3f 9bfd 7f3f e8ff 7f3f 1ff1 7f3f
000000f0: 3100 803f 14e9 7f3f d9fc 7f3f fefc 7f3f
00000100: 94e9 7f3f 76f3 7f3f 98e6 7f3f 67f2 7f3f
00000110: c9d8 7f3f 28f6 7f3f 5401 803f a60f 803f
00000120: ffdd 7f3f 1000 803f 2fd8 7f3f 19f1 7f3f
00000130: 2201 803f 54f5 7f3f a2ee 7f3f ff02 803f
00000140: 68ff 7f3f f505 803f a9e1 7f3f 8cf1 7f3f
00000150: 1b01 803f a1e6 7f3f 63fe 7f3f fdff 7f3f
00000160: a5e3 7f3f 77f9 7f3f 6df5 7f3f fdfb 7f3f
00000170: 88fe 7f3f 0b00 803f 88e9 7f3f e2fd 7f3f
00000180: 54fa 7f3f 18f1 7f3f 43fc 7f3f d9f4 7f3f
00000190: c403 803f 9aff 7f3f 6bf4 7f3f 89f1 7f3f
000001a0: bbff 7f3f 4afd 7f3f 26f6 7f3f b1e0 7f3f
000001b0: 19e5 7f3f 5ee7 7f3f d5ef 7f3f e9ff 7f3f
000001c0: 3ddf 7f3f bff9 7f3f eb01 803f 73fa 7f3f
000001d0: 45ea 7f3f a800 803f 87e5 7f3f c0e5 7f3f
000001e0: 8cf8 7f3f 4401 803f 6ef0 7f3f f4ff 7f3f
000001f0: f300 803f bafb 7f3f 21eb 7f3f 2af7 7f3f
00000200: faf2 7f3f 26ff 7f3f 49d9 7f3f 4200 803f
00000210: f4f7 7f3f e3f1 7f3f b3d5 7f3f 71e9 7f3f
00000220: 78fc 7f3f d301 803f b401 803f 9fdf 7f3f
00000230: 46e2 7f3f a5ea 7f3f 5ee4 7f3f ece6 7f3f
00000240: 2d02 803f 34ed 7f3f daff 7f3f 6c00 803f
00000250: d7e6 7f3f e0ff 7f3f c5da 7f3f bf00 803f
00000260: 29d1 7f3f b8f9 7f3f ebf7 7f3f f9f1 7f3f
00000270: 7803 803f e9f0 7f3f bcf5 7f3f 8be1 7f3f
00000280: 23fe 7f3f 44e4 7f3f 6002 803f 2ffe 7f3f
00000290: 5001 803f 3ed0 7f3f 4bf7 7f3f fee5 7f3f
000002a0: 7af8 7f3f 49e8 7f3f f4df 7f3f f0fc 7f3f
000002b0: f9ff 7f3f 6101 803f f2ee 7f3f 6af4 7f3f
000002c0: 8fe3 7f3f 8ce6 7f3f 13fc 7f3f af02 803f
000002d0: 64f6 7f3f 56fb 7f3f d603 803f bbde 7f3f
000002e0: 57ea 7f3f b9ff 7f3f 38df 7f3f 1edf 7f3f
000002f0: 1ff8 7f3f be00 803f da00 803f 32fe 7f3f
00000300: 07fc 7f3f 69f6 7f3f 34dd 7f3f 0efa 7f3f
00000310: d801 803f bbf7 7f3f 30f6 7f3f b2d1 7f3f
00000320: 31e3 7f3f f506 803f d0eb 7f3f 9cf0 7f3f
00000330: d9eb 7f3f 47ec 7f3f d9e9 7f3f 36ef 7f3f
00000340: e6f8 7f3f 1de6 7f3f 24d3 7f3f 26f8 7f3f
00000350: 9000 803f 0900 803f 8aef 7f3f 0cfb 7f3f
00000360: 37dc 7f3f 4bee 7f3f e2f7 7f3f adff 7f3f
00000370: bceb 7f3f 05f9 7f3f 9ee8 7f3f aaf0 7f3f
00000380: e4f7 7f3f 21f5 7f3f b5dd 7f3f 64ff 7f3f
00000390: 3800 803f bee5 7f3f cbf9 7f3f 8cf9 7f3f
000003a0: d5ff 7f3f 89f1 7f3f f7ff 7f3f f1fa 7f3f
000003b0: ccfd 7f3f 0202 803f 1400 803f 5de8 7f3f
000003c0: e8eb 7f3f 3600 803f 90da 7f3f 0ac8 7f3f
000003d0: d8e5 7f3f 43f2 7f3f 94f0 7f3f 8200 803f
000003e0: d3ff 7f3f b602 803f dbe2 7f3f 04d5 7f3f
000003f0: bcfb 7f3f b9f4 7f3f befd 7f3f 0fe7 7f3f

li2.1.bias f4 [512]
-0.00021538422 0.000442209 0.00015393474 -4.4884993e-05 0.00018643326 -7.3689353e-06 -0.00023573425 -2.0508136e-05
0.00027672702 0.00024396753 -0.00022747263 0.00065874855 -0.0008261615 0.0014267073 -0.00010328651 -7.689716e-05
0.000916762 1.9105397e-05 -0.00011185578 -0.00044517513 0.00022147996 -0.0009827365 -0.00046382705 0.0010552176
7.0793896e-05 -0.00021183031 -0.00018120372 3.0332147e-05 -0.00010684167 1.443668e-05 -0.0005928207 0.00015993953
-0.000108769935 -0.0004102391 -5.3584517e-05 -0.000103721344 -0.00022554054 1.6744707e-05 -0.0011936136 -0.00067891786
0.00020335375 0.0005136893 -0.00015788317 -0.00024674585 0.0010690874 0.00010184065 -0.000118193304 -5.001403e-05
0.00012017546 -4.3165328e-05 0.00035022196 -3.777726e-05 0.00031496768 -5.098115e-06 -0.0011036952 -4.95683e-05
0.0007295865 -4.4298973e-05 8.612462e-06 -0.00027722848 0.000112978625 0.0005297894 -1.9930767e-05 0.00031601562
-8.696649e-05 -0.0001488404 0.00033384963 -0.0006187364 -0.0005129175 -0.0005221569 -0.00048143024 0.0016541245
-0.0010204929 0.0002516315 0.00024001746 -0.0007060925 0.00011338608 -0.00029373783 8.822418e-05 3.873491e-06
-0.00028126867 -0.0010638277 -0.000106676736 -2.6182274e-06 0.00023162809 8.898666e-05 -0.000108844906 -8.715207e-06
4.2852298e-05 -0.0007061707 -7.567248e-05 0.00015522225 -8.7680804e-05 1.4519162e-05 5.2622556e-05 -1.3698784e-05
-0.000111105954 0.00010707848 0.00086171756 0.00015230993 0.00096659875 -0.00010253418 6.4482265e-05 8.455819e-06
-1.6603051e-05 0.00016731439 -0.00014337346 -0.0013026259 -7.3578008e-06 0.00028602898 -6.0833223e-05 4.4121996e-05
-0.00038864042 -4.2378702e-05 -0.0001462158 0.0012399593 0.0007337941 1.695048e-05 -5.3398573e-05 -0.0003268286
0.00016480428 0.0005939757 -0.0006224176 5.553283e-05 3.442634e-05 5.7209345e-06 -6.033807e-05 0.0011554314
-0.00014972553 -5.6260156e-05 -0.00081829034 -6.1316786e-07 -9.683693e-05 0.00016499456 -0.00031161413 -0.0030811941
-0.00036083205 0.00030308068 -0.0010594409 0.0034743093 -0.00010424528 -0.00027928944 -0.0005901194 -0.00027209255
-0.00040462625 -0.0002419201 1.7301944e-06 -7.6775716e-05 -0.00038507849 -2.4188312e-05 -0.00083370093 -2.838586e-05
-0.00035918743 4.5569337e-05 -0.00029547987 -0.000102690574 -0.00055693346 0.00017284967 0.00075707614 0.00013410165
0.00017547658 -0.00010260248 3.6773156e-06 -5.8549347e-05 -6.224635e-05 -0.00048118184 0.00034840315 -0.0001893128
-0.00015221459 -0.00038722195 -0.0010050745 -5.9273345e-05 0.00064424647 -0.0012641136 -0.0017391209 0.00024968188
-0.0008151719 2.3658473e-05 -0.00022882225 6.46232e-05 -0.00016492908 -0.00011154109 0.00034217874 0.0020819232
0.00052840484 -3.336951e-05 -3.2264812e-05 0.00048432912 0.0006901307 0.000111794965 -5.960973e-05 1.4590795e-05
-3.558753e-05 0.0017928627 -0.0001507517 -3.8596438e-05 -0.0004950333 -0.00018664714 2.000462e-06 -0.0010144878
-0.00012357463 0.0005617725 -0.0017320347 -0.000128515 0.00019734986 -0.00031602988 0.0005133568 -0.00015047539
4.146133e-06 0.00021521508 -0.00010734367 -6.692696e-05 -0.00011153227 -1.5432708e-05 -5.068213e-06 -7.1760056e-05
-8.087566e-05 -0.0003138972 -0.0006963877 2.5461186e-06 -0.00020871065 0.0004390836 -0.001993987 -0.00018399626
-6.688203e-05 -0.00086112873 0.0019366323 -0.00041163043 -5.910901e-05 -0.00025351558 -3.5857192e-05 -8.097468e-05
-1.7580312e-06 0.0020083424 1.9040794e-05 -0.00022150479 0.00019170271 0.00052344933 -8.248592e-05 -6.6495966e-05
6.8290334e-05 -0.00012131931 -0.0003492845 0.001883444 -1.0628212e-05 0.0006666415 -0.0003404079 -0.0002410658
-3.2308875e-05 0.00017198907 -0.00019218154 -0.00016902549 -0.00048076487 -0.00043341029 -0.0003573169 -0.00062418415
00000000: c3d8 61b9 4ad8 e739 8b69 2139 e542 3cb8
00000010: 4c7d 4339 ac42 f7b6 6e2f 77b9 e308 acb7
00000020: ac15 9139 89d1 7f39 b885 6eb9 deaf 2c3a
00000030: c292 58ba 5a00 bb3a 869b d8b8 d943 a1b8
00000040: db52 703a 8744 a037 1d94 eab8 6566 e9b9
00000050: 133d 6839 2acf 80ba d02d f3b9 3a4f 8a3a
00000060: 2f77 9438 c41e 5eb9 8101 3eb9 ca71 fe37
00000070: 2f10 e0b8 1235 7237 8667 1bba 71b5 2739
00000080: 6a1b e4b8 5c15 d7b9 f0bf 60b8 f984 d9b8
00000090: 147f 6cb9 fc76 8c37 0773 9cba 68f9 31ba
000000a0: 5b3b 5539 1ba9 063a 718d 25b9 ab5d 81b9
000000b0: 9f20 8c3a 4893 d538 8cde f7b8 28c6 51b8
000000c0: b506 fc38 6b0c 35b8 ff9d b739 0673 1eb8
000000d0: 3f22 a539 7910 abb6 dea9 90ba 8fe7 4fb8
000000e0: b941 3f3a a9cd 39b8 3e7e 1037 fa58 91b9
000000f0: f0ee ec38 91e1 0a3a ff30 a7b7 e6ae a539
00000100: c761 b6b8 0a12 1cb9 8a08 af39 b232 22ba
00000110: 5075 06ba 5be1 08ba 7968 fcb9 35cf d83a
00000120: 0fc2 85ba 69ed 8339 32ad 7b39 1119 39ba
00000130: b0c9 ed38 d300 9ab9 ff04 b938 09f9 8136
00000140: 3e77 93b9 2270 8bba a3b7 dfb8 ceb4 2fb6
00000150: 31e1 7239 599e ba38 aa43 e4b8 8737 12b7
00000160: 4ebc 3338 501e 39ba 5ab2 9eb8 28c3 2239
00000170: 46e1 b7b8 5397 7337 0ab7 5c38 d4d3 65b7
00000180: 8e01 e9b8 528f e038 e3e4 613a 63b5 1f39
00000190: 5863 7d3a 9e07 d7b8 a73a 8738 77dd 0d37
000001a0: c846 8bb7 1d71 2f39 8556 16b9 dfbc aaba
000001b0: 07e3 f6b6 29f6 9539 2d27 7fb8 a20f 3938
000001c0: 6fc2 cbb9 c9bf 31b8 8151 19b9 2186 a23a
000001d0: 175c 403a e130 8e37 48f8 5fb8 315a abb9
000001e0: 50cf 2c39 09b5 1b3a bd29 23ba eceb 6838
000001f0: 0065 1038 74f6 bf36 8213 7db8 d871 973a
00000200: a4ff 1cb9 e2f8 6bb8 8982 56ba 9398 24b5
00000210: ee14 cbb8 6402 2d39 2460 a3b9 dced 49bb
00000220: 0f2e bdb9 cde6 9e39 f0dc 8aba 3db1 633b
00000230: 429e dab8 986d 92b9 3eb2 1aba a5a7 8eb9
00000240: 0424 d4b9 efab 7db9 0739 e835 a602 a1b8
00000250: 5ce4 c9b9 01e8 cab7 b98c 5aba 2c1e eeb7
00000260: 5251 bcb9 b421 3f38 a3ea 9ab9 955b d7b8
00000270: 2cff 11ba fb3e 3539 8576 463a a39d 0c39
00000280: 2300 3839 492c d7b8 cdc7 7636 e292 75b8
00000290: 418a 82b8 2247 fcb9 e1a9 b639 4582 46b9
000002a0: cb9b 1fb9 0d04 cbb9 b4bc 83ba 459c 78b8
000002b0: a6e2 283a 9db0 a5ba 37f3 e3ba bce7 8239
000002c0: 43b1 55ba 2f76 c637 01f0 6fb9 5186 8738
000002d0: d0f0 2cb9 2beb e9b8 7466 b339 e070 083b
000002e0: a684 0a3a 3df6 0bb8 1454 07b8 8eed fd39
000002f0: e3e9 343a 7773 ea38 7605 7ab8 fdca 7437
00000300: d243 15b8 7dfe ea3a 1a13 1eb9 9ce2 21b8
00000310: 1fc5 01ba b6b6 43b9 ad3f 0636 90f8 84ba
00000320: d093 01b9 ea43 133a 7105 e3ba fcc1 06b9
00000330: b3ef 4e39 d0b0 a5b9 cb92 063a eec8 1db9
00000340: 031f 8b36 5cab 6139 b21d e1b8 235b 8cb8
00000350: 6ee6 e9b8 7d75 81b7 9e0f aab6 e37d 96b8
00000360: ca9b a9b8 9292 a4b9 ca8d 36ba fcdd 2a36
00000370: 57d9 5ab9 ce34 e639 8dad 02bb 1fef 40b9
00000380: 0443 8cb8 5fbd 61ba 99d6 fd3a 1ad0 d7b9
00000390: d1eb 77b8 49ea 84b9 5e65 16b8 f3d0 a9b8
000003a0: 7ef5 ebb5 659e 033b cbb9 9f37 bd43 68b9
000003b0: ce03 4939 1738 093a 4bfc acb8 c073 8bb8
000003c0: 1837 8f38 cf6c feb8 2c20 b7b9 e5dd f63a
000003d0: d34f 32b7 8ec1 2e3a c678 b2b9 9cc6 7cb9
000003e0: 6483 07b8 f757 3439 5784 49b9 6f3c 31b9
000003f0: 2b0f fcb9 583b e3b9 4356 bbb9 4aa0 23ba

li2.1.running_mean f4 [512]
-0.27239928 -0.120617814 -0.31952572 0.2506468 0.5509563 0.28733528 0.39766502 -0.18032637
0.15500735 -0.07088997 -0.27688333 -0.20521696 -0.08440004 -0.18970226 0.026951944 -0.12858787
0.42463723 -0.073715575 0.16512303 -0.04681522 -0.078811064 -0.11487449 0.090916745 -0.18547684
-0.10568646 0.38624308 -0.060673278 0.028204475 0.34627318 -0.16099574 -0.06479434 -0.32463175
-0.27361625 -0.0909386 -0.04003327 0.03171453 0.18686697 -0.2106782 -0.36973372 0.35179394
-0.40679234 0.5211902 -0.015657049 -0.048180684 0.12902431 -0.19296579 -0.13583058 0.14714757
-0.07160225 -0.21971528 0.20366357 0.17521727 -0.02766807 0.07247165 0.24134697 0.04559051
-0.076607496 0.06763354 -0.05869421 0.0636969 -0.20593773 0.28629008 -0.18737584 0.036881145
0.058593366 0.2433143 0.04444015 -0.32778305 -0.119794205 0.3543632 0.5775337 0.55386907
0.20543367 -0.23602836 0.1781026 -0.052718084 -0.599741 0.06724392 0.09678407 -0.13468613
0.13558215 -0.37144217 0.22190265 -0.014888304 0.13732842 -0.23134546 0.016478423 0.10583627
-0.10075599 -0.24392231 0.1812384 0.06468364 0.2602306 -0.20602418 0.12756674 0.22588892
-0.19594392 0.3228088 0.17026898 0.30489683 0.182604 -0.27864426 -0.08293881 0.02100103
0.16182166 -0.039469227 -0.25015795 -0.22300251 -0.020623278 0.24414247 -0.22057205 -0.32636222
0.10473189 -0.19061618 -0.35626987 -0.14981857 0.056866817 -0.10273841 0.055569127 0.088680744
-0.33438957 0.07625833 -0.049058486 0.059883997 -0.09430936 -0.08348547 0.035610635 -0.06942227
-0.35948703 -0.11110987 0.032923773 -0.18221784 0.3024999 0.0128913075 -0.044460915 -0.33607003
0.18335831 0.051034655 -0.1641181 0.08450122 0.104829326 0.070211336 -0.20924112 -0.17649175
0.2524027 0.14387932 -0.12293363 0.42408878 -0.22006717 0.122339256 0.35047072 0.34394607
0.24835551 0.16449368 0.16505587 0.06793559 -0.49743152 0.51222616 -0.24352147 -0.19793814
-0.18510532 0.080053 -0.31501865 -0.11431575 0.24594726 0.0065178 0.2237895 0.15576883
-0.002226396 -0.13787419 -0.06798029 0.078315035 0.3926268 -0.35268342 0.42363322 -0.10522314
-0.021691008 -0.041714117 -0.021839995 -0.057183057 0.08284765 0.06373363 0.4776715 0.23962045
-0.23308192 -0.22453816 -0.07512162 0.0720157 -0.07022414 -0.18221608 0.11408739 -0.069882676
-0.3293739 -0.13851582 -0.2007537 0.08524753 0.40118843 -0.3690292 0.021241605 0.14925046
0.12566018 0.5446228 0.24302866 0.07058918 0.0992202 -0.058300924 -0.12697543 0.23586896
-0.2604453 -0.011781108 -0.1924885 -0.001978695 -0.26805487 0.1311041 -0.25595525 -0.28740305
0.12623742 0.16063204 0.26235324 -0.051490266 0.035118748 0.22294721 0.20931259 0.12437701
-0.07308234 0.17037976 -0.13262881 0.029753255 -0.29993722 -0.23490712 0.37607214 -0.2824951
-0.4340093 0.27511758 0.12619472 -0.42681155 0.0012705737 -0.06165485 0.23873188 -0.13059802
0.013312219 0.045589663 0.41081068 -0.7165629 -0.005477635 -0.22670473 0.085703574 -0.29202062
0.09930845 -0.20879161 0.096477844 -0.07065848 0.20667122 -0.38121328 -0.20351733 0.16054031
00000000: eb77 8bbe 7906 f7bd e098 a3be c754 803e
00000010: 790b 0d3f 9c1d 933e c09a cb3e 7aa7 38be
00000020: 3fba 1e3e c32e 91bd a7c3 8dbe 6524 52be
00000030: eed9 acbd 4f41 42be 53ca dc3c 8aac 03be
00000040: 0d6a d93e 31f8 96bd 0316 293e 51c1 3fbd
00000050: b267 a1bd 5143 ebbd 8f32 ba3d a4ed 3dbe
00000060: 2572 d8bd a7c1 c53e 8b84 78bd 120d e73c
00000070: b84a b13e 11dc 24be e5b2 84bd 2236 a6be
00000080: 6e17 8cbe 043e babd edf9 23bd 18e7 013d
00000090: 0e5a 3f3e 07bc 57be bd4d bdbe 561e b43e
000000a0: 1647 d0be b96c 053f 3643 80bc 1c59 45bd
000000b0: f31e 043e d398 45be 2c17 0bbe daad 163e
000000c0: 33a4 92bd 0bfd 60be 2f8d 503e 286c 333e
000000d0: 26a8 e2bc 046c 943d a923 773e 1dbd 3a3d
000000e0: 64e4 9cbd 7483 8a3d 5769 70bd 8573 823d
000000f0: 57e1 52be 9d94 923e 74df 3fbe af10 173d
00000100: 99ff 6f3d 6227 793e e006 363d 2ed3 a7be
00000110: aa56 f5bd 186f b53e 40d9 133f 5dca 0d3f
00000120: 345d 523e 6bb1 71be 8760 363e ebee 57bd
00000130: a088 19bf 2eb7 893d ba36 c63d 29eb 09be
00000140: 0cd6 0a3e ab2d bebe 733a 633e 13ee 73bc
00000150: d29f 0c3e d3e5 6cbe c2fd 863c b0c0 d83d
00000160: 2859 cebd c5c6 79be 8f96 393e db78 843d
00000170: f23c 853e 01f8 52be dba0 023e 6d4f 673e
00000180: 86a5 48be 3247 a53e fe5a 2e3e 701b 9c3e
00000190: 8bfc 3a3e 76aa 8ebe d3db a9bd 5a0a ac3c
000001a0: 94b4 253e 7caa 21bd b414 80be c55a 64be
000001b0: 26f2 a8bc 7c00 7a3e a4dd 61be f318 a7be
000001c0: ac7d d63d e330 43be 0169 b6be 0a6a 19be
000001d0: 2eed 683d 8468 d2bd 749c 633d 409e b53d
000001e0: 1c35 abbe 542d 9c3d 8df1 48bd ec48 753d
000001f0: 4425 c1bd 6efa aabd 75dc 113d 432d 8ebd
00000200: af0e b8be 928d e3bd 14db 063d 5097 3abe
00000210: 44e1 9a3e 1036 533c a61c 36bd 5f11 acbe
00000220: 48c2 3b3e b709 513d 930e 28be fa0e ad3d
00000230: c2b0 d63d f6ca 8f3d 4e43 56be 41ba 34be
00000240: ed3a 813e 1a55 133e a1c4 fbbd 2a22 d93e
00000250: 4a59 61be 018d fa3d e670 b33e b319 b03e
00000260: e850 7e3e 0871 283e 6804 293e d121 8b3d
00000270: 58af febe 4121 033f b15d 79be 4cb0 4abe
00000280: 408c 3dbe d4f2 a33d 204a a1be 601e eabd
00000290: 99d9 7b3e 4593 d53b 1329 653e dd81 1f3e
000002a0: bae8 11bb e42e 0dbe 4039 8bbd a263 a03d
000002b0: 6106 c93e ec92 b4be 74e6 d83e 3b7f d7bd
000002c0: 57b1 b1bc 6cdc 2abd cae9 b2bc c838 6abd
000002d0: 07ac a93d c786 823d 5c91 f43e 105f 753e
000002e0: 07ad 6ebe 55ed 65be 5dd9 99bd f87c 933d
000002f0: add1 8fbd da96 3abe a6a6 e93d a61e 8fbd
00000300: b2a3 a8be 17d7 0dbe 6192 4dbe 4296 ae3d
00000310: 9268 cd3e 65f1 bcbe e002 ae3c 1dd5 183e
00000320: 10ad 003e 666c 0b3f 81dc 783e 0f91 903d
00000330: f633 cb3d f3cc 6ebd d905 02be a287 713e
00000340: 1659 85be 8c05 41bc b51b 45be feac 01bb
00000350: 7d3e 89be 2740 063e 910c 83be 7e26 93be
00000360: 6244 013e ba7c 243e 2a53 863e 75e7 52bd
00000370: add8 0f3d 464c 643e 0a56 563e 60b9 fe3d
00000380: 32ac 95bd 0878 2e3e d9cf 07be 19bd f33c
00000390: 5f91 99be 7e8b 70be 878c c03e 33a3 90be
000003a0: 7836 debe 36dc 8c3e 3039 013e 0b87 dabe
000003b0: 6189 a63a cc89 7cbd 2176 743e 7dbb 05be
000003c0: 7e1b 5a3c 3abc 3a3d c755 d23e ab70 37bf
000003d0: bc7d b3bb 4925 68be 5b85 af3d ba83 95be
000003e0: 3b62 cb3d 78cd 55be 2d96 c53d 65b5 90bd
000003f0: 9fa1 533e 632e c3be d966 50be ae64 243e

li2.1.running_var f4 [512]
0.034005586 0.030836811 0.028274916 0.03812692 0.033343475 0.035586365 0.04546037 0.032427352
0.030552546 0.027948447 0.038701937 0.025478655 0.031129662 0.034478948 0.03218624 0.02897499
0.047929924 0.027213903 0.029003395 0.027885182 0.036978874 0.032640617 0.030616304 0.03042789
0.034534547 0.03099723 0.036943488 0.030855602 0.03210176 0.03305897 0.03542277 0.036843844
0.03339353 0.032644395 0.02999687 0.027188065 0.035145447 0.03319075 0.04084539 0.03490229
0.045615457 0.034424026 0.027403502 0.030464968 0.03673076 0.028711643 0.0343934 0.03113619
0.024221582 0.035230562 0.031932697 0.029629914 0.028987415 0.031436067 0.037935615 0.032222353
0.030206786 0.03295445 0.028174827 0.03577944 0.030858535 0.036882687 0.031786185 0.037394416
0.030096352 0.03378617 0.037689038 0.031174911 0.030950675 0.04343191 0.06130752 0.04594458
0.032817844 0.031993087 0.026802452 0.02938011 0.045966744 0.037446607 0.03639789 0.026993433
0.03438416 0.03448745 0.036458205 0.027988695 0.0267037 0.0367999 0.025294745 0.03495198
0.033138774 0.033319067 0.027767116 0.036034763 0.03337586 0.03273087 0.034554794 0.033404313
0.032417744 0.036399834 0.036157098 0.028752957 0.029106153 0.03451834 0.029593443 0.03212792
0.034148294 0.02845671 0.03196275 0.027372748 0.029417425 0.037608076 0.033218157 0.031354092
0.025835197 0.026443556 0.03384276 0.040645197 0.02699153 0.029675063 0.031949304 0.030958027
0.03916476 0.033438887 0.025360167 0.030527165 0.03621258 0.030797826 0.028876444 0.036734413
0.034977913 0.027391402 0.030511847 0.037445754 0.034071185 0.03454327 0.02992043 0.047811612
0.034794196 0.03281378 0.040709555 0.032969322 0.034778267 0.028962316 0.03125412 0.030417437
0.037848167 0.03188019 0.028363718 0.043413498 0.02591634 0.035607707 0.041261505 0.03678026
0.034696188 0.0399885 0.03543967 0.031943925 0.055067446 0.04973402 0.030790264 0.04121305
0.03197137 0.02785782 0.028411487 0.029883968 0.035919834 0.024302639 0.036439084 0.034007568
0.027860748 0.029291293 0.043769624 0.03090098 0.044902038 0.041032847 0.041476917 0.035028994
0.02436618 0.025949016 0.03159106 0.025759693 0.029869335 0.03293899 0.048234064 0.03405952
0.036139283 0.031978004 0.031084003 0.025884164 0.03162363 0.031973228 0.03140302 0.03283424
0.03952409 0.03412535 0.029516516 0.033677015 0.039804038 0.028844338 0.025481397 0.038903963
0.029418027 0.040710747 0.03943943 0.03707409 0.026984759 0.031220194 0.032698873 0.0341158
0.03519384 0.03207185 0.03087139 0.032507226 0.03459451 0.031707894 0.032721166 0.040316503
0.026948491 0.024825094 0.036995713 0.031558566 0.025722058 0.02809026 0.03175397 0.036085736
0.029377885 0.041073576 0.025803208 0.033232138 0.035044093 0.0333796 0.037931427 0.03332629
0.03935177 0.041430637 0.030295977 0.043827128 0.036726475 0.032056283 0.03644715 0.028949201
0.03209919 0.033464693 0.037304435 0.055728365 0.03582954 0.036652967 0.029639354 0.0427238
0.028648963 0.0243802 0.038152725 0.032579426 0.030348388 0.040066354 0.0277982 0.032297507
00000000: 7149 0b3d 7b9d fc3c cca0 e73c f92a 1c3d
00000010: 2b93 083d 02c3 113d a734 3a3d 8bd2 043d
00000020: 5549 fa3c 24f4 e43c ec85 1e3d 9db8 d03c
00000030: a203 ff3c cc39 0d3d b8d5 033d f55c ed3c
00000040: 2b52 443d b1ef de3c 8798 ed3c 776f e43c
00000050: 2977 173d 2bb2 053d 0bcf fa3c e943 f93c
00000060: 1974 0d3d e7ed fd3c 0e52 173d e3c4 fc3c
00000070: 237d 033d d868 073d 7717 113d 92e9 163d
00000080: a7c7 083d 21b6 053d ffbb f53c 81b9 de3c
00000090: acf4 0f3d 06f3 073d 7f4d 273d b4f5 0e3d
000000a0: 46d7 3a3d 3500 0d3d 4f7d e03c ab91 f93c
000000b0: fe72 163d ae34 eb3c 18e0 0c3d 5311 ff3c
000000c0: 576c c63c ec4d 103d dccb 023d 6fba f23c
000000d0: 0477 ed3c 1bc3 003d 6062 1b3d 96fb 033d
000000e0: 3974 f73c 3ffb 063d e5ce e63c 768d 123d
000000f0: 0acb fc3c 4d12 173d 3b32 023d e32a 193d
00000100: a08c f63c 5e63 0a3d d25f 1a3d 8762 ff3c
00000110: 458c fd3c a9e5 313d 981d 7b3d 6230 3c3d
00000120: 016c 063d 2f0b 033d d190 db3c 8eae f03c
00000130: a047 3c3d 9d61 193d f415 153d 5521 dd3c
00000140: 68d6 0c3d b642 0d3d 3355 153d 8c48 e53c
00000150: b8c1 da3c 7ebb 163d ed36 cf3c cf29 0f3d
00000160: 86bc 073d 9379 083d dd77 e33c 3099 133d
00000170: 20b5 083d ce10 063d 5489 0d3d f6d2 083d
00000180: 78c8 043d fe17 153d 7719 143d 528b eb3c
00000190: 0770 ee3c 1a63 0d3d f36d f23c 9198 033d
000001a0: 15df 0b3d 0c1e e93c 5feb 023d d03c e03c
000001b0: d0fc f03c ed0a 1a3d c30f 083d 266d 003d
000001c0: 56a4 d33c 28a0 d83c b59e 0a3d 947b 263d
000001d0: 571d dd3c 1e19 f33c 46dd 023d b09b fd3c
000001e0: 3a6b 203d 37f7 083d 20c0 cf3c 1b14 fa3c
000001f0: a453 143d b94b fc3c 4b8e ec3c d376 163d
00000200: 0045 0f3d ef63 e03c fbf3 f93c b860 193d
00000210: 3a8e 0b3d 3e7d 0d3d b11b f53c 1cd6 433d
00000220: 5c84 0e3d be67 063d 10bf 263d d70a 073d
00000230: a873 0e3d 6142 ed3c 5204 003d fd2d f93c
00000240: ae06 1b3d cd94 023d 075b e83c 5ad2 313d
00000250: 814e d43c 63d9 113d d301 293d e6a6 163d
00000260: 971d 0e3d fbca 233d 3029 113d a2d7 023d
00000270: 678e 613d e6b5 4b3d dd3b fc3c 04cf 283d
00000280: 69f4 023d 1536 e43c 35bf e83c 39cf f43c
00000290: ad20 133d 5416 c73c 2641 153d 854b 0b3d
000002a0: 393c e43c 4bf4 ef3c c747 333d 0d24 fd3c
000002b0: 33eb 373d 0f12 283d b3e3 293d 907a 0f3d
000002c0: 959b c73c 0893 d43c a165 013d fe05 d33c
000002d0: 89b0 f43c 09eb 063d 1591 453d ff81 0b3d
000002e0: c906 143d 5efb 023d e1a3 fe3c 070b d43c
000002f0: c887 013d 5cf6 023d 74a0 003d 327d 063d
00000300: 03e4 213d 06c7 0b3d 9fcc f13c e9f0 093d
00000310: 8f09 233d f64a ec3c 5dbe d03c c359 1f3d
00000320: 13fe f03c 50c0 263d 3d8b 213d 00db 173d
00000330: 240f dd3c 7ec1 ff3c 41ef 053d 02bd 0b3d
00000340: 6a27 103d c65d 033d ffe5 fc3c 4c26 053d
00000350: f9b2 0d3d 23e0 013d a106 063d eb22 253d
00000360: 15c3 dc3c ff5d cb3c d188 173d 8e43 013d
00000370: 11b7 d23c 8c1d e63c 7310 023d a3ce 133d
00000380: e4a9 f03c c43c 283d 4061 d33c 6c1e 083d
00000390: 658a 0f3d 0cb9 083d fc5d 1b3d 2681 083d
000003a0: 522f 213d 2cb3 293d 452f f83c 1384 333d
000003b0: 806e 163d 734d 033d 9b49 153d e026 ed3c
000003c0: 717a 033d 4612 093d 89cc 183d 6d43 643d
000003d0: ffc1 123d 6c21 163d 3bce f23c 27ff 2e3d
000003e0: 3bb1 ea3c fcb8 c73c 0846 1c3d 0172 053d
000003f0: 2f9d f83c 9e1c 243d 0db9 e33c 644a 043d

li2.3.weight f4 [1, 512]
0.0046764878 -0.017449018 -0.014595761 0.017972099 0.0037205177 0.0033767398 -0.005521344 0.0011166314
-0.017268835 -0.010848181 0.0011848279 -0.028613312 -0.028728433 -0.026209721 -0.017388148 0.00050615997
0.028657516 -0.007615915 0.005899825 0.02840872 0.030989649 0.012423501 -0.010996222 -0.024017587
0.009135205 -0.011691721 0.00793926 0.016946401 0.0015363912 0.0035854937 -0.0111387335 -0.004899748
-0.0011612439 0.023211634 0.0044550807 0.0063453084 -0.03264936 -0.024370749 0.022520464 -0.015932664
0.011483224 0.016846264 -0.006039277 -0.0035910434 -0.03754608 0.028736992 0.022421697 -0.0066955723
0.006905238 -0.015597004 0.02535315 0.011691701 0.010134601 -0.00015360858 0.014427302 0.019525085
-0.02115754 0.00041052897 0.00526127 0.0010066725 -0.0040669004 -0.03411494 -0.00037389746 0.005774293
-0.012673594 -0.013940899 -0.0105243465 0.016155824 0.02378712 -0.012185996 0.0095165325 0.033356972
-0.022658397 -0.0022794977 -0.02506274 -0.026200427 0.009677319 -0.007935871 -0.008981251 0.022233529
-0.010491226 0.022302167 -0.022458358 -0.019571155 -0.008883501 -0.018123765 -0.0045175957 0.008288949
-0.008743971 0.02188881 0.0039680237 -0.00528987 -0.0076249936 0.004121801 0.00055376947 -0.00020091057
0.005962523 -0.037133306 0.014401565 0.0054378817 -0.027151275 0.0019487103 -0.01027641 0.008383371
-0.00013787333 -0.017272694 0.0013624543 0.013132993 -0.023765458 0.01698998 0.0042634937 0.00037056944
0.01625636 0.015583589 0.0117422 -0.014407401 -0.031775072 -0.015426363 -0.014264681 0.02288782
-0.0045240778 -0.014842191 0.009872805 0.014750473 0.009275622 0.0065537845 0.014165833 -0.01851934
-0.027478259 -0.0019796917 0.01876034 0.004867922 -0.021441406 -0.017525923 0.020614864 0.027519828
-0.020756723 -0.011110742 0.012405586 0.029740231 -0.024979824 0.020528544 0.023385243 0.017501412
-0.021924404 0.008507983 -0.0007582102 -0.0077001485 0.016556837 0.00080569455 0.005212339 -0.006306413
0.014236989 -0.007458427 0.009883268 0.016311051 0.017203424 -0.0025438054 -0.025595104 -0.023423977
-0.008508998 -0.018781152 0.013271199 0.0027858603 -0.011738294 -0.016382644 0.011543395 0.012653864
-0.009208525 -0.007614775 0.017949155 0.0040304037 0.016290333 0.0110008465 -0.024793308 0.028429443
-0.02389158 -0.01610336 0.0108361505 -0.018072639 -0.009372788 0.011619189 0.016286397 0.02043359
-0.01144942 0.0027037156 0.017211946 -0.030153511 -0.023290671 0.015079239 -0.008282551 -0.004278759
0.0068959054 -0.018503832 0.025401076 -0.0023614054 -0.013028253 0.0145935 0.002275569 -0.010470785
0.0058414517 0.023066096 -0.006689567 -0.010478066 0.0074983705 0.023654703 -0.028123483 0.016965607
0.004106461 -0.02703976 -0.018492041 0.0144640785 0.026646065 -0.004650123 0.0135398535 0.029574344
-0.019495046 0.01785127 -0.031535573 -0.013023311 -0.021190329 0.012419013 -0.014110359 0.009102136
-0.009007597 -0.01871497 -0.02072125 0.013856593 0.0061795013 0.014810855 5.4472068e-05 -0.0022754895
0.0025160145 0.025212452 0.0015249741 0.009600058 -0.014366429 -0.011969965 -0.0051019345 0.01676832
0.011095124 0.003979067 0.013060618 -0.004985527 -0.015143153 -0.019892788 -0.002836153 0.007907405
-0.0023797927 0.020423746 0.014845847 0.016442925 -0.0073605217 0.018997384 0.012549901 -0.019867642
00000000: 393d 993b 3ef1 8ebc 0f23 6fbc 393a 933c
00000010: eed3 733b 4b4c 5d3b 64ec b4bb ef5b 923a
00000020: 5f77 8dbc 92bc 31bc 3a4c 9b3a 7766 eabc
00000030: e457 ebbc c5b5 d6bc 9771 8ebc d2af 043a
00000040: 2bc3 ea3c ed8e f9bb 5253 c13b 67b9 e83c
00000050: 01de fd3c f18b 4b3c 7f29 34bc 88c0 c4bc
00000060: d4ab 153c a28e 3fbc ac13 023c 2ed3 8a3c
00000070: bc60 c93a 9afa 6a3b 3c7f 36bc 118e a0bb
00000080: e134 98ba 5326 be3c edfb 913b 4eec cf3b
00000090: 56bb 05bd 2aa5 c7bc d67c b83c 3885 82bc
000000a0: 2224 3c3c 2d01 8a3c 21e5 c5bb b657 6bbb
000000b0: ebc9 19bd d769 eb3c b5ad b73c 8866 dbbb
000000c0: 5645 e23b 948a 7fbc 69b1 cf3c 8c8e 3f3c
000000d0: 990b 263c fd11 21b9 7e60 6c3c 12f3 9f3c
000000e0: 9452 adbc 443c d739 bb66 ac3b 53f2 833a
000000f0: a243 85bb 1bbc 0bbd ab07 c4b9 4836 bd3b
00000100: e8a4 4fbc 5e68 64bc 4f6e 2cbc 3859 843c
00000110: 35dd c23c c6a7 47bc 3beb 1b3c 52a1 083d
00000120: 1a9e b9bc a063 15bb 6050 cdbc 47a2 d6bc
00000130: 9e8d 1e3c 7505 02bc 1926 13bc 1723 b63c
00000140: 64e3 2bbc 09b3 b63c 97fa b7bc b053 a0bc
00000150: 1b8c 11bc 4a78 94bc 5708 94bb 5fce 073c
00000160: df42 0fbc 2950 b33c 3206 823b a556 adbb
00000170: 15db f9bb 2c10 873b d72a 113a 85ab 52b9
00000180: 4561 c33b 1819 18bd 8bf4 6b3c 4230 b23b
00000190: 5a6c debc de6b ff3a 635e 28bc 685a 093c
000001a0: 1792 10b9 777f 8dbc 6194 b23a c42b 573c
000001b0: c7af c2bc 922e 8b3c c7b4 8b3b fd48 c239
000001c0: 0f2c 853c 4f52 7f3c 5b62 403c 050d 6cbc
000001d0: 9426 02bd dbbe 7cbc 69b6 69bc 3d7f bb3c
000001e0: b73e 94bb a92c 73bc 8cc1 213c f8ab 713c
000001f0: c7f8 173c 21c1 d63b cf17 683c dfb5 97bc
00000200: 161a e1bc b7bd 01bb 49af 993c 1783 9f3b
00000210: e3a5 afbc 8692 8fbc 81e0 a83c 4371 e13c
00000220: 010a aabc d409 36bc cd40 4b3c c9a1 f33c
00000230: 7da2 ccbc 7a2b a83c 6992 bf3c 1f5f 8f3c
00000240: cf9a b3bc 1165 0b3c a0c2 46ba 8751 fcbb
00000250: 34a2 873c 3f35 533a 45cc aa3b 07a6 cebb
00000260: 4342 693c d265 f4bb 6eed 213c c19e 853c
00000270: 32ee 8c3c f9b5 26bb d3ac d1bc a4e3 bfbc
00000280: 5369 0bbc eeda 99bc 716f 593c fb92 363b
00000290: f951 40bc e534 86bc 8220 3d3c 2752 4f3c
000002a0: 5adf 16bc 5d85 f9bb 1b0a 933c 7a11 843b
000002b0: 4e73 853c e53c 343c 561b cbbc dde4 e83c
000002c0: 46b8 c3bc 32eb 83bc 1c8a 313c 120d 94bc
000002d0: 5290 19bc 695e 3e3c 0d6b 853c 5864 a73c
000002e0: 5996 3bbc d230 313b 1100 8d3c 7f04 f7bc
000002f0: 14cc bebc ea0e 773c 89b3 07bc d534 8cbb
00000300: 0cf7 e13b 5995 97bc eb15 d03c cfc1 1abb
00000310: 7474 55bc 9319 6f3c b621 153b a88d 2bbc
00000320: a669 bf3b 1cf5 bc3c 2834 dbbb 32ac 2bbc
00000330: e4b4 f53b 82c7 c13c 3863 e6bc 75fb 8a3c
00000340: 7e8f 863b 7d82 ddbc 9f7c 97bc befa 6c3c
00000350: d948 da3c 0f60 98bb 43d6 5d3c e545 f23c
00000360: 13b4 9fbc d43c 923c 722b 01bd ba5f 55bc
00000370: 5797 adbc 1e79 4b3c 232f 67bc 2021 153c
00000380: 9a94 13bc 2350 99bc 9cbf a9bc c306 633c
00000390: 6a7d ca3b 3aa9 723c f078 6438 6120 15bb
000003a0: b8e3 243b 588a ce3c a4e1 c73a 9049 1d3c
000003b0: 2c61 6bbc ac1d 44bc 212e a7bb b75d 893c
000003c0: 53c8 353c d562 823b 34fc 553c a25d a3bb
000003d0: fd1a 78bc 33f6 a2bc c0de 39bb 0f8e 013c
000003e0: 4cf6 1bbb b34f a73c ff3b 733c 50b3 863c
000003f0: 8830 f1bb 67a0 9b3c 1a9e 4d3c 77c1 a2bc
