online/32_D1.pth (torch, 158283 bytes, 7 tensors)

li.0.weight f4 [512, 70]
000000 92 80 57 3d a8 ad f1 3d 2c 3d 60 bd 2e c4 bb bd
       0.05261285 0.118007004 -0.054745838 -0.09168278
000010 1a 1c de 3c 9a 17 1c 3b a5 b0 69 bd 87 15 98 3c
       0.02711301 0.0023817779 -0.057053227 0.018564953
000020 fc ec 9e 3b 47 48 b5 bd d2 34 af bd 04 8c e3 3d
       0.004850028 -0.088516764 -0.085549966 0.1111069
000030 0d 71 91 bd 7e 39 de bd c8 17 13 bd 59 91 be 3d
       -0.07101641 -0.108508095 -0.03591135 0.093050666
000040 41 ca b1 bd 38 9c 69 3d 6e ba 42 3d 5d c6 63 3c
       -0.08681155 0.057033747 0.047541074 0.013902274
000050 09 59 93 3d ff be 05 b9 71 3e 33 bc 20 28 21 bc
       0.071947165 -0.0001275502 -0.01094018 -0.009836227
000060 9e f0 06 bc bd 2b 1b bd 60 92 ba 3d ee fa 98 3d
       -0.008236079 -0.03788351 0.0910995 0.07469736
000070 9f 17 de 3c 08 6b 76 bd 05 4e aa 3d 15 f6 0a bd
       0.027110873 -0.060160667 0.08315662 -0.03392609
000080 19 78 c7 bd 1d dc 3b 3c 53 e9 3b bc 3f 9c 80 3a
       -0.09739704 0.011466053 -0.011469203 0.000981219
000090 f6 2a 12 3c 01 0e 98 bd 7b ae a2 3d 02 b8 f3 3c
       0.0089213755 -0.07424546 0.07943436 0.029750828
0000a0 88 36 e7 3d ac d9 b8 bc 5f e4 3e bd 54 af 7d bd
       0.11289698 -0.022564732 -0.04660451 -0.061934784
0000b0 b7 ce 71 bd 91 7c 6a bd 2a b0 4b bd 2a 6b ab bd
       -0.05903503 -0.057247702 -0.04972855 -0.08370049
0000c0 eb 79 ee 3c 00 56 29 bd 21 8e cf 3b 2e bf da 3d
       0.02911087 -0.04134178 0.0063340818 0.10680996
0000d0 44 9e e4 bd 4b 5a 65 bd 76 ff b5 3d ca 9a a0 bd
       -0.11162999 -0.055994313 0.08886616 -0.07842024
0000e0 a6 3e ae bc 3a b2 b0 3d 0a a4 dc bd f7 51 e9 3d
       -0.021270107 0.08627744 -0.107734755 0.11392587
0000f0 d5 2e c3 3c ad 85 0c bd 2c e0 6f bd 33 0b d0 bd
       0.023826042 -0.03430717 -0.058563396 -0.10158386
000100 3e 8e 66 bd bc b9 a6 3c 72 da 1e bd e5 aa 2f bc
       -0.056287996 0.020352237 -0.038782544 -0.010721897
000110 51 ba 66 3d 66 d3 cd bd 3f fe e5 3d b0 b7 b7 3d
       0.05633003 -0.10050087 0.11230134 0.089705825
000120 0b 7d 4d 3d 73 5c b4 3d d5 4d e3 3d 30 84 cd 3d
       0.05016808 0.08806696 0.1109883 0.100349784
000130 cc fd bd 3d ce 1f 9a bd 05 aa 82 3d 7f 91 b1 bd
       0.092769235 -0.075255975 0.06380085 -0.08670329
000140 40 93 62 3c 17 a2 8b bd fa c3 90 bb 08 1b ae bb
       0.013829052 -0.068180256 -0.0044178935 -0.005313281
000150 ef 31 d5 bc 20 c1 80 3d 97 39 e1 bc c5 00 08 3b
       -0.026024787 0.06286836 -0.027493281 0.0020752412
000160 01 c6 6d 3d e2 6e a8 bd e9 4a 23 3d 51 77 e4 3a
       0.05805016 -0.08224274 0.03986636 0.0017430579
000170 84 38 35 bd c7 05 48 3d 8f 4d 37 3d 73 0a 82 3d
       -0.04424335 0.048833635 0.0447517 0.06349649
000180 00 23 75 bb cc 32 94 3d 7b 3a 3d 3d f3 25 99 bd
       -0.0037404895 0.07236251 0.04619835 -0.07477941
000190 ad 39 73 ba 6d f4 41 3d 55 2a a0 bd fe ce 20 bd
       -0.0009278309 0.047352243 -0.07820574 -0.039259903
0001a0 c8 16 4e 3d f0 35 a9 3d 67 e8 5b 3d d3 f9 82 3d
       0.050314695 0.08262241 0.053688433 0.063953064
0001b0 87 ff e3 3c b5 bd ad 3d 78 39 25 bc a5 5d 3b 3d
       0.027831806 0.08483449 -0.010084502 0.045743603
0001c0 0f 53 9d bd 0d ca 30 3c 24 5f 2d 3d f0 e9 e8 3d
       -0.07681858 0.01079036 0.04232706 0.11372745
0001d0 1a 11 35 bd 62 a3 97 3c 41 13 d7 bd 9a de 3d 3b
       -0.044205762 0.018510524 -0.10501719 0.0028971792
0001e0 c0 c5 8f 3d 9f 3f a5 3c 06 81 62 bd 8c 22 d5 3b
       0.0702014 0.020171938 -0.055298828 0.0065043624
0001f0 3a cf cb 3d 21 d5 95 3d 69 fb 66 bd dc 1d 12 bd
       0.09951635 0.07316042 -0.056392107 -0.035673007
000200 ae 7f a5 bd 9f 99 e9 3d 90 db f6 3b 76 33 4c bd
       -0.080809936 0.11406254 0.007533498 -0.049853764
000210 d9 b4 94 bd 5b 56 de bd 2a 47 8b bc 98 a1 19 bc
       -0.072610565 -0.10856315 -0.017001707 -0.009376906
000220 a8 33 7e bd 2d cd 82 bd 8a c9 b4 bd 87 5c 8a 3d
       -0.062060982 -0.063867904 -0.08827503 0.067559294
000230 c3 3f a6 bd bf 47 bc 3c d2 01 f3 3d 89 51 9b 3d
       -0.0811763 0.02298343 0.118655816 0.07583911
000240 db f0 f7 bb 95 93 cd 3d 19 24 5a 3d ee 21 ca bd
       -0.007566554 0.10037915 0.05325708 -0.09869753
000250 5f 23 4d 3d 4e 68 d6 bc 9d 69 a8 3d 65 f9 e1 3c
       0.05008256 -0.026172783 0.08223269 0.02758474
000260 28 ea 44 3d ee 24 3f bd c6 3b 13 3a d0 bd f0 bd
       0.04807487 -0.04666608 0.0005616512 -0.11754954
000270 f9 8a c9 3d b6 38 7a 3d dc 22 8b 3d 01 74 a5 3d
       0.0984096 0.06108924 0.06793758 0.080787666
000280 2c 06 d2 3d 49 d2 1d bd 7d 10 f4 bd b2 4d 60 3d
       0.102550834 -0.03853062 -0.119172074 0.054761596
000290 16 5e c8 bd 7e c1 b2 3d 40 52 b7 bd 07 93 6d bd
       -0.097835705 0.08728312 -0.08951235 -0.058001544
0002a0 78 e5 23 bd 61 0b cd bd c5 59 79 3d a1 bd d1 3d
       -0.04001376 -0.10011936 0.060876627 0.10241247
0002b0 5d b0 11 bd b3 f6 87 bc 0f ab 82 3d 9e d5 a0 3d
       -0.035568584 -0.016597128 0.06380283 0.07853244
0002c0 65 5b 50 3d fd 6f 83 bc 1c 98 81 bd 2a 75 0a bc
       0.05086841 -0.016044611 -0.06327841 -0.008450786
0002d0 06 e6 28 bd 07 a0 68 bc f6 9c c4 3c e3 7f ee bd
       -0.041234992 -0.01419831 0.024000626 -0.11645486
0002e0 16 7a 25 3d d4 39 d4 bd 5a 2d 4c bd 96 59 e4 3d
       0.040399633 -0.10362592 -0.049847938 0.111499
0002f0 ca c6 34 bd 52 39 a8 bd cb e1 76 bd 3c 3c 92 bc
       -0.044134893 -0.08214058 -0.060273927 -0.017850988
000300 e3 29 81 3d 81 0f 17 bd f7 02 20 3d 93 22 e3 bd
       0.063068174 -0.03688002 0.039065327 -0.11090579
000310 74 67 ef bd 71 14 cb 3c ea b6 cf bc 1b b3 b2 3d
       -0.11689654 0.02479002 -0.025355775 0.08725568
000320 b4 78 e5 3d 34 f2 65 3b 4d c5 e2 3d 5c 0f 8a 3c
       0.11204663 0.0035086991 0.110727884 0.016853027
000330 da 7e 80 bd 03 d4 a5 bd b8 9d b9 3c 29 9c a2 bd
       -0.06274195 -0.08097079 0.022658214 -0.079399414
000340 b4 90 bd bc 05 6f 7b bd a7 64 c3 3d 28 dd c3 bc
       -0.023140289 -0.061385173 0.09540682 -0.023909166
000350 67 45 90 3d 2a c7 75 bc 07 ea d2 bd 29 41 c2 38
       0.070444874 -0.015001098 -0.102985434 9.262778e-05
000360 6e bc 9c 3d cf 6f d7 3d 7f 9e eb bc e7 78 07 bd
       0.076531276 0.10519373 -0.0287621 -0.033074286
000370 33 f5 67 3d a9 60 e9 3d 88 08 45 bd 3c 36 9c 3d
       0.056630325 0.113953896 -0.04810384 0.07627532
000380 05 72 2b bd 02 f5 bc 3d 99 16 ed bd 69 9c 1d bd
       -0.041856784 0.09226419 -0.11576576 -0.038479242
000390 eb ae a2 3d 1a b6 c3 3c 36 ed 77 3c a9 ae 8f bd
       0.07943519 0.023890544 0.015132239 -0.07015736
0003a0 be bd 0f ba 6f 20 3b 3d 13 4d 30 bd b3 44 78 3d
       -0.0005483291 0.045685228 -0.043042254 0.06061239
0003b0 56 3f 87 bd 30 47 13 3c f5 1c d0 bd 98 99 a0 bb
       -0.06603877 0.00898914 -0.10161773 -0.0049011223
0003c0 7b d7 7f 3d 87 51 c5 3d 58 a2 c3 3d 02 62 6c 3c
       0.062461358 0.09634691 0.09552449 0.014427664
0003d0 62 37 6c 3d 56 54 8e bc a3 34 d4 3c 3a 74 65 3a
       0.057670005 -0.017374199 0.025904005 0.0008752976
0003e0 5b d9 90 3d 51 56 d1 3d d9 20 d7 3d 8b 9c 3f 3d
       0.07072707 0.10221542 0.10504312 0.04678015
0003f0 67 b6 eb 3c d6 6e 86 bd 62 fb ee bd e5 b3 bf 3d
       0.0287735 -0.06564109 -0.11669041 0.09360484

li.0.bias f4 [512]
000000 54 09 16 3d 35 9e b8 3a bb 6b 44 bd ca 84 c3 bd
       0.03662999 0.0014085235 -0.047954302 -0.09546812
000010 5b be 80 bd fd 13 f1 bb 53 9e a1 3d 5e 78 12 bd
       -0.062863074 -0.007357119 0.07891526 -0.035759322
000020 10 83 bd 3d 5a 9f dd bd 95 b4 2c bc 12 89 57 bc
       0.09253514 -0.108214095 -0.010541101 -0.013155239
000030 a5 ef ad bc 0a 67 f3 bd 85 e9 d9 bd 7a f3 b7 bd
       -0.021232435 -0.118848875 -0.106402434 -0.08981986
000040 e2 4f e6 bd 17 4e eb 3a 40 83 99 3d ba 79 8c 3d
       -0.11245705 0.001795235 0.07495737 0.06859155
000050 d4 05 a8 3c 7d 04 a2 3d c7 00 23 bd ca ff 57 3d
       0.020510592 0.07911012 -0.039795663 0.052734174
000060 b1 59 9f bc db 62 d7 3d be d7 9c bd 19 34 0a bd
       -0.019451948 0.10516902 -0.07658337 -0.03374109
000070 5c 1e d2 bd 43 70 00 ba fb 57 22 bd a4 6c 94 bd
       -0.10259697 -0.0004899541 -0.039634686 -0.07247284
000080 3f b1 8b 3d 01 46 5c bd f7 10 dc bd ae 8f b8 bd
       0.068209164 -0.0537777 -0.10745423 -0.0901178
000090 d7 b4 d5 3b 7c 33 8a 3d fc d7 34 3b 07 da 7c 3d
       0.006521802 0.06748101 0.0027594557 0.061731365
0000a0 b3 cc d7 bd 93 f5 31 bd 5b 7d 84 bd 5c 8a f0 bc
       -0.1053709 -0.04344709 -0.06469222 -0.02936285
0000b0 a8 53 c4 bd 42 11 4b bd e6 36 de 3d 14 e9 b2 bd
       -0.09586269 -0.049577005 0.10850315 -0.087358624
0000c0 b7 6b bc bd 40 2e 3f 3d 03 3d 7a bd cc 9f 92 3c
       -0.092002325 0.046674967 -0.06109334 0.017898463
0000d0 41 cf 4b 3d 26 74 5f bd 8c 60 e8 3d 71 61 bc bc
       0.0497582 -0.054554127 0.1134654 -0.022995682
0000e0 46 c0 ec bd 77 79 d9 3d e2 6f 7f 3d 37 fb e3 3d
       -0.11560111 0.10618871 0.06236256 0.111319
0000f0 06 a9 86 3d 09 a1 ed bd 66 8a 29 bd 1e bb b3 bd
       0.065752074 -0.11602981 -0.041391753 -0.08775924
000100 89 c4 a1 bd ee 0c e5 3c 35 17 9d 3d 99 74 73 bd
       -0.07898814 0.027960267 0.07670442 -0.059437368
000110 9c 31 03 bd 31 a9 4d bd e1 cb 7c 3d 83 17 30 bd
       -0.032029733 -0.05021018 0.06171787 -0.042991173
000120 95 4a 92 3d 73 7f 57 bb 31 79 92 3b 14 28 94 bd
       0.07143132 -0.0032882362 0.0044700135 -0.07234207
000130 e4 58 86 bd 3e e7 49 3c bc 04 8e 3c 71 17 00 3d
       -0.06559923 0.012323199 0.017336242 0.031272355
000140 03 35 93 bd 1b f5 8a 3d fa c8 19 bc 50 97 f0 bd
       -0.071878456 0.067850314 -0.009386295 -0.117476106
000150 18 ec e3 3d cf af a9 bd ba 17 b4 3d 41 72 a9 bc
       0.11129016 -0.08285486 0.08793588 -0.020684363
000160 3f 6f 8a 3d 5b d6 d6 bd 68 08 03 3d 79 be ec bd
       0.067595 -0.10490104 0.03199044 -0.11559767
000170 79 d7 a6 3d 2f 24 e7 3b 33 78 ec bd a1 b3 d9 3d
       0.08146567 0.007053874 -0.11546364 0.106299646
000180 ac 1a d7 3d e4 f5 ed bd e1 19 23 3d 63 b3 45 bd
       0.10503134 -0.116191655 0.039819602 -0.04826678
000190 46 96 ee bd 1f 54 6a bd e6 fa 9a bb 9c 0b ca 3d
       -0.11649756 -0.05720913 -0.0047296165 0.098654956
0001a0 92 79 cf ba 33 74 48 3d e9 a5 e9 bd 8c 0a 22 3d
       -0.0015829077 0.04893894 -0.11408598 0.03956084
0001b0 cf 1c e9 bd dd 0f d8 3c e4 a4 7a 3b a5 2e 3b 3d
       -0.11382448 0.026374752 0.0038245255 0.04569878
0001c0 fa be 34 bd dc f1 ee 3d 53 00 88 3c 30 ac be bd
       -0.044127442 0.11667225 0.016601717 -0.09310186
0001d0 9a b3 15 3d 1a c0 85 3d bb 29 b5 3d a2 93 6a bb
       0.036548235 0.06530781 0.0884585 -0.0035793562
0001e0 9c 34 d6 bb 14 de dd bd 8f 0e 34 3d 2d 6a 99 bd
       -0.0065370332 -0.10833374 0.043959197 -0.074909545
0001f0 58 a2 bc bc 6d 2a cb 3d 3b 5f c8 bd e3 19 89 3c
       -0.02302663 0.099202015 -0.09783789 0.016735977
000200 d5 3c 26 bb 94 79 3e 3d 30 89 f3 bc 22 da c2 3d
       -0.0025365849 0.046502665 -0.029728502 0.09514262
000210 d0 38 79 3d 6e 9d 97 bd ef 59 c0 3d d7 7a db 3d
       0.060845196 -0.07403074 0.093921535 0.10716789
000220 1f 66 15 bc 69 2d db 3d 7b d2 d2 3d 72 c7 cc bb
       -0.009118586 0.10702021 0.10294052 -0.0062493617
000230 44 6b 26 bc b7 28 c1 3d 83 19 1c 3c ee 05 67 3d
       -0.01015741 0.09431594 0.009527567 0.05640214
000240 ee e6 5d bd 4b 73 c2 bd 70 b2 4c 3d fe 4b c7 3d
       -0.05417531 -0.09494647 0.04997486 0.09731291
000250 ee 0c c5 bd a5 b5 c0 3d 25 6c 02 3d 2c 48 84 b8
       -0.09621607 0.09409646 0.031841416 -6.3076935e-05
000260 1d 42 92 3d a7 c9 46 3d a4 83 a5 3d e1 e0 a2 3d
       0.07141516 0.048532154 0.08081749 0.079530485
000270 ca d4 1c bd f6 04 54 3d 93 2e 89 3d f3 3d de bd
       -0.03828887 0.051762544 0.066983365 -0.108516596
000280 38 7a 0c bd 39 36 1f 3d d3 cd 73 bc c6 93 a7 3c
       -0.034296244 0.03887007 -0.014880615 0.020456206
000290 2d be 94 bd 0e a2 f0 bd 4f 47 96 bd af be e0 bd
       -0.07262836 -0.117496595 -0.0733782 -0.1097387
0002a0 19 55 e7 3d c1 25 88 bd 2b 94 cb bd 95 fa 23 3d
       0.11295528 -0.06647826 -0.0994037 0.040033896
0002b0 22 74 8b bc df d9 f5 bc 61 c9 a5 bd bd 18 e4 3d
       -0.01702315 -0.030011116 -0.080950506 0.11137531
0002c0 6d 97 a9 bc 61 4d 9a bd 9b 26 8f bd 69 73 49 3d
       -0.020702088 -0.0753429 -0.06989785 0.04918233
0002d0 9d 52 b6 3d 54 22 70 3d a6 1d 6f 3d 33 b4 bc 3d
       0.08902476 0.058626488 0.058377884 0.09214058
0002e0 25 54 19 bc 02 c8 ad bd 17 3b 00 bd 46 8a c0 ba
       -0.0093584405 -0.08485414 -0.031306352 -0.0014689646
0002f0 22 2a e3 bd ce d4 c3 3d ab 3b 35 bc 79 4b c8 bd
       -0.110920206 0.09562074 -0.011061589 -0.0978002
000300 e6 1e 0b 3d e3 04 14 bd d0 8a d2 bd ea 21 80 3c
       0.033965014 -0.036137473 -0.10280383 0.015641171
000310 75 3f 65 3c ce 14 20 bb c2 dd 36 ba ad 94 82 bd
       0.01399218 -0.0024426463 -0.00069757935 -0.06376014
000320 11 0b e1 3c 91 1f fa bc 36 07 49 3d 60 cc 78 bd
       0.027471097 -0.03053263 0.049079143 -0.060741782
000330 1d fe a0 bb 64 a6 bb bd 32 c9 39 3c 14 d6 4e 3d
       -0.004913105 -0.09162596 0.011339473 0.05049713
000340 f0 49 1d bc 36 17 6a 3d 15 25 d1 bd fe 14 77 3c
       -0.009600148 0.057151042 -0.10212151 0.0150806885
000350 13 d0 23 3d 5b 30 ca 3d 5c 92 d0 bd db db 88 bd
       0.039993357 0.09872504 -0.10184166 -0.06682559
000360 02 24 cb bd 95 69 7b bd 57 03 3e bd 4a 5b cb bc
       -0.09918977 -0.061379988 -0.046389904 -0.024823803
000370 11 47 c8 bc 8d af e8 3d e2 96 a3 bd 2a df 99 3d
       -0.02444795 0.11361609 -0.07987763 0.07513268
000380 65 21 c9 3d 8f 00 07 3d 3e 40 0f bc 81 f0 c3 3d
       0.098208226 0.032959517 -0.008743344 0.09567357
000390 0d ad 2c 3d 07 4d e6 bd 07 e9 bf bd 9c 59 df bd
       0.04215722 -0.112451605 -0.09370618 -0.109057635
0003a0 34 dc 8e bd 60 c9 0d bd f4 60 ce bd 24 0d bc 3d
       -0.06975594 -0.034615874 -0.10077086 0.09182194
0003b0 47 57 17 3c e9 ba 91 3b f0 82 cf 3d 2e 39 ab 3d
       0.009237117 0.0044473303 0.10132396 0.083605155
0003c0 58 0d 0f bd cb 67 4b bd b0 97 e5 3d 84 d0 a0 3d
       -0.034924835 -0.04965953 0.11210573 0.07852271
0003d0 09 c9 e2 ba 9c 3c ff bc e3 71 0e 3c a9 02 2d bd
       -0.0017302345 -0.03115683 0.008694145 -0.042238865
0003e0 eb 24 bb 3c 1e 54 f2 bd dd 04 d1 bc 5c 6e 52 3d
       0.022844752 -0.1183245 -0.025515014 0.05137478
0003f0 dd 20 e4 bd e0 29 30 3d 17 56 95 bd 1c 89 10 3d
       -0.11139081 0.043008685 -0.07291811 0.035287008

li.1.weight f4 [512]
000000 00 00 80 3f 00 00 80 3f 00 00 80 3f 00 00 80 3f
       1.0 1.0 1.0 1.0
000010 00 00 80 3f 00 00 80 3f 00 00 80 3f 00 00 80 3f
       1.0 1.0 1.0 1.0
000020 00 00 80 3f 00 00 80 3f 00 00 80 3f 00 00 80 3f
       1.0 1.0 1.0 1.0
000030 00 00 80 3f 00 00 80 3f 00 00 80 3f 00 00 80 3f
       1.0 1.0 1.0 1.0
000040 00 00 80 3f 00 00 80 3f 00 00 80 3f 00 00 80 3f
       1.0 1.0 1.0 1.0
000050 00 00 80 3f 00 00 80 3f 00 00 80 3f 00 00 80 3f
       1.0 1.0 1.0 1.0
000060 00 00 80 3f 00 00 80 3f 00 00 80 3f 00 00 80 3f
       1.0 1.0 1.0 1.0
000070 00 00 80 3f 00 00 80 3f 00 00 80 3f 00 00 80 3f
       1.0 1.0 1.0 1.0
000080 00 00 80 3f 00 00 80 3f 00 00 80 3f 00 00 80 3f
       1.0 1.0 1.0 1.0
000090 00 00 80 3f 00 00 80 3f 00 00 80 3f 00 00 80 3f
       1.0 1.0 1.0 1.0
0000a0 00 00 80 3f 00 00 80 3f 00 00 80 3f 00 00 80 3f
       1.0 1.0 1.0 1.0
0000b0 00 00 80 3f 00 00 80 3f 00 00 80 3f 00 00 80 3f
       1.0 1.0 1.0 1.0
0000c0 00 00 80 3f 00 00 80 3f 00 00 80 3f 00 00 80 3f
       1.0 1.0 1.0 1.0
0000d0 00 00 80 3f 00 00 80 3f 00 00 80 3f 00 00 80 3f
       1.0 1.0 1.0 1.0
0000e0 00 00 80 3f 00 00 80 3f 00 00 80 3f 00 00 80 3f
       1.0 1.0 1.0 1.0
0000f0 00 00 80 3f 00 00 80 3f 00 00 80 3f 00 00 80 3f
       1.0 1.0 1.0 1.0
000100 00 00 80 3f 00 00 80 3f 00 00 80 3f 00 00 80 3f
       1.0 1.0 1.0 1.0
000110 00 00 80 3f 00 00 80 3f 00 00 80 3f 00 00 80 3f
       1.0 1.0 1.0 1.0
000120 00 00 80 3f 00 00 80 3f 00 00 80 3f 00 00 80 3f
       1.0 1.0 1.0 1.0
000130 00 00 80 3f 00 00 80 3f 00 00 80 3f 00 00 80 3f
       1.0 1.0 1.0 1.0
000140 00 00 80 3f 00 00 80 3f 00 00 80 3f 00 00 80 3f
       1.0 1.0 1.0 1.0
000150 00 00 80 3f 00 00 80 3f 00 00 80 3f 00 00 80 3f
       1.0 1.0 1.0 1.0
000160 00 00 80 3f 00 00 80 3f 00 00 80 3f 00 00 80 3f
       1.0 1.0 1.0 1.0
000170 00 00 80 3f 00 00 80 3f 00 00 80 3f 00 00 80 3f
       1.0 1.0 1.0 1.0
000180 00 00 80 3f 00 00 80 3f 00 00 80 3f 00 00 80 3f
       1.0 1.0 1.0 1.0
000190 00 00 80 3f 00 00 80 3f 00 00 80 3f 00 00 80 3f
       1.0 1.0 1.0 1.0
0001a0 00 00 80 3f 00 00 80 3f 00 00 80 3f 00 00 80 3f
       1.0 1.0 1.0 1.0
0001b0 00 00 80 3f 00 00 80 3f 00 00 80 3f 00 00 80 3f
       1.0 1.0 1.0 1.0
0001c0 00 00 80 3f 00 00 80 3f 00 00 80 3f 00 00 80 3f
       1.0 1.0 1.0 1.0
0001d0 00 00 80 3f 00 00 80 3f 00 00 80 3f 00 00 80 3f
       1.0 1.0 1.0 1.0
0001e0 00 00 80 3f 00 00 80 3f 00 00 80 3f 00 00 80 3f
       1.0 1.0 1.0 1.0
0001f0 00 00 80 3f 00 00 80 3f 00 00 80 3f 00 00 80 3f
       1.0 1.0 1.0 1.0
000200 00 00 80 3f 00 00 80 3f 00 00 80 3f 00 00 80 3f
       1.0 1.0 1.0 1.0
000210 00 00 80 3f 00 00 80 3f 00 00 80 3f 00 00 80 3f
       1.0 1.0 1.0 1.0
000220 00 00 80 3f 00 00 80 3f 00 00 80 3f 00 00 80 3f
       1.0 1.0 1.0 1.0
000230 00 00 80 3f 00 00 80 3f 00 00 80 3f 00 00 80 3f
       1.0 1.0 1.0 1.0
000240 00 00 80 3f 00 00 80 3f 00 00 80 3f 00 00 80 3f
       1.0 1.0 1.0 1.0
000250 00 00 80 3f 00 00 80 3f 00 00 80 3f 00 00 80 3f
       1.0 1.0 1.0 1.0
000260 00 00 80 3f 00 00 80 3f 00 00 80 3f 00 00 80 3f
       1.0 1.0 1.0 1.0
000270 00 00 80 3f 00 00 80 3f 00 00 80 3f 00 00 80 3f
       1.0 1.0 1.0 1.0
000280 00 00 80 3f 00 00 80 3f 00 00 80 3f 00 00 80 3f
       1.0 1.0 1.0 1.0
000290 00 00 80 3f 00 00 80 3f 00 00 80 3f 00 00 80 3f
       1.0 1.0 1.0 1.0
0002a0 00 00 80 3f 00 00 80 3f 00 00 80 3f 00 00 80 3f
       1.0 1.0 1.0 1.0
0002b0 00 00 80 3f 00 00 80 3f 00 00 80 3f 00 00 80 3f
       1.0 1.0 1.0 1.0
0002c0 00 00 80 3f 00 00 80 3f 00 00 80 3f 00 00 80 3f
       1.0 1.0 1.0 1.0
0002d0 00 00 80 3f 00 00 80 3f 00 00 80 3f 00 00 80 3f
       1.0 1.0 1.0 1.0
0002e0 00 00 80 3f 00 00 80 3f 00 00 80 3f 00 00 80 3f
       1.0 1.0 1.0 1.0
0002f0 00 00 80 3f 00 00 80 3f 00 00 80 3f 00 00 80 3f
       1.0 1.0 1.0 1.0
000300 00 00 80 3f 00 00 80 3f 00 00 80 3f 00 00 80 3f
       1.0 1.0 1.0 1.0
000310 00 00 80 3f 00 00 80 3f 00 00 80 3f 00 00 80 3f
       1.0 1.0 1.0 1.0
000320 00 00 80 3f 00 00 80 3f 00 00 80 3f 00 00 80 3f
       1.0 1.0 1.0 1.0
000330 00 00 80 3f 00 00 80 3f 00 00 80 3f 00 00 80 3f
       1.0 1.0 1.0 1.0
000340 00 00 80 3f 00 00 80 3f 00 00 80 3f 00 00 80 3f
       1.0 1.0 1.0 1.0
000350 00 00 80 3f 00 00 80 3f 00 00 80 3f 00 00 80 3f
       1.0 1.0 1.0 1.0
000360 00 00 80 3f 00 00 80 3f 00 00 80 3f 00 00 80 3f
       1.0 1.0 1.0 1.0
000370 00 00 80 3f 00 00 80 3f 00 00 80 3f 00 00 80 3f
       1.0 1.0 1.0 1.0
000380 00 00 80 3f 00 00 80 3f 00 00 80 3f 00 00 80 3f
       1.0 1.0 1.0 1.0
000390 00 00 80 3f 00 00 80 3f 00 00 80 3f 00 00 80 3f
       1.0 1.0 1.0 1.0
0003a0 00 00 80 3f 00 00 80 3f 00 00 80 3f 00 00 80 3f
       1.0 1.0 1.0 1.0
0003b0 00 00 80 3f 00 00 80 3f 00 00 80 3f 00 00 80 3f
       1.0 1.0 1.0 1.0
0003c0 00 00 80 3f 00 00 80 3f 00 00 80 3f 00 00 80 3f
       1.0 1.0 1.0 1.0
0003d0 00 00 80 3f 00 00 80 3f 00 00 80 3f 00 00 80 3f
       1.0 1.0 1.0 1.0
0003e0 00 00 80 3f 00 00 80 3f 00 00 80 3f 00 00 80 3f
       1.0 1.0 1.0 1.0
0003f0 00 00 80 3f 00 00 80 3f 00 00 80 3f 00 00 80 3f
       1.0 1.0 1.0 1.0

li.1.bias f4 [512]
000000 00 00 00 00 00 00 00 00 00 00 00 00 00 00 00 00
       0.0 0.0 0.0 0.0
000010 00 00 00 00 00 00 00 00 00 00 00 00 00 00 00 00
       0.0 0.0 0.0 0.0
000020 00 00 00 00 00 00 00 00 00 00 00 00 00 00 00 00
       0.0 0.0 0.0 0.0
000030 00 00 00 00 00 00 00 00 00 00 00 00 00 00 00 00
       0.0 0.0 0.0 0.0
000040 00 00 00 00 00 00 00 00 00 00 00 00 00 00 00 00
       0.0 0.0 0.0 0.0
000050 00 00 00 00 00 00 00 00 00 00 00 00 00 00 00 00
       0.0 0.0 0.0 0.0
000060 00 00 00 00 00 00 00 00 00 00 00 00 00 00 00 00
       0.0 0.0 0.0 0.0
000070 00 00 00 00 00 00 00 00 00 00 00 00 00 00 00 00
       0.0 0.0 0.0 0.0
000080 00 00 00 00 00 00 00 00 00 00 00 00 00 00 00 00
       0.0 0.0 0.0 0.0
000090 00 00 00 00 00 00 00 00 00 00 00 00 00 00 00 00
       0.0 0.0 0.0 0.0
0000a0 00 00 00 00 00 00 00 00 00 00 00 00 00 00 00 00
       0.0 0.0 0.0 0.0
0000b0 00 00 00 00 00 00 00 00 00 00 00 00 00 00 00 00
       0.0 0.0 0.0 0.0
0000c0 00 00 00 00 00 00 00 00 00 00 00 00 00 00 00 00
       0.0 0.0 0.0 0.0
0000d0 00 00 00 00 00 00 00 00 00 00 00 00 00 00 00 00
       0.0 0.0 0.0 0.0
0000e0 00 00 00 00 00 00 00 00 00 00 00 00 00 00 00 00
       0.0 0.0 0.0 0.0
0000f0 00 00 00 00 00 00 00 00 00 00 00 00 00 00 00 00
       0.0 0.0 0.0 0.0
000100 00 00 00 00 00 00 00 00 00 00 00 00 00 00 00 00
       0.0 0.0 0.0 0.0
000110 00 00 00 00 00 00 00 00 00 00 00 00 00 00 00 00
       0.0 0.0 0.0 0.0
000120 00 00 00 00 00 00 00 00 00 00 00 00 00 00 00 00
       0.0 0.0 0.0 0.0
000130 00 00 00 00 00 00 00 00 00 00 00 00 00 00 00 00
       0.0 0.0 0.0 0.0
000140 00 00 00 00 00 00 00 00 00 00 00 00 00 00 00 00
       0.0 0.0 0.0 0.0
000150 00 00 00 00 00 00 00 00 00 00 00 00 00 00 00 00
       0.0 0.0 0.0 0.0
000160 00 00 00 00 00 00 00 00 00 00 00 00 00 00 00 00
       0.0 0.0 0.0 0.0
000170 00 00 00 00 00 00 00 00 00 00 00 00 00 00 00 00
       0.0 0.0 0.0 0.0
000180 00 00 00 00 00 00 00 00 00 00 00 00 00 00 00 00
       0.0 0.0 0.0 0.0
000190 00 00 00 00 00 00 00 00 00 00 00 00 00 00 00 00
       0.0 0.0 0.0 0.0
0001a0 00 00 00 00 00 00 00 00 00 00 00 00 00 00 00 00
       0.0 0.0 0.0 0.0
0001b0 00 00 00 00 00 00 00 00 00 00 00 00 00 00 00 00
       0.0 0.0 0.0 0.0
0001c0 00 00 00 00 00 00 00 00 00 00 00 00 00 00 00 00
       0.0 0.0 0.0 0.0
0001d0 00 00 00 00 00 00 00 00 00 00 00 00 00 00 00 00
       0.0 0.0 0.0 0.0
0001e0 00 00 00 00 00 00 00 00 00 00 00 00 00 00 00 00
       0.0 0.0 0.0 0.0
0001f0 00 00 00 00 00 00 00 00 00 00 00 00 00 00 00 00
       0.0 0.0 0.0 0.0
000200 00 00 00 00 00 00 00 00 00 00 00 00 00 00 00 00
       0.0 0.0 0.0 0.0
000210 00 00 00 00 00 00 00 00 00 00 00 00 00 00 00 00
       0.0 0.0 0.0 0.0
000220 00 00 00 00 00 00 00 00 00 00 00 00 00 00 00 00
       0.0 0.0 0.0 0.0
000230 00 00 00 00 00 00 00 00 00 00 00 00 00 00 00 00
       0.0 0.0 0.0 0.0
000240 00 00 00 00 00 00 00 00 00 00 00 00 00 00 00 00
       0.0 0.0 0.0 0.0
000250 00 00 00 00 00 00 00 00 00 00 00 00 00 00 00 00
       0.0 0.0 0.0 0.0
000260 00 00 00 00 00 00 00 00 00 00 00 00 00 00 00 00
       0.0 0.0 0.0 0.0
000270 00 00 00 00 00 00 00 00 00 00 00 00 00 00 00 00
       0.0 0.0 0.0 0.0
000280 00 00 00 00 00 00 00 00 00 00 00 00 00 00 00 00
       0.0 0.0 0.0 0.0
000290 00 00 00 00 00 00 00 00 00 00 00 00 00 00 00 00
       0.0 0.0 0.0 0.0
0002a0 00 00 00 00 00 00 00 00 00 00 00 00 00 00 00 00
       0.0 0.0 0.0 0.0
0002b0 00 00 00 00 00 00 00 00 00 00 00 00 00 00 00 00
       0.0 0.0 0.0 0.0
0002c0 00 00 00 00 00 00 00 00 00 00 00 00 00 00 00 00
       0.0 0.0 0.0 0.0
0002d0 00 00 00 00 00 00 00 00 00 00 00 00 00 00 00 00
       0.0 0.0 0.0 0.0
0002e0 00 00 00 00 00 00 00 00 00 00 00 00 00 00 00 00
       0.0 0.0 0.0 0.0
0002f0 00 00 00 00 00 00 00 00 00 00 00 00 00 00 00 00
       0.0 0.0 0.0 0.0
000300 00 00 00 00 00 00 00 00 00 00 00 00 00 00 00 00
       0.0 0.0 0.0 0.0
000310 00 00 00 00 00 00 00 00 00 00 00 00 00 00 00 00
       0.0 0.0 0.0 0.0
000320 00 00 00 00 00 00 00 00 00 00 00 00 00 00 00 00
       0.0 0.0 0.0 0.0
000330 00 00 00 00 00 00 00 00 00 00 00 00 00 00 00 00
       0.0 0.0 0.0 0.0
000340 00 00 00 00 00 00 00 00 00 00 00 00 00 00 00 00
       0.0 0.0 0.0 0.0
000350 00 00 00 00 00 00 00 00 00 00 00 00 00 00 00 00
       0.0 0.0 0.0 0.0
000360 00 00 00 00 00 00 00 00 00 00 00 00 00 00 00 00
       0.0 0.0 0.0 0.0
000370 00 00 00 00 00 00 00 00 00 00 00 00 00 00 00 00
       0.0 0.0 0.0 0.0
000380 00 00 00 00 00 00 00 00 00 00 00 00 00 00 00 00
       0.0 0.0 0.0 0.0
000390 00 00 00 00 00 00 00 00 00 00 00 00 00 00 00 00
       0.0 0.0 0.0 0.0
0003a0 00 00 00 00 00 00 00 00 00 00 00 00 00 00 00 00
       0.0 0.0 0.0 0.0
0003b0 00 00 00 00 00 00 00 00 00 00 00 00 00 00 00 00
       0.0 0.0 0.0 0.0
0003c0 00 00 00 00 00 00 00 00 00 00 00 00 00 00 00 00
       0.0 0.0 0.0 0.0
0003d0 00 00 00 00 00 00 00 00 00 00 00 00 00 00 00 00
       0.0 0.0 0.0 0.0
0003e0 00 00 00 00 00 00 00 00 00 00 00 00 00 00 00 00
       0.0 0.0 0.0 0.0
0003f0 00 00 00 00 00 00 00 00 00 00 00 00 00 00 00 00
       0.0 0.0 0.0 0.0

li.1.running_mean f4 [512]
000000 13 74 5e be c5 cf eb 3e b4 b7 b4 bc b9 12 c4 3e
       -0.21723966 0.46056953 -0.022060253 0.38295534
000010 90 70 5b 3e 5c 2b a6 3e 63 74 69 bc 05 5f f0 3e
       0.21429658 0.32454956 -0.01424894 0.46947494
000020 2c d5 3a 3f 4a e2 55 be 8b e3 d1 bd 73 44 3c be
       0.72981524 -0.20887104 -0.102484785 -0.18385486
000030 2f 00 e4 3d 7f 39 14 be 82 8a 83 3e 1c 41 35 be
       0.111328475 -0.14475058 0.2569161 -0.17700619
000040 49 af a8 bd a6 a1 e1 bd 0b 7f 6c 3e 35 a6 0f be
       -0.08236558 -0.1101716 0.23095338 -0.14028247
000050 be cd 4f be ab ec b3 3d 53 82 55 be f3 30 81 3e
       -0.20293328 0.08785375 -0.20850496 0.25232658
000060 42 85 27 bd b6 24 a1 3e 99 95 53 bd 8c c3 e0 bc
       -0.04089857 0.3147332 -0.05165634 -0.027436994
000070 a1 40 54 be 6c 12 22 be 73 92 1a be f0 25 7c 3e
       -0.20727779 -0.1582734 -0.15094928 0.24623847
000080 e0 5d df 3c 35 39 ba 3e 6f e4 6d 3c 4c bc fc bd
       0.027266443 0.3637177 0.014519795 -0.12340602
000090 2a ac fd be c1 dd 22 3e 17 51 fe bc 33 46 f9 3d
       -0.49545413 0.15904905 -0.031044526 0.121715926
0000a0 3a 09 27 be 1e 5d 32 3e a7 a8 39 3e d4 2d cd bd
       -0.16312113 0.17418334 0.18130742 -0.10018507
0000b0 3d b1 d7 be ab 8b 45 3e c9 02 b2 be 1f f9 5d 3d
       -0.4212741 0.1929156 -0.3476775 0.05419266
0000c0 ef 42 6c bd ed bf 01 3f 07 9b 29 bf 29 e9 98 3d
       -0.05768102 0.5068348 -0.6625218 0.07466347
0000d0 11 94 0d be 78 15 6f be 9a 6f 2c 3d f1 89 8f 3e
       -0.13826014 -0.23348033 0.04209862 0.28034928
0000e0 23 26 3e be ee 2a dd 3e 6d 51 f7 3d 78 fc 8b bd
       -0.18569236 0.43196815 0.120760776 -0.06835264
0000f0 56 08 bb 3e 0f 1a 6d bb 6d 97 32 bf 38 6e d8 be
       0.36529797 -0.0036178862 -0.6976231 -0.4227159
000100 d3 8b e8 bd 9f 1e b2 bc dc c1 52 3e 4d 83 bb be
       -0.11354794 -0.021743117 0.20581764 -0.36623612
000110 eb c3 10 be 41 11 5a 3d 9d 50 97 bd 08 d8 04 be
       -0.14137237 0.05323911 -0.07388423 -0.12973034
000120 9e 0b 66 3d e2 6c 45 3e b3 e5 48 3f 24 07 2e be
       0.056163423 0.19279817 0.78475493 -0.16994911
000130 57 b9 0b 3f 46 bd 9d bd 17 98 07 3f ef 38 9d 3d
       0.5457968 -0.07702117 0.52966446 0.07676875
000140 20 24 92 bd ba 83 84 be 3d fd b5 be b1 ca 19 3e
       -0.071357965 -0.2588175 -0.35544768 0.15018727
000150 4b 6b 11 3d 3f a7 7e 3e e1 18 72 be 53 57 63 bc
       0.035502713 0.24868487 -0.23642303 -0.0138758
000160 a4 bc e5 be 31 0b 80 be 73 f9 8e 3c b9 50 a3 bd
       -0.44870484 -0.25008538 0.017452931 -0.07974381
000170 8d 46 97 3e eb ec ac 3e 23 b6 cd 3b 37 75 43 3d
       0.29546013 0.33774504 0.006277816 0.047719207
000180 be b2 7d 3e 33 72 4a 3e 48 48 e2 bc 6d 33 03 bf
       0.24775216 0.19770126 -0.027622357 -0.51250345
000190 6d 63 f5 be ac ab 1e bf 65 be f3 bd 1f 55 ec bd
       -0.47927418 -0.619807 -0.11901549 -0.11539673
0001a0 6c bb cf bd f5 5f 46 be 9a af 53 be c0 a1 d3 bb
       -0.1014317 -0.19372542 -0.20672455 -0.006458491
0001b0 9d a7 d9 be ca 0a 0b 3f 64 db ce be 44 16 91 3d
       -0.4251069 0.5431334 -0.40401757 0.07084325
0001c0 ed 69 5b 3d 9a 6c 93 3e 1c 8d 17 bd 01 bf 51 3d
       0.053567816 0.28793794 -0.036999807 0.051207546
0001d0 87 12 18 3d a6 f3 f8 3c f6 b7 b1 be f8 5e 46 bf
       0.037127044 0.030389618 -0.34710664 -0.7748866
0001e0 2c 49 51 3f 4b b4 f4 3b 02 d3 77 3d 4f 65 50 be
       0.81752276 0.0074677817 0.060503967 -0.20351146
0001f0 3a 8c cf be 65 75 d7 bd 7f a9 69 3e fb 16 1c bd
       -0.40536672 -0.10520438 0.22818564 -0.038107853
000200 50 22 d6 3d 8e c8 ce bd 28 91 3e bf f0 fa 9a 3d
       0.10455763 -0.100968465 -0.7444024 0.07567394
000210 fa c5 ba be bf fe 47 bd fe 79 f1 bd 18 2c 3e 3f
       -0.3647917 -0.04882693 -0.11790846 0.7428603
000220 c3 ad 7e 3e 7e fa e1 3d 56 91 e0 be b8 cc 5b bd
       0.24870972 0.11034106 -0.43860883 -0.053662032
000230 1e 38 51 3c 24 d5 66 3e b2 63 e4 3e fb 80 d4 3d
       0.012769727 0.22542244 0.4460731 0.103761636
000240 61 42 2c 3e 02 26 a4 3e 9e fd 37 3f b2 56 35 be
       0.16822197 0.32060248 0.71871364 -0.17708853
000250 31 0f 03 bf 27 69 12 3f 57 4f 99 bd 60 d3 8a 3e
       -0.51195055 0.571917 -0.07485836 0.2711439
000260 e9 9a 28 bf dd 8c e7 be 6f 26 62 3e 7a 6a 04 3d
       -0.65861374 -0.45224658 0.22084974 0.032328106
000270 02 87 7e 3e 24 b1 6b 3e 00 31 1b 3c 4a 07 50 be
       0.24856189 0.23016793 0.009472132 -0.2031528
000280 f2 f4 c2 3d fb 24 97 3e 5d 8f 70 be 95 27 f7 be
       0.09519376 0.295204 -0.23492189 -0.48272386
000290 fc 27 b0 3e ee 72 85 be 3b fa 4c 3f f9 69 d6 be
       0.34405506 -0.26064247 0.8006932 -0.41877726
0002a0 e1 d7 f5 3e d8 06 fa be 94 31 dd bd 79 d5 0f be
       0.48016265 -0.48833346 -0.10800472 -0.14046277
0002b0 f7 a4 ca 3e 1d 78 53 3e 8b 73 a3 3d 56 91 37 3f
       0.39578983 0.20651288 0.079810224 0.7170614
0002c0 e4 69 0d 3e bc b6 9c be 6f 78 21 be 80 c0 f2 bc
       0.13809925 -0.30608165 -0.15768598 -0.029632807
0002d0 16 0a 17 3d 4f b2 07 be 03 ca 4e bd 6e 74 01 be
       0.036874853 -0.13251613 -0.050485622 -0.1264207
0002e0 ee 9e 11 bd 34 30 f3 3e 55 bd 1b 3e 33 ac 77 3d
       -0.035551958 0.47497714 0.15208943 0.060466956
0002f0 3d 3e f0 bc d3 6f dd bd 2b a5 8a be e1 31 c8 be
       -0.029326553 -0.108123444 -0.27079138 -0.39100555
000300 c3 6a 7c be 2a 9f 87 3e 02 7f 44 bf 7f 8a 86 be
       -0.24650101 0.2648862 -0.767563 -0.2627754
000310 89 9f ab 3e b5 08 04 bf 94 1b b1 bd ae ea 80 be
       0.33520153 -0.51575786 -0.08647838 -0.25179046
000320 3f a7 bd be 6b 7f 5f 3e 73 9c b8 3e 2c 4f 9a 3d
       -0.3704166 0.2182595 0.3605686 0.07534632
000330 33 2d e6 3e 65 76 6e be 69 df ab bd de 29 de 3c
       0.4495636 -0.23287351 -0.083922215 0.027119573
000340 ed b0 f7 bc d9 93 58 3e 99 54 00 bf a4 25 e4 3e
       -0.030235732 0.2115015 -0.50129086 0.44559968
000350 cc 7a a8 3e 97 c8 71 bd 3a 6e fe be 8a d4 3a 3f
       0.32906187 -0.059029188 -0.4969347 0.7298056
000360 2d bb 09 be 0d 74 84 bb 60 54 33 be af af 62 3e
       -0.13450308 -0.0040421546 -0.17512655 0.2213733
000370 94 d3 67 be b4 49 a2 bc 41 64 66 3e 91 46 5d be
       -0.22639304 -0.019810535 0.22499181 -0.2160895
000380 13 7b 05 3f b2 dc 80 bd 0f 79 aa be 89 88 dd 3e
       0.5214092 -0.06292094 -0.33295485 0.4326823
000390 67 1b c3 be d6 99 bc be 73 67 94 3e 68 4a c0 be
       -0.38106844 -0.36836118 0.28985175 -0.37556767
0003a0 06 46 35 be dc 6a 40 be 0e 67 b9 3e 55 6c 0c 3f
       -0.17702493 -0.18790764 0.36211437 0.548528
0003b0 eb 30 de bd ef b9 49 be d6 5f 1f 3e 2a 2f b1 3e
       -0.10849174 -0.19699834 0.15563902 0.34606296
0003c0 66 01 19 bd 87 12 40 bf f6 b0 ca 3a 6f fe c8 3e
       -0.03735485 -0.7502827 0.0015464115 0.39256617
0003d0 1a da 0a 3f 7a 63 91 be b4 71 6e be b5 ca b2 be
       0.54239047 -0.28396207 -0.23285562 -0.34920278
0003e0 15 e6 8f be a6 a5 b0 be 0f 6c 40 bf 04 86 88 3e
       -0.28105226 -0.3450138 -0.75164884 0.26664746
0003f0 9b 40 28 be cc a1 98 3d b4 08 27 3e 2d 85 55 be
       -0.16430895 0.07452735 0.16311914 -0.20851584

li.1.running_var f4 [512]
000000 43 e1 d8 3c c3 21 08 3d 33 1c c3 3b d4 43 5d 3d
       0.0264746 0.033235323 0.0059542893 0.054019764
000010 a7 9e d2 3c 28 30 e2 3c da fb cd 3b 3a ed 35 3d
       0.025710417 0.027610853 0.0062861266 0.04441569
000020 df 45 cd 3d a5 e3 0b 3c 7d 38 16 3c 39 54 94 3c
       0.100230925 0.008538161 0.009168741 0.018106567
000030 b4 4f 5a 3c 35 53 aa 3b 6a dd eb 3c 46 08 ed 3b
       0.013324667 0.0051979073 0.028792102 0.0072336523
000040 c2 99 97 3b 69 e3 b0 3b 2c 35 d9 3b 67 05 06 3c
       0.0046264837 0.005398203 0.006628653 0.008179999
000050 fd 08 90 3c 05 4e ba 3b 5b 32 cd 3b a6 2c 00 3c
       0.017582411 0.00568557 0.0062621064 0.007823145
000060 18 5b b2 3b 39 20 0f 3c 0a 78 6d 3c 48 25 a0 3b
       0.005442988 0.00873571 0.014493952 0.004887257
000070 0e 6b 99 3b 64 69 f4 3c c5 c1 05 3d 5c 1b d5 3c
       0.0046819514 0.02983541 0.032655496 0.026014023
000080 31 37 fc 3b ed d4 50 3d a1 aa 7b 3c e1 2c 32 3c
       0.007697009 0.05098431 0.015360505 0.010874958
000090 7c 42 a2 3d 58 fc e6 3b 61 0d b0 3b 02 dc 9c 3b
       0.07922837 0.0070491247 0.0053726886 0.004786969
0000a0 c2 b8 11 3c e5 4a aa 3c 39 8a 1c 3d 5c c5 ea 3b
       0.008894147 0.020787666 0.038217757 0.0071646404
0000b0 3b 27 e4 3c bf 22 ce 3c b1 06 2f 3d 63 35 07 3d
       0.027850738 0.025163053 0.04273099 0.033009898
0000c0 5b 55 d4 3b 45 1e 2d 3d eb 9d 99 3d 19 c0 b1 3b
       0.0064799017 0.042265195 0.075008236 0.005424511
0000d0 ad 11 c4 3b e4 ef 7b 3c 51 6b bb 3b 67 a2 af 3c
       0.0059835524 0.015377019 0.00571958 0.021439744
0000e0 5a fa c3 3b 61 8c bc 3c a5 43 66 3c 0f fe 12 3c
       0.005980772 0.023016157 0.014054214 0.008971705
0000f0 69 ca de 3c 33 3a f6 3b c6 02 d1 3d c6 13 b3 3c
       0.027196126 0.007514262 0.10205607 0.021860015
000100 17 58 ba 3b 5f d4 c4 3b ea ac a7 3b 56 2f 6b 3d
       0.0056867707 0.006006762 0.0051170485 0.05741819
000110 56 a6 c1 3b b3 1e af 3b 27 e8 c8 3b 36 27 3f 3c
       0.0059097214 0.005344236 0.0061311903 0.011667063
000120 e5 83 cf 3b 7a b6 43 3c 63 d4 dc 3d 38 1c d0 3b
       0.0063328617 0.011945361 0.10782697 0.00635102
000130 4d 02 c4 3d f2 44 be 3b a9 d8 ab 3d 9a f7 86 3b
       0.09570751 0.0058065588 0.08390934 0.004118872
000140 9c 82 dd 3b 4c fd db 3c 38 50 be 3c e1 a8 d4 3c
       0.0067599546 0.02685418 0.02323161 0.025959434
000150 81 99 a2 3b 0c 99 ca 3c 07 39 da 3c a9 01 fa 3b
       0.0049621467 0.024731182 0.02663852 0.0076295924
000160 9f 48 81 3d 04 eb 4b 3c 0e b7 be 3b 5b b8 c6 3b
       0.063126795 0.012446169 0.0058201617 0.0060644574
000170 f8 f8 3a 3c be f0 13 3d 75 ce 28 3c b4 93 48 3c
       0.011411898 0.03611826 0.010303129 0.012242246
000180 e2 e8 ce 3b 59 11 57 3c 6f b0 d9 3b a9 0f 5a 3d
       0.006314383 0.013126695 0.006643347 0.05323759
000190 14 2c 84 3d 93 d7 5e 3d 3d c2 02 3c fb be 91 3c
       0.0645372 0.054404806 0.00798088 0.017791262
0001a0 23 c3 03 3c a2 0c 41 3c 81 ce 0c 3c 79 2b aa 3b
       0.00804213 0.011782797 0.008594156 0.0051931706
0001b0 dc 60 13 3d 3d d0 97 3d 2a f8 49 3d f5 c2 f6 3b
       0.035981044 0.07412765 0.049308933 0.007530565
0001c0 33 1f 86 3c 50 51 6c 3c 7c 97 ba 3b ef 76 29 3c
       0.016372299 0.014423683 0.005694328 0.010343297
0001d0 c4 66 dc 3b 82 ac b8 3b 69 4d 63 3d c2 49 dc 3d
       0.006726118 0.005635799 0.055493746 0.10756256
0001e0 8f 60 2f 3e d9 af 8f 3c 67 6e b7 3b fd 79 bc 3b
       0.17126678 0.017539905 0.005597878 0.005751847
0001f0 59 8a 4d 3d 67 24 a8 3c 1a 08 b2 3c 9e 0b a0 3b
       0.050180767 0.02052517 0.021732379 0.0048841974
000200 2d fd 01 3c 63 04 9a 3c 39 02 ef 3d 87 73 62 3c
       0.007933897 0.01880092 0.11670346 0.013821489
000210 6a 63 5c 3d 9d 59 b9 3b a6 fb a4 3c 24 8a d7 3d
       0.053805746 0.0056564347 0.020139527 0.10524395
000220 c3 3f cb 3c 46 54 bf 3b da ea b4 3d b2 e5 60 3c
       0.024810677 0.0058389036 0.08833857 0.013726639
000230 45 53 d5 3b 69 c5 dd 3b d6 99 4d 3d 15 7c 91 3b
       0.0065101706 0.006767918 0.050195538 0.0044398406
000240 3d 83 1c 3d 84 f2 24 3d 69 2a bb 3d 98 11 d2 3c
       0.038211096 0.040270343 0.091389485 0.025643155
000250 82 a2 31 3d 61 1f a5 3d af 1d 6f 3c b5 de cf 3c
       0.04336787 0.08062626 0.014594479 0.02537475
000260 e2 26 f9 3d a9 22 a9 3d 09 a4 da 3b 09 7e 02 3c
       0.121656194 0.08258564 0.0066723865 0.007964619
000270 6d 92 8e 3c 84 62 62 3c dc 75 c7 3b d0 e3 c5 3b
       0.017403806 0.013817433 0.006087048 0.0060391203
000280 96 a8 37 3c ec 44 73 3c de ad 67 3c 51 fc ab 3d
       0.011209628 0.014847975 0.014140574 0.08397735
000290 73 07 1a 3d b6 1d a0 3b 43 a8 36 3e b3 ee a9 3c
       0.03760476 0.0048863543 0.17837624 0.020743703
0002a0 8d 51 4a 3d ac d9 71 3d 88 21 b0 3b 6e 07 31 3c
       0.04939418 0.05904548 0.005375091 0.010804994
0002b0 e7 98 d9 3c 44 cc de 3c 95 1c 08 3c e9 7d a1 3d
       0.026562167 0.02719701 0.008307596 0.078853436
0002c0 94 57 10 3c d5 1c 4c 3c 64 89 1a 3c a6 72 cb 3b
       0.008809943 0.012458046 0.009432171 0.0062087355
0002d0 83 44 a8 3b 19 c5 b4 3c b0 1c c8 3b 72 b3 67 3c
       0.0051351204 0.02206664 0.0061069354 0.014141904
0002e0 f8 b9 b2 3b 93 1f 96 3d 22 2f a6 3c 3d d7 02 3c
       0.005454298 0.07330241 0.020286147 0.007985887
0002f0 75 cb ae 3b eb b8 e7 3b b4 c9 3e 3c c4 d4 b4 3c
       0.0053343126 0.0070716045 0.011644769 0.02207411
000300 48 b8 25 3c 42 6d 5b 3c ec de f9 3d 6a 7e 9a 3c
       0.010114737 0.013392748 0.12200722 0.018859107
000310 41 70 2d 3d a7 5a 3b 3d 3d ba cf 3b 71 a9 c3 3c
       0.04234338 0.04574075 0.00633934 0.023884507
000320 ba b5 8d 3c 3e cb 3d 3c 89 3b ff 3c 67 5c e9 3b
       0.017298568 0.011584101 0.031156318 0.007121611
000330 73 f3 52 3d 92 60 d6 3b fd dd 8a 3c 7c dc aa 3b
       0.051501703 0.006542274 0.016951555 0.005214272
000340 aa 5a df 3b bb fe 9b 3c 5d 41 11 3d 3f 22 2c 3d
       0.006816228 0.019042363 0.035462726 0.042024847
000350 a5 8e e6 3c 93 d3 d2 3b 32 cb 10 3d ba 34 4c 3e
       0.02814419 0.006433913 0.035350032 0.19941989
000360 48 ea c4 3b 40 d0 fa 3b b9 08 fc 3b 44 f9 b2 3c
       0.006009374 0.00765422 0.0076914695 0.021847375
000370 13 2c 54 3c b1 90 75 3c 7c 65 e6 3c dd 84 ff 3c
       0.012949961 0.01498811 0.028124563 0.031191284
000380 53 ad 2b 3d c5 85 52 3c 62 e1 a6 3c d9 86 96 3c
       0.04191334 0.012849276 0.020371143 0.018374847
000390 21 83 20 3d ff c5 a6 3c 98 fb f2 3c 8d bc 08 3d
       0.039187554 0.020358084 0.029660985 0.03338294
0003a0 2d ba 38 3c b2 8a ca 3b a9 34 24 3d dc d4 61 3d
       0.0112748565 0.0061810846 0.040089283 0.05513464
0003b0 b6 90 0d 3c ea 47 f9 3c 91 b7 9c 3b 0c b8 5d 3c
       0.008640459 0.0304298 0.004782625 0.01353265
0003c0 11 6d b5 3b 8e e9 01 3e ce 7f 90 3c 04 58 00 3d
       0.0055366834 0.1268675 0.017639067 0.03133394
0003d0 fe 04 2e 3d 8c 72 01 3c d2 9b 85 3c a0 21 09 3d
       0.04248523 0.007900845 0.016309652 0.033479333
0003e0 47 4f df 3c 5d 27 91 3c 8a a2 b5 3d d0 9c 3b 3c
       0.027259482 0.017718965 0.088688925 0.011450961
0003f0 d6 a8 a8 3b e0 3b d3 3b f7 1c 75 3c 5d 59 1f 3c
       0.00514708 0.0064463466 0.014960519 0.009725896

li.3.weight f4 [1, 512]
000000 10 93 f5 3c 53 95 f1 bb 92 5c 32 bd 89 07 12 3d
       0.029977351 -0.007372537 -0.043545313 0.035651717
000010 63 15 00 3d 4e f2 10 3d 9a 1c 09 3b 28 ff 3d bc
       0.031270396 0.03538733 0.002092159 -0.0115964785
000020 45 69 35 bc d7 82 1d 3d 34 44 29 3d a7 36 c9 bb
       -0.0110724615 0.038454857 0.04132481 -0.0061405483
000030 27 8b 5e 3b 23 ca 47 bc e0 af 56 bb 98 6a 2b bd
       0.0033957453 -0.012194189 -0.0032758638 -0.041849703
000040 c1 f5 12 bd 32 7d 2d 3d cb 79 a5 bb bb fe 2c 3d
       -0.0358789 0.042355724 -0.0050499192 0.042235117
000050 ea 3e d6 bc 6a 10 de bc 4d 01 53 3a 44 bf 9f 3c
       -0.026153047 -0.027107436 0.0008049205 0.019500382
000060 81 1b c3 bb 0d b2 04 bd bb 1f 6c 39 f6 de 0e bd
       -0.0059542065 -0.032396365 0.00022518534 -0.0348806
000070 9e 50 83 bc 7a 76 29 3d c9 79 28 3d a4 b3 06 bd
       -0.016029652 0.041372754 0.04113177 -0.032886162
000080 23 76 f1 3c 6e c8 1f bd 3a 29 23 bd 53 fe 1b bd
       0.029475277 -0.039009504 -0.03983424 -0.03808434
000090 60 64 8f bc 4a 3e 87 3b 3f a8 c8 bc 2b 9c 85 b8
       -0.017503917 0.0041272985 -0.024494288 -6.371023e-05
0000a0 e7 6e 42 bc 15 e4 05 3d 69 ec 21 bd 2d 28 86 3c
       -0.0118672615 0.03268822 -0.0395321 0.01637658
0000b0 5b ae 20 bd 80 44 5f 3a 42 ea ad bc a8 a4 20 3d
       -0.03922878 0.0008516982 -0.021229867 0.03921953
0000c0 c9 44 03 bc 38 b7 3f 3a d4 07 01 bd 98 b6 d1 bc
       -0.008012005 0.00073133735 -0.031501606 -0.025599763
0000d0 26 5b 31 bb b8 ff ee bc 68 90 3d bc 7a 4e 2f bb
       -0.0027062385 -0.02917467 -0.011570074 -0.0026749657
0000e0 2c c8 8e bc 9b f1 26 3d dd 5c a6 3a 8b ce ce bb
       -0.017429434 0.040757757 0.001269247 -0.006311243
0000f0 99 94 a1 3c 8f cb b1 3c ae 77 23 bd a1 74 f4 bc
       0.019724177 0.02170351 -0.039909057 -0.02984077
000100 2c 1c 9c bb 49 c5 78 3c dc f6 aa bc 89 9b 36 bc
       -0.0047641005 0.015183755 -0.020869665 -0.011145481
000110 f6 b4 77 3c 16 55 19 bc c2 f6 1b bd 0d 06 11 3d
       0.015118828 -0.009358665 -0.038077123 0.03540616
000120 c9 45 63 bc 9c ed b1 3c 05 a9 34 3d c9 72 c3 bc
       -0.013871619 0.021719746 0.044106502 -0.023858445
000130 e4 d1 a2 bc 4e 39 03 bd 7b ec 83 3b 44 5a 24 bc
       -0.019875474 -0.032037072 0.0040259934 -0.010031287
000140 39 8e bc bc f2 2e e5 ba 77 b6 fb 3a 53 0c 26 3d
       -0.023017036 -0.0017485304 0.0019204159 0.040539097
000150 54 15 8a 3b 26 0c ba 3b 02 ee 4a bc 1f e3 16 3c
       0.0042139683 0.0056777177 -0.012385847 0.009209423
000160 e3 c0 e3 bc f3 17 a9 3c 93 d0 1d bd 73 5f e9 3a
       -0.027801936 0.020641303 -0.03852899 0.0017804935
000170 d1 7d c2 3b 79 74 f2 3c 8f 2f 8e 3c ca ce 56 3c
       0.0059354086 0.029596554 0.017356662 0.013110826
000180 8d af 80 bc ab f3 2b bd c6 b1 07 3d d8 f3 2c 3c
       -0.01570871 -0.041980427 0.033128522 0.010556184
000190 9c 82 36 3c 00 97 91 3c fc 88 8a 3b 22 a2 b4 bb
       0.011139538 0.017772198 0.0042277556 -0.005512492
0001a0 b2 53 1c 3d b2 e0 03 3d 8a 88 c1 3c f1 2c 21 bc
       0.038165756 0.032196708 0.023624677 -0.009837375
0001b0 85 e4 0a 3d 30 3e 73 3c bc 22 94 bc f2 da 2d bd
       0.03390934 0.01484637 -0.018082969 -0.04244513
0001c0 00 39 95 bb 1c df 96 3c 12 35 08 bd ac b1 bb ba
       -0.004553914 0.018416934 -0.033253737 -0.0014319918
0001d0 9e 74 09 3d c6 08 15 3d 79 fa d4 bc 90 e9 f9 bb
       0.03355848 0.03638532 -0.02599834 -0.00762672
0001e0 ca 8c 87 3c 18 be 2c 3d 02 56 0e 3d 6b 62 42 3c
       0.016546626 0.042173475 0.034749992 0.011864285
0001f0 19 84 02 3c 42 2e 07 3d 98 41 21 bd f7 5f 30 bd
       0.007966065 0.0330031 -0.039369196 -0.04306027
000200 3e dc f0 3b 96 06 e5 3c 43 5e 81 bc 3b 44 09 3d
       0.0073504737 0.027957242 -0.015792018 0.033512335
000210 ec f7 99 3c c8 1e 63 bc 4c 18 df bc a5 4f e8 bc
       0.018794976 -0.013862319 -0.027233265 -0.02835829
000220 11 e1 1a bc e4 a0 97 bb a9 48 0a bd cd 20 87 3c
       -0.009453074 -0.004627334 -0.0337607 0.016495133
000230 44 c0 2e 3d 01 9b 30 bd 80 dd 1c bd c0 95 22 3d
       0.042663828 -0.043116573 -0.038297176 0.039693594
000240 f0 3a 18 3d bc c2 34 3d 3e e5 ab bb c1 27 ac 3b
       0.037165582 0.044131026 -0.0052458337 0.0052537625
000250 6e eb 07 bd ae 27 03 3d 7e 2a 24 3d 21 cf 7e bb
       -0.033183508 0.032020263 0.040079586 -0.0038880783
000260 f8 e4 20 3a d1 10 fc bc 61 55 21 bc d2 36 68 bc
       0.00061376346 -0.030769737 -0.009847016 -0.014173226
000270 8e fa 8e bc ea 01 06 bd a0 81 73 bc 31 a8 af 3c
       -0.017453458 -0.03271667 -0.014862448 0.021442505
000280 a1 ac 55 bb 68 ba be 3c 73 0c 20 3d 7d d2 32 bd
       -0.0032604116 0.023282245 0.039074373 -0.04365777
000290 a5 7f 61 3c 9c 85 2e 3d cf f0 b8 bc 4c 24 d4 3c
       0.013763343 0.04260789 -0.022575764 0.025896214
0002a0 13 da 3e 3c e3 28 3c 3c 99 66 17 bd b6 32 53 3b
       0.011648673 0.0114843575 -0.03696308 0.003222627
0002b0 40 61 7c bc 3c c1 2c 3d 9e e0 e3 bc 9c f4 ba bb
       -0.015404046 0.04217647 -0.027817067 -0.0057054292
0002c0 93 d7 32 3b 41 a3 9e 3c ca 87 eb bc 28 3d 33 bd
       0.0027289137 0.019364955 -0.028751273 -0.043759495
0002d0 ff ae c4 bb d0 57 39 3c c7 16 8e bc 43 4b f6 3c
       -0.0060023065 0.01131244 -0.017344845 0.030065184
0002e0 39 d6 1e bd 76 d6 06 bd b1 05 8f bc 68 93 87 bb
       -0.038778517 -0.03291937 -0.017458769 -0.0041374452
0002f0 b5 25 f4 bc 6f 7f a4 bc a4 c2 ff 3c 17 3a cf bc
       -0.029803136 -0.020080296 0.031220742 -0.025296254
000300 56 6a 49 3c 35 89 00 3d 38 a2 de bb 40 2e 0d 3d
       0.012293419 0.03138085 -0.0067942403 0.034467936
000310 10 d8 ad 3c a9 ca 2b bc 71 ef 01 bd 3a bc 2c 3c
       0.02122119 -0.01048533 -0.03172249 0.010542924
000320 e7 dc 1f bd 68 c3 30 bc 37 61 e1 3b f7 15 67 3a
       -0.03902903 -0.010788776 0.006878044 0.00088152237
000330 b6 65 c6 bb e7 26 fa bc 28 90 79 bb bb bb dc 3b
       -0.0060546054 -0.030536128 -0.0038080309 0.0067362464
000340 f7 59 66 3c d1 c7 0b 3d 11 ad c3 bc ff 75 ec 39
       0.014059535 0.034126107 -0.023886235 0.00045101342
000350 72 28 d5 3c d3 d2 f7 3c cf e9 a4 bc 9f fd aa ba
       0.026020262 0.030251896 -0.02013102 -0.0013045556
000360 19 9d ee bb 01 01 b7 bc 47 aa cf bb 11 9a 27 3d
       -0.007281911 -0.022339346 -0.0063374373 0.040918414
000370 20 ea 28 3d 06 7d 1e bd 3e a1 20 3d d3 73 ef 3c
       0.041238904 -0.03869345 0.039216273 0.029230034
000380 73 2d 00 3d 98 9f 2b 3c ea 64 7d 3a 3f 2b 01 3d
       0.031293344 0.010475062 0.00096662214 0.031535383
000390 3f cc bd bc 30 98 90 bc 46 d4 b3 bc 0e 92 33 bd
       -0.023168681 -0.017650694 -0.021951806 -0.04384046
0003a0 1c 32 0b 3d 6b 32 30 3d c9 6c 93 bc 80 58 f4 3c
       0.033983335 0.043016832 -0.017996209 0.029827356
0003b0 d6 92 ac 3c c9 19 14 bc c0 58 13 bd 23 07 85 bc
       0.02106611 -0.009039351 -0.03597331 -0.016238755
0003c0 2d 13 a9 3c ee 3d 00 3c af 2c 5e 3c c8 60 05 bd
       0.020639027 0.007827265 0.013560458 -0.032563
0003d0 2a 04 9e bc 5f a4 95 3c 92 f6 89 39 21 97 25 bd
       -0.019289095 0.018266855 0.00026314385 -0.04042733
0003e0 66 6a 02 ba a1 cc 1e ba cb 15 08 bd 7c 5e 2a bd
       -0.0004974961 -0.0006057714 -0.03322391 -0.041594014
0003f0 e6 dc 8e 3c 10 bd 46 3c 27 5a c2 bb 28 c1 0e bc
       0.017439317 0.012130037 -0.005931157 -0.008713044
