online/32_net.pth (torch, 236820 bytes, 26 tensors)

pos_encoder.pe f4 [70, 24]
0	0x00000000	0.0
1	0x3f800000	1.0
2	0x00000000	0.0
3	0x3f800000	1.0
4	0x00000000	0.0
5	0x3f800000	1.0
6	0x00000000	0.0
7	0x3f800000	1.0
8	0x00000000	0.0
9	0x3f800000	1.0
10	0x00000000	0.0
11	0x3f800000	1.0
12	0x00000000	0.0
13	0x3f800000	1.0
14	0x00000000	0.0
15	0x3f800000	1.0
16	0x00000000	0.0
17	0x3f800000	1.0
18	0x00000000	0.0
19	0x3f800000	1.0
20	0x00000000	0.0
21	0x3f800000	1.0
22	0x00000000	0.0
23	0x3f800000	1.0
24	0x3f576aa4	0.84147096
25	0x3f0a5141	0.54030234
26	0x3ee5351d	0.44767085
27	0x3f64ea30	0.8941984
28	0x3e5ae952	0.21378067
29	0x3f7a14eb	0.9768817
30	0x3dcc7576	0.099833414
31	0x3f7eb898	0.9950042
32	0x3d3e0d1e	0.04639923
33	0x3f7fb96a	0.99892294
34	0x3cb07a47	0.021542681
35	0x3f7ff0ca	0.9997679
36	0x3c23d657	0.009999833
37	0x3f7ffcb9	0.99995
38	0x3b981857	0.0046415734
39	0x3f7fff4b	0.9999892
40	0x3b0d3164	0.0021544332
41	0x3f7fffd9	0.9999977
42	0x3a83126d	0.0009999998
43	0x3f7ffff8	0.9999995
44	0x39f35a5c	0.00046415895
45	0x3f7ffffe	0.9999999
46	0x3961e8ab	0.00021544348
47	0x3f800000	1.0
48	0x3f68c7b7	0.9092974
49	0xbed51133	-0.41614684
50	0x3f4cf4fb	0.8006131
51	0x3f1963f8	0.59918165
52	0x3ed5d9be	0.41767687
53	0x3f6899b9	0.9085956
54	0x3e4b6ff8	0.19866931
55	0x3f7ae5a5	0.9800666
56	0x3dbdd8b7	0.09269851
57	0x3f7ee5d1	0.9956942
58	0x3d306fcb	0.043075364
59	0x3f7fc32c	0.99907184
60	0x3ca3d43e	0.019998666
61	0x3f7ff2e5	0.9998
62	0x3c1817ec	0.009283047
63	0x3f7ffd2d	0.9999569
64	0x3b8d314e	0.004308856
65	0x3f7fff64	0.9999907
66	0x3b031268	0.0019999985
67	0x3f7fffdf	0.99999803
68	0x3a735a5b	0.00092831784
69	0x3f7ffff9	0.9999996
70	0x39e1e8ab	0.00043088695
71	0x3f7fffff	0.99999994
72	0x3e1081c3	0.14112
73	0xbf7d7026	-0.9899925
74	0x3f7bf0ce	0.98414314
75	0x3e35a216	0.17737612
76	0x3f1a2dc8	0.60226107
77	0x3f4c5d56	0.7982992
78	0x3e974e6c	0.2955202
79	0x3f7490ef	0.9553365
80	0x3e0e2117	0.1387981
81	0x3f7d85a8	0.9903207
82	0x3d8446bd	0.06458805
83	0x3f7f7729	0.997912
84	0x3cf5b91f	0.0299955
85	0x3f7fe283	0.99955004
86	0x3c6422d5	0.01392432
87	0x3f7ff9a6	0.9999031
88	0x3bd3c9bf	0.006463259
89	0x3f7ffea2	0.99997914
90	0x3b449b92	0.0029999954
91	0x3f7fffb5	0.9999955
92	0x3ab683c2	0.0013924765
93	0x3f7ffff0	0.99999905
94	0x3a296e7f	0.00064633036
95	0x3f7ffffd	0.9999998
96	0xbf41bdcf	-0.7568025
97	0xbf275530	-0.6536436
98	0x3f759ce7	0.9594254
99	0xbe905d6c	-0.28196275
100	0x3f424dbe	0.75899875
101	0x3f26adf9	0.6510921
102	0x3ec761d7	0.38941833
103	0x3f6bcaa7	0.921061
104	0x3e3d0773	0.18459873
105	0x3f7b99b2	0.98281395
106	0x3db045df	0.08607077
107	0x3f7f0ccc	0.996289
108	0x3d23cbdb	0.039989334
109	0x3f7fcb94	0.9992001
110	0x3c98163e	0.018565293
111	0x3f7ff4b4	0.9998276
112	0x3c0d30f8	0.008617632
113	0x3f7ffd91	0.99996287
114	0x3b831257	0.003999989
115	0x3f7fff7a	0.999992
116	0x3af35a54	0.0018566349
117	0x3f7fffe3	0.9999983
118	0x3a61e8a9	0.0008617738
119	0x3f7ffffa	0.99999964
120	0xbf757c10	-0.9589243
121	0x3e913c2c	0.2836622
122	0x3f3b500a	0.73169005
123	0xbf2e7fcb	-0.68163747
124	0x3f6171cf	0.88064283
125	0x3ef29363	0.47378072
126	0x3ef57743	0.47942552
127	0x3f60a940	0.87758255
128	0x3e6b8593	0.23000173
129	0x3f7922ff	0.97319025
130	0x3ddc300e	0.10751353
131	0x3f7e8421	0.9942036
132	0x3d4cb6f4	0.049979165
133	0x3f7fae19	0.99875027
134	0x3cbe1a3c	0.023205869
135	0x3f7fee5a	0.9997307
136	0x3c307ce6	0.010771966
137	0x3f7ffc33	0.999942
138	0x3ba3d6dd	0.004999979
139	0x3f7fff2e	0.9999875
140	0x3b181871	0.0023207928
141	0x3f7fffd3	0.9999973
142	0x3a8d3169	0.0010772172
143	0x3f7ffff6	0.9999994
144	0xbe8f0f8c	-0.2794155
145	0x3f75cdb8	0.96017027
146	0x3eb2c0c6	0.349127
147	0xbf6fe42d	-0.93707544
148	0x3f762963	0.961569
149	0x3e8c938f	0.27456328
150	0x3f108c68	0.5646424
151	0x3f534932	0.8253356
152	0x3e8cc0e9	0.2749093
153	0x3f7622e9	0.9614702
154	0x3e040009	0.12890638
155	0x3f7ddd38	0.9916568
156	0x3d759cd1	0.059964005
157	0x3f7f8a12	0.99820054
158	0x3ce41d2b	0.02784594
159	0x3f7fe696	0.9996122
160	0x3c53c89d	0.012926248
161	0x3f7ffa86	0.99991643
162	0x3bc49b58	0.0059999637
163	0x3f7ffed2	0.999982
164	0x3b3683b7	0.0027849504
165	0x3f7fffbf	0.9999961
166	0x3aa96e7d	0.0012926605
167	0x3f7ffff2	0.99999917
168	0x3f283046	0.6569866
169	0x3f40ffbd	0.75390226
170	0xbddbc69f	-0.10731243
171	0xbf7e858d	-0.9942253
172	0x3f7f7f41	0.9980355
173	0x3d804f23	0.06265094
174	0x3f24eb72	0.6442176
175	0x3f43ccb3	0.7648422
176	0x3ea3716a	0.31922466
177	0x3f729b18	0.94767904
178	0x3e19d85d	0.15023942
179	0x3f7d1825	0.98864967
180	0x3d8f3e32	0.06994285
181	0x3f7f5f81	0.997551
182	0x3d050f6e	0.032485418
183	0x3f7fdd69	0.9994722
184	0x3c771415	0.0150804715
185	0x3f7ff88c	0.9998863
186	0x3be55fc5	0.006999942
187	0x3f7ffe65	0.9999755
188	0x3b54eef8	0.003249107
189	0x3f7fffa8	0.99999475
190	0x3ac5ab91	0.0015081038
191	0x3f7fffed	0.99999887
192	0x3f7d4695	0.98935825
193	0xbe14fdf6	-0.14550003
194	0xbf0a81e3	-0.5410444
195	0xbf574b62	-0.840994
196	0x3f7d04e9	0.9883562
197	0xbe1bcf59	-0.15215816
198	0x3f37a4a5	0.717356
199	0x3f325b5f	0.6967067
200	0x3eb9c7cb	0.36285242
201	0x3f6e8d80	0.9318466
202	0x3e2f9e69	0.17150272
203	0x3f7c34ff	0.98518366
204	0x3da3aa50	0.07991469
205	0x3f7f2e65	0.9968017
206	0x3d180f89	0.03712419
207	0x3f7fd2d3	0.9993107
208	0x3c8d2fa1	0.017234625
209	0x3f7ff644	0.99985147
210	0x3c031212	0.007999914
211	0x3f7ffde7	0.999968
212	0x3b735a38	0.0037132632
213	0x3f7fff8c	0.9999931
214	0x3ae1e8a4	0.001723547
215	0x3f7fffe7	0.9999985
216	0x3ed30132	0.4121185
217	0xbf693fd5	-0.91113025
218	0xbf5c3bf1	-0.86028963
219	0xbf02829f	-0.5098056
220	0x3f6ed7af	0.9329786
221	0xbeb84901	-0.35993198
222	0x3f48881c	0.78332686
223	0x3f1f21d5	0.62161
224	0x3ecfb7ba	0.4056986
225	0x3f69fc5c	0.91400695
226	0x3e454f97	0.19268642
227	0x3f7b33e1	0.98126036
228	0x3db8123e	0.089878544
229	0x3f7ef6c2	0.9959527
230	0x3d2b0ecd	0.041762162
231	0x3f7fc6d3	0.99912757
232	0x3c9ed50c	0.019388698
233	0x3f7ff3ae	0.999812
234	0x3c13743a	0.008999879
235	0x3f7ffd59	0.9999595
236	0x3b88e2ba	0.0041774185
237	0x3f7fff6e	0.9999913
238	0x3afe25b6	0.0019389901
239	0x3f7fffe1	0.99999815
240	0xbf0b44f8	-0.5440211
241	0xbf56cd64	-0.8390715
242	0xbf7f5bd1	-0.99749476
243	0xbd90e07e	-0.070740685
244	0x3f559f61	0.8344632
245	0xbf0d1282	-0.55106366
246	0x3f576aa4	0.84147096
247	0x3f0a5141	0.54030234
248	0x3ee5351e	0.44767088
249	0x3f64ea30	0.8941984
250	0x3e5ae953	0.21378069
251	0x3f7a14eb	0.9768817
252	0x3dcc7576	0.099833414
253	0x3f7eb898	0.9950042
254	0x3d3e0d21	0.04639924
255	0x3f7fb96a	0.99892294

transformer_encoder.layers.0.self_attn.in_proj_weight f4 [72, 24]
0	0xbe57ba01	-0.21067049
1	0xbdc1ce24	-0.09463146
2	0xbe2f328a	-0.17109123
3	0x3e71dde5	0.23619802
4	0xbddcb674	-0.10776988
5	0xbde9ccf6	-0.11416046
6	0x3e052de1	0.13005783
7	0xbdef570a	-0.11686523
8	0xbdfb0c8e	-0.12258254
9	0xbcaf553f	-0.021402953
10	0xbcc743eb	-0.024324378
11	0xbe473423	-0.19453482
12	0x3e5524f5	0.20814879
13	0xbde0a892	-0.10969652
14	0x3db4e7e4	0.08833292
15	0x3e5fac13	0.21842985
16	0x3e011b9f	0.12608193
17	0x3d132f47	0.03593376
18	0x3e599f1b	0.212521
19	0x3d0b3d5b	0.03399406
20	0xbdecf7c0	-0.11570692
21	0x3e72e8dd	0.23721643
22	0x3d73184d	0.059349347
23	0xbe793874	-0.24337941
24	0xbd95430a	-0.07288177
25	0xbe30d7f5	-0.17269881
26	0x3e5f7720	0.21822786
27	0xbd3f4bc4	-0.046703115
28	0xbe6d3189	-0.23163427
29	0xbc91e497	-0.017809195
30	0x3e1d82cc	0.15381926
31	0x3d6fcc2e	0.05854433
32	0x3d91c20b	0.07117089
33	0x3cb74c56	0.022375267
34	0x3db03dda	0.08605547
35	0xbd881bc6	-0.06645922
36	0xbdd2ef59	-0.10299558
37	0xbe754e55	-0.23955663
38	0xbe430ee3	-0.19048648
39	0x3dd27293	0.102757595
40	0xbe17c4c8	-0.1482116
41	0x3cddad8d	0.027060295
42	0x3d996074	0.074891
43	0x3c1d3dfa	0.009597296
44	0xbe2aa134	-0.16663057
45	0x3e6bd1e3	0.23029284
46	0xbe161d1d	-0.14659543
47	0x3e4a2477	0.19740473
48	0xbe4b943d	-0.19880767
49	0xbd765901	-0.060143474
50	0x3e0cda75	0.1375521
51	0xbdcfc235	-0.10144464
52	0x3e59022f	0.21192239
53	0xbe2f41d8	-0.17114961
54	0xbe55f54e	-0.20894358
55	0xbde37cfe	-0.11107825
56	0x3d351c67	0.04421654
57	0x3e6b3091	0.22967745
58	0xbdecd8a2	-0.11564757
59	0x3dbd881a	0.09254475
60	0xbd77b543	-0.0604756
61	0xbd461aff	-0.04836559
62	0x3e3d6d81	0.18498804
63	0xbe3fd62e	-0.18734047
64	0x3ce1b56c	0.027552329
65	0x3e769150	0.2407887
66	0xbd077507	-0.03307059
67	0x3e4cd7a0	0.2000413
68	0xbd9c3828	-0.076278985
69	0x3e5479c5	0.20749576
70	0xbe772435	-0.24134906
71	0xbcfb9b12	-0.030713592
72	0xbd526284	-0.051363483
73	0x3d9a24c2	0.07526542
74	0x3db928ab	0.0904096
75	0x3e32f395	0.17475732
76	0xbd3afaf1	-0.045649473
77	0xbc84d0ae	-0.016212787
78	0x3e1e1012	0.15435818
79	0xbd98e4ad	-0.074654914
80	0x3e30c0c3	0.17261033
81	0xbe2a8f53	-0.16656236
82	0xbd87bbb1	-0.06627596
83	0xbd4cb63c	-0.04997848
84	0x3dbc7cfd	0.09203527
85	0x3dff4ee8	0.12466222
86	0xbd4b6bda	-0.049663402
87	0xbe8058ce	-0.25067753
88	0x3ded77cf	0.11595117
89	0x3caf9718	0.021434352
90	0x3dae1048	0.08499199
91	0xbe502139	-0.20325173
92	0x3e159024	0.14605767
93	0x3e3b96a9	0.18319191
94	0x3cabcf0b	0.02097275
95	0xbe8c644a	-0.27420264
96	0x3e3857fd	0.18002315
97	0xbe397cdd	-0.18114038
98	0x3d880933	0.066423796
99	0x3d330503	0.04370595
100	0xbde330ca	-0.1109329
101	0x3dbebee5	0.09313754
102	0xbe646dae	-0.22307464
103	0x3d83a1ed	0.06427369
104	0xbe0ceafa	-0.13761511
105	0xbce79d57	-0.028273268
106	0x3d5346ed	0.051581312
107	0x3e69850e	0.22804663
108	0xbddeb144	-0.108736545
109	0x3e3b45f4	0.18288404
110	0xbcd7c7df	-0.026340423
111	0xbdbc662a	-0.09199174
112	0xbe5a1844	-0.21298319
113	0xbe51172e	-0.20418999
114	0x3e814a5d	0.25252047
115	0xbd1a5db3	-0.037687015
116	0x3caefff6	0.021362286
117	0x3dc62591	0.09675134
118	0x3e31d2b8	0.17365539
119	0x3e731120	0.23737001
120	0x3e4b1c1f	0.19834946
121	0xbe43cce8	-0.19121134
122	0xbd1e190f	-0.038598116
123	0xbe231cf9	-0.15929021
124	0xbe1cae56	-0.15300879
125	0x3d5c6197	0.053804006
126	0x3e5daf46	0.21648893
127	0xbe57cabe	-0.21073434
128	0x3e08c168	0.13355029
129	0xbe070366	-0.1318489
130	0xbd88b4a4	-0.066750795
131	0x3e3a6d51	0.18205763
132	0xbd8994a4	-0.06717804
133	0x3b8916df	0.0041836346
134	0xbe3b5eee	-0.18297932
135	0x3e4d56d9	0.20052661
136	0xbd1dfa76	-0.038568936
137	0xbe4ef06f	-0.20208906
138	0x3d82718e	0.06369315
139	0xbe4b692b	-0.19864337
140	0xbe53ba79	-0.20676602
141	0xbb6d64de	-0.0036223452
142	0x3e4accf2	0.19804743
143	0xbda96897	-0.08271902
144	0x3df6d885	0.120530166
145	0x3e5e6434	0.21717912
146	0x3e2da727	0.16958295
147	0xbe038d09	-0.1284677
148	0xbcd76fca	-0.026298422
149	0xbd9cf615	-0.07664124
150	0xbe4db3f2	-0.20088175
151	0x3b565ae1	0.0032707977
152	0x3e42c410	0.19020104
153	0x3e5996e2	0.21248963
154	0x3ccb60bf	0.024826406
155	0x3d6c60ab	0.057709377
156	0xbddc1045	-0.10745291
157	0x3e428604	0.18996435
158	0xbdd3cec1	-0.103421696
159	0xbe2edebd	-0.17077155
160	0x3d214c08	0.03937915
161	0x3e1adeca	0.1512405
162	0xbe6418bc	-0.2227506
163	0x3e6887a9	0.22708
164	0x3dbec981	0.093157776
165	0xbe3004c2	-0.17189315
166	0xbd5462ca	-0.051852025
167	0x3e600e27	0.21880399
168	0xbe4522d6	-0.1925157
169	0xbd976684	-0.073926
170	0x3dad2728	0.08454734
171	0xbe5f44f0	-0.21803641
172	0x3e0ad621	0.13558246
173	0x3e0517f8	0.12997425
174	0x3e1d61cf	0.15369342
175	0xbe217fae	-0.15771362
176	0x3e800c6d	0.2500948
177	0xbe1750de	-0.14776942
178	0x3e7f7620	0.24947405
179	0xbe76c808	-0.24099743
180	0xbe64eaca	-0.2235519
181	0x3e1c71bd	0.15277763
182	0x3ccbb812	0.024868045
183	0x3c7f57d0	0.015584901
184	0xbe0f9559	-0.14021815
185	0xbdd615f9	-0.1045341
186	0xbd926218	-0.07147616
187	0xbe7a6d3c	-0.24455732
188	0x3c679a13	0.014135855
189	0x3d3abc33	0.045589637
190	0x3a8242e6	0.000993815
191	0x3da94a8e	0.08266173
192	0x3e717cc6	0.23582754
193	0x3d849896	0.06474416
194	0xbdbfd879	-0.09367461
195	0xbdd9e9e4	-0.10640314
196	0xbe26ed08	-0.16301358
197	0xbe33f7f7	-0.1757506
198	0xbd2f9228	-0.042863995
199	0xbd44f00f	-0.0480805
200	0x3dd33372	0.10312547
201	0xbddae145	-0.10687498
202	0x3e4506ce	0.19240877
203	0xbe395f32	-0.1810272
204	0xbb3fd8f3	-0.00292736
205	0x3e5d8956	0.21634421
206	0x3e7c7d97	0.24657284
207	0xbe1ce3b0	-0.15321231
208	0x3d30327d	0.0430169
209	0x3ca5f36e	0.020257678
210	0xbdf81d95	-0.12115017
211	0xbdc3a3da	-0.095527366
212	0x3d83cf9f	0.06436085
213	0xbe3c39e0	-0.18381453
214	0x3d256ca3	0.040386807
215	0x3dcdeab9	0.100545354
216	0xbdc9d3d2	-0.09854855
217	0x3e53c127	0.2067915
218	0xbc8d006b	-0.017212113
219	0x3de72ce3	0.11287858
220	0x3e7cda3c	0.24692625
221	0xbd9cbcad	-0.076531745
222	0x3e0ac49b	0.13551562
223	0xbd9214ec	-0.07132897
224	0xbd1ffd09	-0.039059673
225	0xbd3034b8	-0.043019027
226	0xbb4a41ce	-0.0030861977
227	0xbdc5fbcd	-0.09667168
228	0x3d6da965	0.058022875
229	0x3beb4461	0.0071797823
230	0x3e221a07	0.15830241
231	0xbd5921d0	-0.05301076
232	0x3ccb9b22	0.024854247
233	0xbdc44578	-0.095835626
234	0xbe56f99b	-0.20993654
235	0x3dca1197	0.09866636
236	0x3d009b7c	0.03139828
237	0xbdd21530	-0.102579474
238	0xbdacfa3b	-0.08446165
239	0x3d8138a4	0.063096315
240	0xbd41712c	-0.04722707
241	0x3e2688ae	0.16263077
242	0x3c457d55	0.012053807
243	0x3dbd4fef	0.09243762
244	0x3ddb2bc0	0.10701704
245	0xbd823ca9	-0.06359226
246	0x3ddb60b0	0.10711801
247	0x3e381d84	0.1798001
248	0x3c364632	0.011125134
249	0x3d490b15	0.049082834
250	0x3bf78a39	0.007554319
251	0x3e31ec69	0.1737534
252	0xbddb28f6	-0.10701172
253	0xbe0906c8	-0.13381493
254	0x3ddc6b80	0.107626915
255	0xbe603469	-0.21894993

transformer_encoder.layers.0.self_attn.in_proj_bias f4 [72]
0	0x3a566cf3	0.0008179687
1	0xbbb36b6d	-0.0054754526
2	0x3baf5db5	0.005351747
3	0xbd1bb9bf	-0.03801894
4	0x3ca52bd7	0.020162506
5	0xbc135dad	-0.008994502
6	0x38b8cd53	8.812048e-05
7	0x3aa6e9c2	0.001273446
8	0xbbd85eb6	-0.0066030873
9	0xbb09c286	-0.0021020486
10	0x39eb441b	0.00044873435
11	0x3b44ce9f	0.0030030382
12	0xbc5d156e	-0.013493879
13	0x3c0e48b0	0.008684322
14	0xbb8cf790	-0.0043019727
15	0xba9cacc7	-0.0011953347
16	0xba568b4e	-0.000818421
17	0xb87bfe2b	-6.0079776e-05
18	0xbc16b3b3	-0.009198117
19	0x3c0da52a	0.008645335
20	0xbb484959	-0.0030561297
21	0x3aed8975	0.001812263
22	0xba4b626a	-0.00077585
23	0xbac2f6a9	-0.0014874536
24	0xad35920d	-1.0321089e-11
25	0x2d09bcac	7.829442e-12
26	0xadec629f	-2.687389e-11
27	0x2e6d8502	5.4005696e-11
28	0xae826d73	-5.9311576e-11
29	0xaed20b1e	-9.551669e-11
30	0xadd428bd	-2.4119701e-11
31	0xad2b2234	-9.727819e-12
32	0x2dcdd851	2.3401866e-11
33	0xab327d6b	-6.3412356e-13
34	0x2d0d439c	8.029934e-12
35	0xac44119c	-2.786305e-12
36	0x2cef103a	6.79459e-12
37	0xad41f3ec	-1.1024941e-11
38	0xac7fb7c1	-3.6339683e-12
39	0xad0315b5	-7.451308e-12
40	0x2a08dd3e	1.2155985e-13
41	0xabfc87b2	-1.794334e-12
42	0x2cfebe88	7.2402674e-12
43	0xadd2810b	-2.3931543e-11
44	0x2d1887cb	8.670352e-12
45	0x2cfdf4be	7.2178643e-12
46	0x2e2b4832	3.894502e-11
47	0x2d92ccd9	1.6689249e-11
48	0xbc1b5b3e	-0.009482203
49	0xbc99cfd0	-0.01877585
50	0x3c3cf338	0.011532597
51	0xbcb7ce4f	-0.022437243
52	0x3ac9e991	0.0015404691
53	0x3c8da119	0.017288731
54	0xbc417517	-0.011807702
55	0x3c979e02	0.018507961
56	0xbcc347b5	-0.023837904
57	0x3c28ea71	0.010309801
58	0xbc0f77d1	-0.008756594
59	0xbbf4a0cb	-0.007465457
60	0xbbf774af	-0.0075517516
61	0xbbaf8162	-0.005356
62	0x3bd57dfd	0.006515263
63	0x3b212e50	0.0024594255
64	0x3a677c07	0.0008830432
65	0x3c29e74f	0.01037009
66	0xbad0043a	-0.00158704
67	0x3be719ed	0.007052651
68	0xbb702709	-0.003664436
69	0xbbe1509d	-0.006876065
70	0x3c05b866	0.00816164
71	0x3ad10f09	0.0015949915

transformer_encoder.layers.0.self_attn.out_proj.weight f4 [24, 24]
0	0x3a751873	0.00093496515
1	0x3df5de58	0.12005299
2	0xbe25cb35	-0.16190799
3	0xbe205a90	-0.15659547
4	0xbd47b9bd	-0.04876112
5	0x3d18677c	0.037208065
6	0xbb6e3c69	-0.0036351925
7	0x3e18c01b	0.14917032
8	0xbcd1207f	-0.02552819
9	0x3d24a47c	0.040195927
10	0xbd0f7fc2	-0.03503395
11	0xbd01090f	-0.03150278
12	0xbe3a96de	-0.18221614
13	0xbe15d2d4	-0.14631206
14	0xbd9efea4	-0.077634126
15	0x3c2401ab	0.010010163
16	0x3d950544	0.07276395
17	0x3df28214	0.11841217
18	0xbe172157	-0.14758812
19	0xbde3572a	-0.111006096
20	0x3d9358fd	0.071947075
21	0x3e2fec08	0.17179883
22	0xbd25b886	-0.04045918
23	0x3e1f7e24	0.15575463
24	0xbcd25afe	-0.025678154
25	0x3c83b8ee	0.016079392
26	0x3e3dd502	0.18538287
27	0xbe3f0459	-0.18654002
28	0xbe10c5d1	-0.14137961
29	0xbd2cdc26	-0.042202137
30	0xbdb4b3ce	-0.088233575
31	0x3e33d132	0.1756027
32	0xbe0d8615	-0.1382068
33	0xbdbd67ff	-0.09248351
34	0xbe148782	-0.14504817
35	0xbe42cb0c	-0.19022769
36	0xbdfeea88	-0.12447077
37	0x3e3260ea	0.17419782
38	0x3dbf4233	0.093387984
39	0x3dc81f9e	0.097716555
40	0x3c97daca	0.018536944
41	0xbdd2e40d	-0.102974035
42	0x3d150aea	0.03638736
43	0xbe47bd36	-0.19505772
44	0xbe2632a3	-0.16230254
45	0xbde6e82c	-0.11274752
46	0x3e0da8b7	0.13833891
47	0x3dee3570	0.11631286
48	0xbdb67249	-0.08908517
49	0xbc4a9997	-0.01236572
50	0x3e0728e5	0.13199194
51	0x3e4ebc25	0.20188959
52	0x3da247ca	0.07923849
53	0x3ce767d2	0.028247748
54	0x3e07477d	0.13210864
55	0xbdf12da0	-0.117762804
56	0x3d182728	0.037146717
57	0xbe2422d2	-0.16028908
58	0xbe1478f4	-0.14499265
59	0xbdd5f28b	-0.10446652
60	0x3dbb8012	0.09155287
61	0x3dab5c6a	0.08367236
62	0xbdfa9e96	-0.12237279
63	0x3d80c373	0.06287279
64	0x3dede5ab	0.11616071
65	0xbcb50271	-0.02209589
66	0x3bf78fa4	0.007554965
67	0x3d35e2d9	0.044405792
68	0x3dfda52e	0.12385021
69	0x3e4529b2	0.19254187
70	0xbe203e64	-0.156488
71	0xbd9dd409	-0.07706458
72	0x3d98f905	0.07469372
73	0x3e2bf6e3	0.16793399
74	0x3e32da88	0.17466176
75	0x3e438d16	0.19096789
76	0x3ca74fae	0.020423736
77	0xbe2ae69b	-0.16689532
78	0x3cbe4c78	0.023229823
79	0xbdf68b49	-0.12038285
80	0xbe3b70d3	-0.18304758
81	0x3e4250d6	0.18976149
82	0x3e1449ea	0.14481321
83	0xbe4fe4bd	-0.203021
84	0x3d02eee4	0.031966105
85	0xbceff081	-0.029289486
86	0xbcf3503d	-0.029701347
87	0xbdbe8a35	-0.09303705
88	0x3d97b9b1	0.07408465
89	0xbdfd636c	-0.12372479
90	0x3da0325b	0.078221045
91	0x3dea2e70	0.114346385
92	0x3e1cff8e	0.15331861
93	0x3da1aa1c	0.07893774
94	0xbe50fb76	-0.20408425
95	0xbe0498f8	-0.12948978
96	0x3dd878c8	0.10569912
97	0x3cec8890	0.028873712
98	0xbe227e51	-0.15868498
99	0xbe01c967	-0.12674485
100	0x3e322021	0.17395069
101	0x3e18144f	0.14851497
102	0xbdd8dd2b	-0.105890594
103	0xbd438bff	-0.047740933
104	0xbe52c25a	-0.20581952
105	0x3c38e217	0.011284373
106	0xbe2de142	-0.1698046
107	0xbe2c4c6e	-0.1682603
108	0xbcb47860	-0.022030056
109	0x3d036550	0.03207904
110	0xbda17b56	-0.078848526
111	0x3df4313a	0.11923452
112	0xbde15d24	-0.11004093
113	0x3e45dc45	0.19322307
114	0x3e11cb86	0.14237794
115	0xbe28de67	-0.1649109
116	0xbd939cfa	-0.07207675
117	0xbba79b02	-0.005114914
118	0x3d236857	0.039894428
119	0x3d3e36af	0.04643887
120	0x3d8d2f4c	0.06893787
121	0x3c954067	0.018219186
122	0xbdd670d6	-0.104707405
123	0x3dfb49d9	0.12269945
124	0xbe5e283d	-0.21695037
125	0xbde51e19	-0.11187381
126	0xbcfccac8	-0.030858412
127	0xbdb2562b	-0.087078415
128	0xbd42adc4	-0.047528997
129	0xbe353cde	-0.17699
130	0xbd633943	-0.05547453
131	0x3d44170e	0.04787355
132	0xbe0756ee	-0.13216755
133	0xbb23ba98	-0.0024983045
134	0x3e09af41	0.1344576
135	0xbca92cda	-0.02065127
136	0xba4242bb	-0.00074104563
137	0xbcaf5f74	-0.02140782
138	0x3d48ce9a	0.049025156
139	0x3e176317	0.14783894
140	0x3e67d9b2	0.22641638
141	0x3e107a6a	0.14109197
142	0x3e3c6efe	0.18401715
143	0xbc67e455	-0.01415356
144	0xbe436265	-0.19080503
145	0xbdb783c4	-0.08960679
146	0x3e0e63ec	0.13905305
147	0xbc9232ce	-0.017846491
148	0xbdae7f73	-0.08520403
149	0xbe2619dc	-0.16220802
150	0xbe437ceb	-0.19090621
151	0xbe36f296	-0.17865977
152	0xbd42750b	-0.047474902
153	0x3dfa9fdd	0.12237523
154	0x3de94c70	0.113915324
155	0xbe53e165	-0.2069145
156	0x3e05adf1	0.13054635
157	0xbe2c0b49	-0.1680118
158	0xbd128072	-0.035767026
159	0xbdb17b74	-0.08666125
160	0xbd26cb48	-0.040721208
161	0xbd236253	-0.03988869
162	0xbe3eeae1	-0.18644287
163	0xbe2aa793	-0.16665487
164	0xbd083db9	-0.03326199
165	0x3b95330a	0.0045532035
166	0xbdc1e76a	-0.09467967
167	0x3da62ad2	0.08113636
168	0xbe2f4860	-0.17117453
169	0xbc9c50f1	-0.019081565
170	0x3e3df40c	0.18550128
171	0xbdeeaadf	-0.11653685
172	0x3e51a29b	0.20472185
173	0x3d85c61b	0.06531926
174	0xbe586898	-0.2113365
175	0x3de8f39c	0.1137459
176	0xbd526a40	-0.05137086
177	0xbdad672c	-0.08466944
178	0x3e332f85	0.17498596
179	0xbe34004a	-0.17578235
180	0x3cb7e462	0.022447769
181	0xbd61ac8e	-0.0550962
182	0x3e20ab02	0.15690234
183	0x3d6297bb	0.055320483
184	0x3de62b14	0.11238685
185	0x3da49fdc	0.08038303
186	0xbd6d9534	-0.05800362
187	0xbd7ce76d	-0.061744142
188	0xbe53b95e	-0.2067618
189	0x3dbd4b7b	0.092429124
190	0x3e34475f	0.17605351
191	0x3e0e1e98	0.13878858
192	0xbe047043	-0.1293345
193	0xbac83f71	-0.0015277696
194	0xbe0aaa11	-0.13541438
195	0xbe081420	-0.13288927
196	0xbdcd52e1	-0.100255735
197	0x3d6ae000	0.05734253
198	0xbe10ef98	-0.14153898
199	0xbc7eb881	-0.015546919
200	0xbc897ccd	-0.016783142
201	0x3e1042a2	0.14087918
202	0xbe0db368	-0.1383797
203	0xbe0c2483	-0.13685803
204	0xbdf77690	-0.12083161
205	0x3e0e83f1	0.13917519
206	0xbd6f59f0	-0.05843538
207	0x3e344e6d	0.17608042
208	0x3d9a7da1	0.07543493
209	0x3ce62128	0.028091982
210	0xbc37e115	-0.011223097
211	0xbd879295	-0.06619755
212	0xbbfc0948	-0.007691536
213	0xbd6eb839	-0.058281157
214	0x3c248091	0.010040418
215	0x3ce7f730	0.02831611
216	0xbe09658c	-0.13417643
217	0xbde35c85	-0.11101631
218	0x3e32ebf3	0.1747282
219	0xbe4d9fec	-0.20080537
220	0x3ce45942	0.027874593
221	0x3e39d056	0.1814588
222	0x3d30994d	0.04311495
223	0xbca29a26	-0.019848894
224	0xbe5b2af4	-0.21403104
225	0x3dc50776	0.09620564
226	0xbde0d5dd	-0.10978291
227	0xbd52f79f	-0.05150568
228	0xbd7ae118	-0.061249822
229	0xbd3fd1ea	-0.04683105
230	0x3c85bac8	0.016324416
231	0x3e2d1662	0.1690307
232	0x3d0c39ef	0.034234937
233	0x3e3e68fd	0.18594737
234	0x3de09fca	0.10967977
235	0xbe39026c	-0.1806733
236	0x3d1f9465	0.03895988
237	0xbe22ec91	-0.15910555
238	0xbd8cb3ca	-0.068702295
239	0x3d552c0f	0.05204397
240	0x3d6943a7	0.056949284
241	0x3e1efad7	0.15525375
242	0xbd8bb1cd	-0.06821022
243	0x3bade724	0.005307095
244	0x3dbb39f2	0.091419116
245	0xbe422e4e	-0.18962976
246	0x3e1f475c	0.15554565
247	0xbe251a5b	-0.16123335
248	0x3c53fb6a	0.01293836
249	0xbcee5f67	-0.029098226
250	0xbdfb0c90	-0.122582555
251	0x3c8e3e39	0.017363654
252	0x3e29c0bf	0.16577433
253	0xbd668509	-0.056279216
254	0xbdff6a7d	-0.12471483
255	0xbd9cb596	-0.07651822

transformer_encoder.layers.0.self_attn.out_proj.bias f4 [24]
0	0x3cf3f52b	0.029779991
1	0x39d9fa48	0.0004157594
2	0xbb865178	-0.0040990673
3	0xbba07c2f	-0.0048976163
4	0xbc93dc2c	-0.018049322
5	0xbc6d41ac	-0.014480989
6	0xbae64e2e	-0.0017570907
7	0x3bd47734	0.0064839367
8	0x3cea1adf	0.028577266
9	0x3d3899e7	0.045068648
10	0xbcbfd4da	-0.023416925
11	0x3cec8639	0.028872596
12	0xbd11f855	-0.03563722
13	0xbcbef4dc	-0.023310117
14	0xbc496d82	-0.012294175
15	0xbc0e1c71	-0.008673773
16	0xbaf65f24	-0.0018796665
17	0xbc95ff73	-0.018310284
18	0x3cabbda4	0.020964451
19	0xbd094e74	-0.033522084
20	0x3c82a18b	0.01594617
21	0x3c9639d0	0.018338114
22	0x3c7016df	0.01465389
23	0xbb0be17e	-0.002134412

transformer_encoder.layers.0.linear1.weight f4 [512, 24]
0	0x3bc25008	0.0059299506
1	0x3d731afb	0.059351902
2	0x3d5b8258	0.053591102
3	0xbdf09f3d	-0.11749122
4	0xbe0108ed	-0.12601061
5	0xbe3c6387	-0.18397342
6	0xbabf2979	-0.0014584503
7	0x3d86c643	0.06580784
8	0xbc8bc545	-0.017061839
9	0x3e4a3273	0.19745807
10	0xbd17fe0b	-0.03710751
11	0xbe06b78d	-0.13155957
12	0x3d06439b	0.032779317
13	0xbd694020	-0.05694592
14	0xbcf57d48	-0.029966965
15	0x3e4bef46	0.19915494
16	0xbc071c7b	-0.008246536
17	0x3e3b0d29	0.18266739
18	0x3cda182f	0.02662286
19	0xbd9915e0	-0.074748755
20	0x3e17cee0	0.1482501
21	0xbdeafca7	-0.11473971
22	0x3b9d8a5f	0.004807755
23	0x3d41d33d	0.047320593
24	0x3dc0a46e	0.094063625
25	0xbe3ee226	-0.18640956
26	0x3c569f5b	0.013099517
27	0xbd5c3b97	-0.053767767
28	0x3e05463c	0.13015074
29	0x3d8d99dc	0.06914112
30	0x3d9fe676	0.07807629
31	0x3df9443b	0.12171217
32	0xbd327bb2	-0.043574996
33	0xbc4c4d2b	-0.01246957
34	0x3e25b94c	0.16183966
35	0xbe2b08e9	-0.16702618
36	0xbe10621b	-0.14099924
37	0x3c42d29d	0.011891034
38	0xbda4c60b	-0.08045586
39	0x3c4b3228	0.012402095
40	0x3e3969ba	0.18106738
41	0xbcd75ab3	-0.026288366
42	0xbe31c8b5	-0.1736172
43	0xbdc19650	-0.09452498
44	0x3e413685	0.18868454
45	0xbd384dd8	-0.044996113
46	0xbdb00e49	-0.08596475
47	0x3dc021fe	0.093814835
48	0x3cdf1eb9	0.02723633
49	0xbe34392c	-0.17599934
50	0x3e309d11	0.17247416
51	0x3deb0fad	0.11477599
52	0x3e34bb91	0.17649676
53	0x3db4053b	0.0879006
54	0xbd9620fe	-0.073305115
55	0xbd83c90c	-0.06434831
56	0x3dcc4674	0.09974375
57	0xbd276734	-0.040869907
58	0x3d2367a8	0.039893776
59	0xbe4d308c	-0.2003805
60	0xbdd304ed	-0.10303674
61	0x3d90f555	0.07078043
62	0xbc4e9589	-0.012608894
63	0xbdc7d040	-0.097565174
64	0xbe39d03c	-0.18145841
65	0x3e062489	0.13099875
66	0xbd26b897	-0.040703382
67	0xbe4e7f53	-0.20165758
68	0x3e4b8778	0.19875896
69	0x3dd24af9	0.10268206
70	0xbdf5f5f2	-0.12009801
71	0xbe147816	-0.14498934
72	0x3e49196f	0.19638608
73	0x3afbdadd	0.0019215007
74	0xbdfb95be	-0.122844204
75	0x3df1c971	0.11806
76	0xbd2fcfde	-0.042922847
77	0x3c5f5894	0.0136319585
78	0xbdd9efe4	-0.10641459
79	0xbe30a0c6	-0.1724883
80	0xbe0d6e6c	-0.13811654
81	0xbc9edc41	-0.019392135
82	0xbe17ba3c	-0.14817137
83	0x3e50a28c	0.20374507
84	0x3996e60d	0.0002878163
85	0xbd9e24fe	-0.077218994
86	0x3da27891	0.079331525
87	0xbe386634	-0.18007737
88	0xbdd90e2c	-0.10598406
89	0x3da23781	0.07920743
90	0xbe32ef83	-0.17474179
91	0x3dd0aab2	0.101888075
92	0x3c79f69d	0.015256551
93	0xbe2e3ebc	-0.17016119
94	0xbe4fcbe9	-0.2029263
95	0x3d85e014	0.0653688
96	0x3dc1bba2	0.09459616
97	0xbd3024a0	-0.04300368
98	0xbe3afc86	-0.18260393
99	0xbde73718	-0.11289805
100	0x3cb93561	0.02260846
101	0x3b94f80f	0.0045461725
102	0x3d65fd55	0.0561498
103	0x3d200735	0.039069373
104	0xbc4b75e0	-0.01241824
105	0x3dd8a744	0.105787784
106	0x3e4f915a	0.20270291
107	0x3e32d4d5	0.17464001
108	0x3e3e15c1	0.18562986
109	0xbd8872c7	-0.06662517
110	0xbd92df90	-0.071715474
111	0xbcca39c9	-0.024685757
112	0x3d686ee1	0.056746367
113	0x3db25350	0.08707297
114	0xbc7a7f98	-0.01528921
115	0xbe05a6f4	-0.13051969
116	0xbe1bbd31	-0.1520889
117	0x3e4559a3	0.19272475
118	0xbd81eb83	-0.063437484
119	0xbcf3bd5c	-0.02975338
120	0xbe025e24	-0.12731224
121	0xbdd51870	-0.10405052
122	0x3d3bed33	0.045880508
123	0x3daf23fb	0.085517846
124	0xbda4efdd	-0.08053563
125	0xbd99846b	-0.0749596
126	0x3e2464c1	0.1605406
127	0xbddca6fb	-0.107740365
128	0xbe1bc332	-0.1521118
129	0xbd210ab8	-0.039316863
130	0x3e495f9d	0.1966538
131	0x3d239ac8	0.039942533
132	0x3d074a7f	0.03303003
133	0xbcbe9bc9	-0.023267644
134	0x3e079bbc	0.13243002
135	0xbdca4121	-0.098757036
136	0x3e11aff6	0.1422728
137	0x3d3c6fe2	0.046005137
138	0x3cbb36af	0.022853224
139	0x3cf42e32	0.029807184
140	0xbe02b569	-0.12764515
141	0x3e1ab552	0.1510823
142	0x3de081d8	0.10962266
143	0xbe23d22c	-0.15998143
144	0xbe408695	-0.18801339
145	0xbd5a1e37	-0.05325147
146	0x3e0f9d0e	0.14024755
147	0xbdd1c301	-0.10242272
148	0x3e3d9e8a	0.18517509
149	0xbdd391c6	-0.103305385
150	0xbe43ae0a	-0.1910936
151	0x3db7f063	0.08981397
152	0xbdf9b919	-0.12193508
153	0xbce24123	-0.02761895
154	0xbd8447a3	-0.06458976
155	0xbc6309bb	-0.0138573
156	0xbe3b3e5d	-0.18285508
157	0xbe41de54	-0.18932468
158	0x3da857f5	0.082199015
159	0xbca9c15d	-0.020722086
160	0xbe02d3c3	-0.12776093
161	0xbaa615cf	-0.0012671294
162	0xbe3e7c6e	-0.18602154
163	0x3d5333d4	0.0515631
164	0x3dc58eb2	0.096463576
165	0x3e52feaf	0.20604967
166	0xbe28a88e	-0.16470549
167	0xbcab6bfb	-0.020925513
168	0x3de043ed	0.10950456
169	0x3e3afbeb	0.18260162
170	0xbe163c3c	-0.14671415
171	0x3db8bfa1	0.09020925
172	0x3da9ccfa	0.08291049
173	0x3dfb73a6	0.122779176
174	0xbe0cee10	-0.13762689
175	0x3e1615e4	0.14656788
176	0xbdbbbec2	-0.091672435
177	0xbe04fc5b	-0.12986891
178	0x3d36ec51	0.044658963
179	0x3e3258bc	0.17416662
180	0xbe09cc64	-0.13456875
181	0x3de7f7d4	0.11326566
182	0xbcc90f0b	-0.024543306
183	0x3d86fa99	0.065907665
184	0x3e2292e6	0.1587635
185	0x3d71c9b6	0.059030257
186	0xbe2d2772	-0.16909578
187	0xbd790fda	-0.060806133
188	0x3d22fc95	0.039791662
189	0xbe2c9707	-0.16854487
190	0x3ce794fc	0.028269283
191	0xbde637ae	-0.11241089
192	0xbd398fbf	-0.045303103
193	0x3d83f172	0.064425364
194	0xbe2afbe9	-0.16697659
195	0xbdf4a358	-0.11945218
196	0x3dc0822d	0.09399829
197	0xbe57f3b8	-0.21089065
198	0x3e13d68e	0.14437315
199	0xbe173728	-0.14767134
200	0xbc1f7908	-0.009733446
201	0x3cbe8b2a	0.023259718
202	0x3dbf00b1	0.09326304
203	0xbe02663c	-0.12734312
204	0x3cf64332	0.030061338
205	0x3dbfd1ef	0.093662135
206	0x3e304d2d	0.1721694
207	0xbe1cd3ed	-0.15315218
208	0xbddeb762	-0.10874821
209	0x3d8af9cb	0.067859255
210	0xba66d18a	-0.00088050275
211	0xbe0cb564	-0.1374107
212	0xbe2d49a9	-0.1692263
213	0xbe31675b	-0.17324583
214	0xbe1cd9a1	-0.15317394
215	0xbdb4c332	-0.08826293
216	0xbe0bdfce	-0.13659593
217	0xbe33ba93	-0.17551641
218	0x3cb3c263	0.021943277
219	0x3df5294d	0.11970768
220	0xbdcb5c5a	-0.09929724
221	0x3c9e5bfa	0.019330967
222	0xbc1981f0	-0.009369358
223	0x3dc58035	0.09643594
224	0xbe0c9405	-0.1372834
225	0x3c9ab3eb	0.01888462
226	0x3e3b82d0	0.1831162
227	0x3e16261c	0.14662975
228	0xbe56c757	-0.2097448
229	0xbd1cf9b1	-0.03832406
230	0xbb65d5ad	-0.0035069988
231	0xbd882b81	-0.06648923
232	0xbe0da8b4	-0.13833886
233	0xbe1203f9	-0.14259328
234	0x3e0b99a8	0.13632834
235	0xbd8f6c85	-0.0700312
236	0xbc41ac48	-0.01182086
237	0x3d835296	0.064122364
238	0xbdf676c4	-0.120343715
239	0x3cbda7ab	0.02315124
240	0x3df87173	0.12131014
241	0xbdf12438	-0.11774486
242	0x3d7ef235	0.062242705
243	0xbbe3d457	-0.006952803
244	0x3de51dec	0.11187348
245	0x3e0acb97	0.13554226
246	0x3d5943e4	0.05304326
247	0x3ba87311	0.00514067
248	0xbe33e46e	-0.17567608
249	0x3da63478	0.08115476
250	0x3dfd4638	0.12366909
251	0xbd99dd26	-0.07512884
252	0xbe4f0dc4	-0.20220095
253	0x3e291cf2	0.16514948
254	0xbd42fb2b	-0.047602814
255	0x3d275915	0.04085644

transformer_encoder.layers.0.linear1.bias f4 [512]
0	0xbd18a824	-0.037269726
1	0xbe0c47ec	-0.13699311
2	0xbe295ed5	-0.16540082
3	0xbdbd53a0	-0.09244466
4	0x3db3f19e	0.08786319
5	0x3d4026e4	0.04691209
6	0xbd758a56	-0.05994638
7	0xbd8cbfd6	-0.06872527
8	0xbd333bae	-0.043758087
9	0xbe0d77fe	-0.13815305
10	0x3e40b4a3	0.18818907
11	0xbe38cfc4	-0.18048006
12	0xbcc6afd4	-0.024253763
13	0x3cddb27c	0.027062647
14	0x3a052804	0.000507951
15	0xbbe1fed8	-0.006896835
16	0xbe264ccb	-0.16240232
17	0xbdb66c5b	-0.08907386
18	0xbde9f907	-0.11424451
19	0x3e3ecdf4	0.18633252
20	0xbd80ee26	-0.06295423
21	0xbe17c98f	-0.14822982
22	0xbe0f0ee2	-0.13970521
23	0xbe1716fc	-0.14754862
24	0xbd1cc2b0	-0.038271606
25	0xbdb0d3bd	-0.08634136
26	0xbe13a3af	-0.14417909
27	0xbd910ef3	-0.070829295
28	0x3e24ec66	0.16105804
29	0xbe3a0e19	-0.1816944
30	0xbc8454f8	-0.016153798
31	0x3e47e63f	0.19521426
32	0x3e058f4c	0.13042945
33	0x3d45e8f7	0.048317876
34	0x3daeb3f0	0.08530414
35	0xbd8cfda9	-0.06884319
36	0xbe2233ca	-0.15840068
37	0xbdfe1e0c	-0.12408075
38	0xbdf30fd5	-0.11868254
39	0x3e18bb14	0.14915115
40	0x3b4d809d	0.0031357177
41	0xbe28f476	-0.16499504
42	0xbe1c5504	-0.15266806
43	0xbc76f051	-0.015071944
44	0x3defd9ab	0.11711439
45	0x3ccc7a13	0.024960553
46	0x3d0f049c	0.034916505
47	0xbd3daab7	-0.046305384
48	0xbb0b0b47	-0.0021216439
49	0x3df3e0e2	0.11908127
50	0x3d8d48a2	0.06898619
51	0xbd8980b7	-0.067140035
52	0x3e540373	0.20704441
53	0x3e136606	0.14394388
54	0x3d8cf698	0.068829715
55	0x3dc8ca95	0.098042645
56	0x3e0d32bb	0.13788883
57	0xbcf0a5e9	-0.029375987
58	0x3d1f8ae0	0.0389508
59	0xbd87eb35	-0.06636659
60	0xbd7c7de5	-0.0616435
61	0x3c1d24c2	0.009591283
62	0xbe0af4ce	-0.13569948
63	0x3e38a4a0	0.1803155
64	0xbe0b9f8d	-0.13635083
65	0xbe05af24	-0.13055092
66	0xbce8a784	-0.02840019
67	0x3e0adbf6	0.13560471
68	0xbdd00a97	-0.1015827
69	0xbc4c14df	-0.012456148
70	0x3de5fdb1	0.112300284
71	0xbe374185	-0.17896087
72	0x3e41d0ae	0.18927261
73	0x3de99427	0.11405211
74	0x3d8e57d5	0.069503464
75	0x3b889aec	0.0041688588
76	0x3df8d5fa	0.12150188
77	0xbd5e7aba	-0.05431626
78	0x3ca2e5be	0.01988494
79	0x3e1b9b4f	0.15195964
80	0xbde5d994	-0.1122314
81	0x3c6c0151	0.014404611
82	0x3e152a91	0.14567019
83	0x3c90b802	0.017665867
84	0xbdf864b7	-0.12128585
85	0x3d1c944c	0.038227364
86	0xbd31844f	-0.04333907
87	0xbe332e51	-0.17498137
88	0x3b3694d9	0.0027859716
89	0x3c28ac32	0.010294961
90	0x3e08a6e4	0.13344914
91	0xbc1b66f7	-0.009484998
92	0xbe160808	-0.14651501
93	0x3e35e791	0.17764117
94	0x3d3a08f4	0.045418695
95	0xbd6b56d7	-0.057455864
96	0x3e00370d	0.12521
97	0x3e18a32e	0.14905998
98	0x3e15e676	0.14638695
99	0x3e2400ba	0.16015902
100	0xbda27f2e	-0.07934414
101	0x3e41ae13	0.1891406
102	0x3e010958	0.1260122
103	0xbe0ae567	-0.13564073
104	0x3dcf3f6d	0.101195194
105	0xbdec10a7	-0.11526614
106	0x3db862b5	0.09003202
107	0xbdf02503	-0.117258094
108	0x3dcf2825	0.10115079
109	0xbdae08b5	-0.084977545
110	0x3d363cff	0.044491764
111	0xbd255401	-0.040363315
112	0x3ddd3711	0.10801519
113	0xbaed056a	-0.0018083279
114	0x3dc042f9	0.09387774
115	0xbd9e0d1d	-0.07717345
116	0x3dc37bbf	0.09545087
117	0x3de18816	0.110122845
118	0x3c5b387d	0.013380167
119	0xbd807f25	-0.06274251
120	0x3d00e02c	0.031463787
121	0xbe3fdd71	-0.18736817
122	0xbc2cc36d	-0.01054464
123	0x3e306582	0.17226222
124	0x3dd19fce	0.102355585
125	0xbba52733	-0.0050400733
126	0xbdd41f89	-0.10357577
127	0x3d308f0a	0.043105163
128	0x3e396ceb	0.18107955
129	0x3dd02586	0.10163407
130	0x3b0e9bd3	0.002176036
131	0x3d806b81	0.06270505
132	0x3c83a06e	0.01606771
133	0xbd4054fc	-0.046956047
134	0xbe198f5a	-0.1499609
135	0xbdc64f04	-0.0968304
136	0xbdafd64c	-0.08585796
137	0xbdf79be0	-0.12090278
138	0x3e489125	0.19586618
139	0xbe321add	-0.1739306
140	0x3c5dcae7	0.013537145
141	0x3c477661	0.01217422
142	0xbdcda114	-0.10040489
143	0xbccc2947	-0.024922026
144	0x3d9ae3eb	0.07563003
145	0xbe14af5c	-0.1452002
146	0x3d889d1d	0.06670592
147	0xbc435a71	-0.011923418
148	0xbdc65162	-0.09683491
149	0xbe209d65	-0.15685041
150	0xbca1e7fa	-0.019763935
151	0xbdc074c0	-0.09397268
152	0x3d9123b6	0.070868894
153	0xbe5213ef	-0.20515417
154	0x3e1f491b	0.15555231
155	0x3e48c6c9	0.1960708
156	0x3c84f2dc	0.016229086
157	0xbe0e1f36	-0.13879094
158	0xbe49ead6	-0.19718489
159	0x3dc86700	0.09785271
160	0x3d91cde0	0.07119346
161	0x3e2dc22e	0.16968605
162	0xbddd2e25	-0.10799817
163	0x3dec85f8	0.1154899
164	0xbdaa1324	-0.08304432
165	0xbe1d6c24	-0.15373284
166	0x3c8e3a4a	0.017361779
167	0xbd6b0233	-0.057375144
168	0x3dc05d9e	0.09392856
169	0xbddeda3c	-0.10881469
170	0x3e09cf6a	0.13458028
171	0xbe16cf81	-0.14727594
172	0x3d4eb1a5	0.050462384
173	0x3e0adc34	0.13560563
174	0xbd4ea4f5	-0.050450284
175	0xbe446378	-0.1917857
176	0x3d9f8106	0.07788281
177	0xbe335b9b	-0.17515413
178	0xbddafdd4	-0.10692945
179	0xbdbdf558	-0.09275311
180	0xbddceb25	-0.10787038
181	0x3e3f6382	0.18690303
182	0xbe1d5a9a	-0.15366593
183	0x3e1e1e9d	0.15441366
184	0xbe074d14	-0.13212997
185	0x3e2abd05	0.16673668
186	0xbd8a0ef8	-0.06741136
187	0xbd0d34ae	-0.034474067
188	0xbe127be4	-0.14305073
189	0x3cbfe038	0.023422346
190	0xbda30a5a	-0.07960959
191	0xbe42819a	-0.18994752
192	0x3dcc268c	0.0996829
193	0x3d8bb467	0.068215184
194	0xbe0b51f2	-0.13605478
195	0x3e4683e6	0.19386253
196	0xbcae8db5	-0.021307806
197	0x3e06c93b	0.13162701
198	0xbd9823fc	-0.074287385
199	0xbe4df86f	-0.20114301
200	0xbdc5b952	-0.09654488
201	0xbe21bcbf	-0.15794657
202	0x3e3cf693	0.18453436
203	0x3e2a390e	0.16623327
204	0xbd184206	-0.03717234
205	0xbe4eada4	-0.20183426
206	0x3e019b7d	0.1265697
207	0x3d884e0e	0.06655513
208	0x3e0b8a87	0.13627063
209	0x3d27033d	0.040774573
210	0x3db3fd08	0.08788496
211	0xbc5d44c3	-0.013505164
212	0x3e5097c3	0.20370393
213	0xbd15b9a2	-0.036553986
214	0x3dc2abc2	0.095054165
215	0xbe48ecb1	-0.1962154
216	0xbce731d8	-0.02822201
217	0x3cd525bb	0.026018968
218	0x3e2e3f1c	0.17016262
219	0x3de53fe8	0.1119383
220	0x3e4d83e6	0.20069847
221	0x3cf1ee4a	0.02953257
222	0xbd8b3f89	-0.06799228
223	0x3c174e9c	0.0092350505
224	0xbb1ede91	-0.0024241547
225	0x3d77752a	0.06041447
226	0x3d310d0d	0.043225337
227	0xbdbe8ef0	-0.09304607
228	0x3db5837f	0.088629715
229	0x3cc3b2dd	0.023889
230	0xbe0ef9b5	-0.13962443
231	0x3bd4559b	0.0064799315
232	0xbe1605f4	-0.14650708
233	0x397b4bc0	0.00023965444
234	0x3d636378	0.055514783
235	0xbe526ba5	-0.20548876
236	0x3e118dba	0.1421422
237	0xbdb8c116	-0.09021203
238	0xbd11a861	-0.03556097
239	0xbd425d3d	-0.0474522
240	0x3e23d74a	0.16000095
241	0xbe005bb4	-0.12534982
242	0xbe4e1bde	-0.20127818
243	0xbe414c87	-0.18876849
244	0x3dc3624a	0.095402315
245	0xbd8d8dde	-0.06911825
246	0x3cfc8610	0.030825645
247	0x3dcc5615	0.09977356
248	0x3ba2997d	0.004962145
249	0x3e511ba1	0.20420696
250	0x3da91eb9	0.08257813
251	0xbe489413	-0.19587736
252	0xbe245b90	-0.16050553
253	0xbe39f083	-0.18158154
254	0xbe0d3bdf	-0.1379237
255	0xbd4d800a	-0.050170936

transformer_encoder.layers.0.linear2.weight f4 [24, 512]
0	0x3c091e25	0.008369003
1	0x3c55028e	0.013001097
2	0xbd365e37	-0.044523444
3	0x3c872bdb	0.016500404
4	0xbc4086e7	-0.011750913
5	0xbb7481f8	-0.0037308913
6	0x3b2293c2	0.0024807309
7	0x3c9329fb	0.017964354
8	0x3ce411a5	0.027840445
9	0xbd2f5db9	-0.04281399
10	0x39606e15	0.00021403313
11	0xbd2874aa	-0.041126885
12	0x3c7300c6	0.014831727
13	0xbbbfe815	-0.0058565238
14	0xbb9ff1b5	-0.0048811086
15	0xbd2a7736	-0.041617595
16	0x3ce057fd	0.027385706
17	0xbc918f68	-0.017768577
18	0xbbd99ae8	-0.0066407807
19	0xbd0b964f	-0.034078892
20	0x3d139444	0.03603007
21	0x3c02550c	0.007954847
22	0xbac1a40a	-0.0014773619
23	0x3d0cfeff	0.03442287
24	0x3b3df37f	0.0028984246
25	0x3ce079a6	0.027401756
26	0xbd04a3e6	-0.03238287
27	0xbbae9332	-0.0053276056
28	0xbcbc5b21	-0.022992672
29	0x3c700567	0.0146497255
30	0xbd2abf72	-0.041686483
31	0xbc717ee1	-0.014739723
32	0x3a8fa397	0.0010958788
33	0x3d24cb04	0.040232673
34	0xbba7b3b4	-0.005117858
35	0xbca2c60c	-0.019869827
36	0xbce900c7	-0.028442753
37	0xbc5d05ae	-0.013490124
38	0xbc0aa14f	-0.0084613105
39	0x3d02fd4f	0.031979855
40	0xbbd2fade	-0.006438597
41	0xbcb7dbeb	-0.022443732
42	0xbb3f9e19	-0.002923852
43	0xbcf8fd58	-0.030394241
44	0x3bf04451	0.0073323627
45	0xbcefe89e	-0.029285725
46	0x3d1e94ac	0.038716003
47	0x3d243a32	0.040094562
48	0xbcfbd321	-0.030740323
49	0x3cccf22a	0.025017817
50	0xbc54264b	-0.012948583
51	0xbc6e5578	-0.0145467445
52	0x3d2650c5	0.04060437
53	0x3d4e7246	0.05040195
54	0x3d0386cf	0.032110985
55	0xbd209fae	-0.039214782
56	0x3c747597	0.014920614
57	0x3cc47968	0.023983672
58	0x3c7ff1e8	0.01562164
59	0xbce7c1e9	-0.028290706
60	0x3c31d3c4	0.0108537115
61	0xbc8b88cd	-0.017033005
62	0x3be8a9e7	0.007100332
63	0xbb306162	-0.0026913513
64	0x3b9b83eb	0.0047459505
65	0xbcb5eb39	-0.02220689
66	0x3cb37e26	0.021910738
67	0xbc9225c2	-0.01784027
68	0xbc545bc6	-0.012961334
69	0x3ca6627c	0.020310633
70	0x3c89eda4	0.016836949
71	0x3cb51e0e	0.022109058
72	0x3c5fed7a	0.013667459
73	0xbbbca8ce	-0.005757428
74	0xbc201bf5	-0.0097722905
75	0x3d10aa7e	0.035318844
76	0xbd39e32a	-0.045382656
77	0x3d0ecf67	0.034865763
78	0x3caafeb6	0.020873409
79	0x3b94beeb	0.0045393608
80	0x3cdbe476	0.026842337
81	0x3d37e456	0.044895492
82	0x3b1a1f58	0.0023517217
83	0xbcb226b8	-0.021746978
84	0xbcd9de87	-0.026595367
85	0x3c95a188	0.0182655
86	0xbc6789c1	-0.014131964
87	0x3b166280	0.0022946894
88	0xba4acff5	-0.00077366765
89	0xbcf14529	-0.029451923
90	0x3c563290	0.0130735785
91	0xbc651957	-0.013983092
92	0x3be5b05b	0.0070095486
93	0x3cd128a0	0.025532067
94	0xbc489fd2	-0.012245135
95	0xbbd76ab4	-0.0065739993
96	0xbbefd3c2	-0.0073189447
97	0x3b4dcc78	0.003140239
98	0x3c1aa328	0.009438314
99	0x3cf6a8a8	0.030109718
100	0xbd318e83	-0.0433488
101	0x3d0c6b47	0.034281995
102	0x3d4472ee	0.047961168
103	0xbce258ea	-0.027630288
104	0x3cdf5078	0.02726005
105	0x3c25a1ea	0.010109404
106	0xbce8f500	-0.028437138
107	0x3af9d355	0.0019060174
108	0xbc3d6ff9	-0.011562341
109	0x3d140907	0.03614142
110	0xbc94fd7b	-0.018187275
111	0xbc4fe6be	-0.012689291
112	0x3d5ca805	0.053871173
113	0xbc98bd59	-0.018644975
114	0xbd29cc82	-0.0414548
115	0x3d135c37	0.035976615
116	0x3c0ed48e	0.008717669
117	0x3ca8e965	0.020619104
118	0x3c29f52e	0.010373397
119	0xbcc1b5de	-0.023646291
120	0x3c2f6835	0.010705997
121	0x3c81f761	0.01586503
122	0x3bce92a9	0.0063041043
123	0x3cf9734f	0.030450491
124	0xbcd3442c	-0.025789343
125	0x3c5bbea6	0.013412153
126	0x3d6b9186	0.05751183
127	0xbb9b90c9	-0.0047474843
128	0x3d3b0644	0.045660272
129	0xbbb01458	-0.005373519
130	0xbc8d44eb	-0.017244777
131	0x3ba2ab6e	0.0049642837
132	0x3cb9c8b1	0.022678705
133	0x3b764d2f	0.0037582626
134	0xbd092fa2	-0.03349269
135	0x3cfbd417	0.03074078
136	0x3c79a3ad	0.015236777
137	0xbcaa1f05	-0.020766744
138	0x3ce5666e	0.028002944
139	0x3ab67d5f	0.0013922862
140	0x3bc50bff	0.006013393
141	0xbafb4ba2	-0.0019172321
142	0x3d1ade55	0.03780969
143	0xbcfee6a2	-0.031115834
144	0x39faf126	0.00047863385
145	0x3c319987	0.010839826
146	0xbc5012ad	-0.012699765
147	0xbb58e552	-0.003309567
148	0xbd189602	-0.037252434
149	0x3c2f13f2	0.010685908
150	0x3ac86d8a	0.0015291434
151	0xbc395c66	-0.011313533
152	0xbd2eb54a	-0.04265336
153	0x3c6b4f5a	0.014362181
154	0xbc9c144e	-0.01905265
155	0x3d2938c0	0.041313887
156	0x3d239e87	0.039946105
157	0x3d1a8252	0.03772194
158	0x3d1263bc	0.035739645
159	0x3d387aba	0.045038916
160	0xbbd24602	-0.006417037
161	0x3c8a8a00	0.016911507
162	0xbc424e12	-0.011859434
163	0xbb5e83f9	-0.0033953174
164	0xbcfd4123	-0.030914849
165	0xbb157cc7	-0.0022809969
166	0x3afb81b3	0.0019188434
167	0xbba8a51f	-0.005146637
168	0xbd162297	-0.03665408
169	0x3c50d9f9	0.012747281
170	0xbc23bfd5	-0.009994467
171	0xbc8599fa	-0.016308773
172	0xbcac472b	-0.02103003
173	0xbc285c5f	-0.010275929
174	0x3c984087	0.018585457
175	0x3c0877e8	0.008329369
176	0xbbfd5ee1	-0.0077322577
177	0xbc781691	-0.015142099
178	0xba70f20e	-0.00091913424
179	0xbcf8ef7d	-0.030387634
180	0x3d3d19b3	0.046167087
181	0xbcbf088c	-0.023319505
182	0x3c975ea3	0.018477743
183	0xbd14565d	-0.036215175
184	0xbcef5ed9	-0.029220032
185	0xbd405692	-0.04695756
186	0xbcc34cf4	-0.023840405
187	0xbd10122f	-0.03517359
188	0xbccaa7a9	-0.02473815
189	0xbbe4ff51	-0.006988444
190	0x3c72ed96	0.014827153
191	0xbc9a79ae	-0.01885685
192	0x3cc32d28	0.023825243
193	0xbcf4521f	-0.029824315
194	0xbd1dddb9	-0.03854153
195	0xbcb2ec0e	-0.021841075
196	0xbd15e869	-0.036598597
197	0x3cafbba8	0.021451786
198	0x3cf16d76	0.02947114
199	0x3c8aa6bd	0.01692521
200	0x3c0c66a1	0.0085693905
201	0x3d13edf5	0.036115605
202	0x3bde9ab7	0.006793346
203	0x3c7c6fd9	0.015407526
204	0xbcc24a19	-0.023716973
205	0x3bb1655f	0.0054136957
206	0x3c06f2b4	0.008236576
207	0x3d142e96	0.03617724
208	0xbc834a9b	-0.016026786
209	0x3cd9a8dd	0.026569778
210	0xbb6826be	-0.0035423483
211	0xbcc58ca6	-0.024114918
212	0xbc26f247	-0.010189599
213	0xbd2b263c	-0.04178451
214	0x3cc566bf	0.024096845
215	0x3c8c5196	0.017128747
216	0xbd1369a0	-0.035989404
217	0xbce3a60e	-0.027789142
218	0x3d1566bb	0.036474925
219	0x3d0f6a71	0.03501362
220	0x3d096cf0	0.033551157
221	0x3d044147	0.032288816
222	0xbc3801f0	-0.011230931
223	0x3d33787a	0.043816067
224	0xbd3e4505	-0.04645254
225	0xbc6a6667	-0.014306641
226	0x3c41cbfa	0.011828417
227	0x3cc0ad30	0.023520082
228	0xbc375f3b	-0.011192138
229	0xbcb26d48	-0.021780625
230	0x3c4438a0	0.011976391
231	0x3cc29b73	0.023755765
232	0x3c8b5a38	0.017010793
233	0x3bddb5aa	0.006766041
234	0x3c302592	0.010751145
235	0xbceb7b47	-0.028745307
236	0xbd1dd948	-0.038537294
237	0xbd12cee9	-0.035841856
238	0x3d38a6db	0.045081
239	0xbbf675f6	-0.0075213863
240	0x3c9911a6	0.018685173
241	0x3c7d1a22	0.015448125
242	0xbcd40514	-0.025881328
243	0x3b9df9ce	0.004821039
244	0x3d1c434d	0.03815012
245	0x3c4800d4	0.012207229
246	0x3d125b04	0.03573133
247	0x3cfa0a20	0.030522406
248	0xbc9e0649	-0.019290106
249	0xbd17f4ea	-0.037098803
250	0xbc1cb645	-0.009564941
251	0xbd129a50	-0.035791695
252	0x3c9c7fd0	0.019103914
253	0x3d2a81c1	0.04162765
254	0x3cf12867	0.02943821
255	0x3d2a3b7f	0.041560646

transformer_encoder.layers.0.linear2.bias f4 [24]
0	0x3b9b3173	0.0047361194
1	0xbd053f4e	-0.032531075
2	0xbd2d99fe	-0.042383187
3	0xbd22a252	-0.039705582
4	0xbcc11f7c	-0.023574583
5	0x3d0d7f47	0.03454521
6	0xbcfac63d	-0.030612106
7	0xbd133a3f	-0.03594422
8	0x3c3c9913	0.011511105
9	0x3d253dd2	0.04034216
10	0xbce246bc	-0.02762162
11	0x3c859d5b	0.016310384
12	0xbb90c809	-0.0044183773
13	0x3c934f1b	0.017982056
14	0xbc2ae30f	-0.010430112
15	0xbc68ae3c	-0.014201697
16	0x3b240807	0.0025029199
17	0xb8cdaa20	-9.80685e-05
18	0x3d60b232	0.05485744
19	0xbcb065e0	-0.021532953
20	0xbb29e268	-0.0025922302
21	0x3d0f4e93	0.034987044
22	0xbba14c3d	-0.0049224184
23	0x3ac29b35	0.0014847281

transformer_encoder.layers.0.norm1.weight f4 [24]
0	0x3f71d042	0.944584
1	0x3f76d2c2	0.9641534
2	0x3f74d613	0.9563915
3	0x3f7564af	0.95856756
4	0x3f7d5e40	0.9897194
5	0x3f7cc7f0	0.9874258
6	0x3f7c5c15	0.98578006
7	0x3f802a87	1.0012978
8	0x3f82de2e	1.0224054
9	0x3f85904f	1.0434664
10	0x3f82e138	1.0224981
11	0x3f7f6b4d	0.99773103
12	0x3f884c2f	1.0648249
13	0x3f863f39	1.0488044
14	0x3f8143c4	1.0098805
15	0x3f7cd68c	0.9876487
16	0x3f75e9c1	0.96059805
17	0x3f7c8629	0.9864221
18	0x3f83325c	1.0249743
19	0x3f8173f0	1.0113506
20	0x3f7bd3c2	0.9836999
21	0x3f829d41	1.020424
22	0x3f81c6fa	1.0138848
23	0x3f7e8225	0.99417335

transformer_encoder.layers.0.norm1.bias f4 [24]
0	0x3c904c3a	0.017614473
1	0xbafc9119	-0.0019269317
2	0xba7c3557	-0.00096209854
3	0x3a692b46	0.0008894693
4	0xbca972c6	-0.020684611
5	0xbbacb7e1	-0.0052709435
6	0xbb836410	-0.004009731
7	0xbad4a966	-0.0016224801
8	0x3ba2b622	0.0049655596
9	0x3c4a39e0	0.0123429
10	0xbaeb0778	-0.0017931303
11	0x3c829b0a	0.015943069
12	0xbc28012f	-0.010254188
13	0xbbfaf8e3	-0.007659064
14	0xbad1ca0c	-0.0016005649
15	0xbbac180b	-0.0052518896
16	0x3bac8897	0.005265306
17	0xbbf81be4	-0.007571684
18	0x3c9d60ec	0.019211255
19	0xbccd24e3	-0.025042003
20	0x3b8f0277	0.0043643075
21	0x3bc76200	0.0060846806
22	0x3c19fab2	0.009398149
23	0xbba12826	-0.004918116

transformer_encoder.layers.0.norm2.weight f4 [24]
0	0x3f78a6a1	0.97129256
1	0x3f7e2db4	0.9928849
2	0x3f72b6ab	0.9480998
3	0x3f7bbd8e	0.9833611
4	0x3f812b98	1.0091429
5	0x3f8033e0	1.0015831
6	0x3f78fe71	0.97263247
7	0x3f7add5b	0.9799401
8	0x3f8165d6	1.0109203
9	0x3f8c2407	1.0948495
10	0x3f812940	1.0090714
11	0x3f897782	1.0739596
12	0x3f88ae45	1.0678183
13	0x3f84c7f1	1.0373517
14	0x3f7d29b7	0.98891777
15	0x3f807466	1.0035522
16	0x3f6d594d	0.9271439
17	0x3f83f73b	1.0309824
18	0x3f826586	1.0187232
19	0x3f8499d3	1.0359443
20	0x3f7f9b1f	0.9984607
21	0x3f839142	1.0278704
22	0x3f800db1	1.0004178
23	0x3f7e9587	0.9944691

transformer_encoder.layers.0.norm2.bias f4 [24]
0	0x3b414ff5	0.002949712
1	0xbc487c8c	-0.012236726
2	0x3a82a96a	0.0009968702
3	0xb79c5a28	-1.8638631e-05
4	0xbc4fb402	-0.012677195
5	0x3a44a533	0.0007501423
6	0x3b2325d3	0.002489437
7	0x3bf8c4c5	0.007591816
8	0xbbdd5d6f	-0.006755523
9	0xbb71d3b1	-0.003689986
10	0xbc055392	-0.0081376005
11	0x3c753529	0.014966288
12	0xbc15dede	-0.009147374
13	0xbad0502d	-0.0015893035
14	0x3b1f3845	0.0024295014
15	0x3af73bed	0.0018862464
16	0x3cb04bc3	0.021520501
17	0xbc88e2fa	-0.016709793
18	0x3cb5e96f	0.022206036
19	0xbc783009	-0.015148171
20	0xbc117a3b	-0.00887924
21	0x3c22a77a	0.009927625
22	0x3b96564c	0.004587924
23	0xbabbd989	-0.0014331798
