online/32_net.pth (torch, 236820 bytes, 26 tensors)

pos_encoder.pe f4 [70, 24]
0	0x00000000	0.0
1	0x3f800000	1.0
2	0x00000000	0.0
3	0x3f800000	1.0
4	0x00000000	0.0
5	0x3f800000	1.0
6	0x00000000	0.0
7	0x3f800000	1.0
8	0x00000000	0.0
9	0x3f800000	1.0
10	0x00000000	0.0
11	0x3f800000	1.0
12	0x00000000	0.0
13	0x3f800000	1.0
14	0x00000000	0.0
15	0x3f800000	1.0
16	0x00000000	0.0
17	0x3f800000	1.0
18	0x00000000	0.0
19	0x3f800000	1.0
20	0x00000000	0.0
21	0x3f800000	1.0
22	0x00000000	0.0
23	0x3f800000	1.0
24	0x3f576aa4	0.84147096
25	0x3f0a5141	0.54030234
26	0x3ee5351d	0.44767085
27	0x3f64ea30	0.8941984
28	0x3e5ae952	0.21378067
29	0x3f7a14eb	0.9768817
30	0x3dcc7576	0.099833414
31	0x3f7eb898	0.9950042
32	0x3d3e0d1e	0.04639923
33	0x3f7fb96a	0.99892294
34	0x3cb07a47	0.021542681
35	0x3f7ff0ca	0.9997679
36	0x3c23d657	0.009999833
37	0x3f7ffcb9	0.99995
38	0x3b981857	0.0046415734
39	0x3f7fff4b	0.9999892
40	0x3b0d3164	0.0021544332
41	0x3f7fffd9	0.9999977
42	0x3a83126d	0.0009999998
43	0x3f7ffff8	0.9999995
44	0x39f35a5c	0.00046415895
45	0x3f7ffffe	0.9999999
46	0x3961e8ab	0.00021544348
47	0x3f800000	1.0
48	0x3f68c7b7	0.9092974
49	0xbed51133	-0.41614684
50	0x3f4cf4fb	0.8006131
51	0x3f1963f8	0.59918165
52	0x3ed5d9be	0.41767687
53	0x3f6899b9	0.9085956
54	0x3e4b6ff8	0.19866931
55	0x3f7ae5a5	0.9800666
56	0x3dbdd8b7	0.09269851
57	0x3f7ee5d1	0.9956942
58	0x3d306fcb	0.043075364
59	0x3f7fc32c	0.99907184
60	0x3ca3d43e	0.019998666
61	0x3f7ff2e5	0.9998
62	0x3c1817ec	0.009283047
63	0x3f7ffd2d	0.9999569
64	0x3b8d314e	0.004308856
65	0x3f7fff64	0.9999907
66	0x3b031268	0.0019999985
67	0x3f7fffdf	0.99999803
68	0x3a735a5b	0.00092831784
69	0x3f7ffff9	0.9999996
70	0x39e1e8ab	0.00043088695
71	0x3f7fffff	0.99999994
72	0x3e1081c3	0.14112
73	0xbf7d7026	-0.9899925
74	0x3f7bf0ce	0.98414314
75	0x3e35a216	0.17737612
76	0x3f1a2dc8	0.60226107
77	0x3f4c5d56	0.7982992
78	0x3e974e6c	0.2955202
79	0x3f7490ef	0.9553365
80	0x3e0e2117	0.1387981
81	0x3f7d85a8	0.9903207
82	0x3d8446bd	0.06458805
83	0x3f7f7729	0.997912
84	0x3cf5b91f	0.0299955
85	0x3f7fe283	0.99955004
86	0x3c6422d5	0.01392432
87	0x3f7ff9a6	0.9999031
88	0x3bd3c9bf	0.006463259
89	0x3f7ffea2	0.99997914
90	0x3b449b92	0.0029999954
91	0x3f7fffb5	0.9999955
92	0x3ab683c2	0.0013924765
93	0x3f7ffff0	0.99999905
94	0x3a296e7f	0.00064633036
95	0x3f7ffffd	0.9999998
96	0xbf41bdcf	-0.7568025
97	0xbf275530	-0.6536436
98	0x3f759ce7	0.9594254
99	0xbe905d6c	-0.28196275
100	0x3f424dbe	0.75899875
101	0x3f26adf9	0.6510921
102	0x3ec761d7	0.38941833
103	0x3f6bcaa7	0.921061
104	0x3e3d0773	0.18459873
105	0x3f7b99b2	0.98281395
106	0x3db045df	0.08607077
107	0x3f7f0ccc	0.996289
108	0x3d23cbdb	0.039989334
109	0x3f7fcb94	0.9992001
110	0x3c98163e	0.018565293
111	0x3f7ff4b4	0.9998276
112	0x3c0d30f8	0.008617632
113	0x3f7ffd91	0.99996287
114	0x3b831257	0.003999989
115	0x3f7fff7a	0.999992
116	0x3af35a54	0.0018566349
117	0x3f7fffe3	0.9999983
118	0x3a61e8a9	0.0008617738
119	0x3f7ffffa	0.99999964
120	0xbf757c10	-0.9589243
121	0x3e913c2c	0.2836622
122	0x3f3b500a	0.73169005
123	0xbf2e7fcb	-0.68163747
124	0x3f6171cf	0.88064283
125	0x3ef29363	0.47378072
126	0x3ef57743	0.47942552
127	0x3f60a940	0.87758255
128	0x3e6b8593	0.23000173
129	0x3f7922ff	0.97319025
130	0x3ddc300e	0.10751353
131	0x3f7e8421	0.9942036
132	0x3d4cb6f4	0.049979165
133	0x3f7fae19	0.99875027
134	0x3cbe1a3c	0.023205869
135	0x3f7fee5a	0.9997307
136	0x3c307ce6	0.010771966
137	0x3f7ffc33	0.999942
138	0x3ba3d6dd	0.004999979
139	0x3f7fff2e	0.9999875
140	0x3b181871	0.0023207928
141	0x3f7fffd3	0.9999973
142	0x3a8d3169	0.0010772172
143	0x3f7ffff6	0.9999994
144	0xbe8f0f8c	-0.2794155
145	0x3f75cdb8	0.96017027
146	0x3eb2c0c6	0.349127
147	0xbf6fe42d	-0.93707544
148	0x3f762963	0.961569
149	0x3e8c938f	0.27456328
150	0x3f108c68	0.5646424
151	0x3f534932	0.8253356
152	0x3e8cc0e9	0.2749093
153	0x3f7622e9	0.9614702
154	0x3e040009	0.12890638
155	0x3f7ddd38	0.9916568
156	0x3d759cd1	0.059964005
157	0x3f7f8a12	0.99820054
158	0x3ce41d2b	0.02784594
159	0x3f7fe696	0.9996122
160	0x3c53c89d	0.012926248
161	0x3f7ffa86	0.99991643
162	0x3bc49b58	0.0059999637
163	0x3f7ffed2	0.999982
164	0x3b3683b7	0.0027849504
165	0x3f7fffbf	0.9999961
166	0x3aa96e7d	0.0012926605
167	0x3f7ffff2	0.99999917
168	0x3f283046	0.6569866
169	0x3f40ffbd	0.75390226
170	0xbddbc69f	-0.10731243
171	0xbf7e858d	-0.9942253
172	0x3f7f7f41	0.9980355
173	0x3d804f23	0.06265094
174	0x3f24eb72	0.6442176
175	0x3f43ccb3	0.7648422
176	0x3ea3716a	0.31922466
177	0x3f729b18	0.94767904
178	0x3e19d85d	0.15023942
179	0x3f7d1825	0.98864967
180	0x3d8f3e32	0.06994285
181	0x3f7f5f81	0.997551
182	0x3d050f6e	0.032485418
183	0x3f7fdd69	0.9994722
184	0x3c771415	0.0150804715
185	0x3f7ff88c	0.9998863
186	0x3be55fc5	0.006999942
187	0x3f7ffe65	0.9999755
188	0x3b54eef8	0.003249107
189	0x3f7fffa8	0.99999475
190	0x3ac5ab91	0.0015081038
191	0x3f7fffed	0.99999887
192	0x3f7d4695	0.98935825
193	0xbe14fdf6	-0.14550003
194	0xbf0a81e3	-0.5410444
195	0xbf574b62	-0.840994
196	0x3f7d04e9	0.9883562
197	0xbe1bcf59	-0.15215816
198	0x3f37a4a5	0.717356
199	0x3f325b5f	0.6967067
200	0x3eb9c7cb	0.36285242
201	0x3f6e8d80	0.9318466
202	0x3e2f9e69	0.17150272
203	0x3f7c34ff	0.98518366
204	0x3da3aa50	0.07991469
205	0x3f7f2e65	0.9968017
206	0x3d180f89	0.03712419
207	0x3f7fd2d3	0.9993107
208	0x3c8d2fa1	0.017234625
209	0x3f7ff644	0.99985147
210	0x3c031212	0.007999914
211	0x3f7ffde7	0.999968
212	0x3b735a38	0.0037132632
213	0x3f7fff8c	0.9999931
214	0x3ae1e8a4	0.001723547
215	0x3f7fffe7	0.9999985
216	0x3ed30132	0.4121185
217	0xbf693fd5	-0.91113025
218	0xbf5c3bf1	-0.86028963
219	0xbf02829f	-0.5098056
220	0x3f6ed7af	0.9329786
221	0xbeb84901	-0.35993198
222	0x3f48881c	0.78332686
223	0x3f1f21d5	0.62161
224	0x3ecfb7ba	0.4056986
225	0x3f69fc5c	0.91400695
226	0x3e454f97	0.19268642
227	0x3f7b33e1	0.98126036
228	0x3db8123e	0.089878544
229	0x3f7ef6c2	0.9959527
230	0x3d2b0ecd	0.041762162
231	0x3f7fc6d3	0.99912757
232	0x3c9ed50c	0.019388698
233	0x3f7ff3ae	0.999812
234	0x3c13743a	0.008999879
235	0x3f7ffd59	0.9999595
236	0x3b88e2ba	0.0041774185
237	0x3f7fff6e	0.9999913
238	0x3afe25b6	0.0019389901
239	0x3f7fffe1	0.99999815
240	0xbf0b44f8	-0.5440211
241	0xbf56cd64	-0.8390715
242	0xbf7f5bd1	-0.99749476
243	0xbd90e07e	-0.070740685
244	0x3f559f61	0.8344632
245	0xbf0d1282	-0.55106366
246	0x3f576aa4	0.84147096
247	0x3f0a5141	0.54030234
248	0x3ee5351e	0.44767088
249	0x3f64ea30	0.8941984
250	0x3e5ae953	0.21378069
251	0x3f7a14eb	0.9768817
252	0x3dcc7576	0.099833414
253	0x3f7eb898	0.9950042
254	0x3d3e0d21	0.04639924
255	0x3f7fb96a	0.99892294

transformer_encoder.layers.0.self_attn.in_proj_weight f4 [72, 24]
0	0xbe573024	-0.21014458
1	0xbdc2e29b	-0.09515878
2	0xbe2e7192	-0.17035511
3	0x3e70fb8f	0.23533462
4	0xbddaa51c	-0.10676023
5	0xbde7de8b	-0.113217436
6	0x3e052a5d	0.13004442
7	0xbdefb3f4	-0.11704245
8	0xbdfc7662	-0.12327267
9	0xbcbd2cf0	-0.023092717
10	0xbcbfab3c	-0.02339708
11	0xbe47c912	-0.19510296
12	0x3e561956	0.20908102
13	0xbddff811	-0.10935987
14	0x3db4fbab	0.08837064
15	0x3e60a28b	0.21937005
16	0x3e020dd7	0.12700592
17	0x3d0e8169	0.034791384
18	0x3e58e071	0.21179368
19	0x3d0c9f35	0.03433152
20	0xbdec5193	-0.115389965
21	0x3e727ff6	0.23681626
22	0x3d73e53b	0.059544783
23	0xbe79f7d0	-0.24410939
24	0xbd99a8d1	-0.07502902
25	0xbe344715	-0.1760524
26	0x3e5ba73a	0.2145051
27	0xbd4cd55c	-0.050008163
28	0xbe6c2f6d	-0.23064966
29	0xbc9c8b18	-0.019109294
30	0x3e1b0379	0.15138043
31	0x3d6a3cc6	0.057186864
32	0x3d86d8be	0.06584309
33	0x3c639e59	0.0138927335
34	0x3db23ce5	0.08703021
35	0xbd911f78	-0.0708608
36	0xbdd28bee	-0.10280596
37	0xbe779585	-0.24178131
38	0xbe45c6cf	-0.1931412
39	0x3dd21093	0.102570675
40	0xbe18cdf0	-0.14922309
41	0x3cb2f231	0.021844001
42	0x3d913e3e	0.0709195
43	0x3c068b9b	0.0082119955
44	0xbe2e9ccb	-0.17052
45	0x3e676898	0.22598493
46	0xbe170f9f	-0.14752053
47	0x3e4824e7	0.19545327
48	0xbe4c3cff	-0.19945143
49	0xbd6cacb7	-0.0577819
50	0x3e0e64bb	0.13905613
51	0xbdc7cf09	-0.09756286
52	0x3e6016c9	0.21883692
53	0xbe2d0ff6	-0.1690062
54	0xbe5380a8	-0.20654547
55	0xbdd2fdac	-0.1030229
56	0x3d54ab69	0.051921282
57	0x3e61aef7	0.220394
58	0xbdd0d364	-0.101965696
59	0x3dca48a5	0.09877137
60	0xbd542d58	-0.051801056
61	0xbd0eb84e	-0.034843735
62	0x3e4280a7	0.1899439
63	0xbe314cd0	-0.17314458
64	0x3d011d01	0.0315218
65	0x3e82e4c9	0.25565174
66	0xbcf2b57b	-0.029627552
67	0x3e5cb775	0.21554358
68	0xbd962cd7	-0.07332771
69	0x3e638ae2	0.22220948
70	0xbe7681ba	-0.24072924
71	0xbc920937	-0.01782666
72	0xbd13b668	-0.036062628
73	0x3dc04e11	0.0938989
74	0x3def1d9e	0.11675571
75	0x3e5173f2	0.20454386
76	0xbca00082	-0.019531492
77	0x3b8c3b75	0.004279549
78	0x3e314b3b	0.17313854
79	0xbcd0870a	-0.025455017
80	0x3e4340f3	0.19067745
81	0xbe29efc7	-0.16595374
82	0xbd0b89b4	-0.03406687
83	0xbd2bd443	-0.041950475
84	0x3de63dd2	0.1124226
85	0x3e188767	0.14895402
86	0xbd1a7ca0	-0.037716508
87	0xbe5c3484	-0.21504408
88	0x3e008230	0.12549663
89	0x3d38e1b6	0.04513713
90	0x3de7cb1a	0.113180354
91	0xbe303ada	-0.1720995
92	0x3e33f50e	0.1757395
93	0x3e648eab	0.22320049
94	0x3d1efa1d	0.038812745
95	0xbe78fbe0	-0.24314833
96	0x3e3d5cfd	0.18492503
97	0xbe362bb1	-0.17790104
98	0x3d934ad4	0.07192007
99	0x3d3c6397	0.045993414
100	0xbddecbe6	-0.10878734
101	0x3dcfede2	0.101527944
102	0xbe646494	-0.22303993
103	0x3d875946	0.066088244
104	0xbe0470cd	-0.12933655
105	0xbcd3976f	-0.025829045
106	0x3d66f595	0.05638655
107	0x3e6ebed0	0.23314977
108	0xbdd6c993	-0.10487666
109	0x3e40e244	0.18836313
110	0xbcbdb063	-0.023155397
111	0xbdb0224d	-0.08600292
112	0xbe5425ff	-0.2071762
113	0xbe4cde3f	-0.20006655
114	0x3e84590b	0.25849184
115	0xbd06e4a3	-0.03293289
116	0x3ced6385	0.028978119
117	0x3dd2df96	0.10296552
118	0x3e347ab8	0.17624938
119	0x3e73cf2f	0.23809503
120	0x3e457af0	0.19285178
121	0xbe475ca7	-0.19468938
122	0xbd368c89	-0.04456762
123	0xbe22023a	-0.15821162
124	0xbe264fb3	-0.1624134
125	0x3d407d82	0.046994694
126	0x3e50ff83	0.2040997
127	0xbe6468c3	-0.22305588
128	0x3df73b24	0.12071827
129	0xbe05364e	-0.13008997
130	0xbda94269	-0.0826462
131	0x3e292339	0.16517343
132	0xbda4ca65	-0.08046416
133	0xbc64c9f7	-0.013964168
134	0xbe492f69	-0.19646992
135	0x3e3c0ff4	0.1836546
136	0xbd567500	-0.052357674
137	0xbe65d1ab	-0.22443263
138	0x3d646c8d	0.055767585
139	0xbe5f5533	-0.21809845
140	0xbe5c594f	-0.21518444
141	0xbccc3438	-0.024927244
142	0x3e4a3b29	0.1974913
143	0xbdc05439	-0.09391064
144	0x3e02b4b2	0.12764242
145	0x3e64d197	0.22345577
146	0x3e3a6050	0.18200803
147	0xbdf1fdbd	-0.11815975
148	0xbc9cceb2	-0.019141529
149	0xbd8be092	-0.06829943
150	0xbe4876c7	-0.1957656
151	0x3c8b769d	0.017024333
152	0x3e4e50c0	0.20147991
153	0x3e5a12c2	0.21296218
154	0x3d2099a6	0.03920903
155	0x3d849822	0.064743295
156	0xbdca2bc4	-0.09871629
157	0x3e4f5c56	0.20250067
158	0xbdc94a20	-0.09828591
159	0xbe1de1b9	-0.15418138
160	0x3d377165	0.044785876
161	0x3e26c9eb	0.16287963
162	0xbe59e547	-0.21278869
163	0x3e762f29	0.24041428
164	0x3dd699d8	0.10478562
165	0xbe1d87a8	-0.1538378
166	0xbd3a115e	-0.04542672
167	0x3e6ca3c0	0.2310934
168	0xbe4772c1	-0.19477369
169	0xbd920633	-0.07130089
170	0x3db14113	0.0865499
171	0xbe52fd01	-0.20604326
172	0x3e0da093	0.13830785
173	0x3e04088b	0.12893884
174	0x3e1e16f0	0.15438437
175	0xbe18f053	-0.14935426
176	0x3e84b091	0.2591596
177	0xbe178ef2	-0.14800623
178	0x3e830ced	0.255958
179	0xbe767f67	-0.24072038
180	0xbe641c13	-0.22276334
181	0x3e21ed1d	0.15813108
182	0x3cb91ef9	0.022597777
183	0x3cb9abbc	0.022664897
184	0xbe154f70	-0.14581084
185	0xbdc4edfe	-0.09615706
186	0xbd82913b	-0.06375357
187	0xbe739253	-0.23786287
188	0x3c94a6f0	0.018146008
189	0x3d63f889	0.055656943
190	0x3b72d504	0.0037053237
191	0x3dc01564	0.0937908
192	0x3e6d9db9	0.23204698
193	0x3d796104	0.060883537
194	0xbdcc9ddc	-0.09991047
195	0xbde467ba	-0.11152597
196	0xbe2c662e	-0.16835853
197	0xbe39a946	-0.18130979
198	0xbd411771	-0.047141496
199	0xbd6969eb	-0.056985777
200	0x3dbd7e3d	0.09252594
201	0xbdd9199e	-0.10600589
202	0x3e3a192e	0.18173668
203	0xbe41818a	-0.18897071
204	0xbc16a910	-0.009195581
205	0x3e511763	0.20419078
206	0x3e7875c4	0.24263674
207	0xbe2a5d35	-0.16637118
208	0x3d1ef97c	0.038812146
209	0x3bcc5991	0.006236263
210	0xbe02d745	-0.12777431
211	0xbdde8a08	-0.10866171
212	0x3d6c7270	0.057726324
213	0xbe4c49c0	-0.19950008
214	0x3d1d2214	0.038362578
215	0x3db8bf83	0.09020903
216	0xbdcacf0e	-0.09902774
217	0x3e525e12	0.20543697
218	0xbc93a092	-0.018020902
219	0x3de81211	0.11331571
220	0x3e7d7cf3	0.24754696
221	0xbd9b15df	-0.07572531
222	0x3e0ac6f6	0.1355246
223	0xbd8fab99	-0.070151515
224	0xbd247841	-0.040153746
225	0xbd3842ed	-0.0449857
226	0xbb320691	-0.0027164558
227	0xbdc94dbf	-0.09829282
228	0x3d6f5732	0.058432765
229	0x3be0fef5	0.0068663307
230	0x3e221385	0.15827759
231	0xbd5a0555	-0.05322774
232	0x3ccb1cbc	0.024793975
233	0xbdc6852d	-0.0969337
234	0xbe572b1f	-0.21012543
235	0x3dc98e22	0.09841563
236	0x3d00b198	0.031419367
237	0xbdd39e4f	-0.10332929
238	0xbdacc903	-0.084367774
239	0x3d800469	0.06250841
240	0xbd3da9a1	-0.04630435
241	0x3e2a3417	0.16621433
242	0x3c6f7de4	0.014617417
243	0x3dc29d26	0.0950263
244	0x3dde5590	0.108561635
245	0xbd808830	-0.06275976
246	0x3dde85d9	0.10865373
247	0x3e397148	0.1810962
248	0x3c8d23ce	0.017228987
249	0x3d46d651	0.04854423
250	0x3c5f8476	0.013642421
251	0x3e356fd5	0.17718442
252	0xbdd377bb	-0.10325571
253	0xbe035cb6	-0.12828335
254	0x3de144d9	0.1099946
255	0xbe5a2662	-0.21303704

transformer_encoder.layers.0.self_attn.in_proj_bias f4 [72]
0	0x391b1f8d	0.00014793705
1	0xbbb2e844	-0.005459817
2	0x3c925437	0.017862422
3	0xbce2572f	-0.027629463
4	0x3c96ee37	0.018424137
5	0xbca6599f	-0.020306407
6	0x3bd3f178	0.0064679943
7	0x3c20a0ad	0.009803933
8	0xbc74a404	-0.0149316825
9	0xbb38b73e	-0.0028185393
10	0x3b98ada3	0.004659371
11	0x3b782589	0.003786417
12	0xbc2f24fd	-0.010689971
13	0x3c462ce6	0.012095666
14	0xbb823eed	-0.0039747865
15	0x3ade4999	0.001695919
16	0x3ac4dede	0.0015020033
17	0xbaa7cee7	-0.001280275
18	0xbc491885	-0.012273912
19	0x3c87f353	0.016595518
20	0xbc31cc8c	-0.01085199
21	0x3b147d5a	0.0022657723
22	0xbb90e9b0	-0.004422389
23	0xbb955a6e	-0.004557899
24	0xad7fe16d	-1.4545126e-11
25	0x2d8c4773	1.5947887e-11
26	0xae0ed7d5	-3.247876e-11
27	0xaedbff67	-1.00043356e-10
28	0xaf29143d	-1.537765e-10
29	0x2e818910	5.890588e-11
30	0x2e8eee33	6.499725e-11
31	0x2db74b1e	2.083805e-11
32	0x2e26c478	3.791853e-11
33	0xab8590bb	-9.490389e-13
34	0x2cfeed49	7.245458e-12
35	0x2d4f7e31	1.1794608e-11
36	0x2cd2be66	5.9896975e-12
37	0xad0e6eca	-8.096366e-12
38	0xae37aee2	-4.176471e-11
39	0xada00854	-1.8193592e-11
40	0x2beade6d	1.6688436e-12
41	0x2b436b5b	6.94269e-13
42	0x2d808e47	1.4615099e-11
43	0xad9297d0	-1.6665697e-11
44	0x2e44ff6a	4.4792094e-11
45	0x2e251fd6	3.7544932e-11
46	0x2d8f6786	1.6303191e-11
47	0x2ea87ae7	7.661587e-11
48	0xbb73fa9e	-0.0037228237
49	0xbccaba21	-0.024746956
50	0x3c3b2829	0.011423149
51	0xbcb3c719	-0.021945523
52	0xbd0f6c9e	-0.035015695
53	0x3cb76527	0.0223871
54	0xbc9794ef	-0.018503634
55	0x3d0dd990	0.034631312
56	0xbcc8735d	-0.024469072
57	0x3ca8162c	0.020518385
58	0xbcb5f2e8	-0.022210553
59	0xbc004f80	-0.007831454
60	0xbcd3f0f6	-0.025871735
61	0x3c270c9c	0.010195877
62	0x3c84b69b	0.016200354
63	0x3ca2aff3	0.01985929
64	0x3b8fe176	0.0043908907
65	0x3ca753a1	0.02042562
66	0xbbbc5c20	-0.005748287
67	0x3b9957d0	0.0046796575
68	0xbb3be32b	-0.0028669338
69	0xbc1c58a3	-0.009542617
70	0x3bc59645	0.0060298764
71	0xbc06468f	-0.008195533

transformer_encoder.layers.0.self_attn.out_proj.weight f4 [24, 24]
0	0xbbc70a65	-0.006074237
1	0x3e074daa	0.1321322
2	0xbe31a20c	-0.17346972
3	0xbe2f1dce	-0.17101213
4	0xbc55f2fd	-0.013058421
5	0x3d28ff91	0.041259352
6	0xbb16b3fb	-0.002299546
7	0x3e1007e8	0.14065516
8	0xbcc691a1	-0.024239363
9	0x3c987f01	0.018615248
10	0xbc802680	-0.015643358
11	0xbcd68361	-0.026185693
12	0xbe382b26	-0.1798521
13	0xbe27d124	-0.16388375
14	0xbdb7094e	-0.089373216
15	0x382fe756	4.19387e-05
16	0x3d8fc3d3	0.070197724
17	0x3df9c5ea	0.12195952
18	0xbe20440a	-0.15650955
19	0xbdf440d1	-0.11926425
20	0x3da91036	0.08255045
21	0x3e32388b	0.17404382
22	0xbd336c32	-0.043804355
23	0x3e2037cc	0.15646285
24	0xbcbe9f88	-0.02326943
25	0x3c0ebf20	0.00871256
26	0x3e347c0b	0.17625444
27	0xbe43a855	-0.19107182
28	0xbe14c41f	-0.1452794
29	0xbccea835	-0.025226692
30	0xbdd5e763	-0.10444524
31	0x3e367ea9	0.17821755
32	0xbe107ab9	-0.14109315
33	0xbdbd5d63	-0.09246328
34	0xbe1750f9	-0.14776982
35	0xbe3f5f6f	-0.18688749
36	0xbe0a68b4	-0.13516504
37	0x3e301ad1	0.1719773
38	0x3dbe7e1c	0.09301397
39	0x3dbba76a	0.09162791
40	0x3cd1a7f7	0.025592787
41	0xbdcea7e4	-0.10090616
42	0x3d0db9e2	0.0346011
43	0xbe4b0de8	-0.19829524
44	0xbe3579f5	-0.17722304
45	0xbdf9196b	-0.12163051
46	0x3e0e3292	0.13886479
47	0x3ddb9f6c	0.10723767
48	0xbdd8c11c	-0.10583708
49	0x3be97d8b	0.0071255616
50	0x3de93f77	0.11389058
51	0x3e307662	0.1723266
52	0x3e0c99c0	0.13730526
53	0x3cec8028	0.028869703
54	0x3e0be93e	0.13663194
55	0xbe06e0db	-0.13171713
56	0x3d291c41	0.04128671
57	0xbe408477	-0.18800531
58	0xbe045845	-0.12924297
59	0xbdf16c04	-0.117881805
60	0x3dd0a46b	0.1018761
61	0x3d5f1386	0.05446198
62	0xbe1bd12d	-0.15216513
63	0x3d350a04	0.044199005
64	0x3dfe5f9e	0.12420581
65	0xbc2e79aa	-0.010649124
66	0x3b0767da	0.0020661266
67	0x3d6728d1	0.05643541
68	0x3e1536cf	0.14571689
69	0x3e4b8f21	0.19878818
70	0xbe274b50	-0.16337323
71	0xbd985c98	-0.07439536
72	0x3d8106ef	0.063001506
73	0x3e39be6b	0.18139045
74	0x3e2ec620	0.17067766
75	0x3e450871	0.19241501
76	0x3c8eff7e	0.017455813
77	0xbe2d1191	-0.16901232
78	0x3d2de64f	0.042455968
79	0xbdfd3f5c	-0.123656005
80	0xbe378632	-0.17922285
81	0x3e47fc5e	0.19529864
82	0x3e1589f9	0.14603414
83	0xbe628f6a	-0.2212502
84	0x3d0bff1f	0.03417885
85	0xbd149b81	-0.036281113
86	0xbd113813	-0.035453867
87	0xbdd628fe	-0.104570374
88	0x3d9542ce	0.072881326
89	0xbe036c7b	-0.12834351
90	0x3db0d8e4	0.086351186
91	0x3e114f45	0.14190395
92	0x3e2e769d	0.17037435
93	0x3dc4d6ad	0.09611259
94	0xbe51844d	-0.20460625
95	0xbdf207dc	-0.11817905
96	0x3dc68c6d	0.09694753
97	0x3d1d875f	0.038459178
98	0xbe2df74d	-0.16988869
99	0xbe0f8b24	-0.14017922
100	0x3e4d2c21	0.20036365
101	0x3e18bcbb	0.14915745
102	0xbdd2184a	-0.10258539
103	0xbd5b2eef	-0.053511556
104	0xbe4f7c34	-0.20262223
105	0xbbeb7872	-0.007185989
106	0xbe243d09	-0.16038908
107	0xbe35fe1b	-0.17772715
108	0xbc9546cc	-0.018222235
109	0x3c9a451c	0.018831782
110	0xbdbe560b	-0.09293755
111	0x3ddc6b52	0.10762657
112	0xbdd66998	-0.10469359
113	0x3e4afa70	0.19822097
114	0x3e104f91	0.14092852
115	0xbe1f4899	-0.15555038
116	0xbd69cac0	-0.057078123
117	0x3a706f33	0.00091718434
118	0x3d16a24d	0.036775876
119	0x3d50576f	0.050864633
120	0x3d856b4d	0.065146066
121	0x3cd75639	0.026286231
122	0xbdc8c2a8	-0.09802753
123	0x3e04a4fc	0.12953562
124	0xbe5b7083	-0.21429639
125	0xbdff4fae	-0.124663696
126	0xbc4c649b	-0.012475158
127	0xbdba404a	-0.090942934
128	0xbd4aedba	-0.04954312
129	0xbe37d25f	-0.17951344
130	0xbd2b2ca8	-0.041790634
131	0x3d3b5802	0.045738228
132	0xbdff8d88	-0.12478167
133	0xbb632e8f	-0.0034665202
134	0x3e0eac29	0.13932861
135	0xbc9d6c62	-0.01921672
136	0xbc1430eb	-0.009044866
137	0xbce53599	-0.027979659
138	0x3d4df44e	0.050281815
139	0x3e170c53	0.14750795
140	0x3e79134f	0.24323772
141	0x3e1fd60a	0.15608993
142	0x3e3ba739	0.18325509
143	0xbb9c09a6	-0.0047618924
144	0xbe53ceaf	-0.20684312
145	0xbd972008	-0.07379156
146	0x3e0bbed0	0.13647008
147	0xbcf19414	-0.029489554
148	0xbd8b308f	-0.06796371
149	0xbe35405d	-0.17700334
150	0xbe2d865a	-0.16945782
151	0xbe3ebbe8	-0.18626368
152	0xbd47039f	-0.048587438
153	0x3df67825	0.120346345
154	0x3df36905	0.11885265
155	0xbe73209b	-0.23742907
156	0x3e132772	0.14370516
157	0xbe38c7dc	-0.1804499
158	0xbd33f873	-0.04393811
159	0xbdc8c44a	-0.09803064
160	0xbd15377a	-0.03642986
161	0xbd26f980	-0.040765285
162	0xbe36a4d8	-0.1783632
163	0xbe0b0418	-0.1357578
164	0xbc1cf176	-0.009579053
165	0x3ccbad9f	0.024863062
166	0xbdcbede2	-0.09957482
167	0x3dc5a770	0.09651077
168	0xbe376d0d	-0.17912693
169	0xbc4858a1	-0.012228162
170	0x3e26b188	0.1627866
171	0xbe0d3033	-0.13787918
172	0x3e74eaf7	0.23917757
173	0x3da855c5	0.08219484
174	0xbe665684	-0.2249394
175	0x3de0c9cd	0.109759904
176	0xbd3dae47	-0.046308782
177	0xbde01b32	-0.10942687
178	0x3e39ffb6	0.18163952
179	0xbe378fea	-0.17925993
180	0x3c956cce	0.018240359
181	0xbd95fa72	-0.07323159
182	0x3e07ca63	0.13260798
183	0x3d1c75b2	0.03819818
184	0x3dfebdfb	0.1243858
185	0x3dbca173	0.092104815
186	0xbd856216	-0.06512849
187	0xbd6b1b75	-0.057399232
188	0xbe4e6e09	-0.20159163
189	0x3dada6cb	0.08479079
190	0x3e310a36	0.17289051
191	0x3e09ccc8	0.13457024
192	0xbde8492b	-0.11342081
193	0xbbd743da	-0.006569368
194	0xbe043d9e	-0.1291413
195	0xbde226d6	-0.110425636
196	0xbde43273	-0.11142435
197	0x3d6ec5a6	0.05829396
198	0xbe123002	-0.14276126
199	0xbc444e0a	-0.011981497
200	0xbc7ae785	-0.015313988
201	0x3e115c3c	0.14195341
202	0xbe00333c	-0.12519544
203	0xbdc3e538	-0.095652044
204	0xbe048e8a	-0.12945
205	0x3e1b7444	0.1518107
206	0xbd3d00a2	-0.04614318
207	0x3e441265	0.19147642
208	0x3d5f989d	0.054588903
209	0x3cb2e0b3	0.02183566
210	0xbcca7610	-0.0247145
211	0xbdd01273	-0.10159769
212	0xbc71f5c2	-0.014768066
213	0xbd787c24	-0.060665265
214	0x3c4d4b65	0.0125301825
215	0x3ccffc45	0.025388846
216	0xbe04f962	-0.12985757
217	0xbde5ef0f	-0.112272374
218	0x3e19ada5	0.15007646
219	0xbe5e35e2	-0.21700242
220	0x3d9617d4	0.073287636
221	0x3e5230e7	0.20526467
222	0x3c709f59	0.014686429
223	0xbcbe5eab	-0.0232385
224	0xbe5373cd	-0.20649643
225	0x3d6d59e7	0.057947066
226	0xbdb52511	-0.088449605
227	0xbc95ad90	-0.018271238
228	0xbd8ea1be	-0.069644436
229	0xbd7e5fc6	-0.062103055
230	0xbb0e6754	-0.0021729069
231	0x3e26adce	0.16277239
232	0x3d109b20	0.03530419
233	0x3e4c3a18	0.19944036
234	0x3db1c8ac	0.08680853
235	0xbe5d83aa	-0.21632257
236	0x3d077e21	0.03307927
237	0xbe30391b	-0.17209284
238	0xbd941e7d	-0.07232378
239	0x3d0f10ea	0.03492824
240	0x3d858116	0.06518762
241	0x3e0f6157	0.14001976
242	0xbd5ae700	-0.053442955
243	0x3c7288d0	0.014803126
244	0x3d87023f	0.06592225
245	0xbe4a56b6	-0.1975964
246	0x3e1a8f4b	0.15093724
247	0xbe1b9708	-0.15194333
248	0x3c68ffb7	0.014221123
249	0xbc3cda8f	-0.011526718
250	0xbe156f10	-0.14593148
251	0x3c33af54	0.010967094
252	0x3e2b7f16	0.16747698
253	0xbd23a459	-0.039951656
254	0xbdee48e0	-0.116349936
255	0xbd83b1de	-0.0643041

transformer_encoder.layers.0.self_attn.out_proj.bias f4 [24]
0	0x3d2d00ea	0.0422372
1	0xbb595330	-0.0033161156
2	0xbcb29ae5	-0.021802375
3	0xbc8590cf	-0.016304402
4	0xbce568c4	-0.028004058
5	0x3bd5cb03	0.006524445
6	0xbcabb0e1	-0.020958366
7	0xbc3b576f	-0.01143442
8	0x3da8f3d5	0.08249632
9	0x3d8da751	0.06916679
10	0xbd3a3323	-0.045458924
11	0x3d20d160	0.039262176
12	0xbd17cfb6	-0.037063323
13	0xbc1c3bf7	-0.009535781
14	0xba4c96da	-0.0007804461
15	0xbd00a8e9	-0.031411085
16	0x3b7edc0c	0.0038888482
17	0xbd35600c	-0.04428105
18	0x3be9f047	0.007139239
19	0xbcaa9e56	-0.020827454
20	0x3cb0457c	0.021517508
21	0x3cb30aa3	0.021855658
22	0x3d2df3ea	0.042468943
23	0x3bcac06d	0.0061874897

transformer_encoder.layers.0.linear1.weight f4 [512, 24]
0	0x3ba9e737	0.0051850337
1	0x3d6853a4	0.05672039
2	0x3d5da3be	0.054111235
3	0xbdead253	-0.114658974
4	0xbdfd1be8	-0.12358838
5	0xbe3bca46	-0.1833888
6	0xbaa9c36b	-0.0012951916
7	0x3d8f613b	0.07000967
8	0xbca2119c	-0.019783787
9	0x3e47b92a	0.19504228
10	0xbd0dd51b	-0.03462706
11	0xbe080ff9	-0.13287343
12	0x3cff747f	0.03118348
13	0xbd684c4f	-0.0567134
14	0xbd0a84de	-0.03381812
15	0x3e4f49a5	0.20242937
16	0xbc2f2d2e	-0.010691924
17	0x3e3e00f3	0.1855505
18	0x3cec1bb9	0.028821813
19	0xbd97bdf8	-0.074092805
20	0x3e18f760	0.14938116
21	0xbdf2c742	-0.11854412
22	0x3b2c51bd	0.0026293837
23	0x3d401366	0.0468935
24	0x3dbd0a2e	0.09230457
25	0xbe3ea7cd	-0.18618698
26	0x3c2bd853	0.010488587
27	0xbd5f9616	-0.054586492
28	0x3e086a30	0.13321757
29	0x3d8a02bc	0.06738803
30	0x3d9b1e32	0.07574119
31	0x3e01cecd	0.12676544
32	0xbd44bd86	-0.048032306
33	0xbc92adae	-0.017905083
34	0x3e28db86	0.16489992
35	0xbe2cd6e5	-0.16878851
36	0xbe0f1485	-0.13972671
37	0x3c507a3e	0.012724457
38	0xbda5e646	-0.08100562
39	0x3c687953	0.014189082
40	0x3e38ceb7	0.18047605
41	0xbccb606e	-0.024826255
42	0xbe33dee7	-0.17565499
43	0xbdbb619f	-0.09149479
44	0x3e3fdc8c	0.18736476
45	0xbd35b59e	-0.044362657
46	0xbdabfdfe	-0.083980545
47	0x3dc60f16	0.09670846
48	0x3ce586b6	0.028018337
49	0xbe341b31	-0.17588498
50	0x3e32330e	0.17402288
51	0x3dee8f1f	0.11648392
52	0x3e350a7e	0.17679784
53	0x3dada998	0.08479613
54	0xbd983a8b	-0.07433041
55	0xbd84b169	-0.06479151
56	0x3dcd271d	0.10017226
57	0xbd39dbde	-0.045375697
58	0x3d3367e5	0.043800253
59	0xbe52770c	-0.20553225
60	0xbdce1263	-0.10062101
61	0x3d8f4984	0.06996444
62	0xbc6ee2de	-0.014580457
63	0xbdc10eeb	-0.094266735
64	0xbe3c9ee8	-0.18419993
65	0x3e0661b9	0.13123216
66	0xbd26d3c9	-0.040729318
67	0xbe4e3de9	-0.20140804
68	0x3e4c2c5c	0.19938797
69	0x3dd5be1d	0.10436652
70	0xbdf56ff0	-0.11984241
71	0xbe1225ce	-0.14272234
72	0x3e493563	0.19649272
73	0x3b87e152	0.0041467333
74	0xbdfd6641	-0.12373019
75	0x3df4c4a2	0.11951567
76	0xbd31e217	-0.043428507
77	0x3c6e5de1	0.01454875
78	0xbddcca71	-0.107808
79	0xbe2f535f	-0.17121647
80	0xbe105659	-0.14095439
81	0xbc9aa5a4	-0.018877812
82	0xbe16cc7d	-0.14726444
83	0x3e51c76c	0.2048623
84	0xbaa3b6ef	-0.0012490432
85	0xbd9a8f0e	-0.07546817
86	0x3d9ed306	0.07755093
87	0xbe372a2c	-0.17887181
88	0xbddbf2a3	-0.10739639
89	0x3da6fe12	0.08153929
90	0xbe340a2d	-0.17582007
91	0x3dd1b4d0	0.10239565
92	0x3c5879d0	0.013212636
93	0xbe2ec1f4	-0.17066175
94	0xbe512a64	-0.20426327
95	0x3d86a00c	0.06573495
96	0x3dbf8deb	0.093532406
97	0xbd26660e	-0.04062467
98	0xbe3bf4a7	-0.18355046
99	0xbde4290b	-0.11140641
100	0x3ccca1b0	0.024979442
101	0x3b67b808	0.0035357494
102	0x3d6428a0	0.055702806
103	0x3d206166	0.039155386
104	0xbc68e67d	-0.014215109
105	0x3dd85691	0.10563386
106	0x3e53c3a8	0.20680106
107	0x3e35a9c9	0.17740549
108	0x3e3dfdf0	0.185539
109	0xbd8aa9ab	-0.06770643
110	0xbd920163	-0.07129171
111	0xbcd89e7b	-0.026442757
112	0x3d6bba58	0.057550758
113	0x3db17423	0.086647294
114	0xbc5f0473	-0.013611901
115	0xbe074b46	-0.13212308
116	0xbe1acdaf	-0.15117525
117	0x3e423efb	0.18969338
118	0xbd870615	-0.06592957
119	0xbcffadc0	-0.03121078
120	0xbe051ce8	-0.12999308
121	0xbddc4854	-0.10755983
122	0x3d41e30d	0.047335673
123	0x3dac663f	0.084179394
124	0xbda94a7b	-0.08266159
125	0xbda3e237	-0.080021314
126	0x3e2a8a27	0.16654263
127	0xbdd9db19	-0.10637493
128	0xbe1d80c5	-0.15381153
129	0xbd38c4cd	-0.04510956
130	0x3e4ace5b	0.19805281
131	0x3d2883f4	0.041141465
132	0x3d04092a	0.032235302
133	0xbc8f0e35	-0.01746283
134	0x3e0ad72a	0.13558641
135	0xbdc57d86	-0.09643082
136	0x3e138777	0.14407144
137	0x3d515758	0.051108688
138	0x3ccf7294	0.02532319
139	0x3d009a73	0.031397294
140	0xbe04201f	-0.12902878
141	0x3e1bfd40	0.15233326
142	0x3dd10e6c	0.10207829
143	0xbe264714	-0.16238052
144	0xbe3e3b9a	-0.18577424
145	0xbd53b269	-0.051683817
146	0x3e0d4a8a	0.13797966
147	0xbdd89a6a	-0.10576327
148	0x3e401cec	0.18761033
149	0xbdc7b626	-0.09751539
150	0xbe487807	-0.19577037
151	0x3db64e04	0.08901599
152	0xbdf17b50	-0.11791098
153	0xbc96f51e	-0.018427428
154	0xbd8ad479	-0.06778807
155	0xbc70ae58	-0.014690004
156	0xbe3cbda4	-0.18431717
157	0xbe445984	-0.19174773
158	0x3d9bc75f	0.076063864
159	0xbcae44a2	-0.021272961
160	0xbe05049e	-0.12990043
161	0xbbc3bfee	-0.0059738075
162	0xbe41ebc8	-0.189376
163	0x3d452848	0.04813412
164	0x3dc869d1	0.09785808
165	0x3e58c228	0.21167815
166	0xbe219f1a	-0.15783349
167	0xbca890e4	-0.020576902
168	0x3de03851	0.109482415
169	0x3e3a9873	0.18222217
170	0xbe15d3bf	-0.14631556
171	0x3dba6222	0.091007486
172	0x3da85d97	0.08220976
173	0x3dfcb7dd	0.12339757
174	0xbe0a2d7e	-0.13493916
175	0x3e12f57a	0.14351454
176	0xbdb91a8b	-0.09038266
177	0xbdfdfcbd	-0.124017216
178	0x3d2e754b	0.042592328
179	0x3e34b2cc	0.1764633
180	0xbe0cf403	-0.13764958
181	0x3dec5c0f	0.11540996
182	0xbcdaa15b	-0.026688268
183	0x3d864c56	0.06557529
184	0x3e22c96b	0.15897147
185	0x3d7497cc	0.059715077
186	0xbe2cc9a9	-0.16873802
187	0xbd8066aa	-0.062695816
188	0x3d235d18	0.039883703
189	0xbe29e61f	-0.1659169
190	0x3cd0afaf	0.025474397
191	0xbdedc218	-0.11609286
192	0xbd4e2ce1	-0.05033577
193	0x3d8e14e3	0.069375776
194	0xbe2aa163	-0.16663127
195	0xbdee5b4d	-0.11638508
196	0x3dc38e60	0.0954864
197	0xbe5e2efd	-0.21697612
198	0x3e14c33d	0.14527602
199	0xbe17d971	-0.14829041
200	0xbc8dcdb6	-0.017310005
201	0x3c57e529	0.013177195
202	0x3dca8968	0.098894894
203	0xbe0397fb	-0.12850945
204	0x3cf50a14	0.029912032
205	0x3dc9ee7b	0.0985994
206	0x3e32c213	0.17456846
207	0xbe1ac5dc	-0.1511454
208	0xbde062f7	-0.10956376
209	0x3d8eea94	0.06978336
210	0xbb33a5a7	-0.002741197
211	0xbe0dc8e8	-0.13846171
212	0xbe2e049a	-0.16993943
213	0xbe26d871	-0.16293503
214	0xbe21e9c9	-0.15811838
215	0xbdb13096	-0.08651845
216	0xbe08e40e	-0.13368246
217	0xbe2f6f60	-0.1713233
218	0x3cb96b54	0.022634186
219	0x3df14bc2	0.11782028
220	0xbdcac857	-0.09901493
221	0x3ca49f86	0.020095598
222	0xbc4f26d1	-0.012643532
223	0x3dc3db43	0.09563305
224	0xbe0b13a8	-0.13581717
225	0x3cb1b398	0.021692082
226	0x3e397c7b	0.18113892
227	0x3e166a2f	0.14688943
228	0xbe57a64f	-0.21059535
229	0xbd2e212e	-0.04251211
230	0xbb92a8f3	-0.0044757067
231	0xbd8b2fcd	-0.06796227
232	0xbe0dd90c	-0.13852328
233	0xbe163f9d	-0.14672704
234	0x3e0b19e3	0.13584094
235	0xbd920a3b	-0.071308576
236	0xbc485048	-0.012226172
237	0x3d82807b	0.06372162
238	0xbdebaaa4	-0.115071565
239	0x3cd80cf8	0.026373371
240	0x3df9d145	0.12198118
241	0xbded06f3	-0.11573591
242	0x3d823a45	0.0635877
243	0xbbd1d7e9	-0.0064039123
244	0x3de4f837	0.11180156
245	0x3e0b3b6e	0.1359689
246	0x3d589194	0.05287321
247	0x3b7cde57	0.0038584673
248	0xbe34221e	-0.1759114
249	0x3da761fa	0.081729844
250	0x3df99443	0.12186482
251	0xbd9bd666	-0.07609253
252	0xbe4f1892	-0.20224217
253	0x3e2a05c6	0.16603765
254	0xbd4a39c4	-0.049371496
255	0x3d2ba0b8	0.04190132

transformer_encoder.layers.0.linear1.bias f4 [512]
0	0xbd0e8338	-0.03479311
1	0xbe094231	-0.13404156
2	0xbe27b806	-0.16378793
3	0xbdb9ee7a	-0.09078689
4	0x3db65c62	0.089043394
5	0x3d48425c	0.04889141
6	0xbd7c47a3	-0.061591756
7	0xbd8db9b4	-0.06920186
8	0xbd235ad5	-0.039881546
9	0xbe0f0bad	-0.13969298
10	0x3e408281	0.18799783
11	0xbe3661b0	-0.17810702
12	0xbcc9b344	-0.024621613
13	0x3ccdbbdc	0.025113992
14	0x3b043310	0.0020172037
15	0xbc14b6eb	-0.009076814
16	0xbe231b09	-0.15928282
17	0xbdb6e9e8	-0.08931333
18	0xbdee0fcc	-0.11624107
19	0x3e3eb74c	0.1862461
20	0xbd810eb6	-0.06301634
21	0xbe1b32ad	-0.1515605
22	0xbe088c22	-0.13334706
23	0xbe151718	-0.14559591
24	0xbd1e794a	-0.03868989
25	0xbdac145b	-0.0840232
26	0xbe11d7a4	-0.14242417
27	0xbd8db289	-0.069188185
28	0x3e25b1e0	0.16181135
29	0xbe3a5c30	-0.18199229
30	0xbc801f3d	-0.015639896
31	0x3e49e3b5	0.1971577
32	0x3e065ac9	0.1312057
33	0x3d54005f	0.051758166
34	0x3dadde6c	0.08489689
35	0xbd8cff03	-0.06884577
36	0xbe1ee1bd	-0.155158
37	0xbdf8fa85	-0.12157158
38	0xbdef65f4	-0.11689368
39	0x3e183c2d	0.14866705
40	0x3b8707d7	0.0041208076
41	0xbe2802c6	-0.16407308
42	0xbe1df7ea	-0.15426603
43	0xbc8836d1	-0.016627701
44	0x3df1f76e	0.118147716
45	0x3cc9f031	0.024650665
46	0x3d11bbb4	0.0355794
47	0xbd3b68c0	-0.045754194
48	0xba42c641	-0.0007430055
49	0x3df40b0b	0.11916169
50	0x3d8f2beb	0.069907986
51	0xbd846cf5	-0.064660944
52	0x3e557a55	0.20847447
53	0x3e1376a4	0.14400727
54	0x3d8bef99	0.06832809
55	0x3dcb8c1a	0.099388316
56	0x3e0da096	0.1383079
57	0xbcfc87f9	-0.030826556
58	0x3d2ea7f7	0.042640653
59	0xbd8afbe8	-0.067863286
60	0xbd80da9a	-0.06291695
61	0x3c3526f5	0.011056651
62	0xbe0aaf71	-0.13543488
63	0x3e36d19c	0.17853397
64	0xbe0b95d0	-0.13631368
65	0xbe057c6a	-0.13035741
66	0xbcec22bb	-0.028825155
67	0x3e0de22d	0.1385581
68	0xbdceaf16	-0.10091989
69	0xbc266764	-0.010156486
70	0x3de86057	0.113465
71	0xbe37dc02	-0.1795502
72	0x3e41fb5e	0.18943545
73	0x3de917f7	0.11381524
74	0x3d8c59ea	0.06853087
75	0x3bc6867c	0.0060585123
76	0x3dfb8ea5	0.12283067
77	0xbd5cae11	-0.05387694
78	0x3c9ee969	0.019398408
79	0x3e1b1bc8	0.15147316
80	0xbde44511	-0.11145986
81	0x3c4ae4ad	0.012383622
82	0x3e149a6a	0.1451203
83	0x3c968352	0.018373165
84	0xbdf3288b	-0.11872967
85	0x3d2238aa	0.03960482
86	0xbd365973	-0.0445189
87	0xbe331b91	-0.17490984
88	0x3b377c7f	0.002799779
89	0x3c3a81bb	0.011383469
90	0x3e09fe9b	0.1347603
91	0xbc1d1be0	-0.009589165
92	0xbe15d1cf	-0.14630817
93	0x3e36acdc	0.17839378
94	0x3d3ac149	0.045594487
95	0xbd6377ec	-0.05553429
96	0x3e048dfb	0.12944786
97	0x3e18b978	0.149145
98	0x3e170a36	0.14749989
99	0x3e26b725	0.16280802
100	0xbda198b0	-0.07890451
101	0x3e453ce2	0.19261506
102	0x3e0368ed	0.12832995
103	0xbe0a2d09	-0.13493742
104	0x3dd0e530	0.10199964
105	0xbded730d	-0.1159421
106	0x3dbb8e15	0.09157959
107	0xbdf0ebc1	-0.117637165
108	0x3dcfc5f4	0.101451784
109	0xbdae0375	-0.08496753
110	0x3d3b6702	0.045752533
111	0xbd21737e	-0.039416783
112	0x3ddb1dd4	0.10699049
113	0xbb222931	-0.002474379
114	0x3dbe2dc5	0.092860736
115	0xbd96ab7c	-0.07356927
116	0x3dc2ee94	0.095181614
117	0x3ddf1bf6	0.10894005
118	0x3c61743a	0.013760621
119	0xbd76ba06	-0.060236
120	0x3d011ea9	0.03152338
121	0xbe42f368	-0.19038165
122	0xbc1e4783	-0.009660604
123	0x3e326cc2	0.174243
124	0x3dd65437	0.104652815
125	0xbb25a34e	-0.002527434
126	0xbdcf5282	-0.10123159
127	0x3d2b875c	0.041877136
128	0x3e38572f	0.18002008
129	0x3dd038f3	0.10167112
130	0x3aa04184	0.0012226556
131	0x3d7cbd5a	0.061704017
132	0x3c820cdb	0.01587527
133	0xbd2e6a8f	-0.04258209
134	0xbe19c8c5	-0.15017994
135	0xbdc6440e	-0.09680949
136	0xbdae7317	-0.085180454
137	0xbdf7f1ab	-0.121066414
138	0x3e468e1e	0.19390151
139	0xbe31fa46	-0.17380628
140	0x3c677713	0.014127511
141	0x3c424092	0.011856215
142	0xbdc7d03a	-0.09756513
143	0xbccce4a1	-0.025011363
144	0x3d9f187b	0.07768341
145	0xbe15128e	-0.1455786
146	0x3d88dd54	0.0668284
147	0xbc47170a	-0.012151489
148	0xbdc26faa	-0.094939545
149	0xbe22f1e9	-0.15912594
150	0xbca325a6	-0.019915413
151	0xbdbc9e9c	-0.0920994
152	0x3d91796b	0.07103237
153	0xbe5282e4	-0.20557743
154	0x3e20b2fa	0.15693274
155	0x3e46d145	0.19415767
156	0x3c865416	0.016397517
157	0xbe0ce486	-0.1375905
158	0xbe4a282a	-0.19741884
159	0x3dc74927	0.097307496
160	0x3d8fc3be	0.07019757
161	0x3e2deca6	0.16984805
162	0xbddc8b1b	-0.1076872
163	0x3df17c9b	0.11791345
164	0xbda80111	-0.082033284
165	0xbe1dbdd4	-0.15404445
166	0x3c90a0f5	0.017654875
167	0xbd73408d	-0.059387732
168	0x3dc1948f	0.094521634
169	0xbdddf255	-0.10837237
170	0x3e0926b1	0.13393666
171	0xbe17454c	-0.14772528
172	0x3d502b06	0.05082228
173	0x3e0aba14	0.13547546
174	0xbd3c12ec	-0.045916483
175	0xbe4436fd	-0.19161601
176	0x3da03ef0	0.078245044
177	0xbe315434	-0.17317277
178	0xbddc60a8	-0.10760623
179	0xbdbd7b49	-0.092520304
180	0xbddd5a1f	-0.10808205
181	0x3e3f7f9d	0.18701024
182	0xbe1c0a27	-0.15238248
183	0x3e1da6ed	0.15395708
184	0xbe05c7af	-0.13064454
185	0x3e2b2a14	0.1671527
186	0xbd886f46	-0.06661849
187	0xbd0b5559	-0.03401694
188	0xbe12246a	-0.14271703
189	0x3cbf907d	0.023384327
190	0xbda2fca9	-0.07958347
191	0xbe423390	-0.18964982
192	0x3dcc2649	0.0996824
193	0x3d8ddd2b	0.0692695
194	0xbe0bf192	-0.1366637
195	0x3e46813b	0.19385235
196	0xbcbd07bd	-0.023074979
197	0x3e053da1	0.13011791
198	0xbd996d43	-0.07491543
199	0xbe4d172a	-0.20028368
200	0xbdc16973	-0.09443941
201	0xbe2074cc	-0.15669554
202	0x3e3bc888	0.18338215
203	0x3e29fe82	0.16600993
204	0xbd02e35c	-0.031955108
205	0xbe4ee173	-0.2020319
206	0x3e01b90c	0.12668246
207	0x3d85d0b4	0.065339476
208	0x3e0d1479	0.13777341
209	0x3d2817c2	0.041038282
210	0x3db9d42d	0.090736724
211	0xbc70fa50	-0.014708117
212	0x3e4fbfae	0.20287964
213	0xbd185d38	-0.037198275
214	0x3dcb2496	0.099190876
215	0xbe4683de	-0.19386241
216	0xbce91629	-0.02845295
217	0x3ce3d7d3	0.027812874
218	0x3e2d5d35	0.16930087
219	0x3de47f8a	0.11157139
220	0x3e4eb02d	0.20184393
221	0x3d0879a2	0.033319123
222	0xbd89ebc0	-0.06734419
223	0x3c185e22	0.009299787
224	0xb9825c52	-0.00024864316
225	0x3d76a742	0.060218103
226	0x3d3703d7	0.044681396
227	0xbdbe9f2f	-0.093077056
228	0x3db54883	0.08851721
229	0x3cc35f58	0.023849174
230	0xbe0dd80a	-0.13851944
231	0x3c0b213c	0.00849181
232	0xbe161978	-0.14658153
233	0x3ae2bb99	0.001729834
234	0x3d620a25	0.055185456
235	0xbe519df6	-0.20470414
236	0x3e149a58	0.14512002
237	0xbdb30f80	-0.08743191
238	0xbd1342d1	-0.035952393
239	0xbd3cd62c	-0.046102688
240	0x3e22f190	0.15912461
241	0xbe05560b	-0.13021104
242	0xbe4e9003	-0.20172124
243	0xbe3fc9da	-0.18729344
244	0x3dc9a5cb	0.098460756
245	0xbd8401bf	-0.064456455
246	0x3cfc8a7e	0.030827757
247	0x3dcd9e3f	0.10039949
248	0x3ba38752	0.0049904967
249	0x3e4fafad	0.20281859
250	0x3daa8aac	0.08327231
251	0xbe48b2cf	-0.1959946
252	0xbe225628	-0.15853179
253	0xbe376eb2	-0.1791332
254	0xbe0cae35	-0.1373833
255	0xbd4c054f	-0.04980975

transformer_encoder.layers.0.linear2.weight f4 [24, 512]
0	0x3c4600c2	0.012085142
1	0x3c7436e2	0.014905663
2	0xbd1ea04e	-0.038727097
3	0x3c3773f2	0.011197077
4	0xbc50fa38	-0.012754969
5	0x3aad7a90	0.0013235379
6	0x3becfafe	0.007232069
7	0x3c8b11f7	0.01697634
8	0x3d01bcff	0.03167438
9	0xbd1be041	-0.038055662
10	0xbb28299c	-0.0025659567
11	0xbd1b62a6	-0.037935875
12	0x3c91fd60	0.017821014
13	0xbba939b7	-0.005164351
14	0xbb6f6fcd	-0.0036535144
15	0xbd2af638	-0.04173872
16	0x3d0859d2	0.033288784
17	0xbc56d11f	-0.013111382
18	0xbc343ac9	-0.011000344
19	0xbd1096b0	-0.035299957
20	0x3d0845f1	0.033269826
21	0x3bc5b7b4	0.006033862
22	0x3bf956eb	0.0076092384
23	0x3d146f78	0.036239117
24	0x3b0beb3b	0.0021349925
25	0x3ccf92f5	0.02533863
26	0xbd0adce7	-0.033902075
27	0xbb94a9ac	-0.004536828
28	0xbc2e7bbe	-0.01064962
29	0x3c6dca84	0.0145136155
30	0xbd2182da	-0.03943143
31	0xbc62cd92	-0.013842957
32	0x3b9afbc9	0.004729722
33	0x3d199ec6	0.037504934
34	0xba34909a	-0.00068880024
35	0xbc3c7c35	-0.011504223
36	0xbd04bf45	-0.03240897
37	0xbc5b6c67	-0.013392544
38	0xbaa2da28	-0.0012424635
39	0x3cab4c76	0.020910483
40	0xbc194ff0	-0.0093574375
41	0xbcb338a5	-0.021877596
42	0xbbfad9f1	-0.007655375
43	0xbcf9acf0	-0.03047797
44	0x3c007c4d	0.007842136
45	0xbd00d4d6	-0.031452976
46	0x3d30234a	0.043002404
47	0x3d1d5a92	0.038416453
48	0xbd0852d1	-0.033282105
49	0x3cc2f9e5	0.0238008
50	0xbc610301	-0.013733626
51	0xbc824b91	-0.015905173
52	0x3d08c7bd	0.03339361
53	0x3d8cbc6d	0.06871877
54	0x3d07a1b7	0.033113208
55	0xbd091310	-0.033465445
56	0x3c8362c2	0.016038302
57	0x3cc6d271	0.024270268
58	0x3c8080e9	0.01568647
59	0xbcb5e9fc	-0.022206299
60	0x3bf873a6	0.0075821457
61	0xbca8eef8	-0.020621762
62	0x3b917083	0.0044384613
63	0x3c291219	0.010319256
64	0x3b9fc3b8	0.0048756264
65	0xbcbb9537	-0.0228983
66	0x3d00a9e8	0.031412035
67	0xbc88d9b4	-0.016705371
68	0xbc3ccbc2	-0.011523189
69	0x3cc8ec57	0.024526758
70	0x3c8e32d6	0.017358225
71	0x3cb4ded0	0.022078902
72	0x3c820c80	0.015875101
73	0x3b78b762	0.0037951102
74	0xbcc8ce36	-0.024512392
75	0x3d391b06	0.045191787
76	0xbd386b86	-0.045024417
77	0x3d086aec	0.033305094
78	0x3c850e84	0.016242273
79	0x3ab6e932	0.0013954996
80	0x3cdd3b87	0.027005924
81	0x3d4589fc	0.048227295
82	0x3c401525	0.011723791
83	0xbca7e1a8	-0.020493343
84	0xbc9ae12d	-0.0189062
85	0x3cba0100	0.022705555
86	0xbc55d57e	-0.013051389
87	0xbb1a4128	-0.0023537371
88	0xbbb40a19	-0.005494368
89	0xbce6ef36	-0.028190237
90	0x3c638262	0.013886066
91	0xbc7f9c87	-0.015601284
92	0x3bda0c9e	0.006654336
93	0x3cfd507b	0.030922165
94	0xbc3a3886	-0.011366015
95	0xbc27f6bb	-0.010251696
96	0xbbc5dd31	-0.006038331
97	0x3b00e625	0.0019668427
98	0x3c1f8b4e	0.009737803
99	0x3d0a5925	0.03377642
100	0xbd2bdee0	-0.041960597
101	0x3d0f11c6	0.03492906
102	0x3d48dc28	0.049038082
103	0xbceef3eb	-0.029169044
104	0x3ccff565	0.025385568
105	0x3c3dacb0	0.011576816
106	0xbd137175	-0.035996873
107	0x3b3a5091	0.002842937
108	0xbc3d9ec1	-0.011573494
109	0x3d141e1a	0.03616152
110	0xbc84879f	-0.01617795
111	0xbc492b23	-0.012278351
112	0x3d80d9f6	0.06291573
113	0xbc282dc4	-0.010264818
114	0xbd21ddf1	-0.0395183
115	0x3d15231c	0.036410436
116	0x3c30e5bc	0.01079696
117	0x3cc09135	0.02350674
118	0x3b3a50c0	0.0028429478
119	0xbc7dd78e	-0.015493287
120	0x3c19bfbc	0.009384092
121	0x3c7ed399	0.0155533785
122	0x3c5fc52e	0.013657851
123	0x3cfe3875	0.03103278
124	0xbd050a17	-0.032480326
125	0x3c9f5261	0.019448461
126	0x3d7376cd	0.05943947
127	0xbbd682b6	-0.0065463437
128	0x3d422288	0.047396213
129	0x3a55f7b0	0.00081622135
130	0xbc893ad4	-0.016751684
131	0x3c02ec2c	0.007990878
132	0x3c6d40ef	0.014480813
133	0x3c16b7c7	0.009199089
134	0xbd0af8d2	-0.0339287
135	0x3cf271fb	0.029595366
136	0x3c644f6b	0.01393495
137	0xbc8aba5b	-0.016934564
138	0x3cae6315	0.02128748
139	0x3ba04289	0.004890744
140	0x3bd4ce10	0.006494291
141	0xbbef4996	-0.0073024733
142	0x3d2db6f7	0.042410817
143	0xbcbfcc73	-0.023412919
144	0x3acfa71e	0.0015842651
145	0x3c4b4b30	0.012408063
146	0xbc2fcfce	-0.010730697
147	0xbb56a9b6	-0.0032754964
148	0xbd13278a	-0.03592638
149	0x3c07621a	0.008263135
150	0x3acd0a07	0.0015643247
151	0xbc26535b	-0.010151709
152	0xbd2b9462	-0.041889556
153	0x3c38c2c9	0.011276909
154	0xbcb4f871	-0.022091122
155	0x3d2990e1	0.041397933
156	0x3d1f22aa	0.038851418
157	0x3cdf3bbc	0.027250163
158	0x3d12dd54	0.035855606
159	0x3d6c0506	0.05762198
160	0xbc279a75	-0.0102296965
161	0x3c86d335	0.016458133
162	0xbbb98a00	-0.005662203
163	0x39f382d2	0.0004644604
164	0xbced9e89	-0.02900626
165	0xbbd50b44	-0.006501587
166	0xbadba904	-0.0016758745
167	0xbb13a344	-0.0022527734
168	0xbd33438c	-0.04376559
169	0x3c407c35	0.011748363
170	0xbc9987d2	-0.018741522
171	0xbca782ca	-0.020448107
172	0xbcc62bc4	-0.024190791
173	0xbbfb77bb	-0.007674185
174	0x3bcd6e6a	0.006269266
175	0x3c444d68	0.011981346
176	0xbb4be91d	-0.0031114288
177	0xbc7c5a07	-0.015402324
178	0xbb3d28ae	-0.0028863358
179	0xbcea61b8	-0.028611049
180	0x3d51e2c1	0.05124164
181	0xbc5a9dfc	-0.0133433305
182	0x3c9eff79	0.019408928
183	0xbd04ba1d	-0.032404054
184	0xbcdff82e	-0.027340021
185	0xbd4e9d0e	-0.050442748
186	0xbcb48c53	-0.022039568
187	0xbd085e8b	-0.03329329
188	0xbcbfb893	-0.023403442
189	0xbc08fa4f	-0.0083604595
190	0x3c849da5	0.016188452
191	0xbc8ec677	-0.01742862
192	0x3cd19d34	0.025587656
193	0xbcefaf9d	-0.029258544
194	0xbd266e67	-0.04063263
195	0xbc574b77	-0.013140551
196	0xbd140003	-0.036132824
197	0x3cdd597f	0.027020214
198	0x3ce18178	0.027527556
199	0x3c8a037b	0.016847363
200	0x3c40ea80	0.011774659
201	0x3d1dc273	0.03851552
202	0xba31aed6	-0.0006778067
203	0x3c4e957f	0.012608885
204	0xbc915b43	-0.017743712
205	0x3bee25f8	0.00726771
206	0x3ca734cd	0.02041092
207	0x3d1ee622	0.03879369
208	0xbc1ebf19	-0.009689116
209	0x3cceb4f5	0.025232771
210	0xbc00bcf6	-0.007857552
211	0xbbcaec73	-0.0061927377
212	0xbb65ac9a	-0.0035045506
213	0xbd256882	-0.04038287
214	0x3cce83e4	0.025209375
215	0x3c5a8e0a	0.013339529
216	0xbd0eb390	-0.034839213
217	0xbcb774d5	-0.022394577
218	0x3d196761	0.037452105
219	0x3d1b635c	0.037936553
220	0x3d0c9aa0	0.03432715
221	0x3d14ccf3	0.036328267
222	0xbb3f9cbc	-0.0029237708
223	0x3d45b0b8	0.048264235
224	0xbd5456a3	-0.051840436
225	0xbc6a08d2	-0.0142843295
226	0x3c7b74bc	0.015347656
227	0x3cf5b387	0.029992832
228	0xbc276b0e	-0.010218395
229	0xbcafac45	-0.02144445
230	0x3c257cc8	0.010100551
231	0x3ccebd66	0.025236797
232	0x3c7b065c	0.01532134
233	0x3be9cae9	0.0071347845
234	0x3c316514	0.010827322
235	0xbce5ddc0	-0.02805984
236	0xbcf121ba	-0.029435027
237	0xbd05cd31	-0.03266639
238	0x3d563386	0.05229523
239	0xbc5bf27a	-0.01342451
240	0x3ca357a6	0.019939255
241	0x3c9aa058	0.018875286
242	0xbcbb4854	-0.022861637
243	0x3c50788c	0.012724053
244	0x3d1b5609	0.037923846
245	0x3c769b7c	0.015051719
246	0x3d164261	0.036684398
247	0x3d1a0505	0.037602443
248	0xbc9f893f	-0.019474624
249	0xbd0f9a6c	-0.035059378
250	0xbbd7d7d4	-0.006587008
251	0xbd07e649	-0.0331786
252	0x3caeaf53	0.021323835
253	0x3d26807c	0.040649876
254	0x3ceed7b5	0.029155592
255	0x3d2aa1e6	0.041658305

transformer_encoder.layers.0.linear2.bias f4 [24]
0	0x3c305b35	0.010763933
1	0xbd2f2b1a	-0.042765714
2	0xbd2518cd	-0.040306855
3	0xbd24e19a	-0.040254213
4	0xbd0bb5f2	-0.034109063
5	0x3d07f5e7	0.033193495
6	0xbd246f2b	-0.04014508
7	0xbd237148	-0.039902955
8	0x3c6ca921	0.01444462
9	0x3d073b7a	0.033015706
10	0xbcd5a605	-0.02608014
11	0x3cddbc4c	0.027067326
12	0xbbacee4a	-0.0052774297
13	0x3ca1dab1	0.0197576
14	0xbc6bcb03	-0.0143916635
15	0xbc99246b	-0.018694123
16	0x3ba2f1c6	0.0049726693
17	0x3c2bd3e5	0.010487531
18	0x3d81b47c	0.06333253
19	0xbcda3484	-0.02663637
20	0xba5365d9	-0.0008064188
21	0x3d2cda61	0.04220045
22	0x3b11db82	0.002225608
23	0x3be01de1	0.0068394993

transformer_encoder.layers.0.norm1.weight f4 [24]
0	0x3f68a625	0.90878516
1	0x3f64c3df	0.89361376
2	0x3f7a7a74	0.978431
3	0x3f71713d	0.9431341
4	0x3f720948	0.9454541
5	0x3f713f1e	0.94236934
6	0x3f7a6073	0.9780342
7	0x3f7c2a1b	0.9850175
8	0x3f8ad671	1.0846692
9	0x3f835275	1.0259539
10	0x3f8154f6	1.0104053
11	0x3f7acb25	0.97966224
12	0x3f878b33	1.0589355
13	0x3f87578d	1.0573593
14	0x3f887cf8	1.0663137
15	0x3f78270b	0.96934575
16	0x3f7c9937	0.9867129
17	0x3f7a4fd6	0.9777807
18	0x3f8c3c3e	1.0955884
19	0x3f7bc929	0.9835382
20	0x3f8051be	1.0024946
21	0x3f86056c	1.0470405
22	0x3f86f15a	1.0542405
23	0x3f7a6c06	0.9782108

transformer_encoder.layers.0.norm1.bias f4 [24]
0	0x3d246bc0	0.04014182
1	0xbbcbf713	-0.006224522
2	0x3be1e420	0.0068936497
3	0xba4b7143	-0.0007760713
4	0xbd221bd3	-0.039577316
5	0x3b486131	0.0030575509
6	0xbca783a4	-0.020448513
7	0xbbf4334b	-0.0074524037
8	0x3c8ad372	0.016946528
9	0x3cea2c76	0.028585654
10	0xbaffc6bd	-0.0019514185
11	0x3d190a33	0.037363242
12	0xbc6513fb	-0.0139818145
13	0xbc7b7320	-0.015347272
14	0xbc515b4c	-0.0127781145
15	0xbc7dde9c	-0.015494969
16	0x3c2054aa	0.0097858105
17	0xbc37d9d9	-0.0112213725
18	0x3d2cdbf5	0.042201955
19	0xbd7af2a1	-0.061266545
20	0x3c24c203	0.010056022
21	0x3bef42b9	0.007301655
22	0x3cff4366	0.031160068
23	0x3914e79c	0.00014200661

transformer_encoder.layers.0.norm2.weight f4 [24]
0	0x3f6bb611	0.92074686
1	0x3f70a27a	0.9399792
2	0x3f6e7008	0.93139696
3	0x3f717218	0.9431472
4	0x3f8198ae	1.0124719
5	0x3f7acad3	0.97965735
6	0x3f74ff61	0.9570218
7	0x3f78ab8b	0.97136754
8	0x3f8235b7	1.0172642
9	0x3f984165	1.1894957
10	0x3f7f5db4	0.99752355
11	0x3f917c4a	1.1366055
12	0x3f8e2a7f	1.1106719
13	0x3f863f59	1.0488082
14	0x3f825acf	1.0183963
15	0x3f7ac4ec	0.9795673
16	0x3f70391a	0.9383713
17	0x3f83c982	1.029587
18	0x3f876a2a	1.0579274
19	0x3f894f98	1.0727415
20	0x3f83ceeb	1.0297521
21	0x3f83831e	1.0274389
22	0x3f8281c3	1.019585
23	0x3f7acf9a	0.97973025

transformer_encoder.layers.0.norm2.bias f4 [24]
0	0x3bd6c9f1	0.006554835
1	0xbc7ba6ba	-0.015359575
2	0x3bd3c233	0.0064623593
3	0x39f0b6a4	0.00045912445
4	0xbd20ee67	-0.03928986
5	0xbb41c04b	-0.0029564078
6	0xbba5d7a2	-0.005061106
7	0xbbf32b6b	-0.0074209473
8	0xbc33e22d	-0.0109792175
9	0xbc55382a	-0.013013879
10	0xbc9ac507	-0.018892778
11	0x3cff5e8d	0.031173015
12	0xbc6fc464	-0.0146342255
13	0x3bf4d679	0.007471856
14	0xbb201b8c	-0.0024430482
15	0xbc44c707	-0.012010342
16	0x3cae1677	0.021250946
17	0xbcad62c4	-0.02116526
18	0x3d2b6188	0.04184106
19	0xbcd3d5b6	-0.025858741
20	0xbc9b1b5d	-0.018933946
21	0x3ccb1f6c	0.024795257
22	0x3c000454	0.007813532
23	0x3c45a721	0.012063772
