online/32_net.pth (torch, 236820 bytes, 26 tensors)

pos_encoder.pe f4 [70, 24]
0	0x00000000	0.0
1	0x3f800000	1.0
2	0x00000000	0.0
3	0x3f800000	1.0
4	0x00000000	0.0
5	0x3f800000	1.0
6	0x00000000	0.0
7	0x3f800000	1.0
8	0x00000000	0.0
9	0x3f800000	1.0
10	0x00000000	0.0
11	0x3f800000	1.0
12	0x00000000	0.0
13	0x3f800000	1.0
14	0x00000000	0.0
15	0x3f800000	1.0
16	0x00000000	0.0
17	0x3f800000	1.0
18	0x00000000	0.0
19	0x3f800000	1.0
20	0x00000000	0.0
21	0x3f800000	1.0
22	0x00000000	0.0
23	0x3f800000	1.0
24	0x3f576aa4	0.84147096
25	0x3f0a5141	0.54030234
26	0x3ee5351d	0.44767085
27	0x3f64ea30	0.8941984
28	0x3e5ae952	0.21378067
29	0x3f7a14eb	0.9768817
30	0x3dcc7576	0.099833414
31	0x3f7eb898	0.9950042
32	0x3d3e0d1e	0.04639923
33	0x3f7fb96a	0.99892294
34	0x3cb07a47	0.021542681
35	0x3f7ff0ca	0.9997679
36	0x3c23d657	0.009999833
37	0x3f7ffcb9	0.99995
38	0x3b981857	0.0046415734
39	0x3f7fff4b	0.9999892
40	0x3b0d3164	0.0021544332
41	0x3f7fffd9	0.9999977
42	0x3a83126d	0.0009999998
43	0x3f7ffff8	0.9999995
44	0x39f35a5c	0.00046415895
45	0x3f7ffffe	0.9999999
46	0x3961e8ab	0.00021544348
47	0x3f800000	1.0
48	0x3f68c7b7	0.9092974
49	0xbed51133	-0.41614684
50	0x3f4cf4fb	0.8006131
51	0x3f1963f8	0.59918165
52	0x3ed5d9be	0.41767687
53	0x3f6899b9	0.9085956
54	0x3e4b6ff8	0.19866931
55	0x3f7ae5a5	0.9800666
56	0x3dbdd8b7	0.09269851
57	0x3f7ee5d1	0.9956942
58	0x3d306fcb	0.043075364
59	0x3f7fc32c	0.99907184
60	0x3ca3d43e	0.019998666
61	0x3f7ff2e5	0.9998
62	0x3c1817ec	0.009283047
63	0x3f7ffd2d	0.9999569
64	0x3b8d314e	0.004308856
65	0x3f7fff64	0.9999907
66	0x3b031268	0.0019999985
67	0x3f7fffdf	0.99999803
68	0x3a735a5b	0.00092831784
69	0x3f7ffff9	0.9999996
70	0x39e1e8ab	0.00043088695
71	0x3f7fffff	0.99999994
72	0x3e1081c3	0.14112
73	0xbf7d7026	-0.9899925
74	0x3f7bf0ce	0.98414314
75	0x3e35a216	0.17737612
76	0x3f1a2dc8	0.60226107
77	0x3f4c5d56	0.7982992
78	0x3e974e6c	0.2955202
79	0x3f7490ef	0.9553365
80	0x3e0e2117	0.1387981
81	0x3f7d85a8	0.9903207
82	0x3d8446bd	0.06458805
83	0x3f7f7729	0.997912
84	0x3cf5b91f	0.0299955
85	0x3f7fe283	0.99955004
86	0x3c6422d5	0.01392432
87	0x3f7ff9a6	0.9999031
88	0x3bd3c9bf	0.006463259
89	0x3f7ffea2	0.99997914
90	0x3b449b92	0.0029999954
91	0x3f7fffb5	0.9999955
92	0x3ab683c2	0.0013924765
93	0x3f7ffff0	0.99999905
94	0x3a296e7f	0.00064633036
95	0x3f7ffffd	0.9999998
96	0xbf41bdcf	-0.7568025
97	0xbf275530	-0.6536436
98	0x3f759ce7	0.9594254
99	0xbe905d6c	-0.28196275
100	0x3f424dbe	0.75899875
101	0x3f26adf9	0.6510921
102	0x3ec761d7	0.38941833
103	0x3f6bcaa7	0.921061
104	0x3e3d0773	0.18459873
105	0x3f7b99b2	0.98281395
106	0x3db045df	0.08607077
107	0x3f7f0ccc	0.996289
108	0x3d23cbdb	0.039989334
109	0x3f7fcb94	0.9992001
110	0x3c98163e	0.018565293
111	0x3f7ff4b4	0.9998276
112	0x3c0d30f8	0.008617632
113	0x3f7ffd91	0.99996287
114	0x3b831257	0.003999989
115	0x3f7fff7a	0.999992
116	0x3af35a54	0.0018566349
117	0x3f7fffe3	0.9999983
118	0x3a61e8a9	0.0008617738
119	0x3f7ffffa	0.99999964
120	0xbf757c10	-0.9589243
121	0x3e913c2c	0.2836622
122	0x3f3b500a	0.73169005
123	0xbf2e7fcb	-0.68163747
124	0x3f6171cf	0.88064283
125	0x3ef29363	0.47378072
126	0x3ef57743	0.47942552
127	0x3f60a940	0.87758255
128	0x3e6b8593	0.23000173
129	0x3f7922ff	0.97319025
130	0x3ddc300e	0.10751353
131	0x3f7e8421	0.9942036
132	0x3d4cb6f4	0.049979165
133	0x3f7fae19	0.99875027
134	0x3cbe1a3c	0.023205869
135	0x3f7fee5a	0.9997307
136	0x3c307ce6	0.010771966
137	0x3f7ffc33	0.999942
138	0x3ba3d6dd	0.004999979
139	0x3f7fff2e	0.9999875
140	0x3b181871	0.0023207928
141	0x3f7fffd3	0.9999973
142	0x3a8d3169	0.0010772172
143	0x3f7ffff6	0.9999994
144	0xbe8f0f8c	-0.2794155
145	0x3f75cdb8	0.96017027
146	0x3eb2c0c6	0.349127
147	0xbf6fe42d	-0.93707544
148	0x3f762963	0.961569
149	0x3e8c938f	0.27456328
150	0x3f108c68	0.5646424
151	0x3f534932	0.8253356
152	0x3e8cc0e9	0.2749093
153	0x3f7622e9	0.9614702
154	0x3e040009	0.12890638
155	0x3f7ddd38	0.9916568
156	0x3d759cd1	0.059964005
157	0x3f7f8a12	0.99820054
158	0x3ce41d2b	0.02784594
159	0x3f7fe696	0.9996122
160	0x3c53c89d	0.012926248
161	0x3f7ffa86	0.99991643
162	0x3bc49b58	0.0059999637
163	0x3f7ffed2	0.999982
164	0x3b3683b7	0.0027849504
165	0x3f7fffbf	0.9999961
166	0x3aa96e7d	0.0012926605
167	0x3f7ffff2	0.99999917
168	0x3f283046	0.6569866
169	0x3f40ffbd	0.75390226
170	0xbddbc69f	-0.10731243
171	0xbf7e858d	-0.9942253
172	0x3f7f7f41	0.9980355
173	0x3d804f23	0.06265094
174	0x3f24eb72	0.6442176
175	0x3f43ccb3	0.7648422
176	0x3ea3716a	0.31922466
177	0x3f729b18	0.94767904
178	0x3e19d85d	0.15023942
179	0x3f7d1825	0.98864967
180	0x3d8f3e32	0.06994285
181	0x3f7f5f81	0.997551
182	0x3d050f6e	0.032485418
183	0x3f7fdd69	0.9994722
184	0x3c771415	0.0150804715
185	0x3f7ff88c	0.9998863
186	0x3be55fc5	0.006999942
187	0x3f7ffe65	0.9999755
188	0x3b54eef8	0.003249107
189	0x3f7fffa8	0.99999475
190	0x3ac5ab91	0.0015081038
191	0x3f7fffed	0.99999887
192	0x3f7d4695	0.98935825
193	0xbe14fdf6	-0.14550003
194	0xbf0a81e3	-0.5410444
195	0xbf574b62	-0.840994
196	0x3f7d04e9	0.9883562
197	0xbe1bcf59	-0.15215816
198	0x3f37a4a5	0.717356
199	0x3f325b5f	0.6967067
200	0x3eb9c7cb	0.36285242
201	0x3f6e8d80	0.9318466
202	0x3e2f9e69	0.17150272
203	0x3f7c34ff	0.98518366
204	0x3da3aa50	0.07991469
205	0x3f7f2e65	0.9968017
206	0x3d180f89	0.03712419
207	0x3f7fd2d3	0.9993107
208	0x3c8d2fa1	0.017234625
209	0x3f7ff644	0.99985147
210	0x3c031212	0.007999914
211	0x3f7ffde7	0.999968
212	0x3b735a38	0.0037132632
213	0x3f7fff8c	0.9999931
214	0x3ae1e8a4	0.001723547
215	0x3f7fffe7	0.9999985
216	0x3ed30132	0.4121185
217	0xbf693fd5	-0.91113025
218	0xbf5c3bf1	-0.86028963
219	0xbf02829f	-0.5098056
220	0x3f6ed7af	0.9329786
221	0xbeb84901	-0.35993198
222	0x3f48881c	0.78332686
223	0x3f1f21d5	0.62161
224	0x3ecfb7ba	0.4056986
225	0x3f69fc5c	0.91400695
226	0x3e454f97	0.19268642
227	0x3f7b33e1	0.98126036
228	0x3db8123e	0.089878544
229	0x3f7ef6c2	0.9959527
230	0x3d2b0ecd	0.041762162
231	0x3f7fc6d3	0.99912757
232	0x3c9ed50c	0.019388698
233	0x3f7ff3ae	0.999812
234	0x3c13743a	0.008999879
235	0x3f7ffd59	0.9999595
236	0x3b88e2ba	0.0041774185
237	0x3f7fff6e	0.9999913
238	0x3afe25b6	0.0019389901
239	0x3f7fffe1	0.99999815
240	0xbf0b44f8	-0.5440211
241	0xbf56cd64	-0.8390715
242	0xbf7f5bd1	-0.99749476
243	0xbd90e07e	-0.070740685
244	0x3f559f61	0.8344632
245	0xbf0d1282	-0.55106366
246	0x3f576aa4	0.84147096
247	0x3f0a5141	0.54030234
248	0x3ee5351e	0.44767088
249	0x3f64ea30	0.8941984
250	0x3e5ae953	0.21378069
251	0x3f7a14eb	0.9768817
252	0x3dcc7576	0.099833414
253	0x3f7eb898	0.9950042
254	0x3d3e0d21	0.04639924
255	0x3f7fb96a	0.99892294

transformer_encoder.layers.0.self_attn.in_proj_weight f4 [72, 24]
0	0xbe56d8b9	-0.2098111
1	0xbdbfa65e	-0.09357904
2	0xbe2d9e64	-0.16954952
3	0x3e7267b0	0.23672366
4	0xbdd9c459	-0.106331535
5	0xbde6cdf4	-0.11269751
6	0x3e059add	0.13047357
7	0xbdedda34	-0.116138846
8	0xbdf9040a	-0.121589735
9	0xbcb4e53e	-0.022081967
10	0xbcb27dcd	-0.021788502
11	0xbe460211	-0.19336726
12	0x3e56e426	0.20985469
13	0xbddbda4f	-0.107349984
14	0x3db6792c	0.089098305
15	0x3e62f063	0.22162013
16	0x3e0288c0	0.12747478
17	0x3d17d05c	0.03706394
18	0x3e59c12a	0.21265092
19	0x3d153b28	0.03643337
20	0xbdeaa4f8	-0.114572465
21	0x3e755bd7	0.23960815
22	0x3d7628f6	0.060097657
23	0xbe7761dc	-0.24158424
24	0xbd946ed9	-0.07247705
25	0xbe2fc577	-0.1716517
26	0x3e5fae13	0.21843748
27	0xbd42711a	-0.047471143
28	0xbe6b975c	-0.23006958
29	0xbc852bac	-0.016256176
30	0x3e1d40c5	0.15356739
31	0x3d6ef428	0.058338314
32	0x3d906132	0.070497885
33	0x3ca3259b	0.019915393
34	0x3db6367d	0.088971116
35	0xbd86bc52	-0.06578888
36	0xbdcfb4fd	-0.10141943
37	0xbe7327fb	-0.2374572
38	0xbe4341b8	-0.19068038
39	0x3ddb0436	0.106941625
40	0xbe16391c	-0.14670223
41	0x3cd538e8	0.026028112
42	0x3d968de9	0.07351286
43	0x3c4195b4	0.011815477
44	0xbe2af857	-0.16696297
45	0x3e6cd876	0.23129448
46	0xbe1588e4	-0.14603001
47	0x3e4bc75f	0.19900273
48	0xbe4c0d19	-0.19926871
49	0xbd6ed3c7	-0.058307435
50	0x3e0df6c8	0.13863671
51	0xbdcbb695	-0.09946934
52	0x3e5d4b4b	0.21610753
53	0xbe2d9973	-0.16953067
54	0xbe53f036	-0.20697102
55	0xbddabc00	-0.106803894
56	0x3d49f348	0.049304277
57	0x3e6791f9	0.22614278
58	0xbddceef1	-0.10787762
59	0x3dc76819	0.09736652
60	0xbd636445	-0.055515546
61	0xbd225bf1	-0.039638463
62	0x3e4074ab	0.18794505
63	0xbe369c7d	-0.17833133
64	0x3cf4ffa0	0.029907048
65	0x3e7fd8ef	0.24985097
66	0xbcfe47ce	-0.031040099
67	0x3e56f329	0.20991196
68	0xbd98dcf4	-0.074640185
69	0x3e5dd872	0.21664599
70	0xbe76a2b9	-0.24085511
71	0xbcb80f97	-0.022468371
72	0xbd2c896c	-0.042123243
73	0x3db3ffcd	0.087890245
74	0x3ddb2196	0.106997654
75	0x3e47c442	0.1950846
76	0xbcf05e48	-0.029341832
77	0xbb625c16	-0.003453975
78	0x3e29a278	0.16565883
79	0xbd34bdfa	-0.04412649
80	0x3e3d5379	0.18488874
81	0xbe2a1d77	-0.16612802
82	0xbd4230a1	-0.047409657
83	0xbd39e636	-0.045385562
84	0x3dd41523	0.10355594
85	0x3e0eae94	0.13933784
86	0xbd2f9fbc	-0.042876944
87	0xbe6ad4be	-0.22932717
88	0x3df86862	0.121292844
89	0x3d1482c0	0.036257505
90	0x3dd1e179	0.102480836
91	0xbe3d633e	-0.18494889
92	0x3e281458	0.1641401
93	0x3e5355d8	0.20638216
94	0x3cfe467c	0.031039469
95	0xbe833dc0	-0.2563305
96	0x3e39a2c6	0.181285
97	0xbe38e782	-0.18057063
98	0x3d8a1e1e	0.06744026
99	0x3d32cf19	0.043654535
100	0xbde2941d	-0.110634066
101	0x3dc4f2e8	0.09616643
102	0xbe659479	-0.22419919
103	0x3d81fa9b	0.06346627
104	0xbe0965b7	-0.13417707
105	0xbce2efc6	-0.027702224
106	0x3d5a2c82	0.053265102
107	0x3e6bda43	0.23032479
108	0xbddbc4a7	-0.10730868
109	0x3e3d9a42	0.18515876
110	0xbcce8bf5	-0.025213221
111	0xbdb82334	-0.089910895
112	0xbe57ccdf	-0.21074246
113	0xbe4f671c	-0.20254177
114	0x3e8224fd	0.25418845
115	0xbd11ab8d	-0.035563994
116	0x3cc1257b	0.023577442
117	0x3dc9f8b2	0.09861888
118	0x3e325cf6	0.17418274
119	0x3e733ac5	0.23752888
120	0x3e4853eb	0.19563262
121	0xbe469aa6	-0.19394931
122	0xbd2ae34b	-0.04172067
123	0xbe24b327	-0.16083966
124	0xbe21dcf0	-0.15806937
125	0x3d4bab1b	0.049723726
126	0x3e561fff	0.20910643
127	0xbe5f8718	-0.21828878
128	0x3e001c32	0.12510756
129	0xbe07bb07	-0.13254939
130	0xbd9b55bb	-0.07584711
131	0x3e30aa74	0.17252523
132	0xbd98ff2b	-0.074705444
133	0xbbcdf4bf	-0.0062852795
134	0xbe4367b4	-0.19082528
135	0x3e454147	0.19263183
136	0xbd384bc1	-0.04499412
137	0xbe5c6b66	-0.21525344
138	0x3d6aebaf	0.05735367
139	0xbe5732f4	-0.21015531
140	0xbe592133	-0.21204071
141	0xbc88ed34	-0.01671467
142	0x3e49d912	0.19711712
143	0xbdb72c62	-0.08944012
144	0x3e001c98	0.12510908
145	0x3e63453c	0.2219438
146	0x3e35e989	0.17764868
147	0xbdf9afe3	-0.12191751
148	0xbcafbb9b	-0.021451762
149	0xbd918672	-0.071057215
150	0xbe4a4133	-0.19751434
151	0x3c3e0da0	0.011599928
152	0x3e4a7692	0.19771793
153	0x3e5b21b3	0.21399574
154	0x3d0b9de3	0.03408612
155	0x3d8168ec	0.063188404
156	0xbdd0a28f	-0.101872556
157	0x3e4b7731	0.19869687
158	0xbdcce834	-0.10005227
159	0xbe232201	-0.1593094
160	0x3d307b05	0.04308607
161	0x3e22b6c3	0.1589003
162	0xbe5e062f	-0.21682046
163	0x3e71efcb	0.2362663
164	0x3dcdb1f0	0.100437045
165	0xbe23d1f6	-0.15998062
166	0xbd43405f	-0.04766881
167	0x3e68d6b1	0.22738148
168	0xbe4782ac	-0.19483441
169	0xbd9b338f	-0.075781934
170	0x3da92fb3	0.08261051
171	0xbe5bcb34	-0.21464235
172	0x3e09283b	0.13394253
173	0x3e01bbe8	0.12669337
174	0x3e1b12ba	0.15143862
175	0xbe1faf82	-0.15594295
176	0x3e802862	0.2503081
177	0xbe1a028c	-0.15040034
178	0x3e7d5ab1	0.24741627
179	0xbe7bec24	-0.24601799
180	0xbe682b78	-0.22672832
181	0x3e1817e5	0.14852865
182	0x3cac2f09	0.021018522
183	0x3c449aea	0.011999825
184	0xbe14c86b	-0.14529578
185	0xbdd993a2	-0.10623862
186	0xbd8eeb36	-0.06978457
187	0xbe7e6e5f	-0.2484679
188	0x3c5de2b3	0.013542819
189	0x3d300550	0.042973816
190	0x3a17752c	0.0005777653
191	0x3da7b341	0.08188487
192	0x3e6f76d6	0.23385176
193	0x3d7faf1a	0.06242285
194	0xbdc6a244	-0.096989185
195	0xbddfedaa	-0.10934003
196	0xbe2a185d	-0.16610856
197	0xbe3732f5	-0.17890532
198	0xbd395a86	-0.045252346
199	0xbd58bee6	-0.05291643
200	0x3dc6a6a2	0.096997514
201	0xbddac1ac	-0.10681471
202	0x3e3ebb4c	0.18626136
203	0xbe3e4de5	-0.18584402
204	0xbbd7267a	-0.006565866
205	0x3e563630	0.20919108
206	0x3e7a1d67	0.24425279
207	0xbe24a0c5	-0.16076954
208	0x3d26d779	0.040732834
209	0x3c48dadf	0.012259214
210	0xbdffa7ef	-0.12483203
211	0xbdd39d8e	-0.103327855
212	0x3d78d1bd	0.060746897
213	0xbe457d5f	-0.19286107
214	0x3d207174	0.039170697
215	0x3dc10e57	0.09426563
216	0xbdc9ec2c	-0.09859499
217	0x3e5339d4	0.20627528
218	0xbc8ea09b	-0.017410567
219	0x3de7d6b8	0.11320251
220	0x3e7d33ef	0.24726842
221	0xbd9b95cc	-0.07596931
222	0x3e0ad89a	0.1355919
223	0xbd90d595	-0.070719875
224	0xbd22233d	-0.039584387
225	0xbd3351aa	-0.043779053
226	0xbb3cd195	-0.0028811444
227	0xbdc76a6b	-0.097370945
228	0x3d6e8b1f	0.058238145
229	0x3bea4ad6	0.0071500344
230	0x3e221a74	0.15830404
231	0xbd589cc9	-0.052883897
232	0x3ccc1f36	0.024917226
233	0xbdc5706b	-0.09640583
234	0xbe5711ee	-0.21002933
235	0x3dc9e6b1	0.09858454
236	0x3d00fea2	0.031492837
237	0xbdd2cf59	-0.10293455
238	0xbdacc1c9	-0.08435399
239	0x3d80c07f	0.06286716
240	0xbd420dd8	-0.047376484
241	0x3e279cf1	0.16368462
242	0x3c4b20cf	0.012397959
243	0x3dbe9f7c	0.09307763
244	0x3ddba2f5	0.10724441
245	0xbd825ebd	-0.06365726
246	0x3ddbd4be	0.10733937
247	0x3e381b97	0.17979275
248	0x3c59e03d	0.0132980915
249	0x3d44b200	0.048021317
250	0x3c2468db	0.010034765
251	0x3e32cb07	0.17460261
252	0xbdd7ee26	-0.1054347
253	0xbe073b59	-0.13206233
254	0x3dde6d4a	0.10860689
255	0xbe5e735c	-0.21723694

transformer_encoder.layers.0.self_attn.in_proj_bias f4 [72]
0	0x3b0067dc	0.0019593155
1	0xbb83b3d5	-0.0040192404
2	0x3c5880a8	0.013214268
3	0xbd01a371	-0.03165001
4	0x3ca2b270	0.019860476
5	0xbc78b931	-0.015180872
6	0x3b9c19a4	0.004763799
7	0x3a86a6a5	0.0010273053
8	0xbc3ef12b	-0.011654179
9	0xbb223563	-0.002475106
10	0x3b024463	0.0019877187
11	0x3b77f39e	0.0037834416
12	0xbc4c2921	-0.012460978
13	0x3c345c2e	0.0110083055
14	0xbb8b1c50	-0.0042453185
15	0x3a60b4fe	0.0008571892
16	0x3a90b7d3	0.0011041112
17	0xba82d80d	-0.0009982601
18	0xbc518f81	-0.012790562
19	0x3c40430d	0.011734736
20	0xbc0e73c1	-0.00869459
21	0x3b462e66	0.0030240058
22	0xbb8590dc	-0.0040761065
23	0xbb9794e5	-0.004625904
24	0x2d55fd4a	1.216389e-11
25	0x2dd9adbf	2.4747203e-11
26	0xae6b09b2	-5.3441425e-11
27	0x2db868f4	2.0964987e-11
28	0xae230903	-3.7069913e-11
29	0xaf81c2d2	-2.3603391e-10
30	0xae662df2	-5.2336753e-11
31	0x2cbd2c7d	5.3766423e-12
32	0xac2b8f6f	-2.4380183e-12
33	0x2d546f35	1.2075498e-11
34	0x2d89ebf1	1.5679876e-11
35	0xabb48995	-1.2827956e-12
36	0xabfd58a9	-1.8001339e-12
37	0xad99b9fc	-1.747668e-11
38	0xaea814e8	-7.643469e-11
39	0xacf30262	-6.90674e-12
40	0xadb15ee5	-2.0164712e-11
41	0x2c3b4135	2.6610495e-12
42	0x2d904692	1.6402244e-11
43	0x2e3c0aed	4.2755955e-11
44	0x2de9a7c6	2.656354e-11
45	0xae65aced	-5.222216e-11
46	0x2d41b045	1.10099195e-11
47	0x2dee9ed4	2.7128001e-11
48	0xbbc5e0ab	-0.0060387454
49	0xbc98a819	-0.018634843
50	0x3c3707ca	0.011171291
51	0xbcaecaad	-0.021336878
52	0xbc99cfdf	-0.018775878
53	0x3c978178	0.018494353
54	0xbc33f3b6	-0.010983398
55	0x3cd6ecd4	0.026235975
56	0xbcc13446	-0.023584496
57	0x3c585aca	0.01320524
58	0xbc885844	-0.01664365
59	0xbbfcc88e	-0.0077143377
60	0xbc9b5cd4	-0.018965162
61	0x3b7a01ce	0.0038148048
62	0x3c0ab3a6	0.008465683
63	0x3c38fc67	0.011290646
64	0x3b635ac2	0.0034691547
65	0x3c7a301e	0.015270261
66	0xbb593a3b	-0.003314628
67	0x3c2badb3	0.010478425
68	0x3b71a2e7	0.003687078
69	0xbbc02bd1	-0.0058645983
70	0x3bab7999	0.0052330014
71	0xbb1497f4	-0.002267358

transformer_encoder.layers.0.self_attn.out_proj.weight f4 [24, 24]
0	0xb9daaf3a	-0.00041710754
1	0x3e013170	0.12616515
2	0xbe29f0f4	-0.16595823
3	0xbe28f27c	-0.1649875
4	0xbcdc4aba	-0.026891101
5	0x3d12f2f2	0.035876222
6	0xbb83b4bb	-0.0040193475
7	0x3e13780b	0.14401262
8	0xbcd2341b	-0.025659611
9	0x3ce67125	0.028130123
10	0xbcb9beb5	-0.022673944
11	0xbccc17da	-0.024913717
12	0xbe363011	-0.17791773
13	0xbe1ff688	-0.15621388
14	0xbda4cbc3	-0.08046677
15	0x3bf05590	0.0073344186
16	0x3d8e23fa	0.06940456
17	0x3df44334	0.119268805
18	0xbe1df783	-0.1542645
19	0xbdf8a1d4	-0.12140241
20	0x3d9b6d28	0.07589179
21	0x3e306c19	0.17228736
22	0xbd30a716	-0.043128096
23	0x3e1da0ad	0.15393324
24	0xbca05928	-0.019573763
25	0x3c01409f	0.007888942
26	0x3e3c3b6c	0.18382043
27	0xbe41fae8	-0.1894337
28	0xbe11124e	-0.14167139
29	0xbd142315	-0.03616627
30	0xbdd14bcb	-0.102195345
31	0x3e354803	0.17703252
32	0xbe0fa696	-0.14028391
33	0xbdc19dde	-0.09453939
34	0xbe183fc6	-0.14868078
35	0xbe3d71cd	-0.18500443
36	0xbe031cfc	-0.12804025
37	0x3e342911	0.1759379
38	0x3dc23812	0.09483351
39	0x3dcd4595	0.10023037
40	0x3cc0a343	0.02351535
41	0xbdcbe935	-0.0995659
42	0x3d0dd5d7	0.03462776
43	0xbe51b109	-0.2047769
44	0xbe335036	-0.17511067
45	0xbdfb2f74	-0.1226491
46	0x3e0ecf07	0.13946162
47	0x3dd85ad1	0.10564197
48	0xbdc267e8	-0.09492475
49	0xbb82e145	-0.0039941394
50	0x3dff81bb	0.12475916
51	0x3e3dc53c	0.1853227
52	0x3de11b8f	0.109915845
53	0x3cdb0c6e	0.026739325
54	0x3e05eb10	0.1307795
55	0xbdfe08cb	-0.12404021
56	0x3d210be3	0.039317977
57	0xbe3264fe	-0.17421338
58	0xbe0d30b3	-0.13788109
59	0xbddb74e2	-0.10715653
60	0x3dcab80b	0.09898385
61	0x3d8d3263	0.06894376
62	0xbe09578a	-0.134123
63	0x3d65abd8	0.056072086
64	0x3df5a446	0.11994223
65	0xbc86844e	-0.01642051
66	0x3b2d9f0c	0.0026492504
67	0x3d35ec38	0.04441473
68	0x3e05e6c3	0.1307631
69	0x3e4546b2	0.1926525
70	0xbe253076	-0.16131768
71	0xbda238eb	-0.079210125
72	0x3d8d3007	0.06893926
73	0x3e32f9f5	0.17478164
74	0x3e30cbb0	0.172652
75	0x3e490cef	0.1963384
76	0x3c3e9693	0.011632579
77	0xbe2a2e28	-0.1661917
78	0x3d105d8d	0.035245467
79	0xbdf66475	-0.120308794
80	0xbe393dce	-0.18089983
81	0x3e487c0b	0.19578569
82	0x3e1482a6	0.14502963
83	0xbe57e47c	-0.21083254
84	0x3cf8a5f7	0.030352576
85	0xbcf5780d	-0.029964471
86	0xbcfe2a1e	-0.031025942
87	0xbdcb450e	-0.099252805
88	0x3d92f632	0.07175864
89	0xbe03385c	-0.12814468
90	0x3daa967d	0.083294846
91	0x3e050de8	0.12993586
92	0x3e25c75f	0.16189335
93	0x3db78e66	0.08962707
94	0xbe4fe6d0	-0.20302892
95	0xbdf99b78	-0.121878564
96	0x3dcfd26b	0.10147556
97	0x3d08abfc	0.033367142
98	0xbe26fcb7	-0.1630734
99	0xbe0b9318	-0.1363033
100	0x3e44843c	0.19191068
101	0x3e1560fc	0.14587778
102	0xbdd95f13	-0.10613837
103	0xbd514acf	-0.051096734
104	0xbe509b52	-0.2037175
105	0xb9166b42	-0.00014345071
106	0xbe2aefe1	-0.16693069
107	0xbe313aad	-0.1730754
108	0xbc8cc317	-0.01718287
109	0x3ccccd5f	0.025000272
110	0xbdb0dfe0	-0.08636451
111	0x3deb3aa2	0.11485793
112	0xbdd8e9ff	-0.10591506
113	0x3e49fa73	0.19724445
114	0x3e104f42	0.14092734
115	0xbe25c3c0	-0.16187954
116	0xbd85a977	-0.065264635
117	0xbb873fe4	-0.0041274894
118	0x3d17f51d	0.037098993
119	0x3d3a871d	0.04553901
120	0x3d86e07d	0.065857865
121	0x3cc2c73b	0.023776641
122	0xbdcea8a8	-0.100907624
123	0x3e0502a6	0.12989292
124	0xbe5d804e	-0.21630976
125	0xbdf477d4	-0.11936918
126	0xbc8ff71a	-0.017573882
127	0xbdb63c8a	-0.08898266
128	0xbd444056	-0.047912918
129	0xbe3610ed	-0.17779894
130	0xbd41740e	-0.04722982
131	0x3d43bd6c	0.04778807
132	0xbe04106c	-0.1289689
133	0xbaee88cc	-0.0018198728
134	0x3e0bc5fc	0.13649744
135	0xbca86013	-0.020553624
136	0xbbe9d468	-0.0071359165
137	0xbcd6cfe9	-0.026222186
138	0x3d4a5987	0.049401786
139	0x3e1935ff	0.14962004
140	0x3e731303	0.23737721
141	0x3e1b53b2	0.15168646
142	0x3e3be7f3	0.183502
143	0xbbe8710c	-0.0070935544
144	0xbe4bc808	-0.19900525
145	0xbda6a6a3	-0.08137252
146	0x3e0cad4e	0.13737985
147	0xbcb13778	-0.021632895
148	0xbd9d86f0	-0.07691753
149	0xbe2d5794	-0.1692794
150	0xbe376309	-0.17908873
151	0xbe39e1d6	-0.18152556
152	0xbd3cf266	-0.046129607
153	0x3df4436e	0.11926924
154	0x3deb41f1	0.11487187
155	0xbe61abe6	-0.2203823
156	0x3e0b3b4b	0.13596837
157	0xbe302df5	-0.17205031
158	0xbd2b0e75	-0.041761834
159	0xbdbd6508	-0.09247786
160	0xbd1d68b2	-0.038429923
161	0xbd21d1cd	-0.039506722
162	0xbe3b2a3b	-0.18277828
163	0xbe1a3752	-0.15060166
164	0xbca92a0e	-0.020649936
165	0x3c6ed82f	0.014577909
166	0xbdc64afc	-0.09682271
167	0x3db685c1	0.0891223
168	0xbe31ad99	-0.17351379
169	0xbc90994f	-0.017651228
170	0x3e332947	0.17496215
171	0xbe0842bb	-0.13306706
172	0x3e664f05	0.22491081
173	0x3d93ac5f	0.072106116
174	0xbe64cdfd	-0.22344203
175	0x3de50ddb	0.11184283
176	0xbd4a837d	-0.049441803
177	0xbdc65481	-0.096840866
178	0x3e3444d5	0.17604382
179	0xbe35fb6e	-0.17771694
180	0x3cb93a42	0.022610787
181	0xbd85e855	-0.065384544
182	0x3e16c1c4	0.14722353
183	0x3d460cfc	0.048352227
184	0x3df6e11e	0.120546564
185	0x3db2dd10	0.087335706
186	0xbd80012a	-0.06250222
187	0xbd826daf	-0.06368577
188	0xbe55b067	-0.20868073
189	0x3dad3a34	0.08458367
190	0x3e30f057	0.17279182
191	0x3e080a55	0.13285191
192	0xbdfe80fd	-0.12426946
193	0xba175dec	-0.00057741883
194	0xbe08fb4d	-0.13377114
195	0xbe01d1c1	-0.12677671
196	0xbdcb8809	-0.09938056
197	0x3d6a6013	0.05722053
198	0xbe0fea3c	-0.14054197
199	0xbc84e0e0	-0.01622051
200	0xbc8aef3b	-0.016959777
201	0x3e0fd937	0.14047705
202	0xbe035962	-0.12827066
203	0xbdf65d5e	-0.12029527
204	0xbdf9c441	-0.121956356
205	0x3e0ef3d7	0.13960205
206	0xbd5d0edb	-0.053969245
207	0x3e38ef54	0.18060046
208	0x3d8622e6	0.06549625
209	0x3cc7afb3	0.024375772
210	0xbc8fff93	-0.017577922
211	0xbda670fc	-0.08127019
212	0xbc04d837	-0.00810819
213	0xbd69f720	-0.057120442
214	0x3c232445	0.009957378
215	0x3ceb2d4c	0.028708123
216	0xbe01f9ad	-0.126929
217	0xbdeb7d98	-0.114985645
218	0x3e2cc748	0.16872895
219	0xbe60f7aa	-0.21969476
220	0x3d84f6ef	0.06492411
221	0x3e3cdcc2	0.18443587
222	0x3c99d081	0.01877618
223	0xbcc5ce57	-0.024146242
224	0xbe58c966	-0.21170577
225	0x3d932fdd	0.071868636
226	0xbdcde5db	-0.10053607
227	0xbcfd1e7e	-0.030898329
228	0xbd5fb53f	-0.05461621
229	0xbd6af571	-0.057362977
230	0x3c2c2e9d	0.01050916
231	0x3e3261ae	0.17420074
232	0x3d17dab0	0.03707379
233	0x3e48dae1	0.19614746
234	0x3dc33ea8	0.09533435
235	0xbe5afdab	-0.21385829
236	0x3cee1321	0.029061856
237	0xbe325f9a	-0.17419282
238	0xbd95fde9	-0.0732382
239	0x3d01fa37	0.031732764
240	0x3d6b9875	0.05751844
241	0x3e198f57	0.14996086
242	0xbd821e52	-0.063534394
243	0x3c471d7e	0.012153028
244	0x3d98605d	0.07440255
245	0xbe4281ab	-0.18994777
246	0x3e209222	0.15680745
247	0xbe1f6167	-0.155645
248	0x3c6c26a4	0.0144135095
249	0xbc98be7a	-0.018645514
250	0xbe0851a1	-0.13312389
251	0x3c3f938a	0.011692891
252	0x3e276f63	0.16351084
253	0xbd487435	-0.04893895
254	0xbdf9281c	-0.121658534
255	0xbd9744d2	-0.07386173

transformer_encoder.layers.0.self_attn.out_proj.bias f4 [24]
0	0x3d2ff951	0.042962376
1	0xba495c9e	-0.00076813425
2	0xbc2aeb6b	-0.010432105
3	0xbc080aff	-0.008303403
4	0xbcdaeb42	-0.026723508
5	0xbade4062	-0.0016956443
6	0xbc66f46b	-0.01409636
7	0xbb86cbff	-0.0041136737
8	0x3d631327	0.055438187
9	0x3d6fd743	0.0585549
10	0xbd0d8383	-0.034549247
11	0x3d04669e	0.032324426
12	0xbd091d06	-0.033474945
13	0xbc84fb8b	-0.016233226
14	0xbbb8ffe9	-0.0056457412
15	0xbcaa702c	-0.02080544
16	0x3ba8493e	0.0051356843
17	0xbd1aa095	-0.0377508
18	0x3ca41988	0.020031705
19	0xbce03dc0	-0.027373195
20	0x3c930126	0.017944884
21	0x3c8c20c7	0.017105473
22	0x3ceffcc8	0.02929534
23	0x3a866a78	0.0010255119

transformer_encoder.layers.0.linear1.weight f4 [512, 24]
0	0x3bb9b92b	0.0056678257
1	0x3d6f877c	0.058478817
2	0x3d5ccbd2	0.053905316
3	0xbdedf142	-0.11618282
4	0xbdfee186	-0.12445359
5	0xbe3c10be	-0.18365762
6	0xbae200ca	-0.0017242667
7	0x3d8bf015	0.068329014
8	0xbc960c0c	-0.018316291
9	0x3e483703	0.19552235
10	0xbd11bbf9	-0.035579655
11	0xbe07b9e5	-0.13254507
12	0x3d031314	0.032000616
13	0xbd691093	-0.056900572
14	0xbd02d985	-0.031945724
15	0x3e4d6c11	0.20060755
16	0xbc194570	-0.009354934
17	0x3e3cf391	0.18452288
18	0x3ce035f0	0.02736947
19	0xbd98c513	-0.07459464
20	0x3e18548f	0.14876007
21	0xbdeefe39	-0.11669583
22	0x3b7a6aa8	0.0038210545
23	0x3d40daa8	0.047083527
24	0x3dc01939	0.09379811
25	0xbe3e0e0e	-0.18560049
26	0x3c49447a	0.0122843925
27	0xbd60bc46	-0.05486705
28	0x3e066366	0.13123855
29	0x3d8c4be2	0.06850411
30	0x3d9d424c	0.07678661
31	0x3dfd52fa	0.12369342
32	0xbd38ef7b	-0.04515026
33	0xbc7769f9	-0.015100949
34	0x3e274bb3	0.1633747
35	0xbe2bf068	-0.16790926
36	0xbe0fd72f	-0.1404693
37	0x3c406470	0.011742696
38	0xbda5fdbe	-0.08105038
39	0x3c5fe45e	0.013665287
40	0x3e395d01	0.18101884
41	0xbcd740a4	-0.02627594
42	0xbe3242c5	-0.17408283
43	0xbdbf48e4	-0.09340075
44	0x3e411e8e	0.18859312
45	0xbd395543	-0.045247328
46	0xbdad924f	-0.08475172
47	0x3dc282f3	0.09497633
48	0x3ce48c2f	0.027898876
49	0xbe332e51	-0.17498137
50	0x3e31e0ca	0.17370906
51	0x3decbe14	0.11559692
52	0x3e34e86a	0.17666784
53	0x3db075ad	0.08616195
54	0xbd980cb5	-0.07424299
55	0xbd828dba	-0.063746884
56	0x3dcbfdce	0.09960519
57	0xbd2fa71a	-0.04288397
58	0x3d298e1a	0.041395284
59	0xbe4fbe8a	-0.20287529
60	0xbdd21cbc	-0.10259387
61	0x3d8f7a2c	0.07005724
62	0xbc68f0a1	-0.014217527
63	0xbdc4ad0e	-0.0960332
64	0xbe3b86db	-0.18313162
65	0x3e069cc2	0.13145736
66	0xbd286072	-0.041107602
67	0xbe4e950d	-0.20174046
68	0x3e4bc040	0.19897556
69	0x3dd55511	0.10416616
70	0xbdf59847	-0.11991935
71	0xbe1320ab	-0.1436793
72	0x3e490223	0.19629721
73	0x3b444a7a	0.0029951618
74	0xbdfcd31c	-0.123449534
75	0x3df33707	0.1187573
76	0xbd2f2817	-0.042762842
77	0x3c5dc1d2	0.01353498
78	0xbddb2e81	-0.10702229
79	0xbe2fdf0a	-0.17174926
80	0xbe0e7e0c	-0.1391527
81	0xbca0ddd3	-0.019637024
82	0xbe16ddd7	-0.14733063
83	0x3e511577	0.20418344
84	0xb97d48bd	-0.00024155057
85	0xbd9cd0a8	-0.076569855
86	0x3da0f237	0.07858699
87	0xbe37ec52	-0.17961243
88	0xbdda7844	-0.1066747
89	0x3da4c023	0.0804446
90	0xbe334554	-0.17506915
91	0x3dd103fa	0.102058366
92	0x3c6de268	0.0145193115
93	0xbe2f0218	-0.17090642
94	0xbe5040ba	-0.20337191
95	0x3d866763	0.06562688
96	0x3dc129aa	0.09431775
97	0xbd2b8379	-0.04187343
98	0xbe3bb509	-0.18330778
99	0xbde5ed43	-0.11226895
100	0x3cc3cdf6	0.02390192
101	0x3b9453be	0.0045265844
102	0x3d623e40	0.055235147
103	0x3d2383ab	0.03992049
104	0xbc5262d7	-0.012840948
105	0x3dd65138	0.1046471
106	0x3e51c273	0.20484333
107	0x3e33acb7	0.17546354
108	0x3e3e5a37	0.18589102
109	0xbd89de29	-0.06731827
110	0xbd917cf5	-0.07103912
111	0xbcd6512b	-0.02616175
112	0x3d692a17	0.056924906
113	0x3db1d66e	0.08683477
114	0xbc5e4c35	-0.013567974
115	0xbe069c3e	-0.13145539
116	0xbe1a7a0b	-0.15085618
117	0x3e434bc6	0.19071874
118	0xbd85312f	-0.06503522
119	0xbcf8bc31	-0.030363174
120	0xbe047701	-0.12936021
121	0xbdda182d	-0.106491424
122	0x3d3a7764	0.045524016
123	0x3dae6994	0.08516231
124	0xbda78cfb	-0.08181187
125	0xbd9f499c	-0.07777712
126	0x3e285776	0.16439614
127	0xbdde1c86	-0.10845284
128	0xbe1d6b95	-0.1537307
129	0xbd2be5ce	-0.041967206
130	0x3e49c165	0.1970268
131	0x3d2568f9	0.040383313
132	0x3d096a30	0.033548534
133	0xbc9db9c7	-0.019253625
134	0x3e0a1d65	0.13487776
135	0xbdc7f5c5	-0.09763674
136	0x3e12915e	0.14313266
137	0x3d49aeea	0.049239077
138	0x3cc11a38	0.023572072
139	0x3d0111d4	0.031511143
140	0xbe03e0bf	-0.12878703
141	0x3e1bdfc6	0.15222082
142	0x3dd90bb3	0.105979346
143	0xbe24cd3b	-0.16093914
144	0xbe3e0187	-0.1855527
145	0xbd53e76b	-0.05173437
146	0x3e0f6e77	0.14006983
147	0xbdd5d008	-0.104400694
148	0x3e3e4e41	0.18584539
149	0xbdcd6abe	-0.10030125
150	0xbe46ff66	-0.19433364
151	0x3db6af74	0.08920184
152	0xbdf48d19	-0.11940975
153	0xbcb5e2e1	-0.02220291
154	0xbd87c6ca	-0.06629713
155	0xbc61ad65	-0.013774251
156	0xbe3d3e3a	-0.18480769
157	0xbe43d29a	-0.19123307
158	0x3d9ecdde	0.0775411
159	0xbca3821e	-0.019959506
160	0xbe0436ab	-0.12911479
161	0xbb87fdd7	-0.004150133
162	0xbe40480c	-0.18777484
163	0x3d499a96	0.04921969
164	0x3dc6d275	0.0970811
165	0x3e56c4a9	0.20973457
166	0xbe252e49	-0.16130938
167	0xbca89926	-0.02058084
168	0x3ddff520	0.10935426
169	0x3e3910b0	0.18072772
170	0xbe15e057	-0.1463636
171	0x3dba1454	0.090859085
172	0x3da9d97a	0.082934335
173	0x3dfbfdbb	0.123042546
174	0xbe0ab7a1	-0.13546611
175	0x3e152e30	0.145684
176	0xbdba49b7	-0.09096091
177	0xbe023d48	-0.1271869
178	0x3d330260	0.043703437
179	0x3e335f1e	0.17516753
180	0xbe0b2ba7	-0.13590871
181	0x3dea62da	0.11444636
182	0xbcd12f90	-0.025535375
183	0x3d85e9be	0.065387234
184	0x3e22a5c9	0.15883555
185	0x3d749341	0.059710745
186	0xbe2c9d48	-0.16856873
187	0xbd7e3b08	-0.062068015
188	0x3d24805b	0.04016147
189	0xbe2ab77b	-0.16671555
190	0x3cd83017	0.026390119
191	0xbdeb73b3	-0.11496677
192	0xbd48b283	-0.048998367
193	0x3d84bec0	0.06481695
194	0xbe2c54e2	-0.16829255
195	0xbdf162b3	-0.117864035
196	0x3dc2f58d	0.09519491
197	0xbe5c4cec	-0.21513718
198	0x3e14a482	0.1451588
199	0xbe16c32f	-0.14722894
200	0xbc6e19f1	-0.014532552
201	0x3c84000a	0.0161133
202	0x3dc6ad76	0.09701054
203	0xbe030e49	-0.12798418
204	0x3cf83de7	0.030302955
205	0x3dc7a61f	0.09748482
206	0x3e322071	0.17395188
207	0xbe1b96ae	-0.15194198
208	0xbde0bdb7	-0.10973685
209	0x3d8ef4bf	0.06980275
210	0xbad2f7a6	-0.0016095534
211	0xbe0bf06a	-0.1366593
212	0xbe2de371	-0.16981293
213	0xbe2999d9	-0.16562594
214	0xbe203fef	-0.15649389
215	0xbdb06a16	-0.08613984
216	0xbe09a086	-0.13440141
217	0xbe30fc7b	-0.17283814
218	0x3cbbbc90	0.022917062
219	0x3df2f414	0.118629605
220	0xbdcb5784	-0.09928802
221	0x3ca3f435	0.020013908
222	0xbc42d4fe	-0.011891602
223	0x3dc603f7	0.09668725
224	0xbe0aea09	-0.1356584
225	0x3ca3dddb	0.02000325
226	0x3e3a4da3	0.18193679
227	0x3e15f42b	0.14643924
228	0xbe57d4af	-0.21077226
229	0xbd28a3e0	-0.04117191
230	0xbb9f8cae	-0.0048690652
231	0xbd88c51d	-0.066782214
232	0xbe0e04c3	-0.13869004
233	0xbe14ba4f	-0.14524196
234	0x3e0bb8c7	0.13644706
235	0xbd918929	-0.07106239
236	0xbc3fd2d9	-0.011707985
237	0x3d82e73e	0.06391762
238	0xbdf045ef	-0.11732089
239	0x3ccafbfd	0.02477836
240	0x3df8fe62	0.12157895
241	0xbded444a	-0.11585291
242	0x3d822345	0.063543834
243	0xbbd2eed9	-0.0064371643
244	0x3de532dd	0.11191342
245	0x3e0a9c27	0.1353613
246	0x3d597e65	0.053099055
247	0x3b913cb4	0.004432285
248	0xbe34393b	-0.17599957
249	0x3da7d291	0.08194459
250	0x3dfac7c0	0.122451305
251	0xbd9a3747	-0.075300746
252	0xbe4f6ab9	-0.20255555
253	0x3e2942c3	0.16529374
254	0xbd4886c0	-0.048956633
255	0x3d299f26	0.04141154

transformer_encoder.layers.0.linear1.bias f4 [512]
0	0xbd13a80c	-0.036048934
1	0xbe0af5b8	-0.13570297
2	0xbe288516	-0.16457018
3	0xbdbbc8a1	-0.09169126
4	0x3db4847f	0.08814334
5	0x3d446e6c	0.04795687
6	0xbd77c51b	-0.06049071
7	0xbd8d7d0a	-0.06908615
8	0xbd266008	-0.040618926
9	0xbe0e34d2	-0.13887337
10	0x3e4083b9	0.18800248
11	0xbe37dfbf	-0.17956446
12	0xbcc9b888	-0.024624124
13	0x3cd35935	0.025799373
14	0x3acb46e0	0.0015508793
15	0xbbf2c665	-0.0074089044
16	0xbe245cb0	-0.16050982
17	0xbdb655cf	-0.089030854
18	0xbdeaf33b	-0.11472174
19	0x3e3e6fbd	0.18597312
20	0xbd81d9c8	-0.063403666
21	0xbe19785e	-0.14987323
22	0xbe0b69c7	-0.1361457
23	0xbe15ffe6	-0.14648399
24	0xbd1c5f60	-0.038176894
25	0xbdade60a	-0.08491142
26	0xbe11f494	-0.14253455
27	0xbd90041c	-0.07032034
28	0x3e251b2e	0.1612365
29	0xbe3a4a1f	-0.18192337
30	0xbc811a43	-0.015759593
31	0x3e490a6e	0.19632885
32	0x3e05cf36	0.13067326
33	0x3d4da9b6	0.050210677
34	0x3dade20d	0.084903814
35	0xbd8d1d89	-0.06890399
36	0xbe20fa54	-0.15720493
37	0xbdfaefcc	-0.12252769
38	0xbdf0c665	-0.11756591
39	0x3e18b2c4	0.14911944
40	0x3b7e04fb	0.0038760293
41	0xbe284b82	-0.16435054
42	0xbe1cdc50	-0.15318418
43	0xbc813fb8	-0.015777454
44	0x3def5908	0.11686903
45	0x3cc9db50	0.02464071
46	0x3d10f6aa	0.035391487
47	0xbd39ae9d	-0.04533254
48	0xbad3c6ae	-0.0016157234
49	0x3df427ce	0.11921655
50	0x3d8e7208	0.069553435
51	0xbd8738d0	-0.06602633
52	0x3e5476a4	0.20748383
53	0x3e1369e3	0.14395861
54	0x3d8c0b4a	0.06838091
55	0x3dcc060c	0.09962091
56	0x3e0ddd49	0.13853945
57	0xbcf52bb5	-0.029928068
58	0x3d2d2943	0.04227568
59	0xbd899623	-0.067180894
60	0xbd7d7fe3	-0.06188954
61	0x3c2f1c9b	0.010687972
62	0xbe0a608d	-0.13513394
63	0x3e37c9ca	0.1794807
64	0xbe0b9de7	-0.13634454
65	0xbe05a9e7	-0.13053094
66	0xbceb8c05	-0.02875329
67	0x3e0cf000	0.13763428
68	0xbdcffd79	-0.10155768
69	0xbc351613	-0.011052626
70	0x3de6aa6c	0.11262974
71	0xbe3783a4	-0.1792131
72	0x3e41d2e8	0.1892811
73	0x3de91837	0.11381572
74	0x3d8ca5a1	0.06867529
75	0x3bb7eaee	0.0056127226
76	0x3dfa7532	0.122293845
77	0xbd5c7524	-0.05382265
78	0x3ca18580	0.019716978
79	0x3e1b677b	0.15176193
80	0xbde35586	-0.11100297
81	0x3c60915e	0.013706533
82	0x3e1518de	0.14560267
83	0x3c93e021	0.018051209
84	0xbdf5fb66	-0.12010841
85	0x3d1ef53b	0.03880809
86	0xbd343ba7	-0.0440022
87	0xbe337ca7	-0.1752802
88	0x3b2e40b1	0.0026588852
89	0x3c3833ae	0.01124279
90	0x3e0993f0	0.1343534
91	0xbc19e1b7	-0.0093921935
92	0xbe1603ca	-0.14649883
93	0x3e36f0c8	0.17865288
94	0x3d3a00a6	0.045410775
95	0xbd67841f	-0.056522485
96	0x3e02a843	0.12759499
97	0x3e18780a	0.14889541
98	0x3e169c24	0.14708
99	0x3e257fa5	0.16161974
100	0xbda10372	-0.07861985
101	0x3e43f4d5	0.19136365
102	0x3e02967a	0.12752715
103	0xbe0a7daa	-0.135245
104	0x3dd0aa5f	0.10188746
105	0xbded62b2	-0.1159109
106	0x3dbacddb	0.09121295
107	0xbdf0da3f	-0.11760377
108	0x3dd01c4a	0.10161646
109	0xbdae1fd6	-0.08502166
110	0x3d383516	0.0449725
111	0xbd245f4c	-0.040129945
112	0x3ddc34b9	0.107522435
113	0xbb259c10	-0.0025270022
114	0x3dbf3290	0.09335816
115	0xbd9b10db	-0.07571574
116	0x3dc33b61	0.0953281
117	0x3ddf7319	0.10910625
118	0x3c59c6ce	0.013292028
119	0xbd7de510	-0.06198603
120	0x3d00d159	0.03144965
121	0xbe41ceca	-0.1892654
122	0xbc1f6ec2	-0.009730997
123	0x3e32a2cc	0.17444915
124	0x3dd460b7	0.103700094
125	0xbb6271b7	-0.0034552643
126	0xbdd0dc97	-0.10198324
127	0x3d2f89ca	0.042856015
128	0x3e39633a	0.18104258
129	0x3dd0cd3b	0.101953946
130	0x3aa164d9	0.001231338
131	0x3d7f42aa	0.062319435
132	0x3c84b184	0.016197927
133	0xbd3631ef	-0.044481214
134	0xbe19bab6	-0.15012631
135	0xbdc71462	-0.097206846
136	0xbdae1bd0	-0.085013986
137	0xbdf8be39	-0.12145657
138	0x3e476a2c	0.19474095
139	0xbe31f1f6	-0.17377457
140	0x3c6e9e41	0.014564098
141	0x3c4944ee	0.0122845005
142	0xbdc9ebb7	-0.09859412
143	0xbccede87	-0.025252594
144	0x3d9d202f	0.07672154
145	0xbe146201	-0.1449051
146	0x3d885036	0.06655924
147	0xbc490b32	-0.012270736
148	0xbdc42d71	-0.0957898
149	0xbe21c76c	-0.1579873
150	0xbca3a486	-0.019975912
151	0xbdbe6878	-0.092972696
152	0x3d9123b6	0.070868894
153	0xbe523b2a	-0.20530382
154	0x3e1f815a	0.15576687
155	0x3e4766ba	0.19472781
156	0x3c85203b	0.01625072
157	0xbe0d66c2	-0.1380873
158	0xbe4a05b1	-0.19728734
159	0x3dc838d7	0.09776466
160	0x3d9130e0	0.070894
161	0x3e2d9441	0.16951086
162	0xbddd0eff	-0.10793876
163	0x3def0ac1	0.11671973
164	0xbda9ec5b	-0.08297034
165	0xbe1d5c81	-0.15367319
166	0x3c922cbd	0.017843598
167	0xbd6e5b30	-0.058192432
168	0x3dc1e39a	0.0946724
169	0xbdde5346	-0.10855727
170	0x3e0b1dd3	0.13585596
171	0xbe170d67	-0.14751206
172	0x3d4e8b6d	0.050425936
173	0x3e0ad792	0.13558796
174	0xbd3f8d3f	-0.046765562
175	0xbe43ce7e	-0.1912174
176	0x3d9fc1f6	0.07800667
177	0xbe3128a3	-0.17300658
178	0xbddbb474	-0.10727778
179	0xbdbdb049	-0.09262139
180	0xbddd4f98	-0.10806197
181	0x3e3fabc1	0.18717863
182	0xbe1d2044	-0.1534434
183	0x3e1ded57	0.15422569
184	0xbe064e27	-0.1311575
185	0x3e2af642	0.16695502
186	0xbd887cfb	-0.06664463
187	0xbd0ce346	-0.034396432
188	0xbe1297bf	-0.14315699
189	0x3cbf78dd	0.023373062
190	0xbda330f0	-0.079683185
191	0xbe426da6	-0.1898714
192	0x3dcbf76a	0.099593
193	0x3d8d6389	0.069037504
194	0xbe0bb9bd	-0.13645072
195	0x3e469700	0.1939354
196	0xbcb75410	-0.022378951
197	0x3e05f246	0.13080701
198	0xbd998643	-0.074963115
199	0xbe4d4f5e	-0.20049807
200	0xbdc1ca28	-0.09462386
201	0xbe20fded	-0.15721865
202	0x3e3c6c55	0.184007
203	0x3e29caa2	0.16581205
204	0xbd0cdf47	-0.03439262
205	0xbe4f0b6b	-0.202192
206	0x3e01b572	0.12666872
207	0x3d870899	0.06593437
208	0x3e0d2803	0.13784795
209	0x3d27d20c	0.0409718
210	0x3db708bc	0.08937213
211	0xbc6d673e	-0.014489947
212	0x3e503291	0.2033179
213	0xbd175b09	-0.036952052
214	0x3dc74442	0.09729816
215	0xbe46f3f2	-0.19428995
216	0xbceaa21c	-0.028641753
217	0x3cd7bf3a	0.026336301
218	0x3e2e7a7f	0.17038916
219	0x3de52ca0	0.11190152
220	0x3e4e5bba	0.20152178
221	0x3d059e79	0.032621834
222	0xbd8b1d97	-0.06792753
223	0x3c2848f3	0.010271299
224	0xba8b5c20	-0.0010632314
225	0x3d777821	0.0604173
226	0x3d30d146	0.04316833
227	0xbdbe99c9	-0.09306676
228	0x3db4e47e	0.08832644
229	0x3cc5689a	0.02409773
230	0xbe0e0c05	-0.13871773
231	0x3bf80721	0.007569209
232	0xbe161224	-0.14655358
233	0x3ac7d230	0.0015245136
234	0x3d627a4f	0.055292424
235	0xbe527192	-0.20551136
236	0x3e12d173	0.14337711
237	0xbdb54581	-0.088511474
238	0xbd11b9a9	-0.03557745
239	0xbd418f5b	-0.047255855
240	0x3e23a095	0.15979226
241	0xbe025a25	-0.127297
242	0xbe4e883a	-0.20169154
243	0xbe40a06d	-0.18811198
244	0x3dc7ef0f	0.09762394
245	0xbd87f68d	-0.06638823
246	0x3cfdc546	0.030977856
247	0x3dccb542	0.0999551
248	0x3bb921e1	0.0056497906
249	0x3e5080f4	0.20361692
250	0x3daa1921	0.08305574
251	0xbe48bd43	-0.19603448
252	0xbe22fcfa	-0.15916815
253	0xbe38606f	-0.18005536
254	0xbe0c8ac0	-0.13724804
255	0xbd4ccf29	-0.05000225

transformer_encoder.layers.0.linear2.weight f4 [24, 512]
0	0x3c2cb2fd	0.010540721
1	0x3c61b521	0.013776095
2	0xbd2d6581	-0.04233313
3	0x3c6040a1	0.013687284
4	0xbc3985f0	-0.011323437
5	0x3a967361	0.0011478477
6	0x3bde0762	0.0067757824
7	0x3c8a4b63	0.01688165
8	0x3d020052	0.031738587
9	0xbd24453d	-0.040105093
10	0x3a333e85	0.0006837624
11	0xbd220e94	-0.039564684
12	0x3c8b1ac3	0.016980534
13	0xbba1438d	-0.0049213828
14	0xbb57a299	-0.0032903312
15	0xbd2d2b0e	-0.04227739
16	0x3d029160	0.03187692
17	0xbc49e567	-0.01232276
18	0xbbd88956	-0.0066081686
19	0xbd087ec7	-0.03332403
20	0x3d0d7770	0.034537733
21	0x3be09b5c	0.006854458
22	0x3b237c20	0.002494581
23	0x3d105792	0.035239764
24	0x3b682359	0.003542146
25	0x3cdbbbd1	0.026822956
26	0xbd06a66e	-0.032873563
27	0xbba676b9	-0.005080071
28	0xbc7ba762	-0.015359731
29	0x3c702364	0.014656875
30	0xbd25577e	-0.040366642
31	0xbc4b0227	-0.01239065
32	0x3b3490ec	0.00275522
33	0x3d232480	0.03982973
34	0xbb047970	-0.0020213984
35	0xbc5b5750	-0.013387516
36	0xbcf4e991	-0.02989653
37	0xbc5d7c22	-0.013518365
38	0xbbb9ef4e	-0.0056742793
39	0x3cd529ac	0.026020847
40	0xbbf2b933	-0.0074073314
41	0xbcb4774d	-0.022029543
42	0xbb6f4d5e	-0.003651462
43	0xbce9a7ba	-0.028522361
44	0x3c096aa7	0.008387244
45	0xbcfb1354	-0.030648865
46	0x3d2a8f9b	0.04164086
47	0x3d232d35	0.039838035
48	0xbd02df53	-0.03195126
49	0x3cd7748f	0.026300697
50	0xbc4091b3	-0.011753487
51	0xbc658eb4	-0.014011074
52	0x3d11a42c	0.035556957
53	0x3d7fe20d	0.06247144
54	0x3d047112	0.032334395
55	0xbd0bc073	-0.03411908
56	0x3c898741	0.016788127
57	0x3cd99004	0.02655793
58	0x3c766783	0.015039328
59	0xbcc3653f	-0.023851989
60	0x3c10c50c	0.008836042
61	0xbc9a5329	-0.018838482
62	0x3be0783d	0.006850271
63	0x3bbd87da	0.005784017
64	0x3b9dc003	0.0048141493
65	0xbcb8c434	-0.022554494
66	0x3cd21135	0.02564297
67	0xbc90fa5f	-0.017697511
68	0xbc468e6c	-0.012118917
69	0x3cc2e86a	0.023792464
70	0x3c8b2c59	0.01698892
71	0x3cb8491a	0.022495795
72	0x3c773087	0.015087253
73	0x39fcf7ed	0.00048249905
74	0xbc84a718	-0.016192958
75	0x3d31c0ca	0.04339675
76	0xbd392db4	-0.0452096
77	0x3d0bb9d4	0.034112766
78	0x3c971014	0.018440284
79	0x3b34de0b	0.0027598168
80	0x3cdc6a52	0.026906166
81	0x3d45c82e	0.04828661
82	0x3c1e91e5	0.009678339
83	0xbca882d1	-0.02057019
84	0xbcaf5363	-0.021402067
85	0x3cab7ee5	0.020934531
86	0xbc3f907c	-0.011692163
87	0x39af5968	0.00033445214
88	0xbb52dfe8	-0.0032176916
89	0xbcec65c5	-0.028857121
90	0x3c665f69	0.0140608335
91	0xbc55720f	-0.013027682
92	0x3be2ab6b	0.0069174073
93	0x3ceb12a5	0.028695414
94	0xbc370955	-0.0111716585
95	0xbc02d0ce	-0.007984353
96	0xbbdbde70	-0.006709866
97	0x3b303d24	0.0026891911
98	0x3c232bd4	0.00995918
99	0x3d0364d5	0.032078583
100	0xbd2cea80	-0.042215824
101	0x3d0ba31b	0.034091096
102	0x3d496a12	0.049173422
103	0xbcece76d	-0.028918946
104	0x3ce06c58	0.027395412
105	0x3c30153b	0.010747249
106	0xbcfe429b	-0.03103762
107	0x3b1cd468	0.0023930315
108	0xbc341f70	-0.010993823
109	0x3d14953b	0.03627513
110	0xbc87b9c9	-0.016568081
111	0xbc52af5d	-0.012859193
112	0x3d7cc922	0.061715253
113	0xbc4a739a	-0.012356663
114	0xbd256ef2	-0.04038901
115	0x3d12d092	0.03584344
116	0x3c28ebac	0.010310095
117	0x3cb76e7f	0.022391556
118	0x3bf16bef	0.007367603
119	0xbca76759	-0.020435022
120	0x3c27086c	0.010194879
121	0x3c779666	0.015111541
122	0x3c597264	0.013271902
123	0x3d0b6668	0.03403321
124	0xbcdd6efb	-0.027030459
125	0x3c92738a	0.017877359
126	0x3d79fe0d	0.061033297
127	0xbbb86948	-0.005627785
128	0x3d437e5f	0.04772794
129	0xbb0ac0b3	-0.0021171987
130	0xbc82c230	-0.015961736
131	0x3be0ffa0	0.0068664104
132	0x3c9b0dc8	0.01892747
133	0x3c0040ad	0.00782792
134	0xbd0c02e6	-0.03418245
135	0x3cf01d8f	0.02931097
136	0x3c696742	0.01424581
137	0xbc8c654d	-0.017138148
138	0x3cdaffd2	0.026733313
139	0x3b35de6b	0.002775098
140	0x3bd141fc	0.00638604
141	0xbba72ea0	-0.0051019937
142	0x3d25ae8d	0.040449668
143	0xbcd6440b	-0.026155492
144	0x3b3efb31	0.002914142
145	0x3c48be7d	0.012252447
146	0xbc29be76	-0.010360351
147	0xbb4a3a55	-0.0030857523
148	0xbd109670	-0.03529972
149	0x3c3a75b4	0.011380602
150	0x3acacc1f	0.001547221
151	0xbc3afcbc	-0.011412796
152	0xbd2be684	-0.041967884
153	0x3c5b47ff	0.013383864
154	0xbca02a99	-0.019551562
155	0x3d2bd5f0	0.041952074
156	0x3d20e8a5	0.039284367
157	0x3cffdb0d	0.031232381
158	0x3d12b6b6	0.035818778
159	0x3d549094	0.051895693
160	0xbbf56703	-0.0074890866
161	0x3c89f8eb	0.016842326
162	0xbc0c51c8	-0.00856442
163	0xbab36508	-0.0013686726
164	0xbcf27d8c	-0.029600881
165	0xbb8f79b0	-0.00437852
166	0x3a975d23	0.0011548143
167	0xbb53c61d	-0.003231413
168	0xbd204567	-0.039128687
169	0x3c52a73e	0.012857256
170	0xbc69cbe9	-0.014269807
171	0xbc926b30	-0.017873377
172	0xbcabfbe1	-0.020994129
173	0xbbef2011	-0.007297524
174	0x3c43219a	0.011909867
175	0x3c2f1b96	0.010687729
176	0xbba17074	-0.0049267355
177	0xbc7e7a90	-0.015532151
178	0xbaf53755	-0.0018708507
179	0xbcf06119	-0.029343175
180	0x3d48083c	0.048835978
181	0xbc8be488	-0.017076746
182	0x3c9999eb	0.018750152
183	0xbd0a8608	-0.03381923
184	0xbce6df8f	-0.028182773
185	0xbd4765ab	-0.048680943
186	0xbcbb8021	-0.022888245
187	0xbd0a8a8a	-0.033823527
188	0xbcc2c437	-0.023775203
189	0xbc01ddf9	-0.007926458
190	0x3c82ed4d	0.015982294
191	0xbc92160d	-0.01783278
192	0x3cc9b76c	0.024623595
193	0xbcef262b	-0.029193005
194	0xbd21e6fa	-0.039526917
195	0xbc6b1bb4	-0.014349867
196	0xbd14c445	-0.03631999
197	0x3cd9571a	0.026530791
198	0x3ce8221a	0.028336573
199	0x3c8d77af	0.017268984
200	0x3c263448	0.010144301
201	0x3d1abdf7	0.03777882
202	0x3b93a54d	0.0045057894
203	0x3c5fb0c4	0.013652984
204	0xbcac08e5	-0.021000335
205	0x3bde3fbf	0.0067825015
206	0x3c8f8dd4	0.017523684
207	0x3d18e0a6	0.037323616
208	0xbc197db2	-0.009368347
209	0x3cd527ee	0.026020017
210	0xbbbab487	-0.00569779
211	0xbc5e3910	-0.013563409
212	0xbbb1e5be	-0.0054289987
213	0xbd2869f4	-0.04111667
214	0x3cc5d519	0.024149464
215	0x3c7f3ff2	0.015579211
216	0xbd10846c	-0.035282537
217	0xbcc803a1	-0.024415793
218	0x3d1f8bb7	0.0389516
219	0x3d14fd52	0.036374398
220	0x3d0df615	0.03465851
221	0x3d120537	0.035649505
222	0xbbc7797d	-0.0060874806
223	0x3d45d2e9	0.048296843
224	0xbd488870	-0.048958242
225	0xbc68199f	-0.014166265
226	0x3c5bd37f	0.013417124
227	0x3ce2e535	0.027697185
228	0xbc2c3b6e	-0.010512216
229	0xbcaea864	-0.02132053
230	0x3c2f1953	0.01068719
231	0x3ccab03a	0.024742234
232	0x3c82aaf9	0.015950667
233	0x3c095cdb	0.008383955
234	0x3c31c41c	0.010849979
235	0xbce45e9f	-0.02787715
236	0xbd013044	-0.03154017
237	0xbd0be8d3	-0.034157585
238	0x3d4b2d8c	0.049603984
239	0xbc24b588	-0.010053046
240	0x3c9fc9f4	0.019505478
241	0x3c80b55f	0.015711484
242	0xbcbff74a	-0.023433346
243	0x3c15c1d7	0.009140453
244	0x3d1d5489	0.038410697
245	0x3c584023	0.013198885
246	0x3d14d9f6	0.036340676
247	0x3d126273	0.03573842
248	0xbc8ba0d4	-0.017044462
249	0xbd108e17	-0.035291757
250	0xbc05c929	-0.008165636
251	0xbd0af6bb	-0.033926707
252	0x3caacc90	0.020849496
253	0x3d2c4a67	0.042063143
254	0x3cf39b6a	0.029737193
255	0x3d2a937c	0.04164456

transformer_encoder.layers.0.linear2.bias f4 [24]
0	0x3c2f2789	0.010690578
1	0xbd1ee408	-0.038791686
2	0xbd2ab677	-0.04167792
3	0xbd1bb488	-0.038013965
4	0xbcfba6f0	-0.03071925
5	0x3d0d2618	0.034460157
6	0xbd13cabd	-0.03608202
7	0xbd2059ff	-0.039148327
8	0x3c8026d2	0.015643511
9	0x3d13cc5e	0.03608357
10	0xbce83eaa	-0.028350193
11	0x3cc39aa1	0.023877444
12	0xbbc30acf	-0.005952216
13	0x3c8fced6	0.017554682
14	0xbc66057a	-0.014039392
15	0xbc9f39bd	-0.019436711
16	0x3b8ee2d6	0.004360537
17	0x3bd6c74b	0.0065545193
18	0x3d75211a	0.05984602
19	0xbcd56a9f	-0.026051817
20	0x399024eb	0.00027493326
21	0x3d1e4866	0.038643263
22	0xb978b3bd	-0.00023718081
23	0x3b63ca14	0.00347579

transformer_encoder.layers.0.norm1.weight f4 [24]
0	0x3f6abec0	0.9169731
1	0x3f6d68cc	0.9273803
2	0x3f765a33	0.96231383
3	0x3f70e1cd	0.94094545
4	0x3f784af2	0.9698936
5	0x3f750e94	0.9572537
6	0x3f7b574e	0.9818009
7	0x3f7f66f5	0.99766475
8	0x3f87c142	1.0605853
9	0x3f845fcc	1.0341735
10	0x3f81894d	1.0120026
11	0x3f7eef19	0.99583584
12	0x3f89491e	1.0725439
13	0x3f869a75	1.0515887
14	0x3f85e32c	1.0459952
15	0x3f792e87	0.9733662
16	0x3f78cd5f	0.9718837
17	0x3f7a2d62	0.977255
18	0x3f88cc98	1.0687437
19	0x3f80165c	1.0006824
20	0x3f7f46e6	0.9971756
21	0x3f8495ca	1.0358212
22	0x3f83d614	1.0299706
23	0x3f7beee3	0.9841139

transformer_encoder.layers.0.norm1.bias f4 [24]
0	0x3d0aa4ea	0.03384868
1	0xbb4e41b6	-0.0031472272
2	0x3b9e1eac	0.0048254337
3	0x38aa6973	8.125873e-05
4	0xbd0a871c	-0.033820257
5	0xbabaa8a2	-0.001424093
6	0xbc7f1edd	-0.015571323
7	0xbbe2594f	-0.006907619
8	0x3c63ad31	0.0138962725
9	0x3cad9566	0.021189403
10	0xbb24b550	-0.0025132485
11	0x3ce7b513	0.028284585
12	0xbc7e41eb	-0.015518646
13	0xbc3a2dcd	-0.011363459
14	0xbc0e29a1	-0.008676917
15	0xbc43c9df	-0.011949985
16	0x3bffbcfa	0.00780451
17	0xbc1d064d	-0.009584022
18	0x3d025ebc	0.031828627
19	0xbd40f985	-0.04711296
20	0x3c1485b8	0.009065084
21	0x3bdedbee	0.00680112
22	0x3cbb8285	0.022889385
23	0xbada34ef	-0.0016647856

transformer_encoder.layers.0.norm2.weight f4 [24]
0	0x3f706af7	0.93913215
1	0x3f79023b	0.9726903
2	0x3f6fb6d5	0.93638355
3	0x3f751eec	0.9575031
4	0x3f81c38f	1.0137805
5	0x3f7cbf83	0.98729724
6	0x3f768e6f	0.96311086
7	0x3f77cc87	0.9679646
8	0x3f826232	1.0186217
9	0x3f93e2a6	1.1553543
10	0x3f801460	1.0006218
11	0x3f8f413b	1.1191782
12	0x3f8c9aea	1.0984776
13	0x3f8535d6	1.0407054
14	0x3f805d30	1.0028439
15	0x3f7c710d	0.9861
16	0x3f6e7b8a	0.93157256
17	0x3f83e04c	1.0302825
18	0x3f85c8c0	1.0451889
19	0x3f87ae7b	1.0600122
20	0x3f8217af	1.0163478
21	0x3f8323bb	1.0245279
22	0x3f8100c8	1.0078363
23	0x3f7d4d1c	0.98945785

transformer_encoder.layers.0.norm2.bias f4 [24]
0	0x3b9fd9cb	0.004878258
1	0xbc9091c5	-0.017647633
2	0x3be57211	0.007002123
3	0x3bdf21bd	0.006809442
4	0xbce11edf	-0.02748054
5	0xb989e05e	-0.00026297843
6	0xbadd9ac2	-0.0016907083
7	0x3a93e618	0.0011283783
8	0xbbe89cbe	-0.0070987632
9	0xbc64abc7	-0.013956971
10	0xbc3ac73b	-0.011400039
11	0x3caae034	0.020858862
12	0xbc1e4bab	-0.009661595
13	0x3b5d5ff7	0.0033779123
14	0x3acb845f	0.001552712
15	0xbc07be59	-0.0082851285
16	0x3cc4ef26	0.024039816
17	0xbca6e469	-0.020372586
18	0x3d1184e0	0.03552711
19	0xbcae7207	-0.021294607
20	0xbc4f6b3d	-0.012659845
21	0x3c880261	0.016602697
22	0x3bc60199	0.006042671
23	0x3baeb5fd	0.0053317533
