online/32_net.pth (torch, 236820 bytes, 26 tensors)

pos_encoder.pe f4 [70, 24]
000000 00 00 00 00 00 00 80 3f 00 00 00 00 00 00 80 3f
       0.0 1.0 0.0 1.0
000010 00 00 00 00 00 00 80 3f 00 00 00 00 00 00 80 3f
       0.0 1.0 0.0 1.0
000020 00 00 00 00 00 00 80 3f 00 00 00 00 00 00 80 3f
       0.0 1.0 0.0 1.0
000030 00 00 00 00 00 00 80 3f 00 00 00 00 00 00 80 3f
       0.0 1.0 0.0 1.0
000040 00 00 00 00 00 00 80 3f 00 00 00 00 00 00 80 3f
       0.0 1.0 0.0 1.0
000050 00 00 00 00 00 00 80 3f 00 00 00 00 00 00 80 3f
       0.0 1.0 0.0 1.0
000060 a4 6a 57 3f 41 51 0a 3f 1d 35 e5 3e 30 ea 64 3f
       0.84147096 0.54030234 0.44767085 0.8941984
000070 52 e9 5a 3e eb 14 7a 3f 76 75 cc 3d 98 b8 7e 3f
       0.21378067 0.9768817 0.099833414 0.9950042
000080 1e 0d 3e 3d 6a b9 7f 3f 47 7a b0 3c ca f0 7f 3f
       0.04639923 0.99892294 0.021542681 0.9997679
000090 57 d6 23 3c b9 fc 7f 3f 57 18 98 3b 4b ff 7f 3f
       0.009999833 0.99995 0.0046415734 0.9999892
0000a0 64 31 0d 3b d9 ff 7f 3f 6d 12 83 3a f8 ff 7f 3f
       0.0021544332 0.9999977 0.0009999998 0.9999995
0000b0 5c 5a f3 39 fe ff 7f 3f ab e8 61 39 00 00 80 3f
       0.00046415895 0.9999999 0.00021544348 1.0
0000c0 b7 c7 68 3f 33 11 d5 be fb f4 4c 3f f8 63 19 3f
       0.9092974 -0.41614684 0.8006131 0.59918165
0000d0 be d9 d5 3e b9 99 68 3f f8 6f 4b 3e a5 e5 7a 3f
       0.41767687 0.9085956 0.19866931 0.9800666
0000e0 b7 d8 bd 3d d1 e5 7e 3f cb 6f 30 3d 2c c3 7f 3f
       0.09269851 0.9956942 0.043075364 0.99907184
0000f0 3e d4 a3 3c e5 f2 7f 3f ec 17 18 3c 2d fd 7f 3f
       0.019998666 0.9998 0.009283047 0.9999569
000100 4e 31 8d 3b 64 ff 7f 3f 68 12 03 3b df ff 7f 3f
       0.004308856 0.9999907 0.0019999985 0.99999803
000110 5b 5a 73 3a f9 ff 7f 3f ab e8 e1 39 ff ff 7f 3f
       0.00092831784 0.9999996 0.00043088695 0.99999994
000120 c3 81 10 3e 26 70 7d bf ce f0 7b 3f 16 a2 35 3e
       0.14112 -0.9899925 0.98414314 0.17737612
000130 c8 2d 1a 3f 56 5d 4c 3f 6c 4e 97 3e ef 90 74 3f
       0.60226107 0.7982992 0.2955202 0.9553365
000140 17 21 0e 3e a8 85 7d 3f bd 46 84 3d 29 77 7f 3f
       0.1387981 0.9903207 0.06458805 0.997912
000150 1f b9 f5 3c 83 e2 7f 3f d5 22 64 3c a6 f9 7f 3f
       0.0299955 0.99955004 0.01392432 0.9999031
000160 bf c9 d3 3b a2 fe 7f 3f 92 9b 44 3b b5 ff 7f 3f
       0.006463259 0.99997914 0.0029999954 0.9999955
000170 c2 83 b6 3a f0 ff 7f 3f 7f 6e 29 3a fd ff 7f 3f
       0.0013924765 0.99999905 0.00064633036 0.9999998
000180 cf bd 41 bf 30 55 27 bf e7 9c 75 3f 6c 5d 90 be
       -0.7568025 -0.6536436 0.9594254 -0.28196275
000190 be 4d 42 3f f9 ad 26 3f d7 61 c7 3e a7 ca 6b 3f
       0.75899875 0.6510921 0.38941833 0.921061
0001a0 73 07 3d 3e b2 99 7b 3f df 45 b0 3d cc 0c 7f 3f
       0.18459873 0.98281395 0.08607077 0.996289
0001b0 db cb 23 3d 94 cb 7f 3f 3e 16 98 3c b4 f4 7f 3f
       0.039989334 0.9992001 0.018565293 0.9998276
0001c0 f8 30 0d 3c 91 fd 7f 3f 57 12 83 3b 7a ff 7f 3f
       0.008617632 0.99996287 0.003999989 0.999992
0001d0 54 5a f3 3a e3 ff 7f 3f a9 e8 61 3a fa ff 7f 3f
       0.0018566349 0.9999983 0.0008617738 0.99999964
0001e0 10 7c 75 bf 2c 3c 91 3e 0a 50 3b 3f cb 7f 2e bf
       -0.9589243 0.2836622 0.73169005 -0.68163747
0001f0 cf 71 61 3f 63 93 f2 3e 43 77 f5 3e 40 a9 60 3f
       0.88064283 0.47378072 0.47942552 0.87758255
000200 93 85 6b 3e ff 22 79 3f 0e 30 dc 3d 21 84 7e 3f
       0.23000173 0.97319025 0.10751353 0.9942036
000210 f4 b6 4c 3d 19 ae 7f 3f 3c 1a be 3c 5a ee 7f 3f
       0.049979165 0.99875027 0.023205869 0.9997307
000220 e6 7c 30 3c 33 fc 7f 3f dd d6 a3 3b 2e ff 7f 3f
       0.010771966 0.999942 0.004999979 0.9999875
000230 71 18 18 3b d3 ff 7f 3f 69 31 8d 3a f6 ff 7f 3f
       0.0023207928 0.9999973 0.0010772172 0.9999994
000240 8c 0f 8f be b8 cd 75 3f c6 c0 b2 3e 2d e4 6f bf
       -0.2794155 0.96017027 0.349127 -0.93707544
000250 63 29 76 3f 8f 93 8c 3e 68 8c 10 3f 32 49 53 3f
       0.961569 0.27456328 0.5646424 0.8253356
000260 e9 c0 8c 3e e9 22 76 3f 09 00 04 3e 38 dd 7d 3f
       0.2749093 0.9614702 0.12890638 0.9916568
000270 d1 9c 75 3d 12 8a 7f 3f 2b 1d e4 3c 96 e6 7f 3f
       0.059964005 0.99820054 0.02784594 0.9996122
000280 9d c8 53 3c 86 fa 7f 3f 58 9b c4 3b d2 fe 7f 3f
       0.012926248 0.99991643 0.0059999637 0.999982
000290 b7 83 36 3b bf ff 7f 3f 7d 6e a9 3a f2 ff 7f 3f
       0.0027849504 0.9999961 0.0012926605 0.99999917
0002a0 46 30 28 3f bd ff 40 3f 9f c6 db bd 8d 85 7e bf
       0.6569866 0.75390226 -0.10731243 -0.9942253
0002b0 41 7f 7f 3f 23 4f 80 3d 72 eb 24 3f b3 cc 43 3f
       0.9980355 0.06265094 0.6442176 0.7648422
0002c0 6a 71 a3 3e 18 9b 72 3f 5d d8 19 3e 25 18 7d 3f
       0.31922466 0.94767904 0.15023942 0.98864967
0002d0 32 3e 8f 3d 81 5f 7f 3f 6e 0f 05 3d 69 dd 7f 3f
       0.06994285 0.997551 0.032485418 0.9994722
0002e0 15 14 77 3c 8c f8 7f 3f c5 5f e5 3b 65 fe 7f 3f
       0.0150804715 0.9998863 0.006999942 0.9999755
0002f0 f8 ee 54 3b a8 ff 7f 3f 91 ab c5 3a ed ff 7f 3f
       0.003249107 0.99999475 0.0015081038 0.99999887
000300 95 46 7d 3f f6 fd 14 be e3 81 0a bf 62 4b 57 bf
       0.98935825 -0.14550003 -0.5410444 -0.840994
000310 e9 04 7d 3f 59 cf 1b be a5 a4 37 3f 5f 5b 32 3f
       0.9883562 -0.15215816 0.717356 0.6967067
000320 cb c7 b9 3e 80 8d 6e 3f 69 9e 2f 3e ff 34 7c 3f
       0.36285242 0.9318466 0.17150272 0.98518366
000330 50 aa a3 3d 65 2e 7f 3f 89 0f 18 3d d3 d2 7f 3f
       0.07991469 0.9968017 0.03712419 0.9993107
000340 a1 2f 8d 3c 44 f6 7f 3f 12 12 03 3c e7 fd 7f 3f
       0.017234625 0.99985147 0.007999914 0.999968
000350 38 5a 73 3b 8c ff 7f 3f a4 e8 e1 3a e7 ff 7f 3f
       0.0037132632 0.9999931 0.001723547 0.9999985
000360 32 01 d3 3e d5 3f 69 bf f1 3b 5c bf 9f 82 02 bf
       0.4121185 -0.91113025 -0.86028963 -0.5098056
000370 af d7 6e 3f 01 49 b8 be 1c 88 48 3f d5 21 1f 3f
       0.9329786 -0.35993198 0.78332686 0.62161
000380 ba b7 cf 3e 5c fc 69 3f 97 4f 45 3e e1 33 7b 3f
       0.4056986 0.91400695 0.19268642 0.98126036
000390 3e 12 b8 3d c2 f6 7e 3f cd 0e 2b 3d d3 c6 7f 3f
       0.089878544 0.9959527 0.041762162 0.99912757
0003a0 0c d5 9e 3c ae f3 7f 3f 3a 74 13 3c 59 fd 7f 3f
       0.019388698 0.999812 0.008999879 0.9999595
0003b0 ba e2 88 3b 6e ff 7f 3f b6 25 fe 3a e1 ff 7f 3f
       0.0041774185 0.9999913 0.0019389901 0.99999815
0003c0 f8 44 0b bf 64 cd 56 bf d1 5b 7f bf 7e e0 90 bd
       -0.5440211 -0.8390715 -0.99749476 -0.070740685
0003d0 61 9f 55 3f 82 12 0d bf a4 6a 57 3f 41 51 0a 3f
       0.8344632 -0.55106366 0.84147096 0.54030234
0003e0 1e 35 e5 3e 30 ea 64 3f 53 e9 5a 3e eb 14 7a 3f
       0.44767088 0.8941984 0.21378069 0.9768817
0003f0 76 75 cc 3d 98 b8 7e 3f 21 0d 3e 3d 6a b9 7f 3f
       0.099833414 0.9950042 0.04639924 0.99892294

transformer_encoder.layers.0.self_attn.in_proj_weight f4 [72, 24]
000000 18 04 58 be 1f db c1 bd 9d a2 2f be 25 46 72 3e
       -0.21095312 -0.09465622 -0.17151876 0.2365957
000010 e3 6d dc bd 9f ae e9 bd 6f 93 05 3e c6 0e ee bd
       -0.10763147 -0.114102595 0.13044523 -0.116239116
000020 9e a2 fa bd c0 24 b3 bc e8 ec c2 bc 1e 23 47 be
       -0.12238048 -0.02186811 -0.023794606 -0.1944699
000030 55 78 55 3e 57 a8 e0 bd 4e 70 b5 3d 6a 82 5f 3e
       0.20846684 -0.10969608 0.08859311 0.21827093
000040 a3 01 01 3e 1a bd 13 3d 2b ef 59 3e 4b 2a 0c 3d
       0.1259828 0.036069013 0.21282642 0.03422002
000050 90 cf ec bd 89 fe 72 3e 65 c8 72 3d f4 f5 78 be
       -0.11563027 0.2372991 0.059273142 -0.24312574
000060 21 14 97 bd 34 69 31 be 9f 4b 5e 3e ff 82 38 bd
       -0.07376886 -0.17325288 0.21708535 -0.045046803
000070 f7 d4 6c be 32 f5 95 bc 3c 19 1e 3e 79 da 75 3d
       -0.23128115 -0.018305395 0.15439314 0.060022805
000080 0d 93 94 3d ce 6c b8 3c 4b 92 b0 3d 34 00 88 bd
       0.0725461 0.02251282 0.08621653 -0.06640664
000090 4d 8f d3 bd a3 7d 76 be 16 62 43 be e9 cc ce 3d
       -0.10330067 -0.24071364 -0.19080386 0.10097677
0000a0 06 47 19 be a2 aa e2 3c 29 58 9c 3d 2e 9b 1c 3c
       -0.149685 0.027669255 0.07634003 0.009558482
0000b0 12 e4 29 be 60 85 6b 3e c7 5f 16 be c2 a7 4a 3e
       -0.16590908 0.23000097 -0.14684974 0.19790557
0000c0 67 66 4c be 02 65 7b bd 23 ce 0a 3e 12 f4 d3 bd
       -0.19960938 -0.061375625 0.13555197 -0.10349287
0000d0 b9 bd 55 3e 6f ec 30 be d8 18 58 be 5e cc ea bd
       0.20873155 -0.17277692 -0.21103227 -0.11464761
0000e0 b8 0a 1f 3d d9 66 6b 3e 26 ae f8 bd f6 2d b4 3d
       0.03882858 0.22988452 -0.12142591 0.08797829
0000f0 51 d6 82 bd 02 29 65 bd e1 47 3b 3e 51 f5 47 be
       -0.06388534 -0.05594731 0.18289138 -0.19527175
000100 8f 58 d4 3c 34 cb 6e 3e b0 53 11 bd 92 ac 44 3e
       0.025921134 0.23319703 -0.0354802 0.19206455
000110 33 62 a0 bd 16 be 4b 3e fb 27 78 be 4c c2 1a bd
       -0.0783123 0.19896731 -0.24234001 -0.037782952
000120 50 de 78 bd 1a ab 82 3d 87 66 97 3d 16 4b 24 3e
       -0.06075889 0.06380291 0.073926024 0.16044268
000130 01 9b 70 bd 85 c3 ed bc 6d ae 17 3e 6f cd cd bd
       -0.058741573 -0.029023895 0.14812632 -0.10048949
000140 9a ed 24 3e 35 0c 30 be 69 b6 a9 bd b6 83 70 bd
       0.16106263 -0.17192157 -0.08286745 -0.05871936
000150 b0 e0 a4 3d 6d 5f d8 3d f1 66 6e bd 9f 4c 8d be
       0.08050668 0.10565076 -0.05820364 -0.2759752
000160 76 f7 e0 3d 76 a9 b1 3b 5b 78 93 3d 24 bd 64 be
       0.109846994 0.0054218126 0.0720069 -0.22337776
000170 86 83 07 3e 4e 94 21 3e 59 25 32 3c 24 0b 97 be
       0.13233766 0.1577923 0.010873162 -0.29500687
000180 5f d6 36 3e bf 5b 3a be 58 6a 83 3d 9f 6d 30 3d
       0.17855214 -0.18199061 0.06416768 0.043073293
000190 d7 99 e5 bd 94 48 bb 3d dd f4 62 be c2 2b 83 3d
       -0.11210983 0.091447026 -0.2216372 0.064048305
0001a0 66 4b 13 be 4e 75 dd bc 87 5e 3b 3d 4d 2a 64 3e
       -0.14384231 -0.027033474 0.045744445 0.22281761
0001b0 cb a9 e4 bd b8 15 34 3e e2 1c e1 bc f1 ad cd bd
       -0.11165198 0.1758641 -0.027479593 -0.10042942
0001c0 46 11 5c be 8c 5c 59 be b1 99 80 3e ff 1e 39 bd
       -0.21490964 -0.2122671 0.25117257 -0.045195576
0001d0 65 d5 9d 3c 5e fe b3 3d 50 6b 31 3e e1 f9 6b 3e
       0.019266794 0.08788751 0.17326093 0.2304454
0001e0 83 fd 49 3e 75 3c 44 be 2f b7 32 bd 6d 71 20 be
       0.19725613 -0.19163688 -0.04363173 -0.15668269
0001f0 08 82 1a be a0 9a 58 3d 85 a9 64 3e 9f 23 58 be
       -0.15088665 0.052881837 0.22330292 -0.21107338
000200 0c 07 0d 3e ab 15 07 be aa 6a 84 bd 1c f8 3d 3e
       0.1377222 -0.1319186 -0.06465657 0.18551677
000210 c0 4e 87 bd 90 34 b6 3b ba f0 39 be 3b 5c 4a 3e
       -0.06606817 0.005560465 -0.18158236 0.19761746
000220 8b 87 19 bd 52 32 4c be 70 92 87 3d 64 b5 48 be
       -0.03748278 -0.1994107 0.066197276 -0.19600445
000230 2e 03 53 be af 8b 4d bb 56 a4 48 3e ae 5f ac bd
       -0.20606682 -0.0031363775 0.19593939 -0.08416687
000240 28 0e f1 3d 6f d4 5b 3e 7c 87 29 3e f8 bd 06 be
       0.11770278 0.21467756 0.1655559 -0.13158405
000250 25 92 e5 bc 45 0b a2 bd 7c 96 4e be 1d fb 21 ba
       -0.028023789 -0.07912306 -0.20174593 -0.00061790814
000260 ad 58 3f 3e 60 00 58 3e 61 97 b2 3c c8 ca 63 3d
       0.18686171 0.21093893 0.021800699 0.05561331
000270 ae 64 df bd a5 7b 3f 3e df 00 d6 bd d4 65 33 be
       -0.10907875 0.1869951 -0.10449385 -0.17519313
000280 13 ff 1b 3d 37 9c 17 3e 1a 3b 67 be cf 82 65 3e
       0.038085055 0.14805685 -0.22581139 0.22413181
000290 eb 6b b7 3d db 22 35 be 30 5e 5c bd d7 dd 5c 3e
       0.089561306 -0.17689078 -0.05380076 0.21569
0002a0 98 fb 43 be c4 68 95 bd dc c1 ab 3d a1 ec 5e be
       -0.19138944 -0.07295373 0.08386585 -0.21769954
0002b0 32 2c 0c 3e 0c a2 05 3e fe 8c 1e 3e b5 c1 21 be
       0.13688734 0.13050097 0.15483472 -0.1579655
0002c0 a5 d4 7f 3e 9d 84 17 be c7 d5 7f 3e 21 08 76 be
       0.24983461 -0.14796682 0.24983893 -0.24026538
0002d0 09 23 64 be ba a1 1c 3e a4 66 d5 3c 9f 86 71 3c
       -0.2227899 0.15296069 0.02604992 0.014741569
0002e0 8b c1 0d be f1 8c d6 bd 1c 7f 92 bd 18 0d 7a be
       -0.13843362 -0.10476101 -0.071531504 -0.24419057
0002f0 e5 ca 6b 3c d5 46 39 3d 41 74 32 3a d8 bd a5 3d
       0.014391636 0.045233566 0.00068074843 0.080928504
000300 82 2f 72 3e af 65 86 3d 20 ad bd bd 49 5b d5 bd
       0.23650935 0.06562363 -0.092615366 -0.10417802
000310 e0 05 25 be 29 7d 32 be 68 4b 29 bd 14 33 3b bd
       -0.16115522 -0.17430557 -0.04133168 -0.04570301
000320 df 38 dd 3d da 0b db bd 7f 07 49 3e 4e 15 36 be
       0.10801863 -0.1069562 0.19631766 -0.17781565
000330 28 7c 60 ba 15 65 62 3e 1f b3 7d 3e f2 31 18 be
       -0.00085634226 0.22108872 0.2477536 -0.14862803
000340 cf b9 33 3d 18 bf d1 3c eb d9 f2 bd 52 cb b8 bd
       0.043878373 0.025603816 -0.11857971 -0.09023155
000350 8b e5 87 3d 91 62 36 be 59 57 27 3d b9 b1 d6 3d
       0.06635579 -0.17811038 0.040854786 0.10483117
000360 19 74 ca bd 95 f0 53 3e 4c b1 8d bc 7d 74 e6 3d
       -0.09885425 0.20697244 -0.017296456 0.11252687
000370 9b a0 7c 3e 4b 82 9d bd da 59 0a 3e 92 de 93 bd
       0.24670641 -0.07690867 0.13510838 -0.07220186
000380 87 93 1f bd 77 e6 2f bd 00 fe 5e bb 21 a2 c5 bd
       -0.038959052 -0.042944398 -0.0034025908 -0.09650064
000390 a9 3a 6c 3d b6 0e e0 3b 91 c8 21 3e 0e ce 5a bd
       0.05767313 0.006837691 0.15799166 -0.053419165
0003a0 f7 1a ca 3c 45 8d c4 bd cb 43 57 be 2b 7d c9 3d
       0.024671061 -0.095972575 -0.21021955 0.09838327
0003b0 4c 10 ff 3c 78 fb d2 bd af 9a ad bd 78 7d 80 3d
       0.0311357 -0.1030187 -0.08476769 0.06273931
0003c0 92 50 39 bd b9 af 27 3e e9 ab 6d 3c 9a e7 c2 3d
       -0.045242853 0.16375627 0.014506319 0.09516831
0003d0 6c db df 3d f9 1b 7b bd 99 12 df 3d 05 d4 3c 3e
       0.10930523 -0.061305974 0.10892219 0.18440254
0003e0 5d fb 63 3c 24 06 4c 3d c7 84 2e 3c 90 d6 33 3e
       0.01391491 0.049810544 0.010651774 0.17562318
0003f0 a6 de d6 bd 9b 4e 05 be 63 9a df 3d f3 cc 5b be
       -0.104916856 -0.13018267 0.10918119 -0.214649

transformer_encoder.layers.0.self_attn.in_proj_bias f4 [72]
000000 81 ac 6d 3a 06 17 b2 bb 1f 7c 61 ba c7 1b 4b bd
       0.00090665376 -0.0054348735 -0.00086015643 -0.049587037
000010 11 65 62 3c 3e e8 1c bc 7f 83 a1 ba 5b 2d da b9
       0.013818041 -0.009576855 -0.0012322514 -0.00041613993
000020 6f 12 3d bb 89 a5 13 bb ff 9c 31 3b 60 dd 26 3b
       -0.0028850099 -0.0022529087 0.0027101634 0.002546154
000030 2e 68 67 bc f4 76 8c 3b 5e 30 16 bb 0e 94 ab ba
       -0.0141239595 0.0042866413 -0.0022917013 -0.0013090388
000040 d1 42 94 ba c1 19 f1 38 1c 2b 96 bb 37 b7 26 3b
       -0.0011311417 0.000114965726 -0.0045827758 0.0025438794
000050 ab be 05 3a f3 a4 b7 3a 39 26 8b 39 50 51 8a ba
       0.0005101959 0.0014010951 0.00026540624 -0.0010552797
000060 85 75 e6 2c 48 44 59 2c df 35 1b ad c8 ad 71 2d
       6.5500405e-12 3.0875458e-12 -8.822692e-12 1.3737851e-11
000070 c3 c7 36 ad 6d 4e aa 2d 6f fa e8 2b 32 74 36 ac
       -1.0389858e-11 1.936159e-11 1.6554101e-12 -2.5928257e-12
000080 ee a8 bd 2c 02 10 16 ac 18 02 b3 2c 4d 17 48 2c
       5.390458e-12 -2.1325168e-12 5.0877184e-12 2.8434644e-12
000090 64 cb 27 ac 35 d9 70 ab f7 1f 88 ad fc 83 75 ab
       -2.3845032e-12 -8.5566564e-13 -1.5475605e-11 -8.722465e-13
0000a0 58 e4 96 ab f2 68 f3 ab 69 95 f7 ab 75 0b 06 2c
       -1.0721519e-12 -1.7295317e-12 -1.7591875e-12 1.9048905e-12
0000b0 f3 8f 63 2c 77 d2 7d ad bf df 43 2c 42 05 1a 2d
       3.2338548e-12 -1.44281176e-11 2.783537e-12 8.755054e-12
0000c0 b8 14 95 bb 69 e2 19 bc 9b 6b a5 3b 48 58 1f bc
       -0.004549589 -0.009392359 0.005048228 -0.009725638
0000d0 64 f1 a2 3b a6 de da 3b 2d 6a e1 bb e1 c7 f9 3b
       0.0049726237 0.006679374 -0.006879112 0.0076227044
0000e0 81 e7 4e bc 30 f0 8a 3a fa a6 19 ba 92 ab bd ba
       -0.012628437 0.0010600146 -0.0005861368 -0.0014470688
0000f0 ed 66 dc ba e7 b7 d0 bb 92 31 1d 3b b4 da 35 bb
       -0.0016815342 -0.006369579 0.0023985845 -0.0027748765
000100 5f 63 17 bb f7 3d 0c 3b 99 65 cd b8 ab 0e f1 3b
       -0.0023100001 0.0021399239 -9.794086e-05 0.007356485
000110 cc a9 4e bb be 0d 38 bb b1 4f de 3b ed 1f e7 3a
       -0.0031534312 -0.0028084363 0.0067844023 0.0017633416

transformer_encoder.layers.0.self_attn.out_proj.weight f4 [24, 24]
000000 e8 2c df ba 5b 82 e5 3d c0 e9 27 be d8 9d 1e be
       -0.0017026933 0.11206504 -0.16397762 -0.154899
000010 f7 c1 88 bd 16 9f 43 3d 6a 34 c8 bb 32 90 1f 3e
       -0.06677621 0.047759138 -0.006109764 0.1558235
000020 26 10 c7 bc 69 d1 60 3d f1 23 52 bd 72 9f 1c bd
       -0.024299692 0.05488721 -0.051303808 -0.038237996
000030 57 d5 43 be 9c c9 0e be 70 6a 9b bd f4 09 20 3c
       -0.19124351 -0.13944095 -0.07588661 0.009767998
000040 36 1d 9b 3d 8c cc f6 3d e9 f2 11 be e2 db c4 bd
       0.07573931 0.12050733 -0.14252819 -0.09612252
000050 f0 83 8e 3d 63 01 2d 3e 9e bc 20 bd 97 12 20 3e
       0.06958759 0.1689506 -0.03924238 0.15632091
000060 b4 f6 fd bc af 9b b1 3c 20 41 3c 3e ce a4 40 be
       -0.031001426 0.021680681 0.18384218 -0.18812868
000070 42 5f 0a be 0b 9e 3e bd f1 5c a5 bd 49 af 33 3e
       -0.135129 -0.04653744 -0.08074368 0.17547335
000080 62 b5 09 be 31 e2 c0 bd 7a e5 11 be 0e 31 46 be
       -0.13448098 -0.094181426 -0.14247695 -0.1935465
000090 44 a4 f8 bd 95 0d 31 3e 85 4e b8 3d 77 99 c4 3d
       -0.12140706 0.17290337 0.089993514 0.095995836
0000a0 3a 20 69 3c 99 98 d5 bd 9d 2c 15 3d 33 2b 40 be
       0.014228875 -0.10429496 0.0364195 -0.18766479
0000b0 cf f4 1a be b7 b9 db bd 53 32 0a 3e 3b f3 f8 3d
       -0.1513245 -0.10728782 0.1349576 0.121557675
0000c0 1f 91 b8 bd f2 59 72 bc cc 28 07 3e 99 61 53 3e
       -0.09012055 -0.014791952 0.13199157 0.206427
0000d0 d9 77 8f 3d f9 bd 00 3d b8 ce 08 3e fe e5 ea bd
       0.07005281 0.031431172 0.13360107 -0.11469649
0000e0 43 92 1d 3d 6f 67 1e be e2 f0 19 be c4 9b d7 bd
       0.038469564 -0.15469144 -0.15033296 -0.10527757
0000f0 39 16 b4 3d d7 1d b3 3d 9c 20 f5 bd 40 de 83 3d
       0.08793301 0.08745926 -0.1196911 0.06438875
000100 dc 27 ea 3d b3 4b bc bc 8a 6a 13 3c cf ae 4b 3d
       0.11433384 -0.022985315 0.008997569 0.049727257
000110 c1 39 00 3e b2 d1 44 3e d6 5c 20 be 9f 5e 99 bd
       0.12522031 0.19220617 -0.15660414 -0.07488751
000120 fa 1d a0 3d 02 59 2e 3e cb a2 35 3e df f5 3c 3e
       0.078182176 0.17026141 0.17737882 0.18453167
000130 32 16 17 3d ce 2d 35 be 98 58 af 3c b2 85 00 be
       0.0368864 -0.17693254 0.02140455 -0.12551
000140 a4 fc 3d be ec 9a 36 3e 04 e1 1d 3e 6e e2 4d be
       -0.18553406 0.17832536 0.15417868 -0.20105907
000150 8d 94 1f 3d f5 ec 08 bd 2d 7d 06 bd 4f 4a bc bd
       0.03896003 -0.033429105 -0.03283422 -0.09193861
000160 37 7b 9c 3d d0 9c f9 bd c7 2e 99 3d 17 a2 d1 3d
       0.07640689 -0.12188113 0.07479625 0.10235994
000170 57 81 1b 3e 6b fc 9e 3d 57 66 51 be ba 0a 07 be
       0.15186058 0.07762989 -0.20449196 -0.13187686
000180 58 de d4 3d 8b 20 06 3d 2d b8 21 be 40 66 00 be
       0.10393971 0.03274588 -0.15792914 -0.12539005
000190 40 48 39 3e f3 b4 13 3e 81 76 cd bd a7 8b 4a bd
       0.18093967 0.14424495 -0.100323685 -0.04944959
0001a0 ad d9 50 be 95 33 25 3c 3d a1 28 be 6f 4c 29 be
       -0.20395537 0.010083099 -0.16467758 -0.16533063
0001b0 11 0c a0 bc 8a 42 04 3d c3 93 a1 bd cb 1a f7 3d
       -0.019537004 0.03229002 -0.078895114 0.12065657
0001c0 76 6a ed bd b8 b2 43 3e ed 8b 10 3e 5d 5c 29 be
       -0.115925714 0.19111145 0.14115877 -0.1653914
0001d0 74 e8 86 bd 6c 76 79 ba 69 cb 19 3d fd 04 47 3d
       -0.06587306 -0.00095162424 0.037547503 0.04858874
0001e0 53 80 9f 3d db 00 41 3c b2 66 d5 bd 51 56 eb 3d
       0.07788148 0.011779989 -0.10419978 0.11491073
0001f0 2e a3 5c be 20 14 e5 bd 01 e2 2e bd 3f 05 b6 bd
       -0.21546623 -0.11185479 -0.042696003 -0.08887719
000200 57 96 67 bd b5 58 37 be 1b ab 56 bd 8a 47 44 3d
       -0.05653986 -0.17904933 -0.052409273 0.047919787
000210 fa 22 0a be 16 8b 8f bb 22 4a 0a 3e e9 e8 b1 bc
       -0.13489905 -0.004380594 0.13504842 -0.021717506
000220 97 05 d8 3b 4d 90 99 bc 97 89 42 3d 31 0c 0a 3e
       0.0065924632 -0.018745566 0.047494497 0.13481213
000230 9b a1 56 3e 6a a7 08 3e ef 70 42 3e a9 a9 86 bc
       0.20960085 0.13345113 0.18988393 -0.016438322
000240 6b 7a 3d be ae 9c be bd 1f 85 10 3e 07 30 7f bc
       -0.1850373 -0.09307228 0.14113282 -0.015575415
000250 e1 c2 b1 bd b7 84 26 be a8 72 47 be a4 d4 37 be
       -0.08679748 -0.16261564 -0.19477332 -0.1795221
000260 5e bd 46 bd a1 4e f4 3d ad cd eb 3d ee 56 4e be
       -0.04852044 0.1192906 0.11513839 -0.20150349
000270 71 ec 04 3e 76 18 29 be 41 64 14 bd af e9 aa bd
       0.1298082 -0.16513237 -0.036228422 -0.08345353
000280 f1 7d 21 bd b6 03 20 bd cd a8 3f be 09 26 35 be
       -0.039426748 -0.03906604 -0.18716736 -0.1769029
000290 27 ad 1d bd e0 7e 07 3a 82 1f be bd a6 b8 9e 3d
       -0.03849521 0.0005168747 -0.092833534 0.07750063
0002a0 ba d6 3a be 40 05 47 bc 41 89 3d 3e 89 1d dc bd
       -0.18245974 -0.012147248 0.1850939 -0.10747821
0002b0 61 19 51 3e ea 6f 87 3d 58 74 48 be e4 6a eb 3d
       0.20419838 0.06613143 -0.19575632 0.11494997
0002c0 43 6f 30 bd 83 60 99 bd 4d 79 30 3e bc af 32 be
       -0.043074857 -0.07489111 0.17233773 -0.1744985
0002d0 ca f0 b8 3c b7 0a 56 bd cc 09 24 3e 06 a5 66 3d
       0.022575755 -0.052256312 0.16019362 0.056309722
0002e0 5d db cc 3d fb eb 99 3d e4 15 66 bd 6e 7f 38 bd
       0.10002778 0.07515713 -0.05617322 -0.0450434
0002f0 2e 8c 42 be f4 a8 d2 3d 48 16 2e 3e 68 b8 12 3e
       -0.18998787 0.102861315 0.17000687 0.14328158
000300 29 22 0f be e0 bb c7 3a 11 d0 0c be 22 8e 04 be
       -0.13977875 0.0015238486 -0.13751246 -0.12944844
000310 e6 35 dd bd 9e ea 82 3d bf 67 0a be 91 9b 3e bc
       -0.10801296 0.06392406 -0.13516138 -0.01163377
000320 a5 3b 19 bc 99 53 18 3e bd 5d 1b be 8f 0f 14 be
       -0.009352599 0.1487564 -0.15172477 -0.1445906
000330 e1 3c f8 bd db dc 0f 3e ff 8b 75 bd c3 cc 32 3e
       -0.12120987 0.14049093 -0.059947964 0.17460923
000340 94 65 9a 3d a3 18 ee 3c 73 e4 dc bb bd 46 37 bd
       0.07538906 0.029064482 -0.0067411005 -0.044745196
000350 7b 22 74 3b 21 a5 61 bd 45 79 bf 3b 05 8a e1 3c
       0.0037251997 -0.05508912 0.005843314 0.027531633
000360 ba b6 1d be 81 45 d6 bd aa c6 2d 3e 4a 55 42 be
       -0.15401736 -0.104624756 0.16970316 -0.18977848
000370 3a 1b 40 3c 43 e7 43 3e 19 25 81 3d 8c cd 2f bc
       0.011725241 0.19131188 0.06305904 -0.010730159
000380 20 2c 4b be c1 77 ec 3d 1a a0 04 be 7a 32 83 bd
       -0.19841051 0.11546279 -0.12951699 -0.06406112
000390 e4 23 87 bd ce 03 27 bd 28 94 74 3c c5 51 2a 3e
       -0.065986425 -0.040775113 0.014927901 0.16632755
0003a0 e4 98 cf 3c 66 32 3b 3e 50 21 f1 3d 2d 1b 0c be
       0.025341459 0.18280944 0.11773932 -0.13682242
0003b0 5a b8 89 3d 5a ba 17 be 35 62 a0 bd 96 36 7e 3d
       0.067246154 -0.14817181 -0.078312315 0.062063776
0003c0 b4 e4 84 3d b4 78 1d 3e ff e8 86 bd c8 cc 28 3b
       0.06488934 0.15378076 -0.06587409 0.0025756825
0003d0 c2 66 cd 3d 01 a6 47 be b5 91 18 3e 32 65 2a be
       0.10029365 -0.19496919 0.14899333 -0.16640165
0003e0 f4 d2 c8 3b d9 f6 14 bd a4 49 e4 bd ce d8 ce 3c
       0.006128663 -0.036368225 -0.11146858 0.025249865
0003f0 a1 b2 2b 3e 7e 20 71 bd 6f b4 fb bd 7d 24 9a bd
       0.1676736 -0.058868878 -0.12290274 -0.07526491

transformer_encoder.layers.0.self_attn.out_proj.bias f4 [24]
000000 04 39 60 3c a7 62 14 bb e9 3d c7 bb e3 01 49 39
       0.013685469 -0.002264181 -0.0060803783 0.00019169557
000010 9d 7e 3a bc f6 01 37 bc b1 b8 3e 3b be 9e fc 3b
       -0.011382726 -0.011169901 0.0029101784 0.007709353
000020 8e 51 10 3c 6e ac 95 3c 64 24 e3 bb 74 f5 80 3c
       0.008808507 0.018270697 -0.0069318283 0.015742041
000030 de 36 86 bc f9 9f a0 bc e6 fc 23 bc 2b 04 48 bb
       -0.016383585 -0.01960753 -0.010009026 -0.0030520062
000040 58 8a ef 3a e8 40 10 bc 6b 06 a4 3c b0 7c b0 bc
       0.0018275483 -0.008804537 0.020022592 -0.02154383
000050 67 f3 57 3c e7 9e 84 3c dd 87 11 3c 95 82 92 bb
       0.01318059 0.016189052 0.00888249 -0.004471133

transformer_encoder.layers.0.linear1.weight f4 [512, 24]
000000 d4 ab ca 3b f1 bf 71 3d ee 8e 5a 3d 92 85 ee bd
       0.0061850343 0.05902094 0.053358965 -0.1164657
000010 c6 7d 01 be 0f 31 3c be 8d 77 22 ba 11 af 83 3d
       -0.12645635 -0.1837809 -0.0006197624 0.06429876
000020 21 ec 7b bc e6 37 4b 3e 3b 4e 1c bd ff df 06 be
       -0.015376122 0.19845542 -0.038160544 -0.13171385
000030 7b a3 08 3d 25 29 6b bd 84 8d ec bc da c1 4a 3e
       0.033359032 -0.057412285 -0.028876074 0.19800511
000040 26 52 ee bb 96 b8 38 3e 2d ae de 3c 97 3b 9a bd
       -0.0072729765 0.18039164 0.027182663 -0.07530897
000050 74 8c 18 3e 08 73 ec bd 00 bf b8 3b a8 81 3e 3d
       0.14897329 -0.11545378 0.0056380033 0.04651037
000060 62 32 be 3d d0 8c 3f be d0 ce 43 3c 49 c4 55 bd
       0.092869535 -0.1870606 0.011951163 -0.052189145
000070 68 32 06 3e 51 34 8d 3d 67 f4 a2 3d 50 49 fa 3d
       0.13105166 0.06894744 0.07956772 0.122210145
000080 aa 02 35 bd d1 fe 3c bc 07 b2 25 3e e3 dc 29 be
       -0.044191994 -0.011535362 0.16181193 -0.16588168
000090 28 c5 10 be 4b b4 4f 3c 94 93 a4 bd e6 2e 40 3c
       -0.14137709 0.012677263 -0.08035961 0.011729931
0000a0 1e 0c 39 3e 55 0c d5 bc e3 1b 32 be 17 90 c0 bd
       0.18071029 -0.026006857 -0.1739345 -0.09402483
0000b0 04 ca 40 3e 96 cc 38 bd c2 c1 b2 bd 52 9f be 3d
       0.18827063 -0.045116983 -0.087283626 0.09307732
0000c0 ed d3 d5 3c 48 31 37 be fb 62 2f 3e 45 00 ed 3d
       0.02610203 -0.17889893 0.17127602 0.11572317
0000d0 5d fc 34 3e 8b 4c b4 3d 9b bd 90 bd 4d 9e 85 bd
       0.17674394 0.08803662 -0.070674144 -0.06524334
0000e0 b0 db cc 3d 72 e1 20 bd 4b 37 22 3d 24 f4 4a be
       0.100028396 -0.0392775 0.039603513 -0.19819695
0000f0 b5 22 d2 bd 5b 64 94 3d 6f 4a 40 bc 4a de c8 bd
       -0.10260526 0.07245704 -0.011736496 -0.09808023
000100 23 6a 38 be b8 a9 05 3e 02 1f 23 bd b2 33 4e be
       -0.18009238 0.13053024 -0.039824493 -0.20136908
000110 a5 3c 4b 3e de bd ce 3d 45 0d f9 bd 67 e2 16 be
       0.19847353 0.10094808 -0.12160734 -0.14734803
000120 32 2b 49 3e 69 ef 8d 3a bb e4 fb bd 3c 71 f0 3d
       0.19645384 0.0010828796 -0.12299486 0.11740348
000130 3f b3 2e bd 63 54 5f 3c d5 15 d8 bd 67 d1 31 be
       -0.04265141 0.013630959 -0.10551039 -0.17365037
000140 8f 8e 0b be 3b 76 a3 bc 5b 18 18 be a8 9c 4f 3e
       -0.136286 -0.019953838 -0.14853041 0.20274603
000150 5d 09 97 3a 9c e2 9e bd f2 54 a4 3d 87 de 38 be
       0.0011523176 -0.07758066 0.080240145 -0.18053637
000160 e9 42 d7 bd f8 8f 9e 3d f2 5a 32 be 12 c2 d0 3d
       -0.10510809 0.077423036 -0.17417505 0.10193266
000170 06 17 85 3c a9 2f 2e be c8 6e 4f be 10 37 85 3d
       0.01624633 -0.17010368 -0.20257103 0.06504643
000180 5a c9 c2 3d 6b 0e 2c bd ae 97 39 be e1 92 ee bd
       0.09511061 -0.042005938 -0.18124267 -0.11649109
000190 2b d2 b6 3c ad 3e c1 3b 08 d3 5f 3d 2d 28 19 3d
       0.022317013 0.005897364 0.054644614 0.03739183
0001a0 be 77 47 bc 84 de d6 3d 81 1b 4e 3e 88 bc 2f 3e
       -0.012174545 0.1049166 0.2012768 0.17161763
0001b0 d4 0b 3f 3e c6 c1 88 bd e2 dd 90 bd 34 24 be bc
       0.18656856 -0.06677584 -0.07073571 -0.023210622
0001c0 66 2b 71 3d 66 29 af 3d cb 61 8e bc 81 bf 05 be
       0.05887928 0.08552818 -0.017380616 -0.13061334
0001d0 19 62 1d be 4b 34 48 3e bf 49 71 bd 0f b6 ee bc
       -0.15369453 0.19551198 -0.05890822 -0.029139547
0001e0 64 3d 00 be ab 26 d1 bd 0d 8d 3d 3d 52 2d ae 3d
       -0.12523419 -0.102124535 0.046277095 0.08504738
0001f0 67 5d a5 bd 39 3d 97 bd 1d ce 22 3e ff 3f db bd
       -0.08074456 -0.07384724 0.15898938 -0.10705566
000200 21 96 1b be f6 a2 0a bd c3 5b 47 3e 85 b3 2d 3d
       -0.15193988 -0.033846818 0.19468598 0.04240753
000210 0e 68 f4 3c 4a 81 d0 bc 92 90 04 3e f0 d4 cb bd
       0.029834773 -0.025452275 0.12945774 -0.09952724
000220 b0 89 0f 3e c8 cd 3e 3d 94 3f b7 3c a2 c6 e8 3c
       0.14017367 0.046582967 0.022369184 0.028415028
000230 5b e6 01 be da 4f 1b 3e a3 59 e0 3d 42 eb 22 be
       -0.1268553 0.1516718 0.10954597 -0.15910056
000240 0a 74 42 be 71 45 5a bd f0 78 0c 3e dc 5d cc bd
       -0.18989578 -0.05328888 0.13718009 -0.0997884
000250 fc 2f 40 3e 04 61 d5 bd e1 36 3f be 2b 80 b8 3d
       0.18768305 -0.10418895 -0.18673278 0.09008821
000260 7a f6 f9 bd 6f 34 f3 bc 22 96 84 bd cf 85 76 bc
       -0.12205215 -0.029688088 -0.06473948 -0.015046551
000270 f0 83 38 be 51 43 41 be 44 ec af 3d 65 9a b9 bc
       -0.1801908 -0.18873335 0.08589986 -0.022656629
000280 d6 7d 00 be c9 c1 65 bb b3 f3 3d be 5d 41 59 3d
       -0.12548003 -0.0035058132 -0.18549995 0.05304085
000290 43 20 c7 3d 6c d5 4d 3e 78 b1 29 be f7 7b bc bc
       0.0972295 0.20100945 -0.16571605 -0.02300833
0002a0 c3 d4 e0 3d 2f 19 3d 3e f2 c1 15 be b6 0c b3 3d
       0.10978081 0.18466638 -0.14624766 0.08742659
0002b0 e8 a1 aa 3d 95 63 fc 3d 4d 50 0f be cd a2 15 3e
       0.083316624 0.12323681 -0.13995476 0.14612885
0002c0 20 6f b9 bd c3 9e 04 be 3d 48 33 3d 0e 90 31 3e
       -0.090543985 -0.12951188 0.043770064 0.17340109
0002d0 9d 20 09 be c3 a6 e3 3d ac b2 c0 bc d0 e6 85 3d
       -0.13391347 0.11115792 -0.023522697 0.065381646
0002e0 00 1b 23 3e 58 9a 6e 3d 30 7b 2d be d1 8c 78 bd
       0.15928268 0.058252662 -0.16941524 -0.060681168
0002f0 7e 29 22 3d 15 79 2e be 6a 44 01 3d dd b6 e1 bd
       0.03959035 -0.17038377 0.031559385 -0.110212065
000300 25 30 2f bd 51 ba 89 3d b0 f4 27 be f2 cc fc bd
       -0.042770524 0.0672499 -0.16401935 -0.12343778
000310 3c 17 c0 3d 59 8a 53 be 47 ad 10 3e f1 9d 19 be
       0.093794316 -0.20658244 0.141286 -0.15001656
000320 7e 5e ee bb c4 54 e8 3c 46 ff b7 3d bd ad 03 be
       -0.007274448 0.028360732 0.089842364 -0.12859245
000330 a3 37 f8 3c 11 94 b9 3d 8b 05 31 3e 49 16 1d be
       0.030299967 0.090614446 0.1728727 -0.15340532
000340 ba 24 d8 bd 41 14 84 3d 31 c1 07 bb c6 b3 0d be
       -0.1055388 0.064491756 -0.0020714516 -0.1383811
000350 ac d3 2d be 27 ab 35 be 04 50 18 be 62 ff b6 bd
       -0.16975278 -0.1774107 -0.14874274 -0.08935429
000360 f2 2e 0f be 9a 5b 36 be 31 67 a2 3c 20 e9 f9 3d
       -0.13982752 -0.1780838 0.019824596 0.12202668
000370 b7 1d c8 bd 4a f5 96 3c e5 c7 bd bb c0 1a c4 3d
       -0.09771293 0.01842751 -0.0057916516 0.09575415
000380 e8 7b 0d be 78 36 6f 3c 46 0c 3f 3e ff ad 15 3e
       -0.13816798 0.014600389 0.18657026 0.14617155
000390 89 2a 53 be 06 46 14 bd ed c4 36 ba 46 cd 89 bd
       -0.20621695 -0.036199592 -0.0006972093 -0.06728606
0003a0 3f ba 0b be 87 21 12 be 2e 70 0c 3e 55 02 8d bd
       -0.13645266 -0.14270602 0.13714668 -0.068852104
0003b0 69 b3 3f bc 71 17 7e 3d 44 43 fb bd ea d1 a7 3c
       -0.01170049 0.062034074 -0.12268689 0.020485837
0003c0 59 6f f8 3d c5 5a f4 bd f3 67 77 3d 58 cb d5 bb
       0.12130613 -0.119313754 0.060401868 -0.0065244846
0003d0 ec 09 e5 3d cb c2 0a 3e 75 86 5b 3d de 4d bf 3b
       0.11183533 0.1355087 0.053595025 0.00583814
0003e0 33 30 33 be 4c 6f a5 3d 9d 98 fe 3d 8c 35 99 bd
       -0.17498855 0.08077869 0.124314524 -0.074809164
0003f0 cb 3f 4f be 47 57 29 3e af 29 43 bd c2 ff 26 3d
       -0.20239179 0.165372 -0.047647174 0.040771253

transformer_encoder.layers.0.linear1.bias f4 [512]
000000 9e 05 1e bd e4 34 0c be 7f 71 29 be 66 db be bd
       -0.038579576 -0.13692051 -0.16547202 -0.09319191
000010 e8 5a b1 3d 84 9a 3e 3d 86 63 7b bd 36 88 8e bd
       0.08659917 0.046534076 -0.06137421 -0.06959574
000020 4e 5e 41 bd 3c 50 0d be 1a 24 41 3e 8f fd 38 be
       -0.047209077 -0.13800138 0.18861428 -0.18065475
000030 76 3d c3 bc 34 2c e2 3c 2f 34 85 3a 15 a5 07 bc
       -0.023833018 0.027608968 0.0010162647 -0.008279105
000040 1c 6d 26 be c8 93 b6 bd 7a 7b e9 bd 5d a3 3e 3e
       -0.1625256 -0.08914906 -0.114005044 0.18617006
000050 20 ba 81 bd bd ac 16 be 38 e0 10 be fe 53 17 be
       -0.06334329 -0.14714332 -0.14148033 -0.14778134
000060 ad ad 19 bd d1 6b b0 bd a8 95 16 be d8 d3 90 bd
       -0.037519146 -0.08614314 -0.14705527 -0.07071656
000070 cb 80 25 3e d4 f4 39 be aa e9 79 bc 26 f9 45 3e
       0.16162412 -0.18159801 -0.015253464 0.19333324
000080 20 99 06 3e 82 6d 46 3d 70 6a ae 3d a9 24 8e bd
       0.1314435 0.04844428 0.08516395 -0.06940586
000090 dc 0d 22 be 62 05 00 be 48 22 f3 bd 10 5e 18 3e
       -0.158256 -0.12502053 -0.11871773 0.14879632
0000a0 85 18 0c 3b fb 9b 29 be a9 9b 1c be a6 9c 61 bc
       0.002137692 -0.16563408 -0.15293755 -0.013770258
0000b0 41 5f ee 3d 36 b7 c9 3c 1c 2f 14 3d cb c7 3e bd
       0.11639262 0.024623495 0.03617774 -0.046577256
0000c0 f8 be 2b bb e4 3d f5 3d d1 84 88 3d 86 76 8a bd
       -0.0026206356 0.11974695 0.06665958 -0.06760888
0000d0 a9 07 53 3e a6 07 13 3e fa 34 8f 3d d9 e8 c6 3d
       0.20608391 0.14358386 0.06992526 0.09712381
0000e0 ed fd 0b 3e 95 8b f2 bc 11 f8 16 3d fd 4e 86 bd
       0.13671084 -0.029607574 0.03685767 -0.065580346
0000f0 d2 b0 80 bd 4f 82 08 3c a2 b4 0c be 03 d5 38 3e
       -0.06283726 0.008331849 -0.13740781 0.18050008
000100 b2 85 0b be 08 c0 05 be 36 4c e7 bc 4d 52 09 3e
       -0.1362522 -0.13061535 -0.028234582 0.13410302
000110 27 88 cf bd 28 6a 58 bc fe b6 e8 3d 38 ff 36 be
       -0.10133391 -0.013208903 0.11363028 -0.17870796
000120 8e 96 41 3e ff 64 e5 3d 09 01 8d 3d ef 89 d6 3a
       0.18905088 0.11200904 0.06884963 0.0016368012
000130 b2 0b f8 3d e8 fb 62 bd df aa a2 3c b9 27 1b 3e
       0.12111606 -0.055416018 0.019856868 0.15151872
000140 7f 43 e9 bd 84 f3 68 3c a4 e1 14 3e bb dc 92 3c
       -0.11389827 0.014218215 0.145392 0.017927518
000150 9c 77 f9 bd b7 1d 1b 3d e8 24 31 bd d0 7b 32 be
       -0.12181017 0.037870135 -0.043248087 -0.17430043
000160 8e 38 6b 3b d4 ac 0e 3c cc 58 08 3e 7e 6d 10 bc
       0.0035891864 0.008708198 0.13315123 -0.0088151675
000170 9d 8f 16 be 4f cf 35 3e 62 b6 36 3d cb 53 6b bd
       -0.14703222 0.17754863 0.044607528 -0.057452958
000180 17 83 fd 3d 16 3f 18 3e 0b aa 15 3e 43 38 24 3e
       0.12378519 0.14867815 0.14615647 0.16037087
000190 11 c0 a5 bd 68 dc 40 3e 69 37 00 3e 8a 13 0c be
       -0.080932744 0.18834078 0.12521137 -0.13679329
0001a0 60 ab cb 3d b9 56 eb bd fb 45 b7 3d 8a ee ef bd
       0.099447966 -0.114911504 0.089488946 -0.117154196
0001b0 4e d1 cd 3d b7 fc ac bd fc b1 37 3d ae 25 24 bd
       0.10049687 -0.08446639 0.044847474 -0.040074997
0001c0 86 58 dd 3d 02 ea 0d bb 6d e9 c1 3d b0 d4 9f bd
       0.108079 -0.0021654372 0.094683506 -0.07804239
0001d0 4c d0 c2 3d dc 02 e2 3d 44 bc 6a 3c 87 fe 7e bd
       0.09512386 0.11035702 0.014327113 -0.062254455
0001e0 47 71 fd 3c a9 bc 40 be e8 64 5f bc f9 79 2e 3e
       0.030937804 -0.18821968 -0.013634898 0.17038716
0001f0 c6 ab d1 3d 0c a6 b7 bb 4c 5c d6 bd d7 56 30 3d
       0.10237841 -0.005604511 -0.10466823 0.043051567
000200 32 fe 37 3e 06 78 d0 3d 54 a4 48 3b 03 db 80 3d
       0.17968062 0.10179143 0.0030615525 0.06291773
000210 97 41 86 3c 4f d3 45 bd ed 86 19 be 28 a7 c5 bd
       0.016388698 -0.048297223 -0.14992876 -0.09651023
000220 b3 62 b1 bd 2e 94 f6 bd 39 02 49 3e 6f d1 31 be
       -0.086614035 -0.12039982 0.19629754 -0.17365049
000230 fe 30 42 3c d5 e4 40 3c 20 ad d0 bd 81 e9 cc bc
       0.011852501 0.011773308 -0.10189271 -0.025013687
000240 88 0e 9a 3d aa a7 13 be 00 58 89 3d 00 8e 3a bc
       0.07522303 -0.14419428 0.06706238 -0.0113863945
000250 a1 1d c8 bd 34 bd 1f be e9 4c a2 bc f8 71 c3 bd
       -0.09771276 -0.15599519 -0.019812064 -0.09543222
000260 34 a3 8f 3d 2b d0 50 be 13 e4 1e 3e 69 14 4a 3e
       0.070135504 -0.2039191 0.15516691 0.19734348
000270 4a d2 8a 3c e6 77 0e be 3d f6 49 be 54 99 c6 3d
       0.016945977 -0.13912925 -0.19722839 0.09697214
000280 d9 c6 8e 3d 36 6c 2d 3e 52 32 dd bd 06 55 ec 3d
       0.06971521 0.1693581 -0.108006135 0.115396544
000290 d5 cc a9 bd 9a 4c 1d be a8 62 8b 3c eb 92 6d bd
       -0.08291022 -0.15361252 0.017014816 -0.05800144
0002a0 fb 46 bf 3d 5c e8 df bd c7 e5 08 3e 17 4c 17 be
       0.0933971 -0.10932991 0.13368903 -0.1477512
0002b0 48 c3 50 3d dd fa 0a 3e 6d fb 69 bd ef 63 44 be
       0.050967485 0.13572259 -0.057124544 -0.19178747
0002c0 9e 04 9f 3d e2 e9 35 be 0b 95 da bd 41 e7 bd bd
       0.077645525 -0.17765 -0.10672959 -0.09272624
0002d0 15 3c dd bd 96 aa 3f 3e 13 83 1c be 53 ed 1e 3e
       -0.10802475 0.18717417 -0.15284376 0.1552022
0002e0 bc a9 07 be d7 dc 28 3e b6 45 8a bd 22 57 0d bd
       -0.13248342 0.16490494 -0.067515776 -0.034506924
0002f0 f8 43 13 be 7c e2 bf 3c a2 4e a5 bd ec c6 42 be
       -0.14381397 0.023423426 -0.08071639 -0.19021195
000300 24 12 cd 3d 65 c1 8a 3d f3 be 0a be 4c 8f 45 3e
       0.10013226 0.06775168 -0.13549404 0.19292945
000310 26 01 aa bc a2 28 07 3e 35 0e 96 bd 2f 8f 4e be
       -0.0207525 0.13199094 -0.073269285 -0.20171808
000320 e4 54 c7 bd fe e5 20 be 76 c0 3d 3e e8 59 2a 3e
       -0.097329885 -0.15712735 0.1853045 0.16635859
000330 b7 2c 1d bd e7 43 4e be 2b 97 01 3e 51 5f 89 3d
       -0.03837272 -0.2014309 0.12655322 0.06707633
000340 ef 4b 08 3e da 34 25 3d 83 b2 b2 3d 7c fb 5d bc
       0.13310216 0.040333606 0.08725455 -0.013548728
000350 7e 7e 4f 3e ed ca 16 bd 56 70 c0 3d 19 af 4a be
       0.20263097 -0.03681462 0.093964264 -0.19793357
000360 fa 3c ec bc ce e1 cf 3c 04 e2 2c 3e 62 f2 e3 3d
       -0.02883767 0.025376227 0.16883093 0.11130215
000370 be 60 4c 3e 59 36 d9 3c 10 cf 89 bd 5c 0b 12 3c
       0.19958779 0.026515173 -0.06728947 0.008913841
000380 01 e0 70 bb a5 c0 78 3d c1 04 26 3d e9 ae bc bd
       -0.003675461 0.060730595 0.040531877 -0.09213049
000390 c2 ca b3 3d 59 82 bd 3c e9 ec 11 be 22 96 cb 3b
       0.08778907 0.023133444 -0.1425053 0.0062129656
0003a0 2c a1 15 be 09 20 35 bb 12 26 64 3d 0f 7a 51 be
       -0.14612263 -0.0027637503 0.05570037 -0.20456718
0003b0 d1 52 12 3e a2 da bb bd 86 37 16 bd 39 f6 40 bd
       0.14289404 -0.0917256 -0.036674045 -0.047109816
0003c0 82 56 23 3e e1 18 01 be 16 99 4e be 4b 64 40 be
       0.15950969 -0.12607147 -0.20175585 -0.18788259
0003d0 fe 33 c0 3d fb ba 90 bd 61 4a f9 3c e0 c6 cb 3d
       0.09384917 -0.07066914 0.030430974 0.09950042
0003e0 e3 c6 9e 3b 13 ce 50 3e 65 45 a8 3d 68 7b 48 be
       0.0048454865 0.20391111 0.08216361 -0.19578326
0003f0 85 85 24 be 67 69 3b be c3 ef 0d be 87 df 4d bd
       -0.16066559 -0.18301927 -0.13860993 -0.050262

transformer_encoder.layers.0.linear2.weight f4 [24, 512]
000000 69 fc 15 3c a7 f1 51 3c dc f2 2d bd 19 92 9c 3c
       0.009154418 0.012813962 -0.042467937 0.019112634
000010 f3 13 3a bc 08 05 62 bc e1 16 22 bb 83 6f 8e 3c
       -0.011357295 -0.013795145 -0.0024732875 0.017387157
000020 a6 4c d2 3c f7 6f 36 bd 81 33 28 39 fd 72 2a bd
       0.025671314 -0.04454037 0.00016040915 -0.041613568
000030 54 91 ec 3b b6 c0 02 bc b3 17 a7 bb c5 d2 29 bd
       0.007219473 -0.007980516 -0.0050992607 -0.04146077
000040 3b c0 db 3c ad 97 d0 bc 9d f4 96 bb 5a 9c 19 bd
       0.026825061 -0.02546295 -0.004606797 -0.037502624
000050 f3 19 08 3d 74 98 09 3c 44 83 c7 39 18 98 05 3d
       0.033227872 0.008398164 0.00038054038 0.03261575
000060 f7 e4 4f 3b d9 45 f0 3c 12 b5 0f bd bd a6 aa bb
       0.0031722167 0.029330181 -0.03508479 -0.005207865
000070 d5 5f d9 bc fa cd 70 3c 9f f4 2b bd 4f 0c 45 bc
       -0.026534954 0.014697546 -0.041981336 -0.01202686
000080 82 0f e8 3a 44 53 31 3d 95 81 61 bc 6e 3e cb bc
       0.0017704817 0.0432923 -0.013763805 -0.024810042
000090 bf c0 e5 bc 36 b1 93 bc 27 35 07 bc a0 1a 0a 3d
       -0.02804601 -0.018028837 -0.008252419 0.033716798
0000a0 12 60 52 bb d5 66 bc bc 66 66 3f ba e4 3b 12 bd
       -0.003210072 -0.022998253 -0.00073013303 -0.035701647
0000b0 f9 c2 a3 3a b4 3a ef bc 6a 60 1d 3d 07 c9 1d 3d
       0.001249402 -0.029202797 0.038422026 0.038521793
0000c0 81 b7 e0 bc dd a9 89 3c 37 31 38 bc f6 03 78 bc
       -0.027431251 0.01680463 -0.0112422025 -0.015137663
0000d0 f1 53 1c 3d 6d e1 27 3d 96 3f 06 3d 23 88 2a bd
       0.03816599 0.040986467 0.032775484 -0.041633736
0000e0 d0 ea 3a 3c 84 41 bf 3c d0 4e 94 3c 45 8d ee bc
       0.011408523 0.02334667 0.018103987 -0.029120097
0000f0 71 2a 82 3c ba 0a 7e bc 93 55 bb 3b 09 cd 1b bc
       0.015889378 -0.015505487 0.0057169884 -0.009509333
000100 f6 86 a0 3b fe 44 b3 bc f9 2d 8e 3c 6e 67 7a bc
       0.004898901 -0.021883484 0.017355906 -0.015283449
000110 9e 7c 5b bc fa 33 9a 3c a1 d8 89 3c c4 68 af 3c
       -0.01339641 0.018823612 0.01682693 0.02141226
000120 45 59 65 3c 7a e4 83 bc 04 cb f2 bb 8b b6 e7 3c
       0.013998334 -0.016100157 -0.0074094553 0.028285285
000130 97 2c 37 bd 1e 16 e6 3c 51 9b d6 3c 5a 56 06 3c
       -0.04472026 0.028086718 0.026197108 0.008199299
000140 a6 5c e4 3c 56 39 34 3d 57 72 0c bc b1 af c5 bc
       0.02787621 0.043999992 -0.008572183 -0.024131628
000150 86 b8 f3 bc df 01 92 3c ca 66 c1 bc 2e c2 7f 3b
       -0.029751074 0.017823158 -0.023608584 0.0039025652
000160 11 4d 8e bb df 91 00 bd d7 26 34 3c c9 e9 a3 bc
       -0.004342683 -0.031389114 0.010995588 -0.020008938
000170 38 e1 f6 3b 3d 1f ab 3c e5 ae 55 bc a5 f2 2f bc
       0.0075341724 0.020888919 -0.013042186 -0.010739003
000180 f6 b2 e7 bb c4 0a 19 ba 62 fc 1a 3c 25 0a e9 3c
       -0.0070708944 -0.0005838091 0.009459587 0.02844722
000190 91 b2 2b bd 70 d0 16 3d f8 2c 3a 3d 47 79 d4 bc
       -0.04191834 0.036819875 0.04545304 -0.025936736
0001a0 ad 06 c3 3c 4a 4c 29 3c 13 00 00 bd d6 1f 04 3b
       0.023806894 0.01033313 -0.03125007 0.0020160577
0001b0 16 a2 37 bc 5a 51 14 3d 60 53 98 bc f1 24 30 bc
       -0.011208078 0.036210395 -0.018594444 -0.010750995
0001c0 07 cf 26 3d 3d 48 be bc 7f 15 28 bd 67 2c 16 3d
       0.04072478 -0.023227805 -0.041036125 0.03666344
0001d0 cf d9 b8 3b 4b 02 82 3c 9d 0e 08 3c 6f 06 bf bc
       0.005641199 0.015870234 0.008304265 -0.023318497
0001e0 92 55 3d 3c dc 03 89 3c 86 3e 50 3b 2c 0d c7 3c
       0.011556046 0.016725473 0.0031775548 0.024298273
0001f0 81 6a f6 bc 77 8b 5e 3c 9c f0 35 3d 38 d4 79 bb
       -0.030080082 0.013583056 0.044418916 -0.0038120877
000200 46 3e 30 3d 66 7f fc bb 94 4f 9a bc d9 2f 27 3b
       0.04302814 -0.0077056168 -0.018836774 0.0025510697
000210 19 d2 d6 3c 23 b6 78 3b 89 85 03 bd 81 a0 e9 3c
       0.02622323 0.0037950359 -0.03210977 0.028518917
000220 17 dc 6b 3c 76 37 d5 bc 09 2f 80 3c 07 47 20 3b
       0.014395735 -0.026027422 0.015647428 0.0024456398
000230 65 8a f7 3b a9 ab 30 bb aa 7d 0f 3d e8 48 0b bd
       0.0075543397 -0.0026957786 0.035031952 -0.034005076
000240 68 f5 5c ba 72 12 1e 3c d1 1f 76 bc 94 9d 56 bb
       -0.00084289024 0.009647952 -0.015022234 -0.0032747732
000250 57 93 28 bd 23 d3 65 3b d1 5a db 3a 14 ee 17 bc
       -0.04115614 0.0035068474 0.001673544 -0.009273071
000260 f9 ef 2f bd 9b 00 91 3c 86 db 94 bc f7 31 2c 3d
       -0.042953465 0.017700484 -0.018171083 0.042039838
000270 e3 57 29 3d 02 14 22 3d d4 70 12 3d ff 6d 14 3d
       0.04134358 0.039569862 0.035752133 0.036237713
000280 5f 11 40 bb 20 9a 9b 3c 4c 9f 6c bc 7d 31 47 bb
       -0.002930723 0.018994391 -0.014442276 -0.0030394488
000290 2c 53 02 bd 50 c2 b5 bb 25 8a 58 3b 6b 1a 0b bc
       -0.0318176 -0.0055468455 0.0033041325 -0.008490185
0002a0 01 dd 24 bd 85 8f 1a 3c 1f 43 e7 bb a6 46 94 bc
       -0.04024983 0.009433632 -0.007057562 -0.018100094
0002b0 d7 bf a1 bc 01 9e 89 bc 5e fa c1 3c b1 62 13 3c
       -0.019744797 -0.016798975 0.023678955 0.008995698
0002c0 e4 7e 00 bc ae c4 85 bc 2b bf a8 38 fc 8d f4 bc
       -0.007842753 -0.016329136 8.046472e-05 -0.02985286
0002d0 8e b4 2a 3d 80 26 f3 bc b3 2a 9b 3c 60 43 1a bd
       0.041676097 -0.029681444 0.018941259 -0.03766191
0002e0 9e 0b fe bc 46 96 36 bd ea 93 c4 bc fb 3c 19 bd
       -0.031011399 -0.044576906 -0.023996312 -0.03741167
0002f0 55 fe ca bc 81 ce 0d bc 94 18 6a 3c 50 6b 9b bc
       -0.024779478 -0.008655191 0.014288086 -0.018972069
000300 73 32 cd 3c 66 65 02 bd 5b aa 1a bd ff 83 fb bc
       0.02504847 -0.031834982 -0.03776012 -0.03070259
000310 b2 d0 15 bd b0 6b 63 3c 5d c8 01 3d fc 64 86 3c
       -0.03657598 0.013880655 0.031685222 0.016405575
000320 70 ce b7 3b 43 46 16 3d ae 90 e7 b9 47 84 a2 3c
       0.005609326 0.0366881 -0.00044167548 0.019838465
000330 a0 34 c3 bc b6 1e c1 3b 5e e7 31 bb b6 7c 14 3d
       -0.023828804 0.0058935536 -0.0027145962 0.036251746
000340 7e 7e 82 bc f0 5a dd 3c 9f 01 86 bb 06 cd 05 bd
       -0.015929457 0.027020901 -0.0040895487 -0.03266623
000350 cc 6a 8a bc 15 b6 28 bd c4 44 db 3c 9b 9b 93 3c
       -0.016896628 -0.041189272 0.026766188 0.018018534
000360 2d ae 0a bd ff 71 d2 bc 77 2e f6 3c df bf 01 3d
       -0.033857513 -0.025689123 0.030051453 0.031677123
000370 f0 da f0 3c b1 d4 f9 3c 7e 55 6d bc 8b 2f 31 3d
       0.029401273 0.030496927 -0.014485715 0.04325823
000380 19 28 31 bd 28 cb 6f bc 4c e1 7b 3c f3 2e 9c 3c
       -0.04325113 -0.014635839 0.015373539 0.019065356
000390 26 43 32 bc 6d 5b b2 bc b8 41 70 3c 19 d7 c1 3c
       -0.010880267 -0.02177211 0.014664106 0.023662137
0003a0 3b d6 95 3c 25 7e 96 3b 50 cb 2e 3c 81 78 09 bd
       0.01829063 0.0045926743 0.010668591 -0.033562187
0003b0 fa dc 1f bd 89 dd 15 bd 81 9b 12 3d 0e 4e c0 bb
       -0.0390291 -0.036588226 0.03579283 -0.00586868
0003c0 18 c2 4b 3c 1e 09 93 3c 90 4a d2 bc 77 fa d1 3a
       0.012436412 0.017948683 -0.02567032 0.0016020079
0003d0 4e bd 17 3d f7 64 60 3c 9a ba 11 3d 66 66 c8 3c
       0.03704577 0.013695947 0.035578348 0.02446289
0003e0 5c c8 ea bc c0 03 1a bd ec ec 17 bc fb c4 13 bd
       -0.028659992 -0.037601233 -0.009272795 -0.036076527
0003f0 63 a2 93 3c 4e 35 15 3d 36 f7 ed 3c 18 18 2c 3d
       0.018021768 0.03642779 0.029048543 0.042015165

transformer_encoder.layers.0.linear2.bias f4 [24]
000000 15 ba 90 ba 8c af 00 bd 01 02 31 bd 43 f1 17 bd
       -0.0011041785 -0.031417415 -0.0432148 -0.03709532
000010 b9 ad aa bc ee e1 09 3d ae 8e ee bc ca 06 f9 bc
       -0.02083479 0.03366273 -0.02912077 -0.030398745
000020 0e 2a 92 ba 6b 19 1b 3d 7a 6c b1 bc a1 04 37 3c
       -0.0011151449 0.037866037 -0.021658171 0.011170537
000030 9e e7 39 ba 04 b0 ad 3c cd 82 81 bc df ec 10 bc
       -0.00070917036 0.021202095 -0.015809441 -0.008845537
000040 4d 2a 2e bb 25 ce 7c 3b aa 76 4a 3d 80 34 86 bc
       -0.0026575506 0.003857502 0.049429573 -0.016382456
000050 78 9b d0 b9 93 b8 1d 3d af 0c ea bb 8a e6 30 b9
       -0.00039788685 0.0385061 -0.0071426253 -0.0001687055

transformer_encoder.layers.0.norm1.weight f4 [24]
000000 31 65 7a 3f 65 1c 7c 3f ae 4f 7a 3f d1 f5 7a 3f
       0.97810656 0.98480827 0.9777783 0.98031336
000010 78 b8 7c 3f 0b b5 80 3f 87 45 7d 3f 69 c1 7b 3f
       0.98718977 1.005525 0.98934215 0.98341995
000020 29 d1 80 3f a5 ee 82 3f 8d 27 81 3f 9e a6 81 3f
       1.0063831 1.0229079 1.0090195 1.0128973
000030 1c 85 84 3f 6c 30 84 3f 72 68 80 3f 5f 40 80 3f
       1.0353122 1.0327277 1.0031874 1.0019644
000040 8f db 7a 3f ff dd 7c 3f f4 e9 80 3f 46 f6 80 3f
       0.9799127 0.9877624 1.0071397 1.0075157
000050 c5 e1 7c 3f 07 5b 81 3f 28 61 80 3f 8a 56 7f 3f
       0.98781997 1.0105904 1.002965 0.99741423

transformer_encoder.layers.0.norm1.bias f4 [24]
000000 67 2c ae 3b 30 a8 6a bb 90 f4 a6 bb 4e fb 15 3b
       0.0053153518 -0.0035805814 -0.005095072 0.0022885385
000010 10 5b 48 bc d9 83 8c bb 6e 69 91 3a f5 73 fa 3a
       -0.012228742 -0.0042881784 0.0011094043 0.0019108044
000020 09 b0 a5 ba 8c 84 b4 3b b4 6a bd 3a a3 ae c8 3b
       -0.0012640964 0.005508965 0.0014451356 0.006124334
000030 43 58 7f bb 1c 1f bd bb c1 32 81 ba b9 27 bc b9
       -0.003896252 -0.005771531 -0.0009857045 -0.0003588775
000040 8e 04 3e 3a f9 46 89 bb 1f ba 7a 3c f8 7f 61 bc
       0.00072486035 -0.004189369 0.015303164 -0.01376342
000050 4d c0 93 3b 9c d5 f6 3b 32 3e 8c 3b 2b a4 d4 bb
       0.004509008 0.0075327884 0.004279875 -0.006489297

transformer_encoder.layers.0.norm2.weight f4 [24]
000000 3b b3 7c 3f d1 89 7d 3f c8 63 79 3f 2f 7d 7c 3f
       0.98710984 0.99038416 0.9741788 0.98628515
000010 5f 98 7e 3f 99 ff 80 3f d9 0c 7d 3f b8 43 79 3f
       0.9945125 1.0078002 0.9884773 0.97368956
000020 9b 15 80 3f be d3 84 3f 68 32 7e 3f d8 38 87 3f
       1.0006593 1.0377119 0.99295664 1.0564222
000030 4e fc 83 3f b4 31 83 3f 18 6c 7e 3f 3f a9 80 3f
       1.0311372 1.0249543 0.9938369 1.005165
000040 27 5e 75 3f b5 34 81 3f 23 4f 80 3f 0e a9 81 3f
       0.9584679 1.009421 1.0024151 1.0129716
000050 d1 a5 7c 3f ef c0 80 3f c5 05 80 3f 38 e9 7e 3f
       0.98690516 1.0058879 1.0001761 0.99574614

transformer_encoder.layers.0.norm2.bias f4 [24]
000000 1b fc 5c 3a 42 6a 9e bb 62 e5 b1 bb 62 fd 26 3a
       0.00084299006 -0.0048344443 -0.005428956 0.00063701544
000010 0a f0 b4 bb cf 23 a9 ba 37 cb b1 3b 89 c5 21 3c
       -0.005521779 -0.0012904349 0.0054258364 0.009873756
000020 83 35 c2 bb 31 79 2b 3b ba df 9d ba 14 e1 1d 3c
       -0.0059267893 0.0026164765 -0.0012044825 0.009636182
000030 45 bc 8a bb 23 8d b4 bb d8 70 20 bb 03 87 83 3a
       -0.0042338693 -0.005509989 -0.0024481323 0.0010034743
000040 ee de fe 3b 71 0a 79 bb 8e 6f 40 3c bf 35 0e bc
       0.00777804 -0.0038000608 0.011745347 -0.008679806
000050 9f c2 d4 b9 22 3b 95 3b 17 05 12 3b de ad 96 bb
       -0.00040580795 0.0045541683 0.0022280866 -0.0045983633
